<?xml version="1.0"?>
<net name="Model0" version="11">
	<layers>
		<layer id="0" name="pixel_values" type="Parameter" version="opset1">
			<data shape="?,?,?,?" element_type="f32" />
			<output>
				<port id="0" precision="FP32" names="39,input.1,pixel_values">
					<dim>-1</dim>
					<dim>-1</dim>
					<dim>-1</dim>
					<dim>-1</dim>
				</port>
			</output>
		</layer>
		<layer id="1" name="self.embeddings.class_embedding_compressed" type="Const" version="opset1">
			<data element_type="f16" shape="1, 1, 768" offset="0" size="1536" />
			<output>
				<port id="0" precision="FP16" names="self.embeddings.class_embedding">
					<dim>1</dim>
					<dim>1</dim>
					<dim>768</dim>
				</port>
			</output>
		</layer>
		<layer id="2" name="self.embeddings.class_embedding" type="Convert" version="opset1">
			<data destination_type="f32" />
			<rt_info>
				<attribute name="decompression" version="0" />
			</rt_info>
			<input>
				<port id="0" precision="FP16">
					<dim>1</dim>
					<dim>1</dim>
					<dim>768</dim>
				</port>
			</input>
			<output>
				<port id="1" precision="FP32">
					<dim>1</dim>
					<dim>1</dim>
					<dim>768</dim>
				</port>
			</output>
		</layer>
		<layer id="3" name="pixel_values/fq_output_0/input_low" type="Const" version="opset1">
			<data element_type="f32" shape="" offset="1536" size="4" />
			<output>
				<port id="0" precision="FP32" />
			</output>
		</layer>
		<layer id="4" name="pixel_values/fq_output_0/input_high" type="Const" version="opset1">
			<data element_type="f32" shape="" offset="1540" size="4" />
			<output>
				<port id="0" precision="FP32" />
			</output>
		</layer>
		<layer id="5" name="pixel_values/fq_output_0/output_low" type="Const" version="opset1">
			<data element_type="f32" shape="" offset="1536" size="4" />
			<output>
				<port id="0" precision="FP32" />
			</output>
		</layer>
		<layer id="6" name="pixel_values/fq_output_0/output_high" type="Const" version="opset1">
			<data element_type="f32" shape="" offset="1540" size="4" />
			<output>
				<port id="0" precision="FP32" />
			</output>
		</layer>
		<layer id="7" name="pixel_values/fq_output_0" type="FakeQuantize" version="opset1">
			<data levels="256" auto_broadcast="numpy" />
			<input>
				<port id="0" precision="FP32">
					<dim>-1</dim>
					<dim>-1</dim>
					<dim>-1</dim>
					<dim>-1</dim>
				</port>
				<port id="1" precision="FP32" />
				<port id="2" precision="FP32" />
				<port id="3" precision="FP32" />
				<port id="4" precision="FP32" />
			</input>
			<output>
				<port id="5" precision="FP32">
					<dim>-1</dim>
					<dim>-1</dim>
					<dim>-1</dim>
					<dim>-1</dim>
				</port>
			</output>
		</layer>
		<layer id="8" name="Constant_383949" type="Const" version="opset1">
			<data element_type="i8" shape="768, 3, 16, 16" offset="1544" size="589824" />
			<output>
				<port id="0" precision="I8">
					<dim>768</dim>
					<dim>3</dim>
					<dim>16</dim>
					<dim>16</dim>
				</port>
			</output>
		</layer>
		<layer id="9" name="Convert_383950" type="Convert" version="opset1">
			<data destination_type="f32" />
			<input>
				<port id="0" precision="I8">
					<dim>768</dim>
					<dim>3</dim>
					<dim>16</dim>
					<dim>16</dim>
				</port>
			</input>
			<output>
				<port id="1" precision="FP32">
					<dim>768</dim>
					<dim>3</dim>
					<dim>16</dim>
					<dim>16</dim>
				</port>
			</output>
		</layer>
		<layer id="10" name="Constant_383951" type="Const" version="opset1">
			<data element_type="f32" shape="768, 1, 1, 1" offset="591368" size="3072" />
			<output>
				<port id="0" precision="FP32">
					<dim>768</dim>
					<dim>1</dim>
					<dim>1</dim>
					<dim>1</dim>
				</port>
			</output>
		</layer>
		<layer id="11" name="__module.embeddings.patch_embedding/aten::_convolution/Convolution/fq_weights_1" type="Multiply" version="opset1">
			<data auto_broadcast="numpy" />
			<input>
				<port id="0" precision="FP32">
					<dim>768</dim>
					<dim>3</dim>
					<dim>16</dim>
					<dim>16</dim>
				</port>
				<port id="1" precision="FP32">
					<dim>768</dim>
					<dim>1</dim>
					<dim>1</dim>
					<dim>1</dim>
				</port>
			</input>
			<output>
				<port id="2" precision="FP32">
					<dim>768</dim>
					<dim>3</dim>
					<dim>16</dim>
					<dim>16</dim>
				</port>
			</output>
		</layer>
		<layer id="12" name="__module.embeddings.patch_embedding/aten::_convolution/Convolution" type="Convolution" version="opset1">
			<data strides="16, 16" dilations="1, 1" pads_begin="0, 0" pads_end="0, 0" auto_pad="explicit" />
			<input>
				<port id="0" precision="FP32">
					<dim>-1</dim>
					<dim>-1</dim>
					<dim>-1</dim>
					<dim>-1</dim>
				</port>
				<port id="1" precision="FP32">
					<dim>768</dim>
					<dim>3</dim>
					<dim>16</dim>
					<dim>16</dim>
				</port>
			</input>
			<output>
				<port id="2" precision="FP32">
					<dim>-1</dim>
					<dim>768</dim>
					<dim>-1</dim>
					<dim>-1</dim>
				</port>
			</output>
		</layer>
		<layer id="13" name="__module.embeddings.patch_embedding/aten::_convolution/Reshape_compressed" type="Const" version="opset1">
			<data element_type="f16" shape="1, 768, 1, 1" offset="594440" size="1536" />
			<output>
				<port id="0" precision="FP16">
					<dim>1</dim>
					<dim>768</dim>
					<dim>1</dim>
					<dim>1</dim>
				</port>
			</output>
		</layer>
		<layer id="14" name="__module.embeddings.patch_embedding/aten::_convolution/Reshape" type="Convert" version="opset1">
			<data destination_type="f32" />
			<rt_info>
				<attribute name="decompression" version="0" />
			</rt_info>
			<input>
				<port id="0" precision="FP16">
					<dim>1</dim>
					<dim>768</dim>
					<dim>1</dim>
					<dim>1</dim>
				</port>
			</input>
			<output>
				<port id="1" precision="FP32">
					<dim>1</dim>
					<dim>768</dim>
					<dim>1</dim>
					<dim>1</dim>
				</port>
			</output>
		</layer>
		<layer id="15" name="__module.embeddings.patch_embedding/aten::_convolution/Add" type="Add" version="opset1">
			<data auto_broadcast="numpy" />
			<input>
				<port id="0" precision="FP32">
					<dim>-1</dim>
					<dim>768</dim>
					<dim>-1</dim>
					<dim>-1</dim>
				</port>
				<port id="1" precision="FP32">
					<dim>1</dim>
					<dim>768</dim>
					<dim>1</dim>
					<dim>1</dim>
				</port>
			</input>
			<output>
				<port id="2" precision="FP32" names="46,patch_embeds.1">
					<dim>-1</dim>
					<dim>768</dim>
					<dim>-1</dim>
					<dim>-1</dim>
				</port>
			</output>
		</layer>
		<layer id="16" name="ShapeOf_9373" type="ShapeOf" version="opset3">
			<data output_type="i64" />
			<input>
				<port id="0" precision="FP32">
					<dim>-1</dim>
					<dim>768</dim>
					<dim>-1</dim>
					<dim>-1</dim>
				</port>
			</input>
			<output>
				<port id="1" precision="I64">
					<dim>4</dim>
				</port>
			</output>
		</layer>
		<layer id="17" name="Constant_9374" type="Const" version="opset1">
			<data element_type="i64" shape="1" offset="595976" size="8" />
			<rt_info>
				<attribute name="precise" version="0" />
			</rt_info>
			<output>
				<port id="0" precision="I64">
					<dim>1</dim>
				</port>
			</output>
		</layer>
		<layer id="18" name="Constant_9375" type="Const" version="opset1">
			<data element_type="i64" shape="" offset="595976" size="8" />
			<rt_info>
				<attribute name="precise" version="0" />
			</rt_info>
			<output>
				<port id="0" precision="I64" />
			</output>
		</layer>
		<layer id="19" name="Gather_9376" type="Gather" version="opset8">
			<data batch_dims="0" />
			<input>
				<port id="0" precision="I64">
					<dim>4</dim>
				</port>
				<port id="1" precision="I64">
					<dim>1</dim>
				</port>
				<port id="2" precision="I64" />
			</input>
			<output>
				<port id="3" precision="I64" names="38">
					<dim>1</dim>
				</port>
			</output>
		</layer>
		<layer id="20" name="Constant_8311" type="Const" version="opset1">
			<data element_type="i64" shape="1" offset="595984" size="8" />
			<rt_info>
				<attribute name="precise" version="0" />
			</rt_info>
			<output>
				<port id="0" precision="I64">
					<dim>1</dim>
				</port>
			</output>
		</layer>
		<layer id="21" name="Constant_8313" type="Const" version="opset1">
			<data element_type="i64" shape="1" offset="595984" size="8" />
			<rt_info>
				<attribute name="precise" version="0" />
			</rt_info>
			<output>
				<port id="0" precision="I64">
					<dim>1</dim>
				</port>
			</output>
		</layer>
		<layer id="22" name="__module.embeddings/prim::ListConstruct" type="Concat" version="opset1">
			<data axis="0" />
			<input>
				<port id="0" precision="I64">
					<dim>1</dim>
				</port>
				<port id="1" precision="I64">
					<dim>1</dim>
				</port>
				<port id="2" precision="I64">
					<dim>1</dim>
				</port>
			</input>
			<output>
				<port id="3" precision="I64">
					<dim>3</dim>
				</port>
			</output>
		</layer>
		<layer id="23" name="__module.embeddings/aten::expand/Broadcast" type="Broadcast" version="opset3">
			<data mode="bidirectional" />
			<input>
				<port id="0" precision="FP32">
					<dim>1</dim>
					<dim>1</dim>
					<dim>768</dim>
				</port>
				<port id="1" precision="I64">
					<dim>3</dim>
				</port>
			</input>
			<output>
				<port id="2" precision="FP32" names="50,51,class_embeds">
					<dim>-1</dim>
					<dim>1</dim>
					<dim>768</dim>
				</port>
			</output>
		</layer>
		<layer id="24" name="Constant_9461" type="Const" version="opset1">
			<data element_type="i64" shape="3" offset="595992" size="24" />
			<rt_info>
				<attribute name="precise" version="0" />
			</rt_info>
			<output>
				<port id="0" precision="I64">
					<dim>3</dim>
				</port>
			</output>
		</layer>
		<layer id="25" name="__module.embeddings/aten::flatten/Reshape" type="Reshape" version="opset1">
			<data special_zero="true" />
			<input>
				<port id="0" precision="FP32">
					<dim>-1</dim>
					<dim>768</dim>
					<dim>-1</dim>
					<dim>-1</dim>
				</port>
				<port id="1" precision="I64">
					<dim>3</dim>
				</port>
			</input>
			<output>
				<port id="2" precision="FP32" names="47">
					<dim>-1</dim>
					<dim>768</dim>
					<dim>-1</dim>
				</port>
			</output>
		</layer>
		<layer id="26" name="__module.embeddings/aten::transpose/Constant" type="Const" version="opset1">
			<data element_type="i32" shape="3" offset="596016" size="12" />
			<output>
				<port id="0" precision="I32">
					<dim>3</dim>
				</port>
			</output>
		</layer>
		<layer id="27" name="__module.embeddings/aten::transpose/Transpose" type="Transpose" version="opset1">
			<input>
				<port id="0" precision="FP32">
					<dim>-1</dim>
					<dim>768</dim>
					<dim>-1</dim>
				</port>
				<port id="1" precision="I32">
					<dim>3</dim>
				</port>
			</input>
			<output>
				<port id="2" precision="FP32" names="48,patch_embeds">
					<dim>-1</dim>
					<dim>-1</dim>
					<dim>768</dim>
				</port>
			</output>
		</layer>
		<layer id="28" name="__module.embeddings/aten::cat/Concat" type="Concat" version="opset1">
			<data axis="1" />
			<input>
				<port id="0" precision="FP32">
					<dim>-1</dim>
					<dim>1</dim>
					<dim>768</dim>
				</port>
				<port id="1" precision="FP32">
					<dim>-1</dim>
					<dim>-1</dim>
					<dim>768</dim>
				</port>
			</input>
			<output>
				<port id="2" precision="FP32" names="53,embeddings.1">
					<dim>-1</dim>
					<dim>-1</dim>
					<dim>768</dim>
				</port>
			</output>
		</layer>
		<layer id="29" name="__module.embeddings/aten::slice/Slice_compressed" type="Const" version="opset1">
			<data element_type="f16" shape="1, 577, 768" offset="596028" size="886272" />
			<output>
				<port id="0" precision="FP16" names="55">
					<dim>1</dim>
					<dim>577</dim>
					<dim>768</dim>
				</port>
			</output>
		</layer>
		<layer id="30" name="__module.embeddings/aten::slice/Slice" type="Convert" version="opset1">
			<data destination_type="f32" />
			<rt_info>
				<attribute name="decompression" version="0" />
			</rt_info>
			<input>
				<port id="0" precision="FP16">
					<dim>1</dim>
					<dim>577</dim>
					<dim>768</dim>
				</port>
			</input>
			<output>
				<port id="1" precision="FP32">
					<dim>1</dim>
					<dim>577</dim>
					<dim>768</dim>
				</port>
			</output>
		</layer>
		<layer id="31" name="Constant_192" type="Const" version="opset1">
			<data element_type="i64" shape="1" offset="595976" size="8" />
			<output>
				<port id="0" precision="I64">
					<dim>1</dim>
				</port>
			</output>
		</layer>
		<layer id="32" name="ShapeOf_9385" type="ShapeOf" version="opset3">
			<data output_type="i64" />
			<input>
				<port id="0" precision="FP32">
					<dim>-1</dim>
					<dim>-1</dim>
					<dim>768</dim>
				</port>
			</input>
			<output>
				<port id="1" precision="I64">
					<dim>3</dim>
				</port>
			</output>
		</layer>
		<layer id="33" name="Constant_9386" type="Const" version="opset1">
			<data element_type="i64" shape="1" offset="595984" size="8" />
			<output>
				<port id="0" precision="I64">
					<dim>1</dim>
				</port>
			</output>
		</layer>
		<layer id="34" name="Constant_9387" type="Const" version="opset1">
			<data element_type="i64" shape="" offset="595976" size="8" />
			<output>
				<port id="0" precision="I64" />
			</output>
		</layer>
		<layer id="35" name="Gather_9388" type="Gather" version="opset8">
			<data batch_dims="0" />
			<input>
				<port id="0" precision="I64">
					<dim>3</dim>
				</port>
				<port id="1" precision="I64">
					<dim>1</dim>
				</port>
				<port id="2" precision="I64" />
			</input>
			<output>
				<port id="3" precision="I64" names="54">
					<dim>1</dim>
				</port>
			</output>
		</layer>
		<layer id="36" name="Constant_195" type="Const" version="opset1">
			<data element_type="i64" shape="1" offset="595984" size="8" />
			<output>
				<port id="0" precision="I64">
					<dim>1</dim>
				</port>
			</output>
		</layer>
		<layer id="37" name="Constant_190" type="Const" version="opset1">
			<data element_type="i64" shape="1" offset="595984" size="8" />
			<output>
				<port id="0" precision="I64">
					<dim>1</dim>
				</port>
			</output>
		</layer>
		<layer id="38" name="__module.embeddings/aten::slice/Slice_1" type="Slice" version="opset8">
			<input>
				<port id="0" precision="FP32">
					<dim>1</dim>
					<dim>577</dim>
					<dim>768</dim>
				</port>
				<port id="1" precision="I64">
					<dim>1</dim>
				</port>
				<port id="2" precision="I64">
					<dim>1</dim>
				</port>
				<port id="3" precision="I64">
					<dim>1</dim>
				</port>
				<port id="4" precision="I64">
					<dim>1</dim>
				</port>
			</input>
			<output>
				<port id="5" precision="FP32" names="56,57,58">
					<dim>1</dim>
					<dim>-1</dim>
					<dim>768</dim>
				</port>
			</output>
		</layer>
		<layer id="39" name="__module.embeddings/aten::add/Add" type="Add" version="opset1">
			<data auto_broadcast="numpy" />
			<input>
				<port id="0" precision="FP32">
					<dim>-1</dim>
					<dim>-1</dim>
					<dim>768</dim>
				</port>
				<port id="1" precision="FP32">
					<dim>1</dim>
					<dim>-1</dim>
					<dim>768</dim>
				</port>
			</input>
			<output>
				<port id="2" precision="FP32" names="59,input.3">
					<dim>-1</dim>
					<dim>-1</dim>
					<dim>768</dim>
				</port>
			</output>
		</layer>
		<layer id="40" name="__module.encoder.layers.0.layer_norm1/aten::layer_norm/Multiply" type="Const" version="opset1">
			<data element_type="i32" shape="1" offset="1482300" size="4" />
			<output>
				<port id="0" precision="I32">
					<dim>1</dim>
				</port>
			</output>
		</layer>
		<layer id="41" name="__module.encoder.layers.0.layer_norm1/aten::layer_norm/MVN" type="MVN" version="opset6">
			<data eps="9.9999997473787516e-06" normalize_variance="true" eps_mode="INSIDE_SQRT" />
			<input>
				<port id="0" precision="FP32">
					<dim>-1</dim>
					<dim>-1</dim>
					<dim>768</dim>
				</port>
				<port id="1" precision="I32">
					<dim>1</dim>
				</port>
			</input>
			<output>
				<port id="2" precision="FP32">
					<dim>-1</dim>
					<dim>-1</dim>
					<dim>768</dim>
				</port>
			</output>
		</layer>
		<layer id="42" name="Constant_9165_compressed" type="Const" version="opset1">
			<data element_type="f16" shape="1, 1, 768" offset="1482304" size="1536" />
			<output>
				<port id="0" precision="FP16">
					<dim>1</dim>
					<dim>1</dim>
					<dim>768</dim>
				</port>
			</output>
		</layer>
		<layer id="43" name="Constant_9165" type="Convert" version="opset1">
			<data destination_type="f32" />
			<rt_info>
				<attribute name="decompression" version="0" />
			</rt_info>
			<input>
				<port id="0" precision="FP16">
					<dim>1</dim>
					<dim>1</dim>
					<dim>768</dim>
				</port>
			</input>
			<output>
				<port id="1" precision="FP32">
					<dim>1</dim>
					<dim>1</dim>
					<dim>768</dim>
				</port>
			</output>
		</layer>
		<layer id="44" name="__module.encoder.layers.0.layer_norm1/aten::layer_norm/Multiply_1" type="Multiply" version="opset1">
			<data auto_broadcast="numpy" />
			<input>
				<port id="0" precision="FP32">
					<dim>-1</dim>
					<dim>-1</dim>
					<dim>768</dim>
				</port>
				<port id="1" precision="FP32">
					<dim>1</dim>
					<dim>1</dim>
					<dim>768</dim>
				</port>
			</input>
			<output>
				<port id="2" precision="FP32">
					<dim>-1</dim>
					<dim>-1</dim>
					<dim>768</dim>
				</port>
			</output>
		</layer>
		<layer id="45" name="Constant_9166_compressed" type="Const" version="opset1">
			<data element_type="f16" shape="1, 1, 768" offset="1483840" size="1536" />
			<output>
				<port id="0" precision="FP16">
					<dim>1</dim>
					<dim>1</dim>
					<dim>768</dim>
				</port>
			</output>
		</layer>
		<layer id="46" name="Constant_9166" type="Convert" version="opset1">
			<data destination_type="f32" />
			<rt_info>
				<attribute name="decompression" version="0" />
			</rt_info>
			<input>
				<port id="0" precision="FP16">
					<dim>1</dim>
					<dim>1</dim>
					<dim>768</dim>
				</port>
			</input>
			<output>
				<port id="1" precision="FP32">
					<dim>1</dim>
					<dim>1</dim>
					<dim>768</dim>
				</port>
			</output>
		</layer>
		<layer id="47" name="__module.encoder.layers.0.layer_norm1/aten::layer_norm/Add" type="Add" version="opset1">
			<data auto_broadcast="numpy" />
			<input>
				<port id="0" precision="FP32">
					<dim>-1</dim>
					<dim>-1</dim>
					<dim>768</dim>
				</port>
				<port id="1" precision="FP32">
					<dim>1</dim>
					<dim>1</dim>
					<dim>768</dim>
				</port>
			</input>
			<output>
				<port id="2" precision="FP32" names="108,hidden_states.1">
					<dim>-1</dim>
					<dim>-1</dim>
					<dim>768</dim>
				</port>
			</output>
		</layer>
		<layer id="48" name="__module.encoder.layers.0.layer_norm1/aten::layer_norm/Add_0_0/nncf_smooth_quant/scale" type="Const" version="opset1">
			<data element_type="f32" shape="1, 1, 768" offset="1485376" size="3072" />
			<output>
				<port id="0" precision="FP32">
					<dim>1</dim>
					<dim>1</dim>
					<dim>768</dim>
				</port>
			</output>
		</layer>
		<layer id="49" name="__module.encoder.layers.0.layer_norm1/aten::layer_norm/Add_0_0/nncf_smooth_quant" type="Multiply" version="opset1">
			<data auto_broadcast="numpy" />
			<input>
				<port id="0" precision="FP32">
					<dim>-1</dim>
					<dim>-1</dim>
					<dim>768</dim>
				</port>
				<port id="1" precision="FP32">
					<dim>1</dim>
					<dim>1</dim>
					<dim>768</dim>
				</port>
			</input>
			<output>
				<port id="2" precision="FP32">
					<dim>-1</dim>
					<dim>-1</dim>
					<dim>768</dim>
				</port>
			</output>
		</layer>
		<layer id="50" name="__module.encoder.layers.0.layer_norm1/aten::layer_norm/Add_0_0/nncf_smooth_quant/fq_output_0/input_low" type="Const" version="opset1">
			<data element_type="f32" shape="" offset="1488448" size="4" />
			<output>
				<port id="0" precision="FP32" />
			</output>
		</layer>
		<layer id="51" name="__module.encoder.layers.0.layer_norm1/aten::layer_norm/Add_0_0/nncf_smooth_quant/fq_output_0/input_high" type="Const" version="opset1">
			<data element_type="f32" shape="" offset="1488452" size="4" />
			<output>
				<port id="0" precision="FP32" />
			</output>
		</layer>
		<layer id="52" name="__module.encoder.layers.0.layer_norm1/aten::layer_norm/Add_0_0/nncf_smooth_quant/fq_output_0/output_low" type="Const" version="opset1">
			<data element_type="f32" shape="" offset="1488448" size="4" />
			<output>
				<port id="0" precision="FP32" />
			</output>
		</layer>
		<layer id="53" name="__module.encoder.layers.0.layer_norm1/aten::layer_norm/Add_0_0/nncf_smooth_quant/fq_output_0/output_high" type="Const" version="opset1">
			<data element_type="f32" shape="" offset="1488452" size="4" />
			<output>
				<port id="0" precision="FP32" />
			</output>
		</layer>
		<layer id="54" name="__module.encoder.layers.0.layer_norm1/aten::layer_norm/Add_0_0/nncf_smooth_quant/fq_output_0" type="FakeQuantize" version="opset1">
			<data levels="256" auto_broadcast="numpy" />
			<input>
				<port id="0" precision="FP32">
					<dim>-1</dim>
					<dim>-1</dim>
					<dim>768</dim>
				</port>
				<port id="1" precision="FP32" />
				<port id="2" precision="FP32" />
				<port id="3" precision="FP32" />
				<port id="4" precision="FP32" />
			</input>
			<output>
				<port id="5" precision="FP32">
					<dim>-1</dim>
					<dim>-1</dim>
					<dim>768</dim>
				</port>
			</output>
		</layer>
		<layer id="55" name="Constant_383954" type="Const" version="opset1">
			<data element_type="i8" shape="2304, 768" offset="1488456" size="1769472" />
			<output>
				<port id="0" precision="I8">
					<dim>2304</dim>
					<dim>768</dim>
				</port>
			</output>
		</layer>
		<layer id="56" name="Convert_383955" type="Convert" version="opset1">
			<data destination_type="f32" />
			<input>
				<port id="0" precision="I8">
					<dim>2304</dim>
					<dim>768</dim>
				</port>
			</input>
			<output>
				<port id="1" precision="FP32">
					<dim>2304</dim>
					<dim>768</dim>
				</port>
			</output>
		</layer>
		<layer id="57" name="Constant_383956" type="Const" version="opset1">
			<data element_type="f32" shape="2304, 1" offset="3257928" size="9216" />
			<output>
				<port id="0" precision="FP32">
					<dim>2304</dim>
					<dim>1</dim>
				</port>
			</output>
		</layer>
		<layer id="58" name="__module.encoder.layers.0.self_attn.qkv/aten::linear/MatMul/fq_weights_1" type="Multiply" version="opset1">
			<data auto_broadcast="numpy" />
			<input>
				<port id="0" precision="FP32">
					<dim>2304</dim>
					<dim>768</dim>
				</port>
				<port id="1" precision="FP32">
					<dim>2304</dim>
					<dim>1</dim>
				</port>
			</input>
			<output>
				<port id="2" precision="FP32">
					<dim>2304</dim>
					<dim>768</dim>
				</port>
			</output>
		</layer>
		<layer id="59" name="__module.encoder.layers.0.self_attn.qkv/aten::linear/MatMul" type="MatMul" version="opset1">
			<data transpose_a="false" transpose_b="true" />
			<input>
				<port id="0" precision="FP32">
					<dim>-1</dim>
					<dim>-1</dim>
					<dim>768</dim>
				</port>
				<port id="1" precision="FP32">
					<dim>2304</dim>
					<dim>768</dim>
				</port>
			</input>
			<output>
				<port id="2" precision="FP32">
					<dim>-1</dim>
					<dim>-1</dim>
					<dim>2304</dim>
				</port>
			</output>
		</layer>
		<layer id="60" name="Constant_9167_compressed" type="Const" version="opset1">
			<data element_type="f16" shape="1, 1, 2304" offset="3267144" size="4608" />
			<output>
				<port id="0" precision="FP16">
					<dim>1</dim>
					<dim>1</dim>
					<dim>2304</dim>
				</port>
			</output>
		</layer>
		<layer id="61" name="Constant_9167" type="Convert" version="opset1">
			<data destination_type="f32" />
			<rt_info>
				<attribute name="decompression" version="0" />
			</rt_info>
			<input>
				<port id="0" precision="FP16">
					<dim>1</dim>
					<dim>1</dim>
					<dim>2304</dim>
				</port>
			</input>
			<output>
				<port id="1" precision="FP32">
					<dim>1</dim>
					<dim>1</dim>
					<dim>2304</dim>
				</port>
			</output>
		</layer>
		<layer id="62" name="__module.encoder.layers.0.self_attn.qkv/aten::linear/Add" type="Add" version="opset1">
			<data auto_broadcast="numpy" />
			<input>
				<port id="0" precision="FP32">
					<dim>-1</dim>
					<dim>-1</dim>
					<dim>2304</dim>
				</port>
				<port id="1" precision="FP32">
					<dim>1</dim>
					<dim>1</dim>
					<dim>2304</dim>
				</port>
			</input>
			<output>
				<port id="2" precision="FP32" names="117">
					<dim>-1</dim>
					<dim>-1</dim>
					<dim>2304</dim>
				</port>
			</output>
		</layer>
		<layer id="63" name="Constant_9462" type="Const" version="opset1">
			<data element_type="i64" shape="5" offset="3271752" size="40" />
			<rt_info>
				<attribute name="precise" version="0" />
			</rt_info>
			<output>
				<port id="0" precision="I64">
					<dim>5</dim>
				</port>
			</output>
		</layer>
		<layer id="64" name="__module.encoder.layers.0.self_attn/aten::reshape/Reshape" type="Reshape" version="opset1">
			<data special_zero="true" />
			<input>
				<port id="0" precision="FP32">
					<dim>-1</dim>
					<dim>-1</dim>
					<dim>2304</dim>
				</port>
				<port id="1" precision="I64">
					<dim>5</dim>
				</port>
			</input>
			<output>
				<port id="2" precision="FP32" names="121">
					<dim>-1</dim>
					<dim>-1</dim>
					<dim>3</dim>
					<dim>12</dim>
					<dim>64</dim>
				</port>
			</output>
		</layer>
		<layer id="65" name="Constant_364" type="Const" version="opset1">
			<data element_type="i64" shape="5" offset="3271792" size="40" />
			<output>
				<port id="0" precision="I64" names="122">
					<dim>5</dim>
				</port>
			</output>
		</layer>
		<layer id="66" name="__module.encoder.layers.0.self_attn/aten::permute/Transpose" type="Transpose" version="opset1">
			<input>
				<port id="0" precision="FP32">
					<dim>-1</dim>
					<dim>-1</dim>
					<dim>3</dim>
					<dim>12</dim>
					<dim>64</dim>
				</port>
				<port id="1" precision="I64">
					<dim>5</dim>
				</port>
			</input>
			<output>
				<port id="2" precision="FP32" names="123,mixed_qkv.1">
					<dim>3</dim>
					<dim>-1</dim>
					<dim>12</dim>
					<dim>-1</dim>
					<dim>64</dim>
				</port>
			</output>
		</layer>
		<layer id="67" name="__module.encoder.layers.0.self_attn/aten::select/Gather/fq_input_0/input_low" type="Const" version="opset1">
			<data element_type="f32" shape="" offset="3271832" size="4" />
			<output>
				<port id="0" precision="FP32" />
			</output>
		</layer>
		<layer id="68" name="__module.encoder.layers.0.self_attn/aten::select/Gather/fq_input_0/input_high" type="Const" version="opset1">
			<data element_type="f32" shape="" offset="3271836" size="4" />
			<output>
				<port id="0" precision="FP32" />
			</output>
		</layer>
		<layer id="69" name="__module.encoder.layers.0.self_attn/aten::select/Gather/fq_input_0/output_low" type="Const" version="opset1">
			<data element_type="f32" shape="" offset="3271832" size="4" />
			<output>
				<port id="0" precision="FP32" />
			</output>
		</layer>
		<layer id="70" name="__module.encoder.layers.0.self_attn/aten::select/Gather/fq_input_0/output_high" type="Const" version="opset1">
			<data element_type="f32" shape="" offset="3271836" size="4" />
			<output>
				<port id="0" precision="FP32" />
			</output>
		</layer>
		<layer id="71" name="__module.encoder.layers.0.self_attn/aten::select/Gather/fq_input_0" type="FakeQuantize" version="opset1">
			<data levels="256" auto_broadcast="numpy" />
			<input>
				<port id="0" precision="FP32">
					<dim>3</dim>
					<dim>-1</dim>
					<dim>12</dim>
					<dim>-1</dim>
					<dim>64</dim>
				</port>
				<port id="1" precision="FP32" />
				<port id="2" precision="FP32" />
				<port id="3" precision="FP32" />
				<port id="4" precision="FP32" />
			</input>
			<output>
				<port id="5" precision="FP32">
					<dim>3</dim>
					<dim>-1</dim>
					<dim>12</dim>
					<dim>-1</dim>
					<dim>64</dim>
				</port>
			</output>
		</layer>
		<layer id="72" name="75" type="Const" version="opset1">
			<data element_type="i64" shape="" offset="595976" size="8" />
			<output>
				<port id="0" precision="I64" names="75" />
			</output>
		</layer>
		<layer id="73" name="__module.encoder.layers.0.self_attn/aten::select/Gather" type="Gather" version="opset8">
			<data batch_dims="0" />
			<input>
				<port id="0" precision="FP32">
					<dim>3</dim>
					<dim>-1</dim>
					<dim>12</dim>
					<dim>-1</dim>
					<dim>64</dim>
				</port>
				<port id="1" precision="I64" />
				<port id="2" precision="I64" />
			</input>
			<output>
				<port id="3" precision="FP32" names="124,query_states.1">
					<dim>-1</dim>
					<dim>12</dim>
					<dim>-1</dim>
					<dim>64</dim>
				</port>
			</output>
		</layer>
		<layer id="74" name="74" type="Const" version="opset1">
			<data element_type="i64" shape="" offset="595984" size="8" />
			<output>
				<port id="0" precision="I64" names="74" />
			</output>
		</layer>
		<layer id="75" name="__module.encoder.layers.0.self_attn/aten::select/Gather_1" type="Gather" version="opset8">
			<data batch_dims="0" />
			<input>
				<port id="0" precision="FP32">
					<dim>3</dim>
					<dim>-1</dim>
					<dim>12</dim>
					<dim>-1</dim>
					<dim>64</dim>
				</port>
				<port id="1" precision="I64" />
				<port id="2" precision="I64" />
			</input>
			<output>
				<port id="3" precision="FP32" names="125,key_states.1">
					<dim>-1</dim>
					<dim>12</dim>
					<dim>-1</dim>
					<dim>64</dim>
				</port>
			</output>
		</layer>
		<layer id="76" name="Constant_9168_compressed" type="Const" version="opset1">
			<data element_type="f16" shape="1, 1, 1, 1" offset="3271840" size="2" />
			<output>
				<port id="0" precision="FP16">
					<dim>1</dim>
					<dim>1</dim>
					<dim>1</dim>
					<dim>1</dim>
				</port>
			</output>
		</layer>
		<layer id="77" name="Constant_9168" type="Convert" version="opset1">
			<data destination_type="f32" />
			<rt_info>
				<attribute name="decompression" version="0" />
			</rt_info>
			<input>
				<port id="0" precision="FP16">
					<dim>1</dim>
					<dim>1</dim>
					<dim>1</dim>
					<dim>1</dim>
				</port>
			</input>
			<output>
				<port id="1" precision="FP32">
					<dim>1</dim>
					<dim>1</dim>
					<dim>1</dim>
					<dim>1</dim>
				</port>
			</output>
		</layer>
		<layer id="78" name="Multiply_9049" type="Multiply" version="opset1">
			<data auto_broadcast="numpy" />
			<input>
				<port id="0" precision="FP32">
					<dim>-1</dim>
					<dim>12</dim>
					<dim>-1</dim>
					<dim>64</dim>
				</port>
				<port id="1" precision="FP32">
					<dim>1</dim>
					<dim>1</dim>
					<dim>1</dim>
					<dim>1</dim>
				</port>
			</input>
			<output>
				<port id="2" precision="FP32">
					<dim>-1</dim>
					<dim>12</dim>
					<dim>-1</dim>
					<dim>64</dim>
				</port>
			</output>
		</layer>
		<layer id="79" name="Multiply_9049/fq_output_0/input_low" type="Const" version="opset1">
			<data element_type="f32" shape="" offset="3271842" size="4" />
			<output>
				<port id="0" precision="FP32" />
			</output>
		</layer>
		<layer id="80" name="Multiply_9049/fq_output_0/input_high" type="Const" version="opset1">
			<data element_type="f32" shape="" offset="3271846" size="4" />
			<output>
				<port id="0" precision="FP32" />
			</output>
		</layer>
		<layer id="81" name="Multiply_9049/fq_output_0/output_low" type="Const" version="opset1">
			<data element_type="f32" shape="" offset="3271842" size="4" />
			<output>
				<port id="0" precision="FP32" />
			</output>
		</layer>
		<layer id="82" name="Multiply_9049/fq_output_0/output_high" type="Const" version="opset1">
			<data element_type="f32" shape="" offset="3271846" size="4" />
			<output>
				<port id="0" precision="FP32" />
			</output>
		</layer>
		<layer id="83" name="Multiply_9049/fq_output_0" type="FakeQuantize" version="opset1">
			<data levels="256" auto_broadcast="numpy" />
			<input>
				<port id="0" precision="FP32">
					<dim>-1</dim>
					<dim>12</dim>
					<dim>-1</dim>
					<dim>64</dim>
				</port>
				<port id="1" precision="FP32" />
				<port id="2" precision="FP32" />
				<port id="3" precision="FP32" />
				<port id="4" precision="FP32" />
			</input>
			<output>
				<port id="5" precision="FP32">
					<dim>-1</dim>
					<dim>12</dim>
					<dim>-1</dim>
					<dim>64</dim>
				</port>
			</output>
		</layer>
		<layer id="84" name="__module.encoder.layers.0.self_attn/aten::mul/Multiply" type="MatMul" version="opset1">
			<data transpose_a="false" transpose_b="true" />
			<input>
				<port id="0" precision="FP32">
					<dim>-1</dim>
					<dim>12</dim>
					<dim>-1</dim>
					<dim>64</dim>
				</port>
				<port id="1" precision="FP32">
					<dim>-1</dim>
					<dim>12</dim>
					<dim>-1</dim>
					<dim>64</dim>
				</port>
			</input>
			<output>
				<port id="2" precision="FP32" names="129,input.5">
					<dim>-1</dim>
					<dim>12</dim>
					<dim>-1</dim>
					<dim>-1</dim>
				</port>
			</output>
		</layer>
		<layer id="85" name="__module.encoder.layers.0.self_attn/aten::softmax/Softmax" type="SoftMax" version="opset8">
			<data axis="-1" />
			<input>
				<port id="0" precision="FP32">
					<dim>-1</dim>
					<dim>12</dim>
					<dim>-1</dim>
					<dim>-1</dim>
				</port>
			</input>
			<output>
				<port id="1" precision="FP32" names="130,input.7">
					<dim>-1</dim>
					<dim>12</dim>
					<dim>-1</dim>
					<dim>-1</dim>
				</port>
			</output>
		</layer>
		<layer id="86" name="73" type="Const" version="opset1">
			<data element_type="i64" shape="" offset="3271850" size="8" />
			<output>
				<port id="0" precision="I64" names="73" />
			</output>
		</layer>
		<layer id="87" name="__module.encoder.layers.0.self_attn/aten::select/Gather_2" type="Gather" version="opset8">
			<data batch_dims="0" />
			<input>
				<port id="0" precision="FP32">
					<dim>3</dim>
					<dim>-1</dim>
					<dim>12</dim>
					<dim>-1</dim>
					<dim>64</dim>
				</port>
				<port id="1" precision="I64" />
				<port id="2" precision="I64" />
			</input>
			<output>
				<port id="3" precision="FP32" names="126,value_states.1">
					<dim>-1</dim>
					<dim>12</dim>
					<dim>-1</dim>
					<dim>64</dim>
				</port>
			</output>
		</layer>
		<layer id="88" name="__module.encoder.layers.0.self_attn/aten::matmul/MatMul_1" type="MatMul" version="opset1">
			<data transpose_a="false" transpose_b="false" />
			<input>
				<port id="0" precision="FP32">
					<dim>-1</dim>
					<dim>12</dim>
					<dim>-1</dim>
					<dim>-1</dim>
				</port>
				<port id="1" precision="FP32">
					<dim>-1</dim>
					<dim>12</dim>
					<dim>-1</dim>
					<dim>64</dim>
				</port>
			</input>
			<output>
				<port id="2" precision="FP32" names="132">
					<dim>-1</dim>
					<dim>12</dim>
					<dim>-1</dim>
					<dim>64</dim>
				</port>
			</output>
		</layer>
		<layer id="89" name="Constant_459" type="Const" version="opset1">
			<data element_type="i64" shape="4" offset="3271858" size="32" />
			<output>
				<port id="0" precision="I64" names="133">
					<dim>4</dim>
				</port>
			</output>
		</layer>
		<layer id="90" name="__module.encoder.layers.0.self_attn/aten::permute/Transpose_1" type="Transpose" version="opset1">
			<input>
				<port id="0" precision="FP32">
					<dim>-1</dim>
					<dim>12</dim>
					<dim>-1</dim>
					<dim>64</dim>
				</port>
				<port id="1" precision="I64">
					<dim>4</dim>
				</port>
			</input>
			<output>
				<port id="2" precision="FP32" names="134,context_layer.1">
					<dim>-1</dim>
					<dim>-1</dim>
					<dim>12</dim>
					<dim>64</dim>
				</port>
			</output>
		</layer>
		<layer id="91" name="__module.encoder.layers.0.self_attn/prim::ListConstruct_1" type="Const" version="opset1">
			<data element_type="i64" shape="3" offset="3271890" size="24" />
			<rt_info>
				<attribute name="precise" version="0" />
			</rt_info>
			<output>
				<port id="0" precision="I64">
					<dim>3</dim>
				</port>
			</output>
		</layer>
		<layer id="92" name="__module.encoder.layers.0.self_attn/aten::reshape/Reshape_1" type="Reshape" version="opset1">
			<data special_zero="true" />
			<input>
				<port id="0" precision="FP32">
					<dim>-1</dim>
					<dim>-1</dim>
					<dim>12</dim>
					<dim>64</dim>
				</port>
				<port id="1" precision="I64">
					<dim>3</dim>
				</port>
			</input>
			<output>
				<port id="2" precision="FP32" names="138,input.9">
					<dim>-1</dim>
					<dim>-1</dim>
					<dim>768</dim>
				</port>
			</output>
		</layer>
		<layer id="93" name="__module.encoder.layers.0.self_attn/aten::reshape/Reshape_1_0_0/nncf_smooth_quant/scale" type="Const" version="opset1">
			<data element_type="f32" shape="1, 1, 768" offset="3271914" size="3072" />
			<output>
				<port id="0" precision="FP32">
					<dim>1</dim>
					<dim>1</dim>
					<dim>768</dim>
				</port>
			</output>
		</layer>
		<layer id="94" name="__module.encoder.layers.0.self_attn/aten::reshape/Reshape_1_0_0/nncf_smooth_quant" type="Multiply" version="opset1">
			<data auto_broadcast="numpy" />
			<input>
				<port id="0" precision="FP32">
					<dim>-1</dim>
					<dim>-1</dim>
					<dim>768</dim>
				</port>
				<port id="1" precision="FP32">
					<dim>1</dim>
					<dim>1</dim>
					<dim>768</dim>
				</port>
			</input>
			<output>
				<port id="2" precision="FP32">
					<dim>-1</dim>
					<dim>-1</dim>
					<dim>768</dim>
				</port>
			</output>
		</layer>
		<layer id="95" name="__module.encoder.layers.0.self_attn/aten::reshape/Reshape_1_0_0/nncf_smooth_quant/fq_output_0/input_low" type="Const" version="opset1">
			<data element_type="f32" shape="" offset="3274986" size="4" />
			<output>
				<port id="0" precision="FP32" />
			</output>
		</layer>
		<layer id="96" name="__module.encoder.layers.0.self_attn/aten::reshape/Reshape_1_0_0/nncf_smooth_quant/fq_output_0/input_high" type="Const" version="opset1">
			<data element_type="f32" shape="" offset="3274990" size="4" />
			<output>
				<port id="0" precision="FP32" />
			</output>
		</layer>
		<layer id="97" name="__module.encoder.layers.0.self_attn/aten::reshape/Reshape_1_0_0/nncf_smooth_quant/fq_output_0/output_low" type="Const" version="opset1">
			<data element_type="f32" shape="" offset="3274986" size="4" />
			<output>
				<port id="0" precision="FP32" />
			</output>
		</layer>
		<layer id="98" name="__module.encoder.layers.0.self_attn/aten::reshape/Reshape_1_0_0/nncf_smooth_quant/fq_output_0/output_high" type="Const" version="opset1">
			<data element_type="f32" shape="" offset="3274990" size="4" />
			<output>
				<port id="0" precision="FP32" />
			</output>
		</layer>
		<layer id="99" name="__module.encoder.layers.0.self_attn/aten::reshape/Reshape_1_0_0/nncf_smooth_quant/fq_output_0" type="FakeQuantize" version="opset1">
			<data levels="256" auto_broadcast="numpy" />
			<input>
				<port id="0" precision="FP32">
					<dim>-1</dim>
					<dim>-1</dim>
					<dim>768</dim>
				</port>
				<port id="1" precision="FP32" />
				<port id="2" precision="FP32" />
				<port id="3" precision="FP32" />
				<port id="4" precision="FP32" />
			</input>
			<output>
				<port id="5" precision="FP32">
					<dim>-1</dim>
					<dim>-1</dim>
					<dim>768</dim>
				</port>
			</output>
		</layer>
		<layer id="100" name="Constant_383959" type="Const" version="opset1">
			<data element_type="i8" shape="768, 768" offset="3274994" size="589824" />
			<output>
				<port id="0" precision="I8">
					<dim>768</dim>
					<dim>768</dim>
				</port>
			</output>
		</layer>
		<layer id="101" name="Convert_383960" type="Convert" version="opset1">
			<data destination_type="f32" />
			<input>
				<port id="0" precision="I8">
					<dim>768</dim>
					<dim>768</dim>
				</port>
			</input>
			<output>
				<port id="1" precision="FP32">
					<dim>768</dim>
					<dim>768</dim>
				</port>
			</output>
		</layer>
		<layer id="102" name="Constant_383961" type="Const" version="opset1">
			<data element_type="f32" shape="768, 1" offset="3864818" size="3072" />
			<output>
				<port id="0" precision="FP32">
					<dim>768</dim>
					<dim>1</dim>
				</port>
			</output>
		</layer>
		<layer id="103" name="__module.encoder.layers.0.self_attn.projection/aten::linear/MatMul/fq_weights_1" type="Multiply" version="opset1">
			<data auto_broadcast="numpy" />
			<input>
				<port id="0" precision="FP32">
					<dim>768</dim>
					<dim>768</dim>
				</port>
				<port id="1" precision="FP32">
					<dim>768</dim>
					<dim>1</dim>
				</port>
			</input>
			<output>
				<port id="2" precision="FP32">
					<dim>768</dim>
					<dim>768</dim>
				</port>
			</output>
		</layer>
		<layer id="104" name="__module.encoder.layers.0.self_attn.projection/aten::linear/MatMul" type="MatMul" version="opset1">
			<data transpose_a="false" transpose_b="true" />
			<input>
				<port id="0" precision="FP32">
					<dim>-1</dim>
					<dim>-1</dim>
					<dim>768</dim>
				</port>
				<port id="1" precision="FP32">
					<dim>768</dim>
					<dim>768</dim>
				</port>
			</input>
			<output>
				<port id="2" precision="FP32">
					<dim>-1</dim>
					<dim>-1</dim>
					<dim>768</dim>
				</port>
			</output>
		</layer>
		<layer id="105" name="Constant_9169_compressed" type="Const" version="opset1">
			<data element_type="f16" shape="1, 1, 768" offset="3867890" size="1536" />
			<output>
				<port id="0" precision="FP16">
					<dim>1</dim>
					<dim>1</dim>
					<dim>768</dim>
				</port>
			</output>
		</layer>
		<layer id="106" name="Constant_9169" type="Convert" version="opset1">
			<data destination_type="f32" />
			<rt_info>
				<attribute name="decompression" version="0" />
			</rt_info>
			<input>
				<port id="0" precision="FP16">
					<dim>1</dim>
					<dim>1</dim>
					<dim>768</dim>
				</port>
			</input>
			<output>
				<port id="1" precision="FP32">
					<dim>1</dim>
					<dim>1</dim>
					<dim>768</dim>
				</port>
			</output>
		</layer>
		<layer id="107" name="__module.encoder.layers.0.self_attn.projection/aten::linear/Add" type="Add" version="opset1">
			<data auto_broadcast="numpy" />
			<input>
				<port id="0" precision="FP32">
					<dim>-1</dim>
					<dim>-1</dim>
					<dim>768</dim>
				</port>
				<port id="1" precision="FP32">
					<dim>1</dim>
					<dim>1</dim>
					<dim>768</dim>
				</port>
			</input>
			<output>
				<port id="2" precision="FP32" names="141,hidden_states.3">
					<dim>-1</dim>
					<dim>-1</dim>
					<dim>768</dim>
				</port>
			</output>
		</layer>
		<layer id="108" name="__module.encoder.layers.0/aten::add/Add" type="Add" version="opset1">
			<data auto_broadcast="numpy" />
			<input>
				<port id="0" precision="FP32">
					<dim>-1</dim>
					<dim>-1</dim>
					<dim>768</dim>
				</port>
				<port id="1" precision="FP32">
					<dim>-1</dim>
					<dim>-1</dim>
					<dim>768</dim>
				</port>
			</input>
			<output>
				<port id="2" precision="FP32" names="142,input.11">
					<dim>-1</dim>
					<dim>-1</dim>
					<dim>768</dim>
				</port>
			</output>
		</layer>
		<layer id="109" name="__module.encoder.layers.0.layer_norm2/aten::layer_norm/Multiply" type="Const" version="opset1">
			<data element_type="i32" shape="1" offset="1482300" size="4" />
			<output>
				<port id="0" precision="I32">
					<dim>1</dim>
				</port>
			</output>
		</layer>
		<layer id="110" name="__module.encoder.layers.0.layer_norm2/aten::layer_norm/MVN" type="MVN" version="opset6">
			<data eps="9.9999997473787516e-06" normalize_variance="true" eps_mode="INSIDE_SQRT" />
			<input>
				<port id="0" precision="FP32">
					<dim>-1</dim>
					<dim>-1</dim>
					<dim>768</dim>
				</port>
				<port id="1" precision="I32">
					<dim>1</dim>
				</port>
			</input>
			<output>
				<port id="2" precision="FP32">
					<dim>-1</dim>
					<dim>-1</dim>
					<dim>768</dim>
				</port>
			</output>
		</layer>
		<layer id="111" name="Constant_9170_compressed" type="Const" version="opset1">
			<data element_type="f16" shape="1, 1, 768" offset="3869426" size="1536" />
			<output>
				<port id="0" precision="FP16">
					<dim>1</dim>
					<dim>1</dim>
					<dim>768</dim>
				</port>
			</output>
		</layer>
		<layer id="112" name="Constant_9170" type="Convert" version="opset1">
			<data destination_type="f32" />
			<rt_info>
				<attribute name="decompression" version="0" />
			</rt_info>
			<input>
				<port id="0" precision="FP16">
					<dim>1</dim>
					<dim>1</dim>
					<dim>768</dim>
				</port>
			</input>
			<output>
				<port id="1" precision="FP32">
					<dim>1</dim>
					<dim>1</dim>
					<dim>768</dim>
				</port>
			</output>
		</layer>
		<layer id="113" name="__module.encoder.layers.0.layer_norm2/aten::layer_norm/Multiply_1" type="Multiply" version="opset1">
			<data auto_broadcast="numpy" />
			<input>
				<port id="0" precision="FP32">
					<dim>-1</dim>
					<dim>-1</dim>
					<dim>768</dim>
				</port>
				<port id="1" precision="FP32">
					<dim>1</dim>
					<dim>1</dim>
					<dim>768</dim>
				</port>
			</input>
			<output>
				<port id="2" precision="FP32">
					<dim>-1</dim>
					<dim>-1</dim>
					<dim>768</dim>
				</port>
			</output>
		</layer>
		<layer id="114" name="Constant_9171_compressed" type="Const" version="opset1">
			<data element_type="f16" shape="1, 1, 768" offset="3870962" size="1536" />
			<output>
				<port id="0" precision="FP16">
					<dim>1</dim>
					<dim>1</dim>
					<dim>768</dim>
				</port>
			</output>
		</layer>
		<layer id="115" name="Constant_9171" type="Convert" version="opset1">
			<data destination_type="f32" />
			<rt_info>
				<attribute name="decompression" version="0" />
			</rt_info>
			<input>
				<port id="0" precision="FP16">
					<dim>1</dim>
					<dim>1</dim>
					<dim>768</dim>
				</port>
			</input>
			<output>
				<port id="1" precision="FP32">
					<dim>1</dim>
					<dim>1</dim>
					<dim>768</dim>
				</port>
			</output>
		</layer>
		<layer id="116" name="__module.encoder.layers.0.layer_norm2/aten::layer_norm/Add" type="Add" version="opset1">
			<data auto_broadcast="numpy" />
			<input>
				<port id="0" precision="FP32">
					<dim>-1</dim>
					<dim>-1</dim>
					<dim>768</dim>
				</port>
				<port id="1" precision="FP32">
					<dim>1</dim>
					<dim>1</dim>
					<dim>768</dim>
				</port>
			</input>
			<output>
				<port id="2" precision="FP32" names="146,input.13">
					<dim>-1</dim>
					<dim>-1</dim>
					<dim>768</dim>
				</port>
			</output>
		</layer>
		<layer id="117" name="__module.encoder.layers.0.layer_norm2/aten::layer_norm/Add_0_0/nncf_smooth_quant/scale" type="Const" version="opset1">
			<data element_type="f32" shape="1, 1, 768" offset="3872498" size="3072" />
			<output>
				<port id="0" precision="FP32">
					<dim>1</dim>
					<dim>1</dim>
					<dim>768</dim>
				</port>
			</output>
		</layer>
		<layer id="118" name="__module.encoder.layers.0.layer_norm2/aten::layer_norm/Add_0_0/nncf_smooth_quant" type="Multiply" version="opset1">
			<data auto_broadcast="numpy" />
			<input>
				<port id="0" precision="FP32">
					<dim>-1</dim>
					<dim>-1</dim>
					<dim>768</dim>
				</port>
				<port id="1" precision="FP32">
					<dim>1</dim>
					<dim>1</dim>
					<dim>768</dim>
				</port>
			</input>
			<output>
				<port id="2" precision="FP32">
					<dim>-1</dim>
					<dim>-1</dim>
					<dim>768</dim>
				</port>
			</output>
		</layer>
		<layer id="119" name="__module.encoder.layers.0.layer_norm2/aten::layer_norm/Add_0_0/nncf_smooth_quant/fq_output_0/input_low" type="Const" version="opset1">
			<data element_type="f32" shape="" offset="3875570" size="4" />
			<output>
				<port id="0" precision="FP32" />
			</output>
		</layer>
		<layer id="120" name="__module.encoder.layers.0.layer_norm2/aten::layer_norm/Add_0_0/nncf_smooth_quant/fq_output_0/input_high" type="Const" version="opset1">
			<data element_type="f32" shape="" offset="3875574" size="4" />
			<output>
				<port id="0" precision="FP32" />
			</output>
		</layer>
		<layer id="121" name="__module.encoder.layers.0.layer_norm2/aten::layer_norm/Add_0_0/nncf_smooth_quant/fq_output_0/output_low" type="Const" version="opset1">
			<data element_type="f32" shape="" offset="3875570" size="4" />
			<output>
				<port id="0" precision="FP32" />
			</output>
		</layer>
		<layer id="122" name="__module.encoder.layers.0.layer_norm2/aten::layer_norm/Add_0_0/nncf_smooth_quant/fq_output_0/output_high" type="Const" version="opset1">
			<data element_type="f32" shape="" offset="3875574" size="4" />
			<output>
				<port id="0" precision="FP32" />
			</output>
		</layer>
		<layer id="123" name="__module.encoder.layers.0.layer_norm2/aten::layer_norm/Add_0_0/nncf_smooth_quant/fq_output_0" type="FakeQuantize" version="opset1">
			<data levels="256" auto_broadcast="numpy" />
			<input>
				<port id="0" precision="FP32">
					<dim>-1</dim>
					<dim>-1</dim>
					<dim>768</dim>
				</port>
				<port id="1" precision="FP32" />
				<port id="2" precision="FP32" />
				<port id="3" precision="FP32" />
				<port id="4" precision="FP32" />
			</input>
			<output>
				<port id="5" precision="FP32">
					<dim>-1</dim>
					<dim>-1</dim>
					<dim>768</dim>
				</port>
			</output>
		</layer>
		<layer id="124" name="Constant_383964" type="Const" version="opset1">
			<data element_type="i8" shape="3072, 768" offset="3875578" size="2359296" />
			<output>
				<port id="0" precision="I8">
					<dim>3072</dim>
					<dim>768</dim>
				</port>
			</output>
		</layer>
		<layer id="125" name="Convert_383965" type="Convert" version="opset1">
			<data destination_type="f32" />
			<input>
				<port id="0" precision="I8">
					<dim>3072</dim>
					<dim>768</dim>
				</port>
			</input>
			<output>
				<port id="1" precision="FP32">
					<dim>3072</dim>
					<dim>768</dim>
				</port>
			</output>
		</layer>
		<layer id="126" name="Constant_383966" type="Const" version="opset1">
			<data element_type="f32" shape="3072, 1" offset="6234874" size="12288" />
			<output>
				<port id="0" precision="FP32">
					<dim>3072</dim>
					<dim>1</dim>
				</port>
			</output>
		</layer>
		<layer id="127" name="__module.encoder.layers.0.mlp.fc1/aten::linear/MatMul/fq_weights_1" type="Multiply" version="opset1">
			<data auto_broadcast="numpy" />
			<input>
				<port id="0" precision="FP32">
					<dim>3072</dim>
					<dim>768</dim>
				</port>
				<port id="1" precision="FP32">
					<dim>3072</dim>
					<dim>1</dim>
				</port>
			</input>
			<output>
				<port id="2" precision="FP32">
					<dim>3072</dim>
					<dim>768</dim>
				</port>
			</output>
		</layer>
		<layer id="128" name="__module.encoder.layers.0.mlp.fc1/aten::linear/MatMul" type="MatMul" version="opset1">
			<data transpose_a="false" transpose_b="true" />
			<input>
				<port id="0" precision="FP32">
					<dim>-1</dim>
					<dim>-1</dim>
					<dim>768</dim>
				</port>
				<port id="1" precision="FP32">
					<dim>3072</dim>
					<dim>768</dim>
				</port>
			</input>
			<output>
				<port id="2" precision="FP32">
					<dim>-1</dim>
					<dim>-1</dim>
					<dim>3072</dim>
				</port>
			</output>
		</layer>
		<layer id="129" name="Constant_9172_compressed" type="Const" version="opset1">
			<data element_type="f16" shape="1, 1, 3072" offset="6247162" size="6144" />
			<output>
				<port id="0" precision="FP16">
					<dim>1</dim>
					<dim>1</dim>
					<dim>3072</dim>
				</port>
			</output>
		</layer>
		<layer id="130" name="Constant_9172" type="Convert" version="opset1">
			<data destination_type="f32" />
			<rt_info>
				<attribute name="decompression" version="0" />
			</rt_info>
			<input>
				<port id="0" precision="FP16">
					<dim>1</dim>
					<dim>1</dim>
					<dim>3072</dim>
				</port>
			</input>
			<output>
				<port id="1" precision="FP32">
					<dim>1</dim>
					<dim>1</dim>
					<dim>3072</dim>
				</port>
			</output>
		</layer>
		<layer id="131" name="__module.encoder.layers.0.mlp.fc1/aten::linear/Add" type="Add" version="opset1">
			<data auto_broadcast="numpy" />
			<input>
				<port id="0" precision="FP32">
					<dim>-1</dim>
					<dim>-1</dim>
					<dim>3072</dim>
				</port>
				<port id="1" precision="FP32">
					<dim>1</dim>
					<dim>1</dim>
					<dim>3072</dim>
				</port>
			</input>
			<output>
				<port id="2" precision="FP32" names="152,input.15">
					<dim>-1</dim>
					<dim>-1</dim>
					<dim>3072</dim>
				</port>
			</output>
		</layer>
		<layer id="132" name="__module.encoder.layers.0.mlp.activation_fn/aten::gelu/Gelu" type="Gelu" version="opset7">
			<data approximation_mode="ERF" />
			<input>
				<port id="0" precision="FP32">
					<dim>-1</dim>
					<dim>-1</dim>
					<dim>3072</dim>
				</port>
			</input>
			<output>
				<port id="1" precision="FP32" names="153,input.17">
					<dim>-1</dim>
					<dim>-1</dim>
					<dim>3072</dim>
				</port>
			</output>
		</layer>
		<layer id="133" name="__module.encoder.layers.0.mlp.activation_fn/aten::gelu/Gelu_0_0/nncf_smooth_quant/scale" type="Const" version="opset1">
			<data element_type="f32" shape="1, 1, 3072" offset="6253306" size="12288" />
			<output>
				<port id="0" precision="FP32">
					<dim>1</dim>
					<dim>1</dim>
					<dim>3072</dim>
				</port>
			</output>
		</layer>
		<layer id="134" name="__module.encoder.layers.0.mlp.activation_fn/aten::gelu/Gelu_0_0/nncf_smooth_quant" type="Multiply" version="opset1">
			<data auto_broadcast="numpy" />
			<input>
				<port id="0" precision="FP32">
					<dim>-1</dim>
					<dim>-1</dim>
					<dim>3072</dim>
				</port>
				<port id="1" precision="FP32">
					<dim>1</dim>
					<dim>1</dim>
					<dim>3072</dim>
				</port>
			</input>
			<output>
				<port id="2" precision="FP32">
					<dim>-1</dim>
					<dim>-1</dim>
					<dim>3072</dim>
				</port>
			</output>
		</layer>
		<layer id="135" name="__module.encoder.layers.0.mlp.activation_fn/aten::gelu/Gelu_0_0/nncf_smooth_quant/fq_output_0/input_low" type="Const" version="opset1">
			<data element_type="f32" shape="" offset="6265594" size="4" />
			<output>
				<port id="0" precision="FP32" />
			</output>
		</layer>
		<layer id="136" name="__module.encoder.layers.0.mlp.activation_fn/aten::gelu/Gelu_0_0/nncf_smooth_quant/fq_output_0/input_high" type="Const" version="opset1">
			<data element_type="f32" shape="" offset="6265598" size="4" />
			<output>
				<port id="0" precision="FP32" />
			</output>
		</layer>
		<layer id="137" name="__module.encoder.layers.0.mlp.activation_fn/aten::gelu/Gelu_0_0/nncf_smooth_quant/fq_output_0/output_low" type="Const" version="opset1">
			<data element_type="f32" shape="" offset="6265594" size="4" />
			<output>
				<port id="0" precision="FP32" />
			</output>
		</layer>
		<layer id="138" name="__module.encoder.layers.0.mlp.activation_fn/aten::gelu/Gelu_0_0/nncf_smooth_quant/fq_output_0/output_high" type="Const" version="opset1">
			<data element_type="f32" shape="" offset="6265598" size="4" />
			<output>
				<port id="0" precision="FP32" />
			</output>
		</layer>
		<layer id="139" name="__module.encoder.layers.0.mlp.activation_fn/aten::gelu/Gelu_0_0/nncf_smooth_quant/fq_output_0" type="FakeQuantize" version="opset1">
			<data levels="256" auto_broadcast="numpy" />
			<input>
				<port id="0" precision="FP32">
					<dim>-1</dim>
					<dim>-1</dim>
					<dim>3072</dim>
				</port>
				<port id="1" precision="FP32" />
				<port id="2" precision="FP32" />
				<port id="3" precision="FP32" />
				<port id="4" precision="FP32" />
			</input>
			<output>
				<port id="5" precision="FP32">
					<dim>-1</dim>
					<dim>-1</dim>
					<dim>3072</dim>
				</port>
			</output>
		</layer>
		<layer id="140" name="Constant_383969" type="Const" version="opset1">
			<data element_type="i8" shape="768, 3072" offset="6265602" size="2359296" />
			<output>
				<port id="0" precision="I8">
					<dim>768</dim>
					<dim>3072</dim>
				</port>
			</output>
		</layer>
		<layer id="141" name="Convert_383970" type="Convert" version="opset1">
			<data destination_type="f32" />
			<input>
				<port id="0" precision="I8">
					<dim>768</dim>
					<dim>3072</dim>
				</port>
			</input>
			<output>
				<port id="1" precision="FP32">
					<dim>768</dim>
					<dim>3072</dim>
				</port>
			</output>
		</layer>
		<layer id="142" name="Constant_383971" type="Const" version="opset1">
			<data element_type="f32" shape="768, 1" offset="8624898" size="3072" />
			<output>
				<port id="0" precision="FP32">
					<dim>768</dim>
					<dim>1</dim>
				</port>
			</output>
		</layer>
		<layer id="143" name="__module.encoder.layers.0.mlp.fc2/aten::linear/MatMul/fq_weights_1" type="Multiply" version="opset1">
			<data auto_broadcast="numpy" />
			<input>
				<port id="0" precision="FP32">
					<dim>768</dim>
					<dim>3072</dim>
				</port>
				<port id="1" precision="FP32">
					<dim>768</dim>
					<dim>1</dim>
				</port>
			</input>
			<output>
				<port id="2" precision="FP32">
					<dim>768</dim>
					<dim>3072</dim>
				</port>
			</output>
		</layer>
		<layer id="144" name="__module.encoder.layers.0.mlp.fc2/aten::linear/MatMul" type="MatMul" version="opset1">
			<data transpose_a="false" transpose_b="true" />
			<input>
				<port id="0" precision="FP32">
					<dim>-1</dim>
					<dim>-1</dim>
					<dim>3072</dim>
				</port>
				<port id="1" precision="FP32">
					<dim>768</dim>
					<dim>3072</dim>
				</port>
			</input>
			<output>
				<port id="2" precision="FP32">
					<dim>-1</dim>
					<dim>-1</dim>
					<dim>768</dim>
				</port>
			</output>
		</layer>
		<layer id="145" name="Constant_9173_compressed" type="Const" version="opset1">
			<data element_type="f16" shape="1, 1, 768" offset="8627970" size="1536" />
			<output>
				<port id="0" precision="FP16">
					<dim>1</dim>
					<dim>1</dim>
					<dim>768</dim>
				</port>
			</output>
		</layer>
		<layer id="146" name="Constant_9173" type="Convert" version="opset1">
			<data destination_type="f32" />
			<rt_info>
				<attribute name="decompression" version="0" />
			</rt_info>
			<input>
				<port id="0" precision="FP16">
					<dim>1</dim>
					<dim>1</dim>
					<dim>768</dim>
				</port>
			</input>
			<output>
				<port id="1" precision="FP32">
					<dim>1</dim>
					<dim>1</dim>
					<dim>768</dim>
				</port>
			</output>
		</layer>
		<layer id="147" name="__module.encoder.layers.0.mlp.fc2/aten::linear/Add" type="Add" version="opset1">
			<data auto_broadcast="numpy" />
			<input>
				<port id="0" precision="FP32">
					<dim>-1</dim>
					<dim>-1</dim>
					<dim>768</dim>
				</port>
				<port id="1" precision="FP32">
					<dim>1</dim>
					<dim>1</dim>
					<dim>768</dim>
				</port>
			</input>
			<output>
				<port id="2" precision="FP32" names="156,hidden_states.5">
					<dim>-1</dim>
					<dim>-1</dim>
					<dim>768</dim>
				</port>
			</output>
		</layer>
		<layer id="148" name="__module.encoder.layers.0/aten::add/Add_1" type="Add" version="opset1">
			<data auto_broadcast="numpy" />
			<input>
				<port id="0" precision="FP32">
					<dim>-1</dim>
					<dim>-1</dim>
					<dim>768</dim>
				</port>
				<port id="1" precision="FP32">
					<dim>-1</dim>
					<dim>-1</dim>
					<dim>768</dim>
				</port>
			</input>
			<output>
				<port id="2" precision="FP32" names="157,input.19">
					<dim>-1</dim>
					<dim>-1</dim>
					<dim>768</dim>
				</port>
			</output>
		</layer>
		<layer id="149" name="__module.encoder.layers.1.layer_norm1/aten::layer_norm/Multiply" type="Const" version="opset1">
			<data element_type="i32" shape="1" offset="1482300" size="4" />
			<output>
				<port id="0" precision="I32">
					<dim>1</dim>
				</port>
			</output>
		</layer>
		<layer id="150" name="__module.encoder.layers.1.layer_norm1/aten::layer_norm/MVN" type="MVN" version="opset6">
			<data eps="9.9999997473787516e-06" normalize_variance="true" eps_mode="INSIDE_SQRT" />
			<input>
				<port id="0" precision="FP32">
					<dim>-1</dim>
					<dim>-1</dim>
					<dim>768</dim>
				</port>
				<port id="1" precision="I32">
					<dim>1</dim>
				</port>
			</input>
			<output>
				<port id="2" precision="FP32">
					<dim>-1</dim>
					<dim>-1</dim>
					<dim>768</dim>
				</port>
			</output>
		</layer>
		<layer id="151" name="Constant_9174_compressed" type="Const" version="opset1">
			<data element_type="f16" shape="1, 1, 768" offset="8629506" size="1536" />
			<output>
				<port id="0" precision="FP16">
					<dim>1</dim>
					<dim>1</dim>
					<dim>768</dim>
				</port>
			</output>
		</layer>
		<layer id="152" name="Constant_9174" type="Convert" version="opset1">
			<data destination_type="f32" />
			<rt_info>
				<attribute name="decompression" version="0" />
			</rt_info>
			<input>
				<port id="0" precision="FP16">
					<dim>1</dim>
					<dim>1</dim>
					<dim>768</dim>
				</port>
			</input>
			<output>
				<port id="1" precision="FP32">
					<dim>1</dim>
					<dim>1</dim>
					<dim>768</dim>
				</port>
			</output>
		</layer>
		<layer id="153" name="__module.encoder.layers.1.layer_norm1/aten::layer_norm/Multiply_1" type="Multiply" version="opset1">
			<data auto_broadcast="numpy" />
			<input>
				<port id="0" precision="FP32">
					<dim>-1</dim>
					<dim>-1</dim>
					<dim>768</dim>
				</port>
				<port id="1" precision="FP32">
					<dim>1</dim>
					<dim>1</dim>
					<dim>768</dim>
				</port>
			</input>
			<output>
				<port id="2" precision="FP32">
					<dim>-1</dim>
					<dim>-1</dim>
					<dim>768</dim>
				</port>
			</output>
		</layer>
		<layer id="154" name="Constant_9175_compressed" type="Const" version="opset1">
			<data element_type="f16" shape="1, 1, 768" offset="8631042" size="1536" />
			<output>
				<port id="0" precision="FP16">
					<dim>1</dim>
					<dim>1</dim>
					<dim>768</dim>
				</port>
			</output>
		</layer>
		<layer id="155" name="Constant_9175" type="Convert" version="opset1">
			<data destination_type="f32" />
			<rt_info>
				<attribute name="decompression" version="0" />
			</rt_info>
			<input>
				<port id="0" precision="FP16">
					<dim>1</dim>
					<dim>1</dim>
					<dim>768</dim>
				</port>
			</input>
			<output>
				<port id="1" precision="FP32">
					<dim>1</dim>
					<dim>1</dim>
					<dim>768</dim>
				</port>
			</output>
		</layer>
		<layer id="156" name="__module.encoder.layers.1.layer_norm1/aten::layer_norm/Add" type="Add" version="opset1">
			<data auto_broadcast="numpy" />
			<input>
				<port id="0" precision="FP32">
					<dim>-1</dim>
					<dim>-1</dim>
					<dim>768</dim>
				</port>
				<port id="1" precision="FP32">
					<dim>1</dim>
					<dim>1</dim>
					<dim>768</dim>
				</port>
			</input>
			<output>
				<port id="2" precision="FP32" names="165,hidden_states.7">
					<dim>-1</dim>
					<dim>-1</dim>
					<dim>768</dim>
				</port>
			</output>
		</layer>
		<layer id="157" name="__module.encoder.layers.1.layer_norm1/aten::layer_norm/Add_0_0/nncf_smooth_quant/scale" type="Const" version="opset1">
			<data element_type="f32" shape="1, 1, 768" offset="8632578" size="3072" />
			<output>
				<port id="0" precision="FP32">
					<dim>1</dim>
					<dim>1</dim>
					<dim>768</dim>
				</port>
			</output>
		</layer>
		<layer id="158" name="__module.encoder.layers.1.layer_norm1/aten::layer_norm/Add_0_0/nncf_smooth_quant" type="Multiply" version="opset1">
			<data auto_broadcast="numpy" />
			<input>
				<port id="0" precision="FP32">
					<dim>-1</dim>
					<dim>-1</dim>
					<dim>768</dim>
				</port>
				<port id="1" precision="FP32">
					<dim>1</dim>
					<dim>1</dim>
					<dim>768</dim>
				</port>
			</input>
			<output>
				<port id="2" precision="FP32">
					<dim>-1</dim>
					<dim>-1</dim>
					<dim>768</dim>
				</port>
			</output>
		</layer>
		<layer id="159" name="__module.encoder.layers.1.layer_norm1/aten::layer_norm/Add_0_0/nncf_smooth_quant/fq_output_0/input_low" type="Const" version="opset1">
			<data element_type="f32" shape="" offset="8635650" size="4" />
			<output>
				<port id="0" precision="FP32" />
			</output>
		</layer>
		<layer id="160" name="__module.encoder.layers.1.layer_norm1/aten::layer_norm/Add_0_0/nncf_smooth_quant/fq_output_0/input_high" type="Const" version="opset1">
			<data element_type="f32" shape="" offset="8635654" size="4" />
			<output>
				<port id="0" precision="FP32" />
			</output>
		</layer>
		<layer id="161" name="__module.encoder.layers.1.layer_norm1/aten::layer_norm/Add_0_0/nncf_smooth_quant/fq_output_0/output_low" type="Const" version="opset1">
			<data element_type="f32" shape="" offset="8635650" size="4" />
			<output>
				<port id="0" precision="FP32" />
			</output>
		</layer>
		<layer id="162" name="__module.encoder.layers.1.layer_norm1/aten::layer_norm/Add_0_0/nncf_smooth_quant/fq_output_0/output_high" type="Const" version="opset1">
			<data element_type="f32" shape="" offset="8635654" size="4" />
			<output>
				<port id="0" precision="FP32" />
			</output>
		</layer>
		<layer id="163" name="__module.encoder.layers.1.layer_norm1/aten::layer_norm/Add_0_0/nncf_smooth_quant/fq_output_0" type="FakeQuantize" version="opset1">
			<data levels="256" auto_broadcast="numpy" />
			<input>
				<port id="0" precision="FP32">
					<dim>-1</dim>
					<dim>-1</dim>
					<dim>768</dim>
				</port>
				<port id="1" precision="FP32" />
				<port id="2" precision="FP32" />
				<port id="3" precision="FP32" />
				<port id="4" precision="FP32" />
			</input>
			<output>
				<port id="5" precision="FP32">
					<dim>-1</dim>
					<dim>-1</dim>
					<dim>768</dim>
				</port>
			</output>
		</layer>
		<layer id="164" name="Constant_383974" type="Const" version="opset1">
			<data element_type="i8" shape="2304, 768" offset="8635658" size="1769472" />
			<output>
				<port id="0" precision="I8">
					<dim>2304</dim>
					<dim>768</dim>
				</port>
			</output>
		</layer>
		<layer id="165" name="Convert_383975" type="Convert" version="opset1">
			<data destination_type="f32" />
			<input>
				<port id="0" precision="I8">
					<dim>2304</dim>
					<dim>768</dim>
				</port>
			</input>
			<output>
				<port id="1" precision="FP32">
					<dim>2304</dim>
					<dim>768</dim>
				</port>
			</output>
		</layer>
		<layer id="166" name="Constant_383976" type="Const" version="opset1">
			<data element_type="f32" shape="2304, 1" offset="10405130" size="9216" />
			<output>
				<port id="0" precision="FP32">
					<dim>2304</dim>
					<dim>1</dim>
				</port>
			</output>
		</layer>
		<layer id="167" name="__module.encoder.layers.1.self_attn.qkv/aten::linear/MatMul/fq_weights_1" type="Multiply" version="opset1">
			<data auto_broadcast="numpy" />
			<input>
				<port id="0" precision="FP32">
					<dim>2304</dim>
					<dim>768</dim>
				</port>
				<port id="1" precision="FP32">
					<dim>2304</dim>
					<dim>1</dim>
				</port>
			</input>
			<output>
				<port id="2" precision="FP32">
					<dim>2304</dim>
					<dim>768</dim>
				</port>
			</output>
		</layer>
		<layer id="168" name="__module.encoder.layers.1.self_attn.qkv/aten::linear/MatMul" type="MatMul" version="opset1">
			<data transpose_a="false" transpose_b="true" />
			<input>
				<port id="0" precision="FP32">
					<dim>-1</dim>
					<dim>-1</dim>
					<dim>768</dim>
				</port>
				<port id="1" precision="FP32">
					<dim>2304</dim>
					<dim>768</dim>
				</port>
			</input>
			<output>
				<port id="2" precision="FP32">
					<dim>-1</dim>
					<dim>-1</dim>
					<dim>2304</dim>
				</port>
			</output>
		</layer>
		<layer id="169" name="Constant_9176_compressed" type="Const" version="opset1">
			<data element_type="f16" shape="1, 1, 2304" offset="10414346" size="4608" />
			<output>
				<port id="0" precision="FP16">
					<dim>1</dim>
					<dim>1</dim>
					<dim>2304</dim>
				</port>
			</output>
		</layer>
		<layer id="170" name="Constant_9176" type="Convert" version="opset1">
			<data destination_type="f32" />
			<rt_info>
				<attribute name="decompression" version="0" />
			</rt_info>
			<input>
				<port id="0" precision="FP16">
					<dim>1</dim>
					<dim>1</dim>
					<dim>2304</dim>
				</port>
			</input>
			<output>
				<port id="1" precision="FP32">
					<dim>1</dim>
					<dim>1</dim>
					<dim>2304</dim>
				</port>
			</output>
		</layer>
		<layer id="171" name="__module.encoder.layers.1.self_attn.qkv/aten::linear/Add" type="Add" version="opset1">
			<data auto_broadcast="numpy" />
			<input>
				<port id="0" precision="FP32">
					<dim>-1</dim>
					<dim>-1</dim>
					<dim>2304</dim>
				</port>
				<port id="1" precision="FP32">
					<dim>1</dim>
					<dim>1</dim>
					<dim>2304</dim>
				</port>
			</input>
			<output>
				<port id="2" precision="FP32" names="174">
					<dim>-1</dim>
					<dim>-1</dim>
					<dim>2304</dim>
				</port>
			</output>
		</layer>
		<layer id="172" name="Constant_9463" type="Const" version="opset1">
			<data element_type="i64" shape="5" offset="3271752" size="40" />
			<rt_info>
				<attribute name="precise" version="0" />
			</rt_info>
			<output>
				<port id="0" precision="I64">
					<dim>5</dim>
				</port>
			</output>
		</layer>
		<layer id="173" name="__module.encoder.layers.1.self_attn/aten::reshape/Reshape" type="Reshape" version="opset1">
			<data special_zero="true" />
			<input>
				<port id="0" precision="FP32">
					<dim>-1</dim>
					<dim>-1</dim>
					<dim>2304</dim>
				</port>
				<port id="1" precision="I64">
					<dim>5</dim>
				</port>
			</input>
			<output>
				<port id="2" precision="FP32" names="178">
					<dim>-1</dim>
					<dim>-1</dim>
					<dim>3</dim>
					<dim>12</dim>
					<dim>64</dim>
				</port>
			</output>
		</layer>
		<layer id="174" name="Constant_642" type="Const" version="opset1">
			<data element_type="i64" shape="5" offset="3271792" size="40" />
			<output>
				<port id="0" precision="I64" names="179">
					<dim>5</dim>
				</port>
			</output>
		</layer>
		<layer id="175" name="__module.encoder.layers.1.self_attn/aten::permute/Transpose" type="Transpose" version="opset1">
			<input>
				<port id="0" precision="FP32">
					<dim>-1</dim>
					<dim>-1</dim>
					<dim>3</dim>
					<dim>12</dim>
					<dim>64</dim>
				</port>
				<port id="1" precision="I64">
					<dim>5</dim>
				</port>
			</input>
			<output>
				<port id="2" precision="FP32" names="180,mixed_qkv.3">
					<dim>3</dim>
					<dim>-1</dim>
					<dim>12</dim>
					<dim>-1</dim>
					<dim>64</dim>
				</port>
			</output>
		</layer>
		<layer id="176" name="__module.encoder.layers.1.self_attn/aten::select/Gather/fq_input_0/input_low" type="Const" version="opset1">
			<data element_type="f32" shape="" offset="10418954" size="4" />
			<output>
				<port id="0" precision="FP32" />
			</output>
		</layer>
		<layer id="177" name="__module.encoder.layers.1.self_attn/aten::select/Gather/fq_input_0/input_high" type="Const" version="opset1">
			<data element_type="f32" shape="" offset="10418958" size="4" />
			<output>
				<port id="0" precision="FP32" />
			</output>
		</layer>
		<layer id="178" name="__module.encoder.layers.1.self_attn/aten::select/Gather/fq_input_0/output_low" type="Const" version="opset1">
			<data element_type="f32" shape="" offset="10418954" size="4" />
			<output>
				<port id="0" precision="FP32" />
			</output>
		</layer>
		<layer id="179" name="__module.encoder.layers.1.self_attn/aten::select/Gather/fq_input_0/output_high" type="Const" version="opset1">
			<data element_type="f32" shape="" offset="10418958" size="4" />
			<output>
				<port id="0" precision="FP32" />
			</output>
		</layer>
		<layer id="180" name="__module.encoder.layers.1.self_attn/aten::select/Gather/fq_input_0" type="FakeQuantize" version="opset1">
			<data levels="256" auto_broadcast="numpy" />
			<input>
				<port id="0" precision="FP32">
					<dim>3</dim>
					<dim>-1</dim>
					<dim>12</dim>
					<dim>-1</dim>
					<dim>64</dim>
				</port>
				<port id="1" precision="FP32" />
				<port id="2" precision="FP32" />
				<port id="3" precision="FP32" />
				<port id="4" precision="FP32" />
			</input>
			<output>
				<port id="5" precision="FP32">
					<dim>3</dim>
					<dim>-1</dim>
					<dim>12</dim>
					<dim>-1</dim>
					<dim>64</dim>
				</port>
			</output>
		</layer>
		<layer id="181" name="__module.encoder.layers.1.self_attn/aten::select/Gather" type="Gather" version="opset8">
			<data batch_dims="0" />
			<input>
				<port id="0" precision="FP32">
					<dim>3</dim>
					<dim>-1</dim>
					<dim>12</dim>
					<dim>-1</dim>
					<dim>64</dim>
				</port>
				<port id="1" precision="I64" />
				<port id="2" precision="I64" />
			</input>
			<output>
				<port id="3" precision="FP32" names="181,query_states.3">
					<dim>-1</dim>
					<dim>12</dim>
					<dim>-1</dim>
					<dim>64</dim>
				</port>
			</output>
		</layer>
		<layer id="182" name="__module.encoder.layers.1.self_attn/aten::select/Gather_1" type="Gather" version="opset8">
			<data batch_dims="0" />
			<input>
				<port id="0" precision="FP32">
					<dim>3</dim>
					<dim>-1</dim>
					<dim>12</dim>
					<dim>-1</dim>
					<dim>64</dim>
				</port>
				<port id="1" precision="I64" />
				<port id="2" precision="I64" />
			</input>
			<output>
				<port id="3" precision="FP32" names="182,key_states.3">
					<dim>-1</dim>
					<dim>12</dim>
					<dim>-1</dim>
					<dim>64</dim>
				</port>
			</output>
		</layer>
		<layer id="183" name="Constant_9177_compressed" type="Const" version="opset1">
			<data element_type="f16" shape="1, 1, 1, 1" offset="3271840" size="2" />
			<output>
				<port id="0" precision="FP16">
					<dim>1</dim>
					<dim>1</dim>
					<dim>1</dim>
					<dim>1</dim>
				</port>
			</output>
		</layer>
		<layer id="184" name="Constant_9177" type="Convert" version="opset1">
			<data destination_type="f32" />
			<rt_info>
				<attribute name="decompression" version="0" />
			</rt_info>
			<input>
				<port id="0" precision="FP16">
					<dim>1</dim>
					<dim>1</dim>
					<dim>1</dim>
					<dim>1</dim>
				</port>
			</input>
			<output>
				<port id="1" precision="FP32">
					<dim>1</dim>
					<dim>1</dim>
					<dim>1</dim>
					<dim>1</dim>
				</port>
			</output>
		</layer>
		<layer id="185" name="Multiply_9051" type="Multiply" version="opset1">
			<data auto_broadcast="numpy" />
			<input>
				<port id="0" precision="FP32">
					<dim>-1</dim>
					<dim>12</dim>
					<dim>-1</dim>
					<dim>64</dim>
				</port>
				<port id="1" precision="FP32">
					<dim>1</dim>
					<dim>1</dim>
					<dim>1</dim>
					<dim>1</dim>
				</port>
			</input>
			<output>
				<port id="2" precision="FP32">
					<dim>-1</dim>
					<dim>12</dim>
					<dim>-1</dim>
					<dim>64</dim>
				</port>
			</output>
		</layer>
		<layer id="186" name="Multiply_9051/fq_output_0/input_low" type="Const" version="opset1">
			<data element_type="f32" shape="" offset="10418962" size="4" />
			<output>
				<port id="0" precision="FP32" />
			</output>
		</layer>
		<layer id="187" name="Multiply_9051/fq_output_0/input_high" type="Const" version="opset1">
			<data element_type="f32" shape="" offset="10418966" size="4" />
			<output>
				<port id="0" precision="FP32" />
			</output>
		</layer>
		<layer id="188" name="Multiply_9051/fq_output_0/output_low" type="Const" version="opset1">
			<data element_type="f32" shape="" offset="10418962" size="4" />
			<output>
				<port id="0" precision="FP32" />
			</output>
		</layer>
		<layer id="189" name="Multiply_9051/fq_output_0/output_high" type="Const" version="opset1">
			<data element_type="f32" shape="" offset="10418966" size="4" />
			<output>
				<port id="0" precision="FP32" />
			</output>
		</layer>
		<layer id="190" name="Multiply_9051/fq_output_0" type="FakeQuantize" version="opset1">
			<data levels="256" auto_broadcast="numpy" />
			<input>
				<port id="0" precision="FP32">
					<dim>-1</dim>
					<dim>12</dim>
					<dim>-1</dim>
					<dim>64</dim>
				</port>
				<port id="1" precision="FP32" />
				<port id="2" precision="FP32" />
				<port id="3" precision="FP32" />
				<port id="4" precision="FP32" />
			</input>
			<output>
				<port id="5" precision="FP32">
					<dim>-1</dim>
					<dim>12</dim>
					<dim>-1</dim>
					<dim>64</dim>
				</port>
			</output>
		</layer>
		<layer id="191" name="__module.encoder.layers.1.self_attn/aten::mul/Multiply" type="MatMul" version="opset1">
			<data transpose_a="false" transpose_b="true" />
			<input>
				<port id="0" precision="FP32">
					<dim>-1</dim>
					<dim>12</dim>
					<dim>-1</dim>
					<dim>64</dim>
				</port>
				<port id="1" precision="FP32">
					<dim>-1</dim>
					<dim>12</dim>
					<dim>-1</dim>
					<dim>64</dim>
				</port>
			</input>
			<output>
				<port id="2" precision="FP32" names="186,input.21">
					<dim>-1</dim>
					<dim>12</dim>
					<dim>-1</dim>
					<dim>-1</dim>
				</port>
			</output>
		</layer>
		<layer id="192" name="__module.encoder.layers.1.self_attn/aten::softmax/Softmax" type="SoftMax" version="opset8">
			<data axis="-1" />
			<input>
				<port id="0" precision="FP32">
					<dim>-1</dim>
					<dim>12</dim>
					<dim>-1</dim>
					<dim>-1</dim>
				</port>
			</input>
			<output>
				<port id="1" precision="FP32" names="187,input.23">
					<dim>-1</dim>
					<dim>12</dim>
					<dim>-1</dim>
					<dim>-1</dim>
				</port>
			</output>
		</layer>
		<layer id="193" name="__module.encoder.layers.1.self_attn/aten::select/Gather_2" type="Gather" version="opset8">
			<data batch_dims="0" />
			<input>
				<port id="0" precision="FP32">
					<dim>3</dim>
					<dim>-1</dim>
					<dim>12</dim>
					<dim>-1</dim>
					<dim>64</dim>
				</port>
				<port id="1" precision="I64" />
				<port id="2" precision="I64" />
			</input>
			<output>
				<port id="3" precision="FP32" names="183,value_states.3">
					<dim>-1</dim>
					<dim>12</dim>
					<dim>-1</dim>
					<dim>64</dim>
				</port>
			</output>
		</layer>
		<layer id="194" name="__module.encoder.layers.1.self_attn/aten::matmul/MatMul_1" type="MatMul" version="opset1">
			<data transpose_a="false" transpose_b="false" />
			<input>
				<port id="0" precision="FP32">
					<dim>-1</dim>
					<dim>12</dim>
					<dim>-1</dim>
					<dim>-1</dim>
				</port>
				<port id="1" precision="FP32">
					<dim>-1</dim>
					<dim>12</dim>
					<dim>-1</dim>
					<dim>64</dim>
				</port>
			</input>
			<output>
				<port id="2" precision="FP32" names="189">
					<dim>-1</dim>
					<dim>12</dim>
					<dim>-1</dim>
					<dim>64</dim>
				</port>
			</output>
		</layer>
		<layer id="195" name="Constant_737" type="Const" version="opset1">
			<data element_type="i64" shape="4" offset="3271858" size="32" />
			<output>
				<port id="0" precision="I64" names="190">
					<dim>4</dim>
				</port>
			</output>
		</layer>
		<layer id="196" name="__module.encoder.layers.1.self_attn/aten::permute/Transpose_1" type="Transpose" version="opset1">
			<input>
				<port id="0" precision="FP32">
					<dim>-1</dim>
					<dim>12</dim>
					<dim>-1</dim>
					<dim>64</dim>
				</port>
				<port id="1" precision="I64">
					<dim>4</dim>
				</port>
			</input>
			<output>
				<port id="2" precision="FP32" names="191,context_layer.3">
					<dim>-1</dim>
					<dim>-1</dim>
					<dim>12</dim>
					<dim>64</dim>
				</port>
			</output>
		</layer>
		<layer id="197" name="__module.encoder.layers.1.self_attn/prim::ListConstruct_1" type="Const" version="opset1">
			<data element_type="i64" shape="3" offset="3271890" size="24" />
			<rt_info>
				<attribute name="precise" version="0" />
			</rt_info>
			<output>
				<port id="0" precision="I64">
					<dim>3</dim>
				</port>
			</output>
		</layer>
		<layer id="198" name="__module.encoder.layers.1.self_attn/aten::reshape/Reshape_1" type="Reshape" version="opset1">
			<data special_zero="true" />
			<input>
				<port id="0" precision="FP32">
					<dim>-1</dim>
					<dim>-1</dim>
					<dim>12</dim>
					<dim>64</dim>
				</port>
				<port id="1" precision="I64">
					<dim>3</dim>
				</port>
			</input>
			<output>
				<port id="2" precision="FP32" names="195,input.25">
					<dim>-1</dim>
					<dim>-1</dim>
					<dim>768</dim>
				</port>
			</output>
		</layer>
		<layer id="199" name="__module.encoder.layers.1.self_attn/aten::reshape/Reshape_1_0_0/nncf_smooth_quant/scale" type="Const" version="opset1">
			<data element_type="f32" shape="1, 1, 768" offset="10418970" size="3072" />
			<output>
				<port id="0" precision="FP32">
					<dim>1</dim>
					<dim>1</dim>
					<dim>768</dim>
				</port>
			</output>
		</layer>
		<layer id="200" name="__module.encoder.layers.1.self_attn/aten::reshape/Reshape_1_0_0/nncf_smooth_quant" type="Multiply" version="opset1">
			<data auto_broadcast="numpy" />
			<input>
				<port id="0" precision="FP32">
					<dim>-1</dim>
					<dim>-1</dim>
					<dim>768</dim>
				</port>
				<port id="1" precision="FP32">
					<dim>1</dim>
					<dim>1</dim>
					<dim>768</dim>
				</port>
			</input>
			<output>
				<port id="2" precision="FP32">
					<dim>-1</dim>
					<dim>-1</dim>
					<dim>768</dim>
				</port>
			</output>
		</layer>
		<layer id="201" name="__module.encoder.layers.1.self_attn/aten::reshape/Reshape_1_0_0/nncf_smooth_quant/fq_output_0/input_low" type="Const" version="opset1">
			<data element_type="f32" shape="" offset="10422042" size="4" />
			<output>
				<port id="0" precision="FP32" />
			</output>
		</layer>
		<layer id="202" name="__module.encoder.layers.1.self_attn/aten::reshape/Reshape_1_0_0/nncf_smooth_quant/fq_output_0/input_high" type="Const" version="opset1">
			<data element_type="f32" shape="" offset="10422046" size="4" />
			<output>
				<port id="0" precision="FP32" />
			</output>
		</layer>
		<layer id="203" name="__module.encoder.layers.1.self_attn/aten::reshape/Reshape_1_0_0/nncf_smooth_quant/fq_output_0/output_low" type="Const" version="opset1">
			<data element_type="f32" shape="" offset="10422042" size="4" />
			<output>
				<port id="0" precision="FP32" />
			</output>
		</layer>
		<layer id="204" name="__module.encoder.layers.1.self_attn/aten::reshape/Reshape_1_0_0/nncf_smooth_quant/fq_output_0/output_high" type="Const" version="opset1">
			<data element_type="f32" shape="" offset="10422046" size="4" />
			<output>
				<port id="0" precision="FP32" />
			</output>
		</layer>
		<layer id="205" name="__module.encoder.layers.1.self_attn/aten::reshape/Reshape_1_0_0/nncf_smooth_quant/fq_output_0" type="FakeQuantize" version="opset1">
			<data levels="256" auto_broadcast="numpy" />
			<input>
				<port id="0" precision="FP32">
					<dim>-1</dim>
					<dim>-1</dim>
					<dim>768</dim>
				</port>
				<port id="1" precision="FP32" />
				<port id="2" precision="FP32" />
				<port id="3" precision="FP32" />
				<port id="4" precision="FP32" />
			</input>
			<output>
				<port id="5" precision="FP32">
					<dim>-1</dim>
					<dim>-1</dim>
					<dim>768</dim>
				</port>
			</output>
		</layer>
		<layer id="206" name="Constant_383979" type="Const" version="opset1">
			<data element_type="i8" shape="768, 768" offset="10422050" size="589824" />
			<output>
				<port id="0" precision="I8">
					<dim>768</dim>
					<dim>768</dim>
				</port>
			</output>
		</layer>
		<layer id="207" name="Convert_383980" type="Convert" version="opset1">
			<data destination_type="f32" />
			<input>
				<port id="0" precision="I8">
					<dim>768</dim>
					<dim>768</dim>
				</port>
			</input>
			<output>
				<port id="1" precision="FP32">
					<dim>768</dim>
					<dim>768</dim>
				</port>
			</output>
		</layer>
		<layer id="208" name="Constant_383981" type="Const" version="opset1">
			<data element_type="f32" shape="768, 1" offset="11011874" size="3072" />
			<output>
				<port id="0" precision="FP32">
					<dim>768</dim>
					<dim>1</dim>
				</port>
			</output>
		</layer>
		<layer id="209" name="__module.encoder.layers.1.self_attn.projection/aten::linear/MatMul/fq_weights_1" type="Multiply" version="opset1">
			<data auto_broadcast="numpy" />
			<input>
				<port id="0" precision="FP32">
					<dim>768</dim>
					<dim>768</dim>
				</port>
				<port id="1" precision="FP32">
					<dim>768</dim>
					<dim>1</dim>
				</port>
			</input>
			<output>
				<port id="2" precision="FP32">
					<dim>768</dim>
					<dim>768</dim>
				</port>
			</output>
		</layer>
		<layer id="210" name="__module.encoder.layers.1.self_attn.projection/aten::linear/MatMul" type="MatMul" version="opset1">
			<data transpose_a="false" transpose_b="true" />
			<input>
				<port id="0" precision="FP32">
					<dim>-1</dim>
					<dim>-1</dim>
					<dim>768</dim>
				</port>
				<port id="1" precision="FP32">
					<dim>768</dim>
					<dim>768</dim>
				</port>
			</input>
			<output>
				<port id="2" precision="FP32">
					<dim>-1</dim>
					<dim>-1</dim>
					<dim>768</dim>
				</port>
			</output>
		</layer>
		<layer id="211" name="Constant_9178_compressed" type="Const" version="opset1">
			<data element_type="f16" shape="1, 1, 768" offset="11014946" size="1536" />
			<output>
				<port id="0" precision="FP16">
					<dim>1</dim>
					<dim>1</dim>
					<dim>768</dim>
				</port>
			</output>
		</layer>
		<layer id="212" name="Constant_9178" type="Convert" version="opset1">
			<data destination_type="f32" />
			<rt_info>
				<attribute name="decompression" version="0" />
			</rt_info>
			<input>
				<port id="0" precision="FP16">
					<dim>1</dim>
					<dim>1</dim>
					<dim>768</dim>
				</port>
			</input>
			<output>
				<port id="1" precision="FP32">
					<dim>1</dim>
					<dim>1</dim>
					<dim>768</dim>
				</port>
			</output>
		</layer>
		<layer id="213" name="__module.encoder.layers.1.self_attn.projection/aten::linear/Add" type="Add" version="opset1">
			<data auto_broadcast="numpy" />
			<input>
				<port id="0" precision="FP32">
					<dim>-1</dim>
					<dim>-1</dim>
					<dim>768</dim>
				</port>
				<port id="1" precision="FP32">
					<dim>1</dim>
					<dim>1</dim>
					<dim>768</dim>
				</port>
			</input>
			<output>
				<port id="2" precision="FP32" names="198,hidden_states.9">
					<dim>-1</dim>
					<dim>-1</dim>
					<dim>768</dim>
				</port>
			</output>
		</layer>
		<layer id="214" name="__module.encoder.layers.1/aten::add/Add" type="Add" version="opset1">
			<data auto_broadcast="numpy" />
			<input>
				<port id="0" precision="FP32">
					<dim>-1</dim>
					<dim>-1</dim>
					<dim>768</dim>
				</port>
				<port id="1" precision="FP32">
					<dim>-1</dim>
					<dim>-1</dim>
					<dim>768</dim>
				</port>
			</input>
			<output>
				<port id="2" precision="FP32" names="199,input.27">
					<dim>-1</dim>
					<dim>-1</dim>
					<dim>768</dim>
				</port>
			</output>
		</layer>
		<layer id="215" name="__module.encoder.layers.1.layer_norm2/aten::layer_norm/Multiply" type="Const" version="opset1">
			<data element_type="i32" shape="1" offset="1482300" size="4" />
			<output>
				<port id="0" precision="I32">
					<dim>1</dim>
				</port>
			</output>
		</layer>
		<layer id="216" name="__module.encoder.layers.1.layer_norm2/aten::layer_norm/MVN" type="MVN" version="opset6">
			<data eps="9.9999997473787516e-06" normalize_variance="true" eps_mode="INSIDE_SQRT" />
			<input>
				<port id="0" precision="FP32">
					<dim>-1</dim>
					<dim>-1</dim>
					<dim>768</dim>
				</port>
				<port id="1" precision="I32">
					<dim>1</dim>
				</port>
			</input>
			<output>
				<port id="2" precision="FP32">
					<dim>-1</dim>
					<dim>-1</dim>
					<dim>768</dim>
				</port>
			</output>
		</layer>
		<layer id="217" name="Constant_9179_compressed" type="Const" version="opset1">
			<data element_type="f16" shape="1, 1, 768" offset="11016482" size="1536" />
			<output>
				<port id="0" precision="FP16">
					<dim>1</dim>
					<dim>1</dim>
					<dim>768</dim>
				</port>
			</output>
		</layer>
		<layer id="218" name="Constant_9179" type="Convert" version="opset1">
			<data destination_type="f32" />
			<rt_info>
				<attribute name="decompression" version="0" />
			</rt_info>
			<input>
				<port id="0" precision="FP16">
					<dim>1</dim>
					<dim>1</dim>
					<dim>768</dim>
				</port>
			</input>
			<output>
				<port id="1" precision="FP32">
					<dim>1</dim>
					<dim>1</dim>
					<dim>768</dim>
				</port>
			</output>
		</layer>
		<layer id="219" name="__module.encoder.layers.1.layer_norm2/aten::layer_norm/Multiply_1" type="Multiply" version="opset1">
			<data auto_broadcast="numpy" />
			<input>
				<port id="0" precision="FP32">
					<dim>-1</dim>
					<dim>-1</dim>
					<dim>768</dim>
				</port>
				<port id="1" precision="FP32">
					<dim>1</dim>
					<dim>1</dim>
					<dim>768</dim>
				</port>
			</input>
			<output>
				<port id="2" precision="FP32">
					<dim>-1</dim>
					<dim>-1</dim>
					<dim>768</dim>
				</port>
			</output>
		</layer>
		<layer id="220" name="Constant_9180_compressed" type="Const" version="opset1">
			<data element_type="f16" shape="1, 1, 768" offset="11018018" size="1536" />
			<output>
				<port id="0" precision="FP16">
					<dim>1</dim>
					<dim>1</dim>
					<dim>768</dim>
				</port>
			</output>
		</layer>
		<layer id="221" name="Constant_9180" type="Convert" version="opset1">
			<data destination_type="f32" />
			<rt_info>
				<attribute name="decompression" version="0" />
			</rt_info>
			<input>
				<port id="0" precision="FP16">
					<dim>1</dim>
					<dim>1</dim>
					<dim>768</dim>
				</port>
			</input>
			<output>
				<port id="1" precision="FP32">
					<dim>1</dim>
					<dim>1</dim>
					<dim>768</dim>
				</port>
			</output>
		</layer>
		<layer id="222" name="__module.encoder.layers.1.layer_norm2/aten::layer_norm/Add" type="Add" version="opset1">
			<data auto_broadcast="numpy" />
			<input>
				<port id="0" precision="FP32">
					<dim>-1</dim>
					<dim>-1</dim>
					<dim>768</dim>
				</port>
				<port id="1" precision="FP32">
					<dim>1</dim>
					<dim>1</dim>
					<dim>768</dim>
				</port>
			</input>
			<output>
				<port id="2" precision="FP32" names="203,input.29">
					<dim>-1</dim>
					<dim>-1</dim>
					<dim>768</dim>
				</port>
			</output>
		</layer>
		<layer id="223" name="__module.encoder.layers.1.layer_norm2/aten::layer_norm/Add_0_0/nncf_smooth_quant/scale" type="Const" version="opset1">
			<data element_type="f32" shape="1, 1, 768" offset="11019554" size="3072" />
			<output>
				<port id="0" precision="FP32">
					<dim>1</dim>
					<dim>1</dim>
					<dim>768</dim>
				</port>
			</output>
		</layer>
		<layer id="224" name="__module.encoder.layers.1.layer_norm2/aten::layer_norm/Add_0_0/nncf_smooth_quant" type="Multiply" version="opset1">
			<data auto_broadcast="numpy" />
			<input>
				<port id="0" precision="FP32">
					<dim>-1</dim>
					<dim>-1</dim>
					<dim>768</dim>
				</port>
				<port id="1" precision="FP32">
					<dim>1</dim>
					<dim>1</dim>
					<dim>768</dim>
				</port>
			</input>
			<output>
				<port id="2" precision="FP32">
					<dim>-1</dim>
					<dim>-1</dim>
					<dim>768</dim>
				</port>
			</output>
		</layer>
		<layer id="225" name="__module.encoder.layers.1.layer_norm2/aten::layer_norm/Add_0_0/nncf_smooth_quant/fq_output_0/input_low" type="Const" version="opset1">
			<data element_type="f32" shape="" offset="11022626" size="4" />
			<output>
				<port id="0" precision="FP32" />
			</output>
		</layer>
		<layer id="226" name="__module.encoder.layers.1.layer_norm2/aten::layer_norm/Add_0_0/nncf_smooth_quant/fq_output_0/input_high" type="Const" version="opset1">
			<data element_type="f32" shape="" offset="11022630" size="4" />
			<output>
				<port id="0" precision="FP32" />
			</output>
		</layer>
		<layer id="227" name="__module.encoder.layers.1.layer_norm2/aten::layer_norm/Add_0_0/nncf_smooth_quant/fq_output_0/output_low" type="Const" version="opset1">
			<data element_type="f32" shape="" offset="11022626" size="4" />
			<output>
				<port id="0" precision="FP32" />
			</output>
		</layer>
		<layer id="228" name="__module.encoder.layers.1.layer_norm2/aten::layer_norm/Add_0_0/nncf_smooth_quant/fq_output_0/output_high" type="Const" version="opset1">
			<data element_type="f32" shape="" offset="11022630" size="4" />
			<output>
				<port id="0" precision="FP32" />
			</output>
		</layer>
		<layer id="229" name="__module.encoder.layers.1.layer_norm2/aten::layer_norm/Add_0_0/nncf_smooth_quant/fq_output_0" type="FakeQuantize" version="opset1">
			<data levels="256" auto_broadcast="numpy" />
			<input>
				<port id="0" precision="FP32">
					<dim>-1</dim>
					<dim>-1</dim>
					<dim>768</dim>
				</port>
				<port id="1" precision="FP32" />
				<port id="2" precision="FP32" />
				<port id="3" precision="FP32" />
				<port id="4" precision="FP32" />
			</input>
			<output>
				<port id="5" precision="FP32">
					<dim>-1</dim>
					<dim>-1</dim>
					<dim>768</dim>
				</port>
			</output>
		</layer>
		<layer id="230" name="Constant_383984" type="Const" version="opset1">
			<data element_type="i8" shape="3072, 768" offset="11022634" size="2359296" />
			<output>
				<port id="0" precision="I8">
					<dim>3072</dim>
					<dim>768</dim>
				</port>
			</output>
		</layer>
		<layer id="231" name="Convert_383985" type="Convert" version="opset1">
			<data destination_type="f32" />
			<input>
				<port id="0" precision="I8">
					<dim>3072</dim>
					<dim>768</dim>
				</port>
			</input>
			<output>
				<port id="1" precision="FP32">
					<dim>3072</dim>
					<dim>768</dim>
				</port>
			</output>
		</layer>
		<layer id="232" name="Constant_383986" type="Const" version="opset1">
			<data element_type="f32" shape="3072, 1" offset="13381930" size="12288" />
			<output>
				<port id="0" precision="FP32">
					<dim>3072</dim>
					<dim>1</dim>
				</port>
			</output>
		</layer>
		<layer id="233" name="__module.encoder.layers.1.mlp.fc1/aten::linear/MatMul/fq_weights_1" type="Multiply" version="opset1">
			<data auto_broadcast="numpy" />
			<input>
				<port id="0" precision="FP32">
					<dim>3072</dim>
					<dim>768</dim>
				</port>
				<port id="1" precision="FP32">
					<dim>3072</dim>
					<dim>1</dim>
				</port>
			</input>
			<output>
				<port id="2" precision="FP32">
					<dim>3072</dim>
					<dim>768</dim>
				</port>
			</output>
		</layer>
		<layer id="234" name="__module.encoder.layers.1.mlp.fc1/aten::linear/MatMul" type="MatMul" version="opset1">
			<data transpose_a="false" transpose_b="true" />
			<input>
				<port id="0" precision="FP32">
					<dim>-1</dim>
					<dim>-1</dim>
					<dim>768</dim>
				</port>
				<port id="1" precision="FP32">
					<dim>3072</dim>
					<dim>768</dim>
				</port>
			</input>
			<output>
				<port id="2" precision="FP32">
					<dim>-1</dim>
					<dim>-1</dim>
					<dim>3072</dim>
				</port>
			</output>
		</layer>
		<layer id="235" name="Constant_9181_compressed" type="Const" version="opset1">
			<data element_type="f16" shape="1, 1, 3072" offset="13394218" size="6144" />
			<output>
				<port id="0" precision="FP16">
					<dim>1</dim>
					<dim>1</dim>
					<dim>3072</dim>
				</port>
			</output>
		</layer>
		<layer id="236" name="Constant_9181" type="Convert" version="opset1">
			<data destination_type="f32" />
			<rt_info>
				<attribute name="decompression" version="0" />
			</rt_info>
			<input>
				<port id="0" precision="FP16">
					<dim>1</dim>
					<dim>1</dim>
					<dim>3072</dim>
				</port>
			</input>
			<output>
				<port id="1" precision="FP32">
					<dim>1</dim>
					<dim>1</dim>
					<dim>3072</dim>
				</port>
			</output>
		</layer>
		<layer id="237" name="__module.encoder.layers.1.mlp.fc1/aten::linear/Add" type="Add" version="opset1">
			<data auto_broadcast="numpy" />
			<input>
				<port id="0" precision="FP32">
					<dim>-1</dim>
					<dim>-1</dim>
					<dim>3072</dim>
				</port>
				<port id="1" precision="FP32">
					<dim>1</dim>
					<dim>1</dim>
					<dim>3072</dim>
				</port>
			</input>
			<output>
				<port id="2" precision="FP32" names="209,input.31">
					<dim>-1</dim>
					<dim>-1</dim>
					<dim>3072</dim>
				</port>
			</output>
		</layer>
		<layer id="238" name="__module.encoder.layers.1.mlp.activation_fn/aten::gelu/Gelu" type="Gelu" version="opset7">
			<data approximation_mode="ERF" />
			<input>
				<port id="0" precision="FP32">
					<dim>-1</dim>
					<dim>-1</dim>
					<dim>3072</dim>
				</port>
			</input>
			<output>
				<port id="1" precision="FP32" names="210,input.33">
					<dim>-1</dim>
					<dim>-1</dim>
					<dim>3072</dim>
				</port>
			</output>
		</layer>
		<layer id="239" name="__module.encoder.layers.1.mlp.activation_fn/aten::gelu/Gelu_0_0/nncf_smooth_quant/scale" type="Const" version="opset1">
			<data element_type="f32" shape="1, 1, 3072" offset="13400362" size="12288" />
			<output>
				<port id="0" precision="FP32">
					<dim>1</dim>
					<dim>1</dim>
					<dim>3072</dim>
				</port>
			</output>
		</layer>
		<layer id="240" name="__module.encoder.layers.1.mlp.activation_fn/aten::gelu/Gelu_0_0/nncf_smooth_quant" type="Multiply" version="opset1">
			<data auto_broadcast="numpy" />
			<input>
				<port id="0" precision="FP32">
					<dim>-1</dim>
					<dim>-1</dim>
					<dim>3072</dim>
				</port>
				<port id="1" precision="FP32">
					<dim>1</dim>
					<dim>1</dim>
					<dim>3072</dim>
				</port>
			</input>
			<output>
				<port id="2" precision="FP32">
					<dim>-1</dim>
					<dim>-1</dim>
					<dim>3072</dim>
				</port>
			</output>
		</layer>
		<layer id="241" name="__module.encoder.layers.1.mlp.activation_fn/aten::gelu/Gelu_0_0/nncf_smooth_quant/fq_output_0/input_low" type="Const" version="opset1">
			<data element_type="f32" shape="" offset="13412650" size="4" />
			<output>
				<port id="0" precision="FP32" />
			</output>
		</layer>
		<layer id="242" name="__module.encoder.layers.1.mlp.activation_fn/aten::gelu/Gelu_0_0/nncf_smooth_quant/fq_output_0/input_high" type="Const" version="opset1">
			<data element_type="f32" shape="" offset="13412654" size="4" />
			<output>
				<port id="0" precision="FP32" />
			</output>
		</layer>
		<layer id="243" name="__module.encoder.layers.1.mlp.activation_fn/aten::gelu/Gelu_0_0/nncf_smooth_quant/fq_output_0/output_low" type="Const" version="opset1">
			<data element_type="f32" shape="" offset="13412650" size="4" />
			<output>
				<port id="0" precision="FP32" />
			</output>
		</layer>
		<layer id="244" name="__module.encoder.layers.1.mlp.activation_fn/aten::gelu/Gelu_0_0/nncf_smooth_quant/fq_output_0/output_high" type="Const" version="opset1">
			<data element_type="f32" shape="" offset="13412654" size="4" />
			<output>
				<port id="0" precision="FP32" />
			</output>
		</layer>
		<layer id="245" name="__module.encoder.layers.1.mlp.activation_fn/aten::gelu/Gelu_0_0/nncf_smooth_quant/fq_output_0" type="FakeQuantize" version="opset1">
			<data levels="256" auto_broadcast="numpy" />
			<input>
				<port id="0" precision="FP32">
					<dim>-1</dim>
					<dim>-1</dim>
					<dim>3072</dim>
				</port>
				<port id="1" precision="FP32" />
				<port id="2" precision="FP32" />
				<port id="3" precision="FP32" />
				<port id="4" precision="FP32" />
			</input>
			<output>
				<port id="5" precision="FP32">
					<dim>-1</dim>
					<dim>-1</dim>
					<dim>3072</dim>
				</port>
			</output>
		</layer>
		<layer id="246" name="Constant_383989" type="Const" version="opset1">
			<data element_type="i8" shape="768, 3072" offset="13412658" size="2359296" />
			<output>
				<port id="0" precision="I8">
					<dim>768</dim>
					<dim>3072</dim>
				</port>
			</output>
		</layer>
		<layer id="247" name="Convert_383990" type="Convert" version="opset1">
			<data destination_type="f32" />
			<input>
				<port id="0" precision="I8">
					<dim>768</dim>
					<dim>3072</dim>
				</port>
			</input>
			<output>
				<port id="1" precision="FP32">
					<dim>768</dim>
					<dim>3072</dim>
				</port>
			</output>
		</layer>
		<layer id="248" name="Constant_383991" type="Const" version="opset1">
			<data element_type="f32" shape="768, 1" offset="15771954" size="3072" />
			<output>
				<port id="0" precision="FP32">
					<dim>768</dim>
					<dim>1</dim>
				</port>
			</output>
		</layer>
		<layer id="249" name="__module.encoder.layers.1.mlp.fc2/aten::linear/MatMul/fq_weights_1" type="Multiply" version="opset1">
			<data auto_broadcast="numpy" />
			<input>
				<port id="0" precision="FP32">
					<dim>768</dim>
					<dim>3072</dim>
				</port>
				<port id="1" precision="FP32">
					<dim>768</dim>
					<dim>1</dim>
				</port>
			</input>
			<output>
				<port id="2" precision="FP32">
					<dim>768</dim>
					<dim>3072</dim>
				</port>
			</output>
		</layer>
		<layer id="250" name="__module.encoder.layers.1.mlp.fc2/aten::linear/MatMul" type="MatMul" version="opset1">
			<data transpose_a="false" transpose_b="true" />
			<input>
				<port id="0" precision="FP32">
					<dim>-1</dim>
					<dim>-1</dim>
					<dim>3072</dim>
				</port>
				<port id="1" precision="FP32">
					<dim>768</dim>
					<dim>3072</dim>
				</port>
			</input>
			<output>
				<port id="2" precision="FP32">
					<dim>-1</dim>
					<dim>-1</dim>
					<dim>768</dim>
				</port>
			</output>
		</layer>
		<layer id="251" name="Constant_9182_compressed" type="Const" version="opset1">
			<data element_type="f16" shape="1, 1, 768" offset="15775026" size="1536" />
			<output>
				<port id="0" precision="FP16">
					<dim>1</dim>
					<dim>1</dim>
					<dim>768</dim>
				</port>
			</output>
		</layer>
		<layer id="252" name="Constant_9182" type="Convert" version="opset1">
			<data destination_type="f32" />
			<rt_info>
				<attribute name="decompression" version="0" />
			</rt_info>
			<input>
				<port id="0" precision="FP16">
					<dim>1</dim>
					<dim>1</dim>
					<dim>768</dim>
				</port>
			</input>
			<output>
				<port id="1" precision="FP32">
					<dim>1</dim>
					<dim>1</dim>
					<dim>768</dim>
				</port>
			</output>
		</layer>
		<layer id="253" name="__module.encoder.layers.1.mlp.fc2/aten::linear/Add" type="Add" version="opset1">
			<data auto_broadcast="numpy" />
			<input>
				<port id="0" precision="FP32">
					<dim>-1</dim>
					<dim>-1</dim>
					<dim>768</dim>
				</port>
				<port id="1" precision="FP32">
					<dim>1</dim>
					<dim>1</dim>
					<dim>768</dim>
				</port>
			</input>
			<output>
				<port id="2" precision="FP32" names="213,hidden_states.11">
					<dim>-1</dim>
					<dim>-1</dim>
					<dim>768</dim>
				</port>
			</output>
		</layer>
		<layer id="254" name="__module.encoder.layers.1/aten::add/Add_1" type="Add" version="opset1">
			<data auto_broadcast="numpy" />
			<input>
				<port id="0" precision="FP32">
					<dim>-1</dim>
					<dim>-1</dim>
					<dim>768</dim>
				</port>
				<port id="1" precision="FP32">
					<dim>-1</dim>
					<dim>-1</dim>
					<dim>768</dim>
				</port>
			</input>
			<output>
				<port id="2" precision="FP32" names="214,input.35">
					<dim>-1</dim>
					<dim>-1</dim>
					<dim>768</dim>
				</port>
			</output>
		</layer>
		<layer id="255" name="__module.encoder.layers.2.layer_norm1/aten::layer_norm/Multiply" type="Const" version="opset1">
			<data element_type="i32" shape="1" offset="1482300" size="4" />
			<output>
				<port id="0" precision="I32">
					<dim>1</dim>
				</port>
			</output>
		</layer>
		<layer id="256" name="__module.encoder.layers.2.layer_norm1/aten::layer_norm/MVN" type="MVN" version="opset6">
			<data eps="9.9999997473787516e-06" normalize_variance="true" eps_mode="INSIDE_SQRT" />
			<input>
				<port id="0" precision="FP32">
					<dim>-1</dim>
					<dim>-1</dim>
					<dim>768</dim>
				</port>
				<port id="1" precision="I32">
					<dim>1</dim>
				</port>
			</input>
			<output>
				<port id="2" precision="FP32">
					<dim>-1</dim>
					<dim>-1</dim>
					<dim>768</dim>
				</port>
			</output>
		</layer>
		<layer id="257" name="Constant_9183_compressed" type="Const" version="opset1">
			<data element_type="f16" shape="1, 1, 768" offset="15776562" size="1536" />
			<output>
				<port id="0" precision="FP16">
					<dim>1</dim>
					<dim>1</dim>
					<dim>768</dim>
				</port>
			</output>
		</layer>
		<layer id="258" name="Constant_9183" type="Convert" version="opset1">
			<data destination_type="f32" />
			<rt_info>
				<attribute name="decompression" version="0" />
			</rt_info>
			<input>
				<port id="0" precision="FP16">
					<dim>1</dim>
					<dim>1</dim>
					<dim>768</dim>
				</port>
			</input>
			<output>
				<port id="1" precision="FP32">
					<dim>1</dim>
					<dim>1</dim>
					<dim>768</dim>
				</port>
			</output>
		</layer>
		<layer id="259" name="__module.encoder.layers.2.layer_norm1/aten::layer_norm/Multiply_1" type="Multiply" version="opset1">
			<data auto_broadcast="numpy" />
			<input>
				<port id="0" precision="FP32">
					<dim>-1</dim>
					<dim>-1</dim>
					<dim>768</dim>
				</port>
				<port id="1" precision="FP32">
					<dim>1</dim>
					<dim>1</dim>
					<dim>768</dim>
				</port>
			</input>
			<output>
				<port id="2" precision="FP32">
					<dim>-1</dim>
					<dim>-1</dim>
					<dim>768</dim>
				</port>
			</output>
		</layer>
		<layer id="260" name="Constant_9184_compressed" type="Const" version="opset1">
			<data element_type="f16" shape="1, 1, 768" offset="15778098" size="1536" />
			<output>
				<port id="0" precision="FP16">
					<dim>1</dim>
					<dim>1</dim>
					<dim>768</dim>
				</port>
			</output>
		</layer>
		<layer id="261" name="Constant_9184" type="Convert" version="opset1">
			<data destination_type="f32" />
			<rt_info>
				<attribute name="decompression" version="0" />
			</rt_info>
			<input>
				<port id="0" precision="FP16">
					<dim>1</dim>
					<dim>1</dim>
					<dim>768</dim>
				</port>
			</input>
			<output>
				<port id="1" precision="FP32">
					<dim>1</dim>
					<dim>1</dim>
					<dim>768</dim>
				</port>
			</output>
		</layer>
		<layer id="262" name="__module.encoder.layers.2.layer_norm1/aten::layer_norm/Add" type="Add" version="opset1">
			<data auto_broadcast="numpy" />
			<input>
				<port id="0" precision="FP32">
					<dim>-1</dim>
					<dim>-1</dim>
					<dim>768</dim>
				</port>
				<port id="1" precision="FP32">
					<dim>1</dim>
					<dim>1</dim>
					<dim>768</dim>
				</port>
			</input>
			<output>
				<port id="2" precision="FP32" names="222,hidden_states.13">
					<dim>-1</dim>
					<dim>-1</dim>
					<dim>768</dim>
				</port>
			</output>
		</layer>
		<layer id="263" name="__module.encoder.layers.2.layer_norm1/aten::layer_norm/Add_0_0/nncf_smooth_quant/scale" type="Const" version="opset1">
			<data element_type="f32" shape="1, 1, 768" offset="15779634" size="3072" />
			<output>
				<port id="0" precision="FP32">
					<dim>1</dim>
					<dim>1</dim>
					<dim>768</dim>
				</port>
			</output>
		</layer>
		<layer id="264" name="__module.encoder.layers.2.layer_norm1/aten::layer_norm/Add_0_0/nncf_smooth_quant" type="Multiply" version="opset1">
			<data auto_broadcast="numpy" />
			<input>
				<port id="0" precision="FP32">
					<dim>-1</dim>
					<dim>-1</dim>
					<dim>768</dim>
				</port>
				<port id="1" precision="FP32">
					<dim>1</dim>
					<dim>1</dim>
					<dim>768</dim>
				</port>
			</input>
			<output>
				<port id="2" precision="FP32">
					<dim>-1</dim>
					<dim>-1</dim>
					<dim>768</dim>
				</port>
			</output>
		</layer>
		<layer id="265" name="__module.encoder.layers.2.layer_norm1/aten::layer_norm/Add_0_0/nncf_smooth_quant/fq_output_0/input_low" type="Const" version="opset1">
			<data element_type="f32" shape="" offset="15782706" size="4" />
			<output>
				<port id="0" precision="FP32" />
			</output>
		</layer>
		<layer id="266" name="__module.encoder.layers.2.layer_norm1/aten::layer_norm/Add_0_0/nncf_smooth_quant/fq_output_0/input_high" type="Const" version="opset1">
			<data element_type="f32" shape="" offset="15782710" size="4" />
			<output>
				<port id="0" precision="FP32" />
			</output>
		</layer>
		<layer id="267" name="__module.encoder.layers.2.layer_norm1/aten::layer_norm/Add_0_0/nncf_smooth_quant/fq_output_0/output_low" type="Const" version="opset1">
			<data element_type="f32" shape="" offset="15782706" size="4" />
			<output>
				<port id="0" precision="FP32" />
			</output>
		</layer>
		<layer id="268" name="__module.encoder.layers.2.layer_norm1/aten::layer_norm/Add_0_0/nncf_smooth_quant/fq_output_0/output_high" type="Const" version="opset1">
			<data element_type="f32" shape="" offset="15782710" size="4" />
			<output>
				<port id="0" precision="FP32" />
			</output>
		</layer>
		<layer id="269" name="__module.encoder.layers.2.layer_norm1/aten::layer_norm/Add_0_0/nncf_smooth_quant/fq_output_0" type="FakeQuantize" version="opset1">
			<data levels="256" auto_broadcast="numpy" />
			<input>
				<port id="0" precision="FP32">
					<dim>-1</dim>
					<dim>-1</dim>
					<dim>768</dim>
				</port>
				<port id="1" precision="FP32" />
				<port id="2" precision="FP32" />
				<port id="3" precision="FP32" />
				<port id="4" precision="FP32" />
			</input>
			<output>
				<port id="5" precision="FP32">
					<dim>-1</dim>
					<dim>-1</dim>
					<dim>768</dim>
				</port>
			</output>
		</layer>
		<layer id="270" name="Constant_383994" type="Const" version="opset1">
			<data element_type="i8" shape="2304, 768" offset="15782714" size="1769472" />
			<output>
				<port id="0" precision="I8">
					<dim>2304</dim>
					<dim>768</dim>
				</port>
			</output>
		</layer>
		<layer id="271" name="Convert_383995" type="Convert" version="opset1">
			<data destination_type="f32" />
			<input>
				<port id="0" precision="I8">
					<dim>2304</dim>
					<dim>768</dim>
				</port>
			</input>
			<output>
				<port id="1" precision="FP32">
					<dim>2304</dim>
					<dim>768</dim>
				</port>
			</output>
		</layer>
		<layer id="272" name="Constant_383996" type="Const" version="opset1">
			<data element_type="f32" shape="2304, 1" offset="17552186" size="9216" />
			<output>
				<port id="0" precision="FP32">
					<dim>2304</dim>
					<dim>1</dim>
				</port>
			</output>
		</layer>
		<layer id="273" name="__module.encoder.layers.2.self_attn.qkv/aten::linear/MatMul/fq_weights_1" type="Multiply" version="opset1">
			<data auto_broadcast="numpy" />
			<input>
				<port id="0" precision="FP32">
					<dim>2304</dim>
					<dim>768</dim>
				</port>
				<port id="1" precision="FP32">
					<dim>2304</dim>
					<dim>1</dim>
				</port>
			</input>
			<output>
				<port id="2" precision="FP32">
					<dim>2304</dim>
					<dim>768</dim>
				</port>
			</output>
		</layer>
		<layer id="274" name="__module.encoder.layers.2.self_attn.qkv/aten::linear/MatMul" type="MatMul" version="opset1">
			<data transpose_a="false" transpose_b="true" />
			<input>
				<port id="0" precision="FP32">
					<dim>-1</dim>
					<dim>-1</dim>
					<dim>768</dim>
				</port>
				<port id="1" precision="FP32">
					<dim>2304</dim>
					<dim>768</dim>
				</port>
			</input>
			<output>
				<port id="2" precision="FP32">
					<dim>-1</dim>
					<dim>-1</dim>
					<dim>2304</dim>
				</port>
			</output>
		</layer>
		<layer id="275" name="Constant_9185_compressed" type="Const" version="opset1">
			<data element_type="f16" shape="1, 1, 2304" offset="17561402" size="4608" />
			<output>
				<port id="0" precision="FP16">
					<dim>1</dim>
					<dim>1</dim>
					<dim>2304</dim>
				</port>
			</output>
		</layer>
		<layer id="276" name="Constant_9185" type="Convert" version="opset1">
			<data destination_type="f32" />
			<rt_info>
				<attribute name="decompression" version="0" />
			</rt_info>
			<input>
				<port id="0" precision="FP16">
					<dim>1</dim>
					<dim>1</dim>
					<dim>2304</dim>
				</port>
			</input>
			<output>
				<port id="1" precision="FP32">
					<dim>1</dim>
					<dim>1</dim>
					<dim>2304</dim>
				</port>
			</output>
		</layer>
		<layer id="277" name="__module.encoder.layers.2.self_attn.qkv/aten::linear/Add" type="Add" version="opset1">
			<data auto_broadcast="numpy" />
			<input>
				<port id="0" precision="FP32">
					<dim>-1</dim>
					<dim>-1</dim>
					<dim>2304</dim>
				</port>
				<port id="1" precision="FP32">
					<dim>1</dim>
					<dim>1</dim>
					<dim>2304</dim>
				</port>
			</input>
			<output>
				<port id="2" precision="FP32" names="231">
					<dim>-1</dim>
					<dim>-1</dim>
					<dim>2304</dim>
				</port>
			</output>
		</layer>
		<layer id="278" name="Constant_9464" type="Const" version="opset1">
			<data element_type="i64" shape="5" offset="3271752" size="40" />
			<rt_info>
				<attribute name="precise" version="0" />
			</rt_info>
			<output>
				<port id="0" precision="I64">
					<dim>5</dim>
				</port>
			</output>
		</layer>
		<layer id="279" name="__module.encoder.layers.2.self_attn/aten::reshape/Reshape" type="Reshape" version="opset1">
			<data special_zero="true" />
			<input>
				<port id="0" precision="FP32">
					<dim>-1</dim>
					<dim>-1</dim>
					<dim>2304</dim>
				</port>
				<port id="1" precision="I64">
					<dim>5</dim>
				</port>
			</input>
			<output>
				<port id="2" precision="FP32" names="235">
					<dim>-1</dim>
					<dim>-1</dim>
					<dim>3</dim>
					<dim>12</dim>
					<dim>64</dim>
				</port>
			</output>
		</layer>
		<layer id="280" name="Constant_920" type="Const" version="opset1">
			<data element_type="i64" shape="5" offset="3271792" size="40" />
			<output>
				<port id="0" precision="I64" names="236">
					<dim>5</dim>
				</port>
			</output>
		</layer>
		<layer id="281" name="__module.encoder.layers.2.self_attn/aten::permute/Transpose" type="Transpose" version="opset1">
			<input>
				<port id="0" precision="FP32">
					<dim>-1</dim>
					<dim>-1</dim>
					<dim>3</dim>
					<dim>12</dim>
					<dim>64</dim>
				</port>
				<port id="1" precision="I64">
					<dim>5</dim>
				</port>
			</input>
			<output>
				<port id="2" precision="FP32" names="237,mixed_qkv.5">
					<dim>3</dim>
					<dim>-1</dim>
					<dim>12</dim>
					<dim>-1</dim>
					<dim>64</dim>
				</port>
			</output>
		</layer>
		<layer id="282" name="__module.encoder.layers.2.self_attn/aten::select/Gather/fq_input_0/input_low" type="Const" version="opset1">
			<data element_type="f32" shape="" offset="17566010" size="4" />
			<output>
				<port id="0" precision="FP32" />
			</output>
		</layer>
		<layer id="283" name="__module.encoder.layers.2.self_attn/aten::select/Gather/fq_input_0/input_high" type="Const" version="opset1">
			<data element_type="f32" shape="" offset="17566014" size="4" />
			<output>
				<port id="0" precision="FP32" />
			</output>
		</layer>
		<layer id="284" name="__module.encoder.layers.2.self_attn/aten::select/Gather/fq_input_0/output_low" type="Const" version="opset1">
			<data element_type="f32" shape="" offset="17566010" size="4" />
			<output>
				<port id="0" precision="FP32" />
			</output>
		</layer>
		<layer id="285" name="__module.encoder.layers.2.self_attn/aten::select/Gather/fq_input_0/output_high" type="Const" version="opset1">
			<data element_type="f32" shape="" offset="17566014" size="4" />
			<output>
				<port id="0" precision="FP32" />
			</output>
		</layer>
		<layer id="286" name="__module.encoder.layers.2.self_attn/aten::select/Gather/fq_input_0" type="FakeQuantize" version="opset1">
			<data levels="256" auto_broadcast="numpy" />
			<input>
				<port id="0" precision="FP32">
					<dim>3</dim>
					<dim>-1</dim>
					<dim>12</dim>
					<dim>-1</dim>
					<dim>64</dim>
				</port>
				<port id="1" precision="FP32" />
				<port id="2" precision="FP32" />
				<port id="3" precision="FP32" />
				<port id="4" precision="FP32" />
			</input>
			<output>
				<port id="5" precision="FP32">
					<dim>3</dim>
					<dim>-1</dim>
					<dim>12</dim>
					<dim>-1</dim>
					<dim>64</dim>
				</port>
			</output>
		</layer>
		<layer id="287" name="__module.encoder.layers.2.self_attn/aten::select/Gather" type="Gather" version="opset8">
			<data batch_dims="0" />
			<input>
				<port id="0" precision="FP32">
					<dim>3</dim>
					<dim>-1</dim>
					<dim>12</dim>
					<dim>-1</dim>
					<dim>64</dim>
				</port>
				<port id="1" precision="I64" />
				<port id="2" precision="I64" />
			</input>
			<output>
				<port id="3" precision="FP32" names="238,query_states.5">
					<dim>-1</dim>
					<dim>12</dim>
					<dim>-1</dim>
					<dim>64</dim>
				</port>
			</output>
		</layer>
		<layer id="288" name="__module.encoder.layers.2.self_attn/aten::select/Gather_1" type="Gather" version="opset8">
			<data batch_dims="0" />
			<input>
				<port id="0" precision="FP32">
					<dim>3</dim>
					<dim>-1</dim>
					<dim>12</dim>
					<dim>-1</dim>
					<dim>64</dim>
				</port>
				<port id="1" precision="I64" />
				<port id="2" precision="I64" />
			</input>
			<output>
				<port id="3" precision="FP32" names="239,key_states.5">
					<dim>-1</dim>
					<dim>12</dim>
					<dim>-1</dim>
					<dim>64</dim>
				</port>
			</output>
		</layer>
		<layer id="289" name="Constant_9186_compressed" type="Const" version="opset1">
			<data element_type="f16" shape="1, 1, 1, 1" offset="3271840" size="2" />
			<output>
				<port id="0" precision="FP16">
					<dim>1</dim>
					<dim>1</dim>
					<dim>1</dim>
					<dim>1</dim>
				</port>
			</output>
		</layer>
		<layer id="290" name="Constant_9186" type="Convert" version="opset1">
			<data destination_type="f32" />
			<rt_info>
				<attribute name="decompression" version="0" />
			</rt_info>
			<input>
				<port id="0" precision="FP16">
					<dim>1</dim>
					<dim>1</dim>
					<dim>1</dim>
					<dim>1</dim>
				</port>
			</input>
			<output>
				<port id="1" precision="FP32">
					<dim>1</dim>
					<dim>1</dim>
					<dim>1</dim>
					<dim>1</dim>
				</port>
			</output>
		</layer>
		<layer id="291" name="Multiply_9053" type="Multiply" version="opset1">
			<data auto_broadcast="numpy" />
			<input>
				<port id="0" precision="FP32">
					<dim>-1</dim>
					<dim>12</dim>
					<dim>-1</dim>
					<dim>64</dim>
				</port>
				<port id="1" precision="FP32">
					<dim>1</dim>
					<dim>1</dim>
					<dim>1</dim>
					<dim>1</dim>
				</port>
			</input>
			<output>
				<port id="2" precision="FP32">
					<dim>-1</dim>
					<dim>12</dim>
					<dim>-1</dim>
					<dim>64</dim>
				</port>
			</output>
		</layer>
		<layer id="292" name="Multiply_9053/fq_output_0/input_low" type="Const" version="opset1">
			<data element_type="f32" shape="" offset="17566018" size="4" />
			<output>
				<port id="0" precision="FP32" />
			</output>
		</layer>
		<layer id="293" name="Multiply_9053/fq_output_0/input_high" type="Const" version="opset1">
			<data element_type="f32" shape="" offset="17566022" size="4" />
			<output>
				<port id="0" precision="FP32" />
			</output>
		</layer>
		<layer id="294" name="Multiply_9053/fq_output_0/output_low" type="Const" version="opset1">
			<data element_type="f32" shape="" offset="17566018" size="4" />
			<output>
				<port id="0" precision="FP32" />
			</output>
		</layer>
		<layer id="295" name="Multiply_9053/fq_output_0/output_high" type="Const" version="opset1">
			<data element_type="f32" shape="" offset="17566022" size="4" />
			<output>
				<port id="0" precision="FP32" />
			</output>
		</layer>
		<layer id="296" name="Multiply_9053/fq_output_0" type="FakeQuantize" version="opset1">
			<data levels="256" auto_broadcast="numpy" />
			<input>
				<port id="0" precision="FP32">
					<dim>-1</dim>
					<dim>12</dim>
					<dim>-1</dim>
					<dim>64</dim>
				</port>
				<port id="1" precision="FP32" />
				<port id="2" precision="FP32" />
				<port id="3" precision="FP32" />
				<port id="4" precision="FP32" />
			</input>
			<output>
				<port id="5" precision="FP32">
					<dim>-1</dim>
					<dim>12</dim>
					<dim>-1</dim>
					<dim>64</dim>
				</port>
			</output>
		</layer>
		<layer id="297" name="__module.encoder.layers.2.self_attn/aten::mul/Multiply" type="MatMul" version="opset1">
			<data transpose_a="false" transpose_b="true" />
			<input>
				<port id="0" precision="FP32">
					<dim>-1</dim>
					<dim>12</dim>
					<dim>-1</dim>
					<dim>64</dim>
				</port>
				<port id="1" precision="FP32">
					<dim>-1</dim>
					<dim>12</dim>
					<dim>-1</dim>
					<dim>64</dim>
				</port>
			</input>
			<output>
				<port id="2" precision="FP32" names="243,input.37">
					<dim>-1</dim>
					<dim>12</dim>
					<dim>-1</dim>
					<dim>-1</dim>
				</port>
			</output>
		</layer>
		<layer id="298" name="__module.encoder.layers.2.self_attn/aten::softmax/Softmax" type="SoftMax" version="opset8">
			<data axis="-1" />
			<input>
				<port id="0" precision="FP32">
					<dim>-1</dim>
					<dim>12</dim>
					<dim>-1</dim>
					<dim>-1</dim>
				</port>
			</input>
			<output>
				<port id="1" precision="FP32" names="244,input.39">
					<dim>-1</dim>
					<dim>12</dim>
					<dim>-1</dim>
					<dim>-1</dim>
				</port>
			</output>
		</layer>
		<layer id="299" name="__module.encoder.layers.2.self_attn/aten::select/Gather_2" type="Gather" version="opset8">
			<data batch_dims="0" />
			<input>
				<port id="0" precision="FP32">
					<dim>3</dim>
					<dim>-1</dim>
					<dim>12</dim>
					<dim>-1</dim>
					<dim>64</dim>
				</port>
				<port id="1" precision="I64" />
				<port id="2" precision="I64" />
			</input>
			<output>
				<port id="3" precision="FP32" names="240,value_states.5">
					<dim>-1</dim>
					<dim>12</dim>
					<dim>-1</dim>
					<dim>64</dim>
				</port>
			</output>
		</layer>
		<layer id="300" name="__module.encoder.layers.2.self_attn/aten::matmul/MatMul_1" type="MatMul" version="opset1">
			<data transpose_a="false" transpose_b="false" />
			<input>
				<port id="0" precision="FP32">
					<dim>-1</dim>
					<dim>12</dim>
					<dim>-1</dim>
					<dim>-1</dim>
				</port>
				<port id="1" precision="FP32">
					<dim>-1</dim>
					<dim>12</dim>
					<dim>-1</dim>
					<dim>64</dim>
				</port>
			</input>
			<output>
				<port id="2" precision="FP32" names="246">
					<dim>-1</dim>
					<dim>12</dim>
					<dim>-1</dim>
					<dim>64</dim>
				</port>
			</output>
		</layer>
		<layer id="301" name="Constant_1015" type="Const" version="opset1">
			<data element_type="i64" shape="4" offset="3271858" size="32" />
			<output>
				<port id="0" precision="I64" names="247">
					<dim>4</dim>
				</port>
			</output>
		</layer>
		<layer id="302" name="__module.encoder.layers.2.self_attn/aten::permute/Transpose_1" type="Transpose" version="opset1">
			<input>
				<port id="0" precision="FP32">
					<dim>-1</dim>
					<dim>12</dim>
					<dim>-1</dim>
					<dim>64</dim>
				</port>
				<port id="1" precision="I64">
					<dim>4</dim>
				</port>
			</input>
			<output>
				<port id="2" precision="FP32" names="248,context_layer.5">
					<dim>-1</dim>
					<dim>-1</dim>
					<dim>12</dim>
					<dim>64</dim>
				</port>
			</output>
		</layer>
		<layer id="303" name="__module.encoder.layers.2.self_attn/prim::ListConstruct_1" type="Const" version="opset1">
			<data element_type="i64" shape="3" offset="3271890" size="24" />
			<rt_info>
				<attribute name="precise" version="0" />
			</rt_info>
			<output>
				<port id="0" precision="I64">
					<dim>3</dim>
				</port>
			</output>
		</layer>
		<layer id="304" name="__module.encoder.layers.2.self_attn/aten::reshape/Reshape_1" type="Reshape" version="opset1">
			<data special_zero="true" />
			<input>
				<port id="0" precision="FP32">
					<dim>-1</dim>
					<dim>-1</dim>
					<dim>12</dim>
					<dim>64</dim>
				</port>
				<port id="1" precision="I64">
					<dim>3</dim>
				</port>
			</input>
			<output>
				<port id="2" precision="FP32" names="252,input.41">
					<dim>-1</dim>
					<dim>-1</dim>
					<dim>768</dim>
				</port>
			</output>
		</layer>
		<layer id="305" name="__module.encoder.layers.2.self_attn/aten::reshape/Reshape_1_0_0/nncf_smooth_quant/scale" type="Const" version="opset1">
			<data element_type="f32" shape="1, 1, 768" offset="17566026" size="3072" />
			<output>
				<port id="0" precision="FP32">
					<dim>1</dim>
					<dim>1</dim>
					<dim>768</dim>
				</port>
			</output>
		</layer>
		<layer id="306" name="__module.encoder.layers.2.self_attn/aten::reshape/Reshape_1_0_0/nncf_smooth_quant" type="Multiply" version="opset1">
			<data auto_broadcast="numpy" />
			<input>
				<port id="0" precision="FP32">
					<dim>-1</dim>
					<dim>-1</dim>
					<dim>768</dim>
				</port>
				<port id="1" precision="FP32">
					<dim>1</dim>
					<dim>1</dim>
					<dim>768</dim>
				</port>
			</input>
			<output>
				<port id="2" precision="FP32">
					<dim>-1</dim>
					<dim>-1</dim>
					<dim>768</dim>
				</port>
			</output>
		</layer>
		<layer id="307" name="__module.encoder.layers.2.self_attn/aten::reshape/Reshape_1_0_0/nncf_smooth_quant/fq_output_0/input_low" type="Const" version="opset1">
			<data element_type="f32" shape="" offset="17569098" size="4" />
			<output>
				<port id="0" precision="FP32" />
			</output>
		</layer>
		<layer id="308" name="__module.encoder.layers.2.self_attn/aten::reshape/Reshape_1_0_0/nncf_smooth_quant/fq_output_0/input_high" type="Const" version="opset1">
			<data element_type="f32" shape="" offset="17569102" size="4" />
			<output>
				<port id="0" precision="FP32" />
			</output>
		</layer>
		<layer id="309" name="__module.encoder.layers.2.self_attn/aten::reshape/Reshape_1_0_0/nncf_smooth_quant/fq_output_0/output_low" type="Const" version="opset1">
			<data element_type="f32" shape="" offset="17569098" size="4" />
			<output>
				<port id="0" precision="FP32" />
			</output>
		</layer>
		<layer id="310" name="__module.encoder.layers.2.self_attn/aten::reshape/Reshape_1_0_0/nncf_smooth_quant/fq_output_0/output_high" type="Const" version="opset1">
			<data element_type="f32" shape="" offset="17569102" size="4" />
			<output>
				<port id="0" precision="FP32" />
			</output>
		</layer>
		<layer id="311" name="__module.encoder.layers.2.self_attn/aten::reshape/Reshape_1_0_0/nncf_smooth_quant/fq_output_0" type="FakeQuantize" version="opset1">
			<data levels="256" auto_broadcast="numpy" />
			<input>
				<port id="0" precision="FP32">
					<dim>-1</dim>
					<dim>-1</dim>
					<dim>768</dim>
				</port>
				<port id="1" precision="FP32" />
				<port id="2" precision="FP32" />
				<port id="3" precision="FP32" />
				<port id="4" precision="FP32" />
			</input>
			<output>
				<port id="5" precision="FP32">
					<dim>-1</dim>
					<dim>-1</dim>
					<dim>768</dim>
				</port>
			</output>
		</layer>
		<layer id="312" name="Constant_383999" type="Const" version="opset1">
			<data element_type="i8" shape="768, 768" offset="17569106" size="589824" />
			<output>
				<port id="0" precision="I8">
					<dim>768</dim>
					<dim>768</dim>
				</port>
			</output>
		</layer>
		<layer id="313" name="Convert_384000" type="Convert" version="opset1">
			<data destination_type="f32" />
			<input>
				<port id="0" precision="I8">
					<dim>768</dim>
					<dim>768</dim>
				</port>
			</input>
			<output>
				<port id="1" precision="FP32">
					<dim>768</dim>
					<dim>768</dim>
				</port>
			</output>
		</layer>
		<layer id="314" name="Constant_384001" type="Const" version="opset1">
			<data element_type="f32" shape="768, 1" offset="18158930" size="3072" />
			<output>
				<port id="0" precision="FP32">
					<dim>768</dim>
					<dim>1</dim>
				</port>
			</output>
		</layer>
		<layer id="315" name="__module.encoder.layers.2.self_attn.projection/aten::linear/MatMul/fq_weights_1" type="Multiply" version="opset1">
			<data auto_broadcast="numpy" />
			<input>
				<port id="0" precision="FP32">
					<dim>768</dim>
					<dim>768</dim>
				</port>
				<port id="1" precision="FP32">
					<dim>768</dim>
					<dim>1</dim>
				</port>
			</input>
			<output>
				<port id="2" precision="FP32">
					<dim>768</dim>
					<dim>768</dim>
				</port>
			</output>
		</layer>
		<layer id="316" name="__module.encoder.layers.2.self_attn.projection/aten::linear/MatMul" type="MatMul" version="opset1">
			<data transpose_a="false" transpose_b="true" />
			<input>
				<port id="0" precision="FP32">
					<dim>-1</dim>
					<dim>-1</dim>
					<dim>768</dim>
				</port>
				<port id="1" precision="FP32">
					<dim>768</dim>
					<dim>768</dim>
				</port>
			</input>
			<output>
				<port id="2" precision="FP32">
					<dim>-1</dim>
					<dim>-1</dim>
					<dim>768</dim>
				</port>
			</output>
		</layer>
		<layer id="317" name="Constant_9187_compressed" type="Const" version="opset1">
			<data element_type="f16" shape="1, 1, 768" offset="18162002" size="1536" />
			<output>
				<port id="0" precision="FP16">
					<dim>1</dim>
					<dim>1</dim>
					<dim>768</dim>
				</port>
			</output>
		</layer>
		<layer id="318" name="Constant_9187" type="Convert" version="opset1">
			<data destination_type="f32" />
			<rt_info>
				<attribute name="decompression" version="0" />
			</rt_info>
			<input>
				<port id="0" precision="FP16">
					<dim>1</dim>
					<dim>1</dim>
					<dim>768</dim>
				</port>
			</input>
			<output>
				<port id="1" precision="FP32">
					<dim>1</dim>
					<dim>1</dim>
					<dim>768</dim>
				</port>
			</output>
		</layer>
		<layer id="319" name="__module.encoder.layers.2.self_attn.projection/aten::linear/Add" type="Add" version="opset1">
			<data auto_broadcast="numpy" />
			<input>
				<port id="0" precision="FP32">
					<dim>-1</dim>
					<dim>-1</dim>
					<dim>768</dim>
				</port>
				<port id="1" precision="FP32">
					<dim>1</dim>
					<dim>1</dim>
					<dim>768</dim>
				</port>
			</input>
			<output>
				<port id="2" precision="FP32" names="255,hidden_states.15">
					<dim>-1</dim>
					<dim>-1</dim>
					<dim>768</dim>
				</port>
			</output>
		</layer>
		<layer id="320" name="__module.encoder.layers.2/aten::add/Add" type="Add" version="opset1">
			<data auto_broadcast="numpy" />
			<input>
				<port id="0" precision="FP32">
					<dim>-1</dim>
					<dim>-1</dim>
					<dim>768</dim>
				</port>
				<port id="1" precision="FP32">
					<dim>-1</dim>
					<dim>-1</dim>
					<dim>768</dim>
				</port>
			</input>
			<output>
				<port id="2" precision="FP32" names="256,input.43">
					<dim>-1</dim>
					<dim>-1</dim>
					<dim>768</dim>
				</port>
			</output>
		</layer>
		<layer id="321" name="__module.encoder.layers.2.layer_norm2/aten::layer_norm/Multiply" type="Const" version="opset1">
			<data element_type="i32" shape="1" offset="1482300" size="4" />
			<output>
				<port id="0" precision="I32">
					<dim>1</dim>
				</port>
			</output>
		</layer>
		<layer id="322" name="__module.encoder.layers.2.layer_norm2/aten::layer_norm/MVN" type="MVN" version="opset6">
			<data eps="9.9999997473787516e-06" normalize_variance="true" eps_mode="INSIDE_SQRT" />
			<input>
				<port id="0" precision="FP32">
					<dim>-1</dim>
					<dim>-1</dim>
					<dim>768</dim>
				</port>
				<port id="1" precision="I32">
					<dim>1</dim>
				</port>
			</input>
			<output>
				<port id="2" precision="FP32">
					<dim>-1</dim>
					<dim>-1</dim>
					<dim>768</dim>
				</port>
			</output>
		</layer>
		<layer id="323" name="Constant_9188_compressed" type="Const" version="opset1">
			<data element_type="f16" shape="1, 1, 768" offset="18163538" size="1536" />
			<output>
				<port id="0" precision="FP16">
					<dim>1</dim>
					<dim>1</dim>
					<dim>768</dim>
				</port>
			</output>
		</layer>
		<layer id="324" name="Constant_9188" type="Convert" version="opset1">
			<data destination_type="f32" />
			<rt_info>
				<attribute name="decompression" version="0" />
			</rt_info>
			<input>
				<port id="0" precision="FP16">
					<dim>1</dim>
					<dim>1</dim>
					<dim>768</dim>
				</port>
			</input>
			<output>
				<port id="1" precision="FP32">
					<dim>1</dim>
					<dim>1</dim>
					<dim>768</dim>
				</port>
			</output>
		</layer>
		<layer id="325" name="__module.encoder.layers.2.layer_norm2/aten::layer_norm/Multiply_1" type="Multiply" version="opset1">
			<data auto_broadcast="numpy" />
			<input>
				<port id="0" precision="FP32">
					<dim>-1</dim>
					<dim>-1</dim>
					<dim>768</dim>
				</port>
				<port id="1" precision="FP32">
					<dim>1</dim>
					<dim>1</dim>
					<dim>768</dim>
				</port>
			</input>
			<output>
				<port id="2" precision="FP32">
					<dim>-1</dim>
					<dim>-1</dim>
					<dim>768</dim>
				</port>
			</output>
		</layer>
		<layer id="326" name="Constant_9189_compressed" type="Const" version="opset1">
			<data element_type="f16" shape="1, 1, 768" offset="18165074" size="1536" />
			<output>
				<port id="0" precision="FP16">
					<dim>1</dim>
					<dim>1</dim>
					<dim>768</dim>
				</port>
			</output>
		</layer>
		<layer id="327" name="Constant_9189" type="Convert" version="opset1">
			<data destination_type="f32" />
			<rt_info>
				<attribute name="decompression" version="0" />
			</rt_info>
			<input>
				<port id="0" precision="FP16">
					<dim>1</dim>
					<dim>1</dim>
					<dim>768</dim>
				</port>
			</input>
			<output>
				<port id="1" precision="FP32">
					<dim>1</dim>
					<dim>1</dim>
					<dim>768</dim>
				</port>
			</output>
		</layer>
		<layer id="328" name="__module.encoder.layers.2.layer_norm2/aten::layer_norm/Add" type="Add" version="opset1">
			<data auto_broadcast="numpy" />
			<input>
				<port id="0" precision="FP32">
					<dim>-1</dim>
					<dim>-1</dim>
					<dim>768</dim>
				</port>
				<port id="1" precision="FP32">
					<dim>1</dim>
					<dim>1</dim>
					<dim>768</dim>
				</port>
			</input>
			<output>
				<port id="2" precision="FP32" names="260,input.45">
					<dim>-1</dim>
					<dim>-1</dim>
					<dim>768</dim>
				</port>
			</output>
		</layer>
		<layer id="329" name="__module.encoder.layers.2.layer_norm2/aten::layer_norm/Add_0_0/nncf_smooth_quant/scale" type="Const" version="opset1">
			<data element_type="f32" shape="1, 1, 768" offset="18166610" size="3072" />
			<output>
				<port id="0" precision="FP32">
					<dim>1</dim>
					<dim>1</dim>
					<dim>768</dim>
				</port>
			</output>
		</layer>
		<layer id="330" name="__module.encoder.layers.2.layer_norm2/aten::layer_norm/Add_0_0/nncf_smooth_quant" type="Multiply" version="opset1">
			<data auto_broadcast="numpy" />
			<input>
				<port id="0" precision="FP32">
					<dim>-1</dim>
					<dim>-1</dim>
					<dim>768</dim>
				</port>
				<port id="1" precision="FP32">
					<dim>1</dim>
					<dim>1</dim>
					<dim>768</dim>
				</port>
			</input>
			<output>
				<port id="2" precision="FP32">
					<dim>-1</dim>
					<dim>-1</dim>
					<dim>768</dim>
				</port>
			</output>
		</layer>
		<layer id="331" name="__module.encoder.layers.2.layer_norm2/aten::layer_norm/Add_0_0/nncf_smooth_quant/fq_output_0/input_low" type="Const" version="opset1">
			<data element_type="f32" shape="" offset="18169682" size="4" />
			<output>
				<port id="0" precision="FP32" />
			</output>
		</layer>
		<layer id="332" name="__module.encoder.layers.2.layer_norm2/aten::layer_norm/Add_0_0/nncf_smooth_quant/fq_output_0/input_high" type="Const" version="opset1">
			<data element_type="f32" shape="" offset="18169686" size="4" />
			<output>
				<port id="0" precision="FP32" />
			</output>
		</layer>
		<layer id="333" name="__module.encoder.layers.2.layer_norm2/aten::layer_norm/Add_0_0/nncf_smooth_quant/fq_output_0/output_low" type="Const" version="opset1">
			<data element_type="f32" shape="" offset="18169682" size="4" />
			<output>
				<port id="0" precision="FP32" />
			</output>
		</layer>
		<layer id="334" name="__module.encoder.layers.2.layer_norm2/aten::layer_norm/Add_0_0/nncf_smooth_quant/fq_output_0/output_high" type="Const" version="opset1">
			<data element_type="f32" shape="" offset="18169686" size="4" />
			<output>
				<port id="0" precision="FP32" />
			</output>
		</layer>
		<layer id="335" name="__module.encoder.layers.2.layer_norm2/aten::layer_norm/Add_0_0/nncf_smooth_quant/fq_output_0" type="FakeQuantize" version="opset1">
			<data levels="256" auto_broadcast="numpy" />
			<input>
				<port id="0" precision="FP32">
					<dim>-1</dim>
					<dim>-1</dim>
					<dim>768</dim>
				</port>
				<port id="1" precision="FP32" />
				<port id="2" precision="FP32" />
				<port id="3" precision="FP32" />
				<port id="4" precision="FP32" />
			</input>
			<output>
				<port id="5" precision="FP32">
					<dim>-1</dim>
					<dim>-1</dim>
					<dim>768</dim>
				</port>
			</output>
		</layer>
		<layer id="336" name="Constant_384004" type="Const" version="opset1">
			<data element_type="i8" shape="3072, 768" offset="18169690" size="2359296" />
			<output>
				<port id="0" precision="I8">
					<dim>3072</dim>
					<dim>768</dim>
				</port>
			</output>
		</layer>
		<layer id="337" name="Convert_384005" type="Convert" version="opset1">
			<data destination_type="f32" />
			<input>
				<port id="0" precision="I8">
					<dim>3072</dim>
					<dim>768</dim>
				</port>
			</input>
			<output>
				<port id="1" precision="FP32">
					<dim>3072</dim>
					<dim>768</dim>
				</port>
			</output>
		</layer>
		<layer id="338" name="Constant_384006" type="Const" version="opset1">
			<data element_type="f32" shape="3072, 1" offset="20528986" size="12288" />
			<output>
				<port id="0" precision="FP32">
					<dim>3072</dim>
					<dim>1</dim>
				</port>
			</output>
		</layer>
		<layer id="339" name="__module.encoder.layers.2.mlp.fc1/aten::linear/MatMul/fq_weights_1" type="Multiply" version="opset1">
			<data auto_broadcast="numpy" />
			<input>
				<port id="0" precision="FP32">
					<dim>3072</dim>
					<dim>768</dim>
				</port>
				<port id="1" precision="FP32">
					<dim>3072</dim>
					<dim>1</dim>
				</port>
			</input>
			<output>
				<port id="2" precision="FP32">
					<dim>3072</dim>
					<dim>768</dim>
				</port>
			</output>
		</layer>
		<layer id="340" name="__module.encoder.layers.2.mlp.fc1/aten::linear/MatMul" type="MatMul" version="opset1">
			<data transpose_a="false" transpose_b="true" />
			<input>
				<port id="0" precision="FP32">
					<dim>-1</dim>
					<dim>-1</dim>
					<dim>768</dim>
				</port>
				<port id="1" precision="FP32">
					<dim>3072</dim>
					<dim>768</dim>
				</port>
			</input>
			<output>
				<port id="2" precision="FP32">
					<dim>-1</dim>
					<dim>-1</dim>
					<dim>3072</dim>
				</port>
			</output>
		</layer>
		<layer id="341" name="Constant_9190_compressed" type="Const" version="opset1">
			<data element_type="f16" shape="1, 1, 3072" offset="20541274" size="6144" />
			<output>
				<port id="0" precision="FP16">
					<dim>1</dim>
					<dim>1</dim>
					<dim>3072</dim>
				</port>
			</output>
		</layer>
		<layer id="342" name="Constant_9190" type="Convert" version="opset1">
			<data destination_type="f32" />
			<rt_info>
				<attribute name="decompression" version="0" />
			</rt_info>
			<input>
				<port id="0" precision="FP16">
					<dim>1</dim>
					<dim>1</dim>
					<dim>3072</dim>
				</port>
			</input>
			<output>
				<port id="1" precision="FP32">
					<dim>1</dim>
					<dim>1</dim>
					<dim>3072</dim>
				</port>
			</output>
		</layer>
		<layer id="343" name="__module.encoder.layers.2.mlp.fc1/aten::linear/Add" type="Add" version="opset1">
			<data auto_broadcast="numpy" />
			<input>
				<port id="0" precision="FP32">
					<dim>-1</dim>
					<dim>-1</dim>
					<dim>3072</dim>
				</port>
				<port id="1" precision="FP32">
					<dim>1</dim>
					<dim>1</dim>
					<dim>3072</dim>
				</port>
			</input>
			<output>
				<port id="2" precision="FP32" names="266,input.47">
					<dim>-1</dim>
					<dim>-1</dim>
					<dim>3072</dim>
				</port>
			</output>
		</layer>
		<layer id="344" name="__module.encoder.layers.2.mlp.activation_fn/aten::gelu/Gelu" type="Gelu" version="opset7">
			<data approximation_mode="ERF" />
			<input>
				<port id="0" precision="FP32">
					<dim>-1</dim>
					<dim>-1</dim>
					<dim>3072</dim>
				</port>
			</input>
			<output>
				<port id="1" precision="FP32" names="267,input.49">
					<dim>-1</dim>
					<dim>-1</dim>
					<dim>3072</dim>
				</port>
			</output>
		</layer>
		<layer id="345" name="__module.encoder.layers.2.mlp.activation_fn/aten::gelu/Gelu_0_0/nncf_smooth_quant/scale" type="Const" version="opset1">
			<data element_type="f32" shape="1, 1, 3072" offset="20547418" size="12288" />
			<output>
				<port id="0" precision="FP32">
					<dim>1</dim>
					<dim>1</dim>
					<dim>3072</dim>
				</port>
			</output>
		</layer>
		<layer id="346" name="__module.encoder.layers.2.mlp.activation_fn/aten::gelu/Gelu_0_0/nncf_smooth_quant" type="Multiply" version="opset1">
			<data auto_broadcast="numpy" />
			<input>
				<port id="0" precision="FP32">
					<dim>-1</dim>
					<dim>-1</dim>
					<dim>3072</dim>
				</port>
				<port id="1" precision="FP32">
					<dim>1</dim>
					<dim>1</dim>
					<dim>3072</dim>
				</port>
			</input>
			<output>
				<port id="2" precision="FP32">
					<dim>-1</dim>
					<dim>-1</dim>
					<dim>3072</dim>
				</port>
			</output>
		</layer>
		<layer id="347" name="__module.encoder.layers.2.mlp.activation_fn/aten::gelu/Gelu_0_0/nncf_smooth_quant/fq_output_0/input_low" type="Const" version="opset1">
			<data element_type="f32" shape="" offset="20559706" size="4" />
			<output>
				<port id="0" precision="FP32" />
			</output>
		</layer>
		<layer id="348" name="__module.encoder.layers.2.mlp.activation_fn/aten::gelu/Gelu_0_0/nncf_smooth_quant/fq_output_0/input_high" type="Const" version="opset1">
			<data element_type="f32" shape="" offset="20559710" size="4" />
			<output>
				<port id="0" precision="FP32" />
			</output>
		</layer>
		<layer id="349" name="__module.encoder.layers.2.mlp.activation_fn/aten::gelu/Gelu_0_0/nncf_smooth_quant/fq_output_0/output_low" type="Const" version="opset1">
			<data element_type="f32" shape="" offset="20559706" size="4" />
			<output>
				<port id="0" precision="FP32" />
			</output>
		</layer>
		<layer id="350" name="__module.encoder.layers.2.mlp.activation_fn/aten::gelu/Gelu_0_0/nncf_smooth_quant/fq_output_0/output_high" type="Const" version="opset1">
			<data element_type="f32" shape="" offset="20559710" size="4" />
			<output>
				<port id="0" precision="FP32" />
			</output>
		</layer>
		<layer id="351" name="__module.encoder.layers.2.mlp.activation_fn/aten::gelu/Gelu_0_0/nncf_smooth_quant/fq_output_0" type="FakeQuantize" version="opset1">
			<data levels="256" auto_broadcast="numpy" />
			<input>
				<port id="0" precision="FP32">
					<dim>-1</dim>
					<dim>-1</dim>
					<dim>3072</dim>
				</port>
				<port id="1" precision="FP32" />
				<port id="2" precision="FP32" />
				<port id="3" precision="FP32" />
				<port id="4" precision="FP32" />
			</input>
			<output>
				<port id="5" precision="FP32">
					<dim>-1</dim>
					<dim>-1</dim>
					<dim>3072</dim>
				</port>
			</output>
		</layer>
		<layer id="352" name="Constant_384009" type="Const" version="opset1">
			<data element_type="i8" shape="768, 3072" offset="20559714" size="2359296" />
			<output>
				<port id="0" precision="I8">
					<dim>768</dim>
					<dim>3072</dim>
				</port>
			</output>
		</layer>
		<layer id="353" name="Convert_384010" type="Convert" version="opset1">
			<data destination_type="f32" />
			<input>
				<port id="0" precision="I8">
					<dim>768</dim>
					<dim>3072</dim>
				</port>
			</input>
			<output>
				<port id="1" precision="FP32">
					<dim>768</dim>
					<dim>3072</dim>
				</port>
			</output>
		</layer>
		<layer id="354" name="Constant_384011" type="Const" version="opset1">
			<data element_type="f32" shape="768, 1" offset="22919010" size="3072" />
			<output>
				<port id="0" precision="FP32">
					<dim>768</dim>
					<dim>1</dim>
				</port>
			</output>
		</layer>
		<layer id="355" name="__module.encoder.layers.2.mlp.fc2/aten::linear/MatMul/fq_weights_1" type="Multiply" version="opset1">
			<data auto_broadcast="numpy" />
			<input>
				<port id="0" precision="FP32">
					<dim>768</dim>
					<dim>3072</dim>
				</port>
				<port id="1" precision="FP32">
					<dim>768</dim>
					<dim>1</dim>
				</port>
			</input>
			<output>
				<port id="2" precision="FP32">
					<dim>768</dim>
					<dim>3072</dim>
				</port>
			</output>
		</layer>
		<layer id="356" name="__module.encoder.layers.2.mlp.fc2/aten::linear/MatMul" type="MatMul" version="opset1">
			<data transpose_a="false" transpose_b="true" />
			<input>
				<port id="0" precision="FP32">
					<dim>-1</dim>
					<dim>-1</dim>
					<dim>3072</dim>
				</port>
				<port id="1" precision="FP32">
					<dim>768</dim>
					<dim>3072</dim>
				</port>
			</input>
			<output>
				<port id="2" precision="FP32">
					<dim>-1</dim>
					<dim>-1</dim>
					<dim>768</dim>
				</port>
			</output>
		</layer>
		<layer id="357" name="Constant_9191_compressed" type="Const" version="opset1">
			<data element_type="f16" shape="1, 1, 768" offset="22922082" size="1536" />
			<output>
				<port id="0" precision="FP16">
					<dim>1</dim>
					<dim>1</dim>
					<dim>768</dim>
				</port>
			</output>
		</layer>
		<layer id="358" name="Constant_9191" type="Convert" version="opset1">
			<data destination_type="f32" />
			<rt_info>
				<attribute name="decompression" version="0" />
			</rt_info>
			<input>
				<port id="0" precision="FP16">
					<dim>1</dim>
					<dim>1</dim>
					<dim>768</dim>
				</port>
			</input>
			<output>
				<port id="1" precision="FP32">
					<dim>1</dim>
					<dim>1</dim>
					<dim>768</dim>
				</port>
			</output>
		</layer>
		<layer id="359" name="__module.encoder.layers.2.mlp.fc2/aten::linear/Add" type="Add" version="opset1">
			<data auto_broadcast="numpy" />
			<input>
				<port id="0" precision="FP32">
					<dim>-1</dim>
					<dim>-1</dim>
					<dim>768</dim>
				</port>
				<port id="1" precision="FP32">
					<dim>1</dim>
					<dim>1</dim>
					<dim>768</dim>
				</port>
			</input>
			<output>
				<port id="2" precision="FP32" names="270,hidden_states.17">
					<dim>-1</dim>
					<dim>-1</dim>
					<dim>768</dim>
				</port>
			</output>
		</layer>
		<layer id="360" name="__module.encoder.layers.2/aten::add/Add_1" type="Add" version="opset1">
			<data auto_broadcast="numpy" />
			<input>
				<port id="0" precision="FP32">
					<dim>-1</dim>
					<dim>-1</dim>
					<dim>768</dim>
				</port>
				<port id="1" precision="FP32">
					<dim>-1</dim>
					<dim>-1</dim>
					<dim>768</dim>
				</port>
			</input>
			<output>
				<port id="2" precision="FP32" names="271,input.51">
					<dim>-1</dim>
					<dim>-1</dim>
					<dim>768</dim>
				</port>
			</output>
		</layer>
		<layer id="361" name="__module.encoder.layers.3.layer_norm1/aten::layer_norm/Multiply" type="Const" version="opset1">
			<data element_type="i32" shape="1" offset="1482300" size="4" />
			<output>
				<port id="0" precision="I32">
					<dim>1</dim>
				</port>
			</output>
		</layer>
		<layer id="362" name="__module.encoder.layers.3.layer_norm1/aten::layer_norm/MVN" type="MVN" version="opset6">
			<data eps="9.9999997473787516e-06" normalize_variance="true" eps_mode="INSIDE_SQRT" />
			<input>
				<port id="0" precision="FP32">
					<dim>-1</dim>
					<dim>-1</dim>
					<dim>768</dim>
				</port>
				<port id="1" precision="I32">
					<dim>1</dim>
				</port>
			</input>
			<output>
				<port id="2" precision="FP32">
					<dim>-1</dim>
					<dim>-1</dim>
					<dim>768</dim>
				</port>
			</output>
		</layer>
		<layer id="363" name="Constant_9192_compressed" type="Const" version="opset1">
			<data element_type="f16" shape="1, 1, 768" offset="22923618" size="1536" />
			<output>
				<port id="0" precision="FP16">
					<dim>1</dim>
					<dim>1</dim>
					<dim>768</dim>
				</port>
			</output>
		</layer>
		<layer id="364" name="Constant_9192" type="Convert" version="opset1">
			<data destination_type="f32" />
			<rt_info>
				<attribute name="decompression" version="0" />
			</rt_info>
			<input>
				<port id="0" precision="FP16">
					<dim>1</dim>
					<dim>1</dim>
					<dim>768</dim>
				</port>
			</input>
			<output>
				<port id="1" precision="FP32">
					<dim>1</dim>
					<dim>1</dim>
					<dim>768</dim>
				</port>
			</output>
		</layer>
		<layer id="365" name="__module.encoder.layers.3.layer_norm1/aten::layer_norm/Multiply_1" type="Multiply" version="opset1">
			<data auto_broadcast="numpy" />
			<input>
				<port id="0" precision="FP32">
					<dim>-1</dim>
					<dim>-1</dim>
					<dim>768</dim>
				</port>
				<port id="1" precision="FP32">
					<dim>1</dim>
					<dim>1</dim>
					<dim>768</dim>
				</port>
			</input>
			<output>
				<port id="2" precision="FP32">
					<dim>-1</dim>
					<dim>-1</dim>
					<dim>768</dim>
				</port>
			</output>
		</layer>
		<layer id="366" name="Constant_9193_compressed" type="Const" version="opset1">
			<data element_type="f16" shape="1, 1, 768" offset="22925154" size="1536" />
			<output>
				<port id="0" precision="FP16">
					<dim>1</dim>
					<dim>1</dim>
					<dim>768</dim>
				</port>
			</output>
		</layer>
		<layer id="367" name="Constant_9193" type="Convert" version="opset1">
			<data destination_type="f32" />
			<rt_info>
				<attribute name="decompression" version="0" />
			</rt_info>
			<input>
				<port id="0" precision="FP16">
					<dim>1</dim>
					<dim>1</dim>
					<dim>768</dim>
				</port>
			</input>
			<output>
				<port id="1" precision="FP32">
					<dim>1</dim>
					<dim>1</dim>
					<dim>768</dim>
				</port>
			</output>
		</layer>
		<layer id="368" name="__module.encoder.layers.3.layer_norm1/aten::layer_norm/Add" type="Add" version="opset1">
			<data auto_broadcast="numpy" />
			<input>
				<port id="0" precision="FP32">
					<dim>-1</dim>
					<dim>-1</dim>
					<dim>768</dim>
				</port>
				<port id="1" precision="FP32">
					<dim>1</dim>
					<dim>1</dim>
					<dim>768</dim>
				</port>
			</input>
			<output>
				<port id="2" precision="FP32" names="279,hidden_states.19">
					<dim>-1</dim>
					<dim>-1</dim>
					<dim>768</dim>
				</port>
			</output>
		</layer>
		<layer id="369" name="__module.encoder.layers.3.layer_norm1/aten::layer_norm/Add_0_0/nncf_smooth_quant/scale" type="Const" version="opset1">
			<data element_type="f32" shape="1, 1, 768" offset="22926690" size="3072" />
			<output>
				<port id="0" precision="FP32">
					<dim>1</dim>
					<dim>1</dim>
					<dim>768</dim>
				</port>
			</output>
		</layer>
		<layer id="370" name="__module.encoder.layers.3.layer_norm1/aten::layer_norm/Add_0_0/nncf_smooth_quant" type="Multiply" version="opset1">
			<data auto_broadcast="numpy" />
			<input>
				<port id="0" precision="FP32">
					<dim>-1</dim>
					<dim>-1</dim>
					<dim>768</dim>
				</port>
				<port id="1" precision="FP32">
					<dim>1</dim>
					<dim>1</dim>
					<dim>768</dim>
				</port>
			</input>
			<output>
				<port id="2" precision="FP32">
					<dim>-1</dim>
					<dim>-1</dim>
					<dim>768</dim>
				</port>
			</output>
		</layer>
		<layer id="371" name="__module.encoder.layers.3.layer_norm1/aten::layer_norm/Add_0_0/nncf_smooth_quant/fq_output_0/input_low" type="Const" version="opset1">
			<data element_type="f32" shape="" offset="22929762" size="4" />
			<output>
…
		<edge from-layer="652" from-port="0" to-layer="653" to-port="4" />
		<edge from-layer="653" from-port="5" to-layer="658" to-port="0" />
		<edge from-layer="654" from-port="0" to-layer="655" to-port="0" />
		<edge from-layer="655" from-port="1" to-layer="657" to-port="0" />
		<edge from-layer="656" from-port="0" to-layer="657" to-port="1" />
		<edge from-layer="657" from-port="2" to-layer="658" to-port="1" />
		<edge from-layer="658" from-port="2" to-layer="661" to-port="0" />
		<edge from-layer="659" from-port="0" to-layer="660" to-port="0" />
		<edge from-layer="660" from-port="1" to-layer="661" to-port="1" />
		<edge from-layer="661" from-port="2" to-layer="662" to-port="0" />
		<edge from-layer="662" from-port="1" to-layer="664" to-port="0" />
		<edge from-layer="663" from-port="0" to-layer="664" to-port="1" />
		<edge from-layer="664" from-port="2" to-layer="669" to-port="0" />
		<edge from-layer="665" from-port="0" to-layer="669" to-port="1" />
		<edge from-layer="666" from-port="0" to-layer="669" to-port="2" />
		<edge from-layer="667" from-port="0" to-layer="669" to-port="3" />
		<edge from-layer="668" from-port="0" to-layer="669" to-port="4" />
		<edge from-layer="669" from-port="5" to-layer="674" to-port="0" />
		<edge from-layer="670" from-port="0" to-layer="671" to-port="0" />
		<edge from-layer="671" from-port="1" to-layer="673" to-port="0" />
		<edge from-layer="672" from-port="0" to-layer="673" to-port="1" />
		<edge from-layer="673" from-port="2" to-layer="674" to-port="1" />
		<edge from-layer="674" from-port="2" to-layer="677" to-port="0" />
		<edge from-layer="675" from-port="0" to-layer="676" to-port="0" />
		<edge from-layer="676" from-port="1" to-layer="677" to-port="1" />
		<edge from-layer="677" from-port="2" to-layer="678" to-port="0" />
		<edge from-layer="678" from-port="2" to-layer="744" to-port="1" />
		<edge from-layer="678" from-port="2" to-layer="680" to-port="0" />
		<edge from-layer="679" from-port="0" to-layer="680" to-port="1" />
		<edge from-layer="680" from-port="2" to-layer="683" to-port="0" />
		<edge from-layer="681" from-port="0" to-layer="682" to-port="0" />
		<edge from-layer="682" from-port="1" to-layer="683" to-port="1" />
		<edge from-layer="683" from-port="2" to-layer="686" to-port="0" />
		<edge from-layer="684" from-port="0" to-layer="685" to-port="0" />
		<edge from-layer="685" from-port="1" to-layer="686" to-port="1" />
		<edge from-layer="686" from-port="2" to-layer="688" to-port="0" />
		<edge from-layer="687" from-port="0" to-layer="688" to-port="1" />
		<edge from-layer="688" from-port="2" to-layer="693" to-port="0" />
		<edge from-layer="689" from-port="0" to-layer="693" to-port="1" />
		<edge from-layer="690" from-port="0" to-layer="693" to-port="2" />
		<edge from-layer="691" from-port="0" to-layer="693" to-port="3" />
		<edge from-layer="692" from-port="0" to-layer="693" to-port="4" />
		<edge from-layer="693" from-port="5" to-layer="698" to-port="0" />
		<edge from-layer="694" from-port="0" to-layer="695" to-port="0" />
		<edge from-layer="695" from-port="1" to-layer="697" to-port="0" />
		<edge from-layer="696" from-port="0" to-layer="697" to-port="1" />
		<edge from-layer="697" from-port="2" to-layer="698" to-port="1" />
		<edge from-layer="698" from-port="2" to-layer="701" to-port="0" />
		<edge from-layer="699" from-port="0" to-layer="700" to-port="0" />
		<edge from-layer="700" from-port="1" to-layer="701" to-port="1" />
		<edge from-layer="701" from-port="2" to-layer="703" to-port="0" />
		<edge from-layer="702" from-port="0" to-layer="703" to-port="1" />
		<edge from-layer="703" from-port="2" to-layer="705" to-port="0" />
		<edge from-layer="704" from-port="0" to-layer="705" to-port="1" />
		<edge from-layer="705" from-port="2" to-layer="710" to-port="0" />
		<edge from-layer="705" from-port="2" to-layer="712" to-port="0" />
		<edge from-layer="705" from-port="2" to-layer="723" to-port="0" />
		<edge from-layer="706" from-port="0" to-layer="710" to-port="1" />
		<edge from-layer="707" from-port="0" to-layer="710" to-port="2" />
		<edge from-layer="708" from-port="0" to-layer="710" to-port="3" />
		<edge from-layer="709" from-port="0" to-layer="710" to-port="4" />
		<edge from-layer="710" from-port="5" to-layer="711" to-port="0" />
		<edge from-layer="711" from-port="3" to-layer="721" to-port="0" />
		<edge from-layer="712" from-port="3" to-layer="715" to-port="0" />
		<edge from-layer="713" from-port="0" to-layer="714" to-port="0" />
		<edge from-layer="714" from-port="1" to-layer="715" to-port="1" />
		<edge from-layer="715" from-port="2" to-layer="720" to-port="0" />
		<edge from-layer="716" from-port="0" to-layer="720" to-port="1" />
		<edge from-layer="717" from-port="0" to-layer="720" to-port="2" />
		<edge from-layer="718" from-port="0" to-layer="720" to-port="3" />
		<edge from-layer="719" from-port="0" to-layer="720" to-port="4" />
		<edge from-layer="720" from-port="5" to-layer="721" to-port="1" />
		<edge from-layer="721" from-port="2" to-layer="722" to-port="0" />
		<edge from-layer="722" from-port="1" to-layer="724" to-port="0" />
		<edge from-layer="723" from-port="3" to-layer="724" to-port="1" />
		<edge from-layer="724" from-port="2" to-layer="726" to-port="0" />
		<edge from-layer="725" from-port="0" to-layer="726" to-port="1" />
		<edge from-layer="726" from-port="2" to-layer="728" to-port="0" />
		<edge from-layer="727" from-port="0" to-layer="728" to-port="1" />
		<edge from-layer="728" from-port="2" to-layer="730" to-port="0" />
		<edge from-layer="729" from-port="0" to-layer="730" to-port="1" />
		<edge from-layer="730" from-port="2" to-layer="735" to-port="0" />
		<edge from-layer="731" from-port="0" to-layer="735" to-port="1" />
		<edge from-layer="732" from-port="0" to-layer="735" to-port="2" />
		<edge from-layer="733" from-port="0" to-layer="735" to-port="3" />
		<edge from-layer="734" from-port="0" to-layer="735" to-port="4" />
		<edge from-layer="735" from-port="5" to-layer="740" to-port="0" />
		<edge from-layer="736" from-port="0" to-layer="737" to-port="0" />
		<edge from-layer="737" from-port="1" to-layer="739" to-port="0" />
		<edge from-layer="738" from-port="0" to-layer="739" to-port="1" />
		<edge from-layer="739" from-port="2" to-layer="740" to-port="1" />
		<edge from-layer="740" from-port="2" to-layer="743" to-port="0" />
		<edge from-layer="741" from-port="0" to-layer="742" to-port="0" />
		<edge from-layer="742" from-port="1" to-layer="743" to-port="1" />
		<edge from-layer="743" from-port="2" to-layer="744" to-port="0" />
		<edge from-layer="744" from-port="2" to-layer="784" to-port="1" />
		<edge from-layer="744" from-port="2" to-layer="746" to-port="0" />
		<edge from-layer="745" from-port="0" to-layer="746" to-port="1" />
		<edge from-layer="746" from-port="2" to-layer="749" to-port="0" />
		<edge from-layer="747" from-port="0" to-layer="748" to-port="0" />
		<edge from-layer="748" from-port="1" to-layer="749" to-port="1" />
		<edge from-layer="749" from-port="2" to-layer="752" to-port="0" />
		<edge from-layer="750" from-port="0" to-layer="751" to-port="0" />
		<edge from-layer="751" from-port="1" to-layer="752" to-port="1" />
		<edge from-layer="752" from-port="2" to-layer="754" to-port="0" />
		<edge from-layer="753" from-port="0" to-layer="754" to-port="1" />
		<edge from-layer="754" from-port="2" to-layer="759" to-port="0" />
		<edge from-layer="755" from-port="0" to-layer="759" to-port="1" />
		<edge from-layer="756" from-port="0" to-layer="759" to-port="2" />
		<edge from-layer="757" from-port="0" to-layer="759" to-port="3" />
		<edge from-layer="758" from-port="0" to-layer="759" to-port="4" />
		<edge from-layer="759" from-port="5" to-layer="764" to-port="0" />
		<edge from-layer="760" from-port="0" to-layer="761" to-port="0" />
		<edge from-layer="761" from-port="1" to-layer="763" to-port="0" />
		<edge from-layer="762" from-port="0" to-layer="763" to-port="1" />
		<edge from-layer="763" from-port="2" to-layer="764" to-port="1" />
		<edge from-layer="764" from-port="2" to-layer="767" to-port="0" />
		<edge from-layer="765" from-port="0" to-layer="766" to-port="0" />
		<edge from-layer="766" from-port="1" to-layer="767" to-port="1" />
		<edge from-layer="767" from-port="2" to-layer="768" to-port="0" />
		<edge from-layer="768" from-port="1" to-layer="770" to-port="0" />
		<edge from-layer="769" from-port="0" to-layer="770" to-port="1" />
		<edge from-layer="770" from-port="2" to-layer="775" to-port="0" />
		<edge from-layer="771" from-port="0" to-layer="775" to-port="1" />
		<edge from-layer="772" from-port="0" to-layer="775" to-port="2" />
		<edge from-layer="773" from-port="0" to-layer="775" to-port="3" />
		<edge from-layer="774" from-port="0" to-layer="775" to-port="4" />
		<edge from-layer="775" from-port="5" to-layer="780" to-port="0" />
		<edge from-layer="776" from-port="0" to-layer="777" to-port="0" />
		<edge from-layer="777" from-port="1" to-layer="779" to-port="0" />
		<edge from-layer="778" from-port="0" to-layer="779" to-port="1" />
		<edge from-layer="779" from-port="2" to-layer="780" to-port="1" />
		<edge from-layer="780" from-port="2" to-layer="783" to-port="0" />
		<edge from-layer="781" from-port="0" to-layer="782" to-port="0" />
		<edge from-layer="782" from-port="1" to-layer="783" to-port="1" />
		<edge from-layer="783" from-port="2" to-layer="784" to-port="0" />
		<edge from-layer="784" from-port="2" to-layer="850" to-port="1" />
		<edge from-layer="784" from-port="2" to-layer="786" to-port="0" />
		<edge from-layer="785" from-port="0" to-layer="786" to-port="1" />
		<edge from-layer="786" from-port="2" to-layer="789" to-port="0" />
		<edge from-layer="787" from-port="0" to-layer="788" to-port="0" />
		<edge from-layer="788" from-port="1" to-layer="789" to-port="1" />
		<edge from-layer="789" from-port="2" to-layer="792" to-port="0" />
		<edge from-layer="790" from-port="0" to-layer="791" to-port="0" />
		<edge from-layer="791" from-port="1" to-layer="792" to-port="1" />
		<edge from-layer="792" from-port="2" to-layer="794" to-port="0" />
		<edge from-layer="793" from-port="0" to-layer="794" to-port="1" />
		<edge from-layer="794" from-port="2" to-layer="799" to-port="0" />
		<edge from-layer="795" from-port="0" to-layer="799" to-port="1" />
		<edge from-layer="796" from-port="0" to-layer="799" to-port="2" />
		<edge from-layer="797" from-port="0" to-layer="799" to-port="3" />
		<edge from-layer="798" from-port="0" to-layer="799" to-port="4" />
		<edge from-layer="799" from-port="5" to-layer="804" to-port="0" />
		<edge from-layer="800" from-port="0" to-layer="801" to-port="0" />
		<edge from-layer="801" from-port="1" to-layer="803" to-port="0" />
		<edge from-layer="802" from-port="0" to-layer="803" to-port="1" />
		<edge from-layer="803" from-port="2" to-layer="804" to-port="1" />
		<edge from-layer="804" from-port="2" to-layer="807" to-port="0" />
		<edge from-layer="805" from-port="0" to-layer="806" to-port="0" />
		<edge from-layer="806" from-port="1" to-layer="807" to-port="1" />
		<edge from-layer="807" from-port="2" to-layer="809" to-port="0" />
		<edge from-layer="808" from-port="0" to-layer="809" to-port="1" />
		<edge from-layer="809" from-port="2" to-layer="811" to-port="0" />
		<edge from-layer="810" from-port="0" to-layer="811" to-port="1" />
		<edge from-layer="811" from-port="2" to-layer="829" to-port="0" />
		<edge from-layer="811" from-port="2" to-layer="816" to-port="0" />
		<edge from-layer="811" from-port="2" to-layer="818" to-port="0" />
		<edge from-layer="812" from-port="0" to-layer="816" to-port="1" />
		<edge from-layer="813" from-port="0" to-layer="816" to-port="2" />
		<edge from-layer="814" from-port="0" to-layer="816" to-port="3" />
		<edge from-layer="815" from-port="0" to-layer="816" to-port="4" />
		<edge from-layer="816" from-port="5" to-layer="817" to-port="0" />
		<edge from-layer="817" from-port="3" to-layer="827" to-port="0" />
		<edge from-layer="818" from-port="3" to-layer="821" to-port="0" />
		<edge from-layer="819" from-port="0" to-layer="820" to-port="0" />
		<edge from-layer="820" from-port="1" to-layer="821" to-port="1" />
		<edge from-layer="821" from-port="2" to-layer="826" to-port="0" />
		<edge from-layer="822" from-port="0" to-layer="826" to-port="1" />
		<edge from-layer="823" from-port="0" to-layer="826" to-port="2" />
		<edge from-layer="824" from-port="0" to-layer="826" to-port="3" />
		<edge from-layer="825" from-port="0" to-layer="826" to-port="4" />
		<edge from-layer="826" from-port="5" to-layer="827" to-port="1" />
		<edge from-layer="827" from-port="2" to-layer="828" to-port="0" />
		<edge from-layer="828" from-port="1" to-layer="830" to-port="0" />
		<edge from-layer="829" from-port="3" to-layer="830" to-port="1" />
		<edge from-layer="830" from-port="2" to-layer="832" to-port="0" />
		<edge from-layer="831" from-port="0" to-layer="832" to-port="1" />
		<edge from-layer="832" from-port="2" to-layer="834" to-port="0" />
		<edge from-layer="833" from-port="0" to-layer="834" to-port="1" />
		<edge from-layer="834" from-port="2" to-layer="836" to-port="0" />
		<edge from-layer="835" from-port="0" to-layer="836" to-port="1" />
		<edge from-layer="836" from-port="2" to-layer="841" to-port="0" />
		<edge from-layer="837" from-port="0" to-layer="841" to-port="1" />
		<edge from-layer="838" from-port="0" to-layer="841" to-port="2" />
		<edge from-layer="839" from-port="0" to-layer="841" to-port="3" />
		<edge from-layer="840" from-port="0" to-layer="841" to-port="4" />
		<edge from-layer="841" from-port="5" to-layer="846" to-port="0" />
		<edge from-layer="842" from-port="0" to-layer="843" to-port="0" />
		<edge from-layer="843" from-port="1" to-layer="845" to-port="0" />
		<edge from-layer="844" from-port="0" to-layer="845" to-port="1" />
		<edge from-layer="845" from-port="2" to-layer="846" to-port="1" />
		<edge from-layer="846" from-port="2" to-layer="849" to-port="0" />
		<edge from-layer="847" from-port="0" to-layer="848" to-port="0" />
		<edge from-layer="848" from-port="1" to-layer="849" to-port="1" />
		<edge from-layer="849" from-port="2" to-layer="850" to-port="0" />
		<edge from-layer="850" from-port="2" to-layer="890" to-port="1" />
		<edge from-layer="850" from-port="2" to-layer="852" to-port="0" />
		<edge from-layer="851" from-port="0" to-layer="852" to-port="1" />
		<edge from-layer="852" from-port="2" to-layer="855" to-port="0" />
		<edge from-layer="853" from-port="0" to-layer="854" to-port="0" />
		<edge from-layer="854" from-port="1" to-layer="855" to-port="1" />
		<edge from-layer="855" from-port="2" to-layer="858" to-port="0" />
		<edge from-layer="856" from-port="0" to-layer="857" to-port="0" />
		<edge from-layer="857" from-port="1" to-layer="858" to-port="1" />
		<edge from-layer="858" from-port="2" to-layer="860" to-port="0" />
		<edge from-layer="859" from-port="0" to-layer="860" to-port="1" />
		<edge from-layer="860" from-port="2" to-layer="865" to-port="0" />
		<edge from-layer="861" from-port="0" to-layer="865" to-port="1" />
		<edge from-layer="862" from-port="0" to-layer="865" to-port="2" />
		<edge from-layer="863" from-port="0" to-layer="865" to-port="3" />
		<edge from-layer="864" from-port="0" to-layer="865" to-port="4" />
		<edge from-layer="865" from-port="5" to-layer="870" to-port="0" />
		<edge from-layer="866" from-port="0" to-layer="867" to-port="0" />
		<edge from-layer="867" from-port="1" to-layer="869" to-port="0" />
		<edge from-layer="868" from-port="0" to-layer="869" to-port="1" />
		<edge from-layer="869" from-port="2" to-layer="870" to-port="1" />
		<edge from-layer="870" from-port="2" to-layer="873" to-port="0" />
		<edge from-layer="871" from-port="0" to-layer="872" to-port="0" />
		<edge from-layer="872" from-port="1" to-layer="873" to-port="1" />
		<edge from-layer="873" from-port="2" to-layer="874" to-port="0" />
		<edge from-layer="874" from-port="1" to-layer="876" to-port="0" />
		<edge from-layer="875" from-port="0" to-layer="876" to-port="1" />
		<edge from-layer="876" from-port="2" to-layer="881" to-port="0" />
		<edge from-layer="877" from-port="0" to-layer="881" to-port="1" />
		<edge from-layer="878" from-port="0" to-layer="881" to-port="2" />
		<edge from-layer="879" from-port="0" to-layer="881" to-port="3" />
		<edge from-layer="880" from-port="0" to-layer="881" to-port="4" />
		<edge from-layer="881" from-port="5" to-layer="886" to-port="0" />
		<edge from-layer="882" from-port="0" to-layer="883" to-port="0" />
		<edge from-layer="883" from-port="1" to-layer="885" to-port="0" />
		<edge from-layer="884" from-port="0" to-layer="885" to-port="1" />
		<edge from-layer="885" from-port="2" to-layer="886" to-port="1" />
		<edge from-layer="886" from-port="2" to-layer="889" to-port="0" />
		<edge from-layer="887" from-port="0" to-layer="888" to-port="0" />
		<edge from-layer="888" from-port="1" to-layer="889" to-port="1" />
		<edge from-layer="889" from-port="2" to-layer="890" to-port="0" />
		<edge from-layer="890" from-port="2" to-layer="956" to-port="1" />
		<edge from-layer="890" from-port="2" to-layer="892" to-port="0" />
		<edge from-layer="891" from-port="0" to-layer="892" to-port="1" />
		<edge from-layer="892" from-port="2" to-layer="895" to-port="0" />
		<edge from-layer="893" from-port="0" to-layer="894" to-port="0" />
		<edge from-layer="894" from-port="1" to-layer="895" to-port="1" />
		<edge from-layer="895" from-port="2" to-layer="898" to-port="0" />
		<edge from-layer="896" from-port="0" to-layer="897" to-port="0" />
		<edge from-layer="897" from-port="1" to-layer="898" to-port="1" />
		<edge from-layer="898" from-port="2" to-layer="900" to-port="0" />
		<edge from-layer="899" from-port="0" to-layer="900" to-port="1" />
		<edge from-layer="900" from-port="2" to-layer="905" to-port="0" />
		<edge from-layer="901" from-port="0" to-layer="905" to-port="1" />
		<edge from-layer="902" from-port="0" to-layer="905" to-port="2" />
		<edge from-layer="903" from-port="0" to-layer="905" to-port="3" />
		<edge from-layer="904" from-port="0" to-layer="905" to-port="4" />
		<edge from-layer="905" from-port="5" to-layer="910" to-port="0" />
		<edge from-layer="906" from-port="0" to-layer="907" to-port="0" />
		<edge from-layer="907" from-port="1" to-layer="909" to-port="0" />
		<edge from-layer="908" from-port="0" to-layer="909" to-port="1" />
		<edge from-layer="909" from-port="2" to-layer="910" to-port="1" />
		<edge from-layer="910" from-port="2" to-layer="913" to-port="0" />
		<edge from-layer="911" from-port="0" to-layer="912" to-port="0" />
		<edge from-layer="912" from-port="1" to-layer="913" to-port="1" />
		<edge from-layer="913" from-port="2" to-layer="915" to-port="0" />
		<edge from-layer="914" from-port="0" to-layer="915" to-port="1" />
		<edge from-layer="915" from-port="2" to-layer="917" to-port="0" />
		<edge from-layer="916" from-port="0" to-layer="917" to-port="1" />
		<edge from-layer="917" from-port="2" to-layer="935" to-port="0" />
		<edge from-layer="917" from-port="2" to-layer="924" to-port="0" />
		<edge from-layer="917" from-port="2" to-layer="922" to-port="0" />
		<edge from-layer="918" from-port="0" to-layer="922" to-port="1" />
		<edge from-layer="919" from-port="0" to-layer="922" to-port="2" />
		<edge from-layer="920" from-port="0" to-layer="922" to-port="3" />
		<edge from-layer="921" from-port="0" to-layer="922" to-port="4" />
		<edge from-layer="922" from-port="5" to-layer="923" to-port="0" />
		<edge from-layer="923" from-port="3" to-layer="933" to-port="0" />
		<edge from-layer="924" from-port="3" to-layer="927" to-port="0" />
		<edge from-layer="925" from-port="0" to-layer="926" to-port="0" />
		<edge from-layer="926" from-port="1" to-layer="927" to-port="1" />
		<edge from-layer="927" from-port="2" to-layer="932" to-port="0" />
		<edge from-layer="928" from-port="0" to-layer="932" to-port="1" />
		<edge from-layer="929" from-port="0" to-layer="932" to-port="2" />
		<edge from-layer="930" from-port="0" to-layer="932" to-port="3" />
		<edge from-layer="931" from-port="0" to-layer="932" to-port="4" />
		<edge from-layer="932" from-port="5" to-layer="933" to-port="1" />
		<edge from-layer="933" from-port="2" to-layer="934" to-port="0" />
		<edge from-layer="934" from-port="1" to-layer="936" to-port="0" />
		<edge from-layer="935" from-port="3" to-layer="936" to-port="1" />
		<edge from-layer="936" from-port="2" to-layer="938" to-port="0" />
		<edge from-layer="937" from-port="0" to-layer="938" to-port="1" />
		<edge from-layer="938" from-port="2" to-layer="940" to-port="0" />
		<edge from-layer="939" from-port="0" to-layer="940" to-port="1" />
		<edge from-layer="940" from-port="2" to-layer="942" to-port="0" />
		<edge from-layer="941" from-port="0" to-layer="942" to-port="1" />
		<edge from-layer="942" from-port="2" to-layer="947" to-port="0" />
		<edge from-layer="943" from-port="0" to-layer="947" to-port="1" />
		<edge from-layer="944" from-port="0" to-layer="947" to-port="2" />
		<edge from-layer="945" from-port="0" to-layer="947" to-port="3" />
		<edge from-layer="946" from-port="0" to-layer="947" to-port="4" />
		<edge from-layer="947" from-port="5" to-layer="952" to-port="0" />
		<edge from-layer="948" from-port="0" to-layer="949" to-port="0" />
		<edge from-layer="949" from-port="1" to-layer="951" to-port="0" />
		<edge from-layer="950" from-port="0" to-layer="951" to-port="1" />
		<edge from-layer="951" from-port="2" to-layer="952" to-port="1" />
		<edge from-layer="952" from-port="2" to-layer="955" to-port="0" />
		<edge from-layer="953" from-port="0" to-layer="954" to-port="0" />
		<edge from-layer="954" from-port="1" to-layer="955" to-port="1" />
		<edge from-layer="955" from-port="2" to-layer="956" to-port="0" />
		<edge from-layer="956" from-port="2" to-layer="996" to-port="1" />
		<edge from-layer="956" from-port="2" to-layer="958" to-port="0" />
		<edge from-layer="957" from-port="0" to-layer="958" to-port="1" />
		<edge from-layer="958" from-port="2" to-layer="961" to-port="0" />
		<edge from-layer="959" from-port="0" to-layer="960" to-port="0" />
		<edge from-layer="960" from-port="1" to-layer="961" to-port="1" />
		<edge from-layer="961" from-port="2" to-layer="964" to-port="0" />
		<edge from-layer="962" from-port="0" to-layer="963" to-port="0" />
		<edge from-layer="963" from-port="1" to-layer="964" to-port="1" />
		<edge from-layer="964" from-port="2" to-layer="966" to-port="0" />
		<edge from-layer="965" from-port="0" to-layer="966" to-port="1" />
		<edge from-layer="966" from-port="2" to-layer="971" to-port="0" />
		<edge from-layer="967" from-port="0" to-layer="971" to-port="1" />
		<edge from-layer="968" from-port="0" to-layer="971" to-port="2" />
		<edge from-layer="969" from-port="0" to-layer="971" to-port="3" />
		<edge from-layer="970" from-port="0" to-layer="971" to-port="4" />
		<edge from-layer="971" from-port="5" to-layer="976" to-port="0" />
		<edge from-layer="972" from-port="0" to-layer="973" to-port="0" />
		<edge from-layer="973" from-port="1" to-layer="975" to-port="0" />
		<edge from-layer="974" from-port="0" to-layer="975" to-port="1" />
		<edge from-layer="975" from-port="2" to-layer="976" to-port="1" />
		<edge from-layer="976" from-port="2" to-layer="979" to-port="0" />
		<edge from-layer="977" from-port="0" to-layer="978" to-port="0" />
		<edge from-layer="978" from-port="1" to-layer="979" to-port="1" />
		<edge from-layer="979" from-port="2" to-layer="980" to-port="0" />
		<edge from-layer="980" from-port="1" to-layer="982" to-port="0" />
		<edge from-layer="981" from-port="0" to-layer="982" to-port="1" />
		<edge from-layer="982" from-port="2" to-layer="987" to-port="0" />
		<edge from-layer="983" from-port="0" to-layer="987" to-port="1" />
		<edge from-layer="984" from-port="0" to-layer="987" to-port="2" />
		<edge from-layer="985" from-port="0" to-layer="987" to-port="3" />
		<edge from-layer="986" from-port="0" to-layer="987" to-port="4" />
		<edge from-layer="987" from-port="5" to-layer="992" to-port="0" />
		<edge from-layer="988" from-port="0" to-layer="989" to-port="0" />
		<edge from-layer="989" from-port="1" to-layer="991" to-port="0" />
		<edge from-layer="990" from-port="0" to-layer="991" to-port="1" />
		<edge from-layer="991" from-port="2" to-layer="992" to-port="1" />
		<edge from-layer="992" from-port="2" to-layer="995" to-port="0" />
		<edge from-layer="993" from-port="0" to-layer="994" to-port="0" />
		<edge from-layer="994" from-port="1" to-layer="995" to-port="1" />
		<edge from-layer="995" from-port="2" to-layer="996" to-port="0" />
		<edge from-layer="996" from-port="2" to-layer="1062" to-port="1" />
		<edge from-layer="996" from-port="2" to-layer="998" to-port="0" />
		<edge from-layer="997" from-port="0" to-layer="998" to-port="1" />
		<edge from-layer="998" from-port="2" to-layer="1001" to-port="0" />
		<edge from-layer="999" from-port="0" to-layer="1000" to-port="0" />
		<edge from-layer="1000" from-port="1" to-layer="1001" to-port="1" />
		<edge from-layer="1001" from-port="2" to-layer="1004" to-port="0" />
		<edge from-layer="1002" from-port="0" to-layer="1003" to-port="0" />
		<edge from-layer="1003" from-port="1" to-layer="1004" to-port="1" />
		<edge from-layer="1004" from-port="2" to-layer="1006" to-port="0" />
		<edge from-layer="1005" from-port="0" to-layer="1006" to-port="1" />
		<edge from-layer="1006" from-port="2" to-layer="1011" to-port="0" />
		<edge from-layer="1007" from-port="0" to-layer="1011" to-port="1" />
		<edge from-layer="1008" from-port="0" to-layer="1011" to-port="2" />
		<edge from-layer="1009" from-port="0" to-layer="1011" to-port="3" />
		<edge from-layer="1010" from-port="0" to-layer="1011" to-port="4" />
		<edge from-layer="1011" from-port="5" to-layer="1016" to-port="0" />
		<edge from-layer="1012" from-port="0" to-layer="1013" to-port="0" />
		<edge from-layer="1013" from-port="1" to-layer="1015" to-port="0" />
		<edge from-layer="1014" from-port="0" to-layer="1015" to-port="1" />
		<edge from-layer="1015" from-port="2" to-layer="1016" to-port="1" />
		<edge from-layer="1016" from-port="2" to-layer="1019" to-port="0" />
		<edge from-layer="1017" from-port="0" to-layer="1018" to-port="0" />
		<edge from-layer="1018" from-port="1" to-layer="1019" to-port="1" />
		<edge from-layer="1019" from-port="2" to-layer="1021" to-port="0" />
		<edge from-layer="1020" from-port="0" to-layer="1021" to-port="1" />
		<edge from-layer="1021" from-port="2" to-layer="1023" to-port="0" />
		<edge from-layer="1022" from-port="0" to-layer="1023" to-port="1" />
		<edge from-layer="1023" from-port="2" to-layer="1041" to-port="0" />
		<edge from-layer="1023" from-port="2" to-layer="1030" to-port="0" />
		<edge from-layer="1023" from-port="2" to-layer="1028" to-port="0" />
		<edge from-layer="1024" from-port="0" to-layer="1028" to-port="1" />
		<edge from-layer="1025" from-port="0" to-layer="1028" to-port="2" />
		<edge from-layer="1026" from-port="0" to-layer="1028" to-port="3" />
		<edge from-layer="1027" from-port="0" to-layer="1028" to-port="4" />
		<edge from-layer="1028" from-port="5" to-layer="1029" to-port="0" />
		<edge from-layer="1029" from-port="3" to-layer="1039" to-port="0" />
		<edge from-layer="1030" from-port="3" to-layer="1033" to-port="0" />
		<edge from-layer="1031" from-port="0" to-layer="1032" to-port="0" />
		<edge from-layer="1032" from-port="1" to-layer="1033" to-port="1" />
		<edge from-layer="1033" from-port="2" to-layer="1038" to-port="0" />
		<edge from-layer="1034" from-port="0" to-layer="1038" to-port="1" />
		<edge from-layer="1035" from-port="0" to-layer="1038" to-port="2" />
		<edge from-layer="1036" from-port="0" to-layer="1038" to-port="3" />
		<edge from-layer="1037" from-port="0" to-layer="1038" to-port="4" />
		<edge from-layer="1038" from-port="5" to-layer="1039" to-port="1" />
		<edge from-layer="1039" from-port="2" to-layer="1040" to-port="0" />
		<edge from-layer="1040" from-port="1" to-layer="1042" to-port="0" />
		<edge from-layer="1041" from-port="3" to-layer="1042" to-port="1" />
		<edge from-layer="1042" from-port="2" to-layer="1044" to-port="0" />
		<edge from-layer="1043" from-port="0" to-layer="1044" to-port="1" />
		<edge from-layer="1044" from-port="2" to-layer="1046" to-port="0" />
		<edge from-layer="1045" from-port="0" to-layer="1046" to-port="1" />
		<edge from-layer="1046" from-port="2" to-layer="1048" to-port="0" />
		<edge from-layer="1047" from-port="0" to-layer="1048" to-port="1" />
		<edge from-layer="1048" from-port="2" to-layer="1053" to-port="0" />
		<edge from-layer="1049" from-port="0" to-layer="1053" to-port="1" />
		<edge from-layer="1050" from-port="0" to-layer="1053" to-port="2" />
		<edge from-layer="1051" from-port="0" to-layer="1053" to-port="3" />
		<edge from-layer="1052" from-port="0" to-layer="1053" to-port="4" />
		<edge from-layer="1053" from-port="5" to-layer="1058" to-port="0" />
		<edge from-layer="1054" from-port="0" to-layer="1055" to-port="0" />
		<edge from-layer="1055" from-port="1" to-layer="1057" to-port="0" />
		<edge from-layer="1056" from-port="0" to-layer="1057" to-port="1" />
		<edge from-layer="1057" from-port="2" to-layer="1058" to-port="1" />
		<edge from-layer="1058" from-port="2" to-layer="1061" to-port="0" />
		<edge from-layer="1059" from-port="0" to-layer="1060" to-port="0" />
		<edge from-layer="1060" from-port="1" to-layer="1061" to-port="1" />
		<edge from-layer="1061" from-port="2" to-layer="1062" to-port="0" />
		<edge from-layer="1062" from-port="2" to-layer="1102" to-port="1" />
		<edge from-layer="1062" from-port="2" to-layer="1064" to-port="0" />
		<edge from-layer="1063" from-port="0" to-layer="1064" to-port="1" />
		<edge from-layer="1064" from-port="2" to-layer="1067" to-port="0" />
		<edge from-layer="1065" from-port="0" to-layer="1066" to-port="0" />
		<edge from-layer="1066" from-port="1" to-layer="1067" to-port="1" />
		<edge from-layer="1067" from-port="2" to-layer="1070" to-port="0" />
		<edge from-layer="1068" from-port="0" to-layer="1069" to-port="0" />
		<edge from-layer="1069" from-port="1" to-layer="1070" to-port="1" />
		<edge from-layer="1070" from-port="2" to-layer="1072" to-port="0" />
		<edge from-layer="1071" from-port="0" to-layer="1072" to-port="1" />
		<edge from-layer="1072" from-port="2" to-layer="1077" to-port="0" />
		<edge from-layer="1073" from-port="0" to-layer="1077" to-port="1" />
		<edge from-layer="1074" from-port="0" to-layer="1077" to-port="2" />
		<edge from-layer="1075" from-port="0" to-layer="1077" to-port="3" />
		<edge from-layer="1076" from-port="0" to-layer="1077" to-port="4" />
		<edge from-layer="1077" from-port="5" to-layer="1082" to-port="0" />
		<edge from-layer="1078" from-port="0" to-layer="1079" to-port="0" />
		<edge from-layer="1079" from-port="1" to-layer="1081" to-port="0" />
		<edge from-layer="1080" from-port="0" to-layer="1081" to-port="1" />
		<edge from-layer="1081" from-port="2" to-layer="1082" to-port="1" />
		<edge from-layer="1082" from-port="2" to-layer="1085" to-port="0" />
		<edge from-layer="1083" from-port="0" to-layer="1084" to-port="0" />
		<edge from-layer="1084" from-port="1" to-layer="1085" to-port="1" />
		<edge from-layer="1085" from-port="2" to-layer="1086" to-port="0" />
		<edge from-layer="1086" from-port="1" to-layer="1088" to-port="0" />
		<edge from-layer="1087" from-port="0" to-layer="1088" to-port="1" />
		<edge from-layer="1088" from-port="2" to-layer="1093" to-port="0" />
		<edge from-layer="1089" from-port="0" to-layer="1093" to-port="1" />
		<edge from-layer="1090" from-port="0" to-layer="1093" to-port="2" />
		<edge from-layer="1091" from-port="0" to-layer="1093" to-port="3" />
		<edge from-layer="1092" from-port="0" to-layer="1093" to-port="4" />
		<edge from-layer="1093" from-port="5" to-layer="1098" to-port="0" />
		<edge from-layer="1094" from-port="0" to-layer="1095" to-port="0" />
		<edge from-layer="1095" from-port="1" to-layer="1097" to-port="0" />
		<edge from-layer="1096" from-port="0" to-layer="1097" to-port="1" />
		<edge from-layer="1097" from-port="2" to-layer="1098" to-port="1" />
		<edge from-layer="1098" from-port="2" to-layer="1101" to-port="0" />
		<edge from-layer="1099" from-port="0" to-layer="1100" to-port="0" />
		<edge from-layer="1100" from-port="1" to-layer="1101" to-port="1" />
		<edge from-layer="1101" from-port="2" to-layer="1102" to-port="0" />
		<edge from-layer="1102" from-port="2" to-layer="1168" to-port="1" />
		<edge from-layer="1102" from-port="2" to-layer="1104" to-port="0" />
		<edge from-layer="1103" from-port="0" to-layer="1104" to-port="1" />
		<edge from-layer="1104" from-port="2" to-layer="1107" to-port="0" />
		<edge from-layer="1105" from-port="0" to-layer="1106" to-port="0" />
		<edge from-layer="1106" from-port="1" to-layer="1107" to-port="1" />
		<edge from-layer="1107" from-port="2" to-layer="1110" to-port="0" />
		<edge from-layer="1108" from-port="0" to-layer="1109" to-port="0" />
		<edge from-layer="1109" from-port="1" to-layer="1110" to-port="1" />
		<edge from-layer="1110" from-port="2" to-layer="1112" to-port="0" />
		<edge from-layer="1111" from-port="0" to-layer="1112" to-port="1" />
		<edge from-layer="1112" from-port="2" to-layer="1117" to-port="0" />
		<edge from-layer="1113" from-port="0" to-layer="1117" to-port="1" />
		<edge from-layer="1114" from-port="0" to-layer="1117" to-port="2" />
		<edge from-layer="1115" from-port="0" to-layer="1117" to-port="3" />
		<edge from-layer="1116" from-port="0" to-layer="1117" to-port="4" />
		<edge from-layer="1117" from-port="5" to-layer="1122" to-port="0" />
		<edge from-layer="1118" from-port="0" to-layer="1119" to-port="0" />
		<edge from-layer="1119" from-port="1" to-layer="1121" to-port="0" />
		<edge from-layer="1120" from-port="0" to-layer="1121" to-port="1" />
		<edge from-layer="1121" from-port="2" to-layer="1122" to-port="1" />
		<edge from-layer="1122" from-port="2" to-layer="1125" to-port="0" />
		<edge from-layer="1123" from-port="0" to-layer="1124" to-port="0" />
		<edge from-layer="1124" from-port="1" to-layer="1125" to-port="1" />
		<edge from-layer="1125" from-port="2" to-layer="1127" to-port="0" />
		<edge from-layer="1126" from-port="0" to-layer="1127" to-port="1" />
		<edge from-layer="1127" from-port="2" to-layer="1129" to-port="0" />
		<edge from-layer="1128" from-port="0" to-layer="1129" to-port="1" />
		<edge from-layer="1129" from-port="2" to-layer="1134" to-port="0" />
		<edge from-layer="1129" from-port="2" to-layer="1136" to-port="0" />
		<edge from-layer="1129" from-port="2" to-layer="1147" to-port="0" />
		<edge from-layer="1130" from-port="0" to-layer="1134" to-port="1" />
		<edge from-layer="1131" from-port="0" to-layer="1134" to-port="2" />
		<edge from-layer="1132" from-port="0" to-layer="1134" to-port="3" />
		<edge from-layer="1133" from-port="0" to-layer="1134" to-port="4" />
		<edge from-layer="1134" from-port="5" to-layer="1135" to-port="0" />
		<edge from-layer="1135" from-port="3" to-layer="1145" to-port="0" />
		<edge from-layer="1136" from-port="3" to-layer="1139" to-port="0" />
		<edge from-layer="1137" from-port="0" to-layer="1138" to-port="0" />
		<edge from-layer="1138" from-port="1" to-layer="1139" to-port="1" />
		<edge from-layer="1139" from-port="2" to-layer="1144" to-port="0" />
		<edge from-layer="1140" from-port="0" to-layer="1144" to-port="1" />
		<edge from-layer="1141" from-port="0" to-layer="1144" to-port="2" />
		<edge from-layer="1142" from-port="0" to-layer="1144" to-port="3" />
		<edge from-layer="1143" from-port="0" to-layer="1144" to-port="4" />
		<edge from-layer="1144" from-port="5" to-layer="1145" to-port="1" />
		<edge from-layer="1145" from-port="2" to-layer="1146" to-port="0" />
		<edge from-layer="1146" from-port="1" to-layer="1148" to-port="0" />
		<edge from-layer="1147" from-port="3" to-layer="1148" to-port="1" />
		<edge from-layer="1148" from-port="2" to-layer="1150" to-port="0" />
		<edge from-layer="1149" from-port="0" to-layer="1150" to-port="1" />
		<edge from-layer="1150" from-port="2" to-layer="1152" to-port="0" />
		<edge from-layer="1151" from-port="0" to-layer="1152" to-port="1" />
		<edge from-layer="1152" from-port="2" to-layer="1154" to-port="0" />
		<edge from-layer="1153" from-port="0" to-layer="1154" to-port="1" />
		<edge from-layer="1154" from-port="2" to-layer="1159" to-port="0" />
		<edge from-layer="1155" from-port="0" to-layer="1159" to-port="1" />
		<edge from-layer="1156" from-port="0" to-layer="1159" to-port="2" />
		<edge from-layer="1157" from-port="0" to-layer="1159" to-port="3" />
		<edge from-layer="1158" from-port="0" to-layer="1159" to-port="4" />
		<edge from-layer="1159" from-port="5" to-layer="1164" to-port="0" />
		<edge from-layer="1160" from-port="0" to-layer="1161" to-port="0" />
		<edge from-layer="1161" from-port="1" to-layer="1163" to-port="0" />
		<edge from-layer="1162" from-port="0" to-layer="1163" to-port="1" />
		<edge from-layer="1163" from-port="2" to-layer="1164" to-port="1" />
		<edge from-layer="1164" from-port="2" to-layer="1167" to-port="0" />
		<edge from-layer="1165" from-port="0" to-layer="1166" to-port="0" />
		<edge from-layer="1166" from-port="1" to-layer="1167" to-port="1" />
		<edge from-layer="1167" from-port="2" to-layer="1168" to-port="0" />
		<edge from-layer="1168" from-port="2" to-layer="1208" to-port="1" />
		<edge from-layer="1168" from-port="2" to-layer="1170" to-port="0" />
		<edge from-layer="1169" from-port="0" to-layer="1170" to-port="1" />
		<edge from-layer="1170" from-port="2" to-layer="1173" to-port="0" />
		<edge from-layer="1171" from-port="0" to-layer="1172" to-port="0" />
		<edge from-layer="1172" from-port="1" to-layer="1173" to-port="1" />
		<edge from-layer="1173" from-port="2" to-layer="1176" to-port="0" />
		<edge from-layer="1174" from-port="0" to-layer="1175" to-port="0" />
		<edge from-layer="1175" from-port="1" to-layer="1176" to-port="1" />
		<edge from-layer="1176" from-port="2" to-layer="1178" to-port="0" />
		<edge from-layer="1177" from-port="0" to-layer="1178" to-port="1" />
		<edge from-layer="1178" from-port="2" to-layer="1183" to-port="0" />
		<edge from-layer="1179" from-port="0" to-layer="1183" to-port="1" />
		<edge from-layer="1180" from-port="0" to-layer="1183" to-port="2" />
		<edge from-layer="1181" from-port="0" to-layer="1183" to-port="3" />
		<edge from-layer="1182" from-port="0" to-layer="1183" to-port="4" />
		<edge from-layer="1183" from-port="5" to-layer="1188" to-port="0" />
		<edge from-layer="1184" from-port="0" to-layer="1185" to-port="0" />
		<edge from-layer="1185" from-port="1" to-layer="1187" to-port="0" />
		<edge from-layer="1186" from-port="0" to-layer="1187" to-port="1" />
		<edge from-layer="1187" from-port="2" to-layer="1188" to-port="1" />
		<edge from-layer="1188" from-port="2" to-layer="1191" to-port="0" />
		<edge from-layer="1189" from-port="0" to-layer="1190" to-port="0" />
		<edge from-layer="1190" from-port="1" to-layer="1191" to-port="1" />
		<edge from-layer="1191" from-port="2" to-layer="1192" to-port="0" />
		<edge from-layer="1192" from-port="1" to-layer="1194" to-port="0" />
		<edge from-layer="1193" from-port="0" to-layer="1194" to-port="1" />
		<edge from-layer="1194" from-port="2" to-layer="1199" to-port="0" />
		<edge from-layer="1195" from-port="0" to-layer="1199" to-port="1" />
		<edge from-layer="1196" from-port="0" to-layer="1199" to-port="2" />
		<edge from-layer="1197" from-port="0" to-layer="1199" to-port="3" />
		<edge from-layer="1198" from-port="0" to-layer="1199" to-port="4" />
		<edge from-layer="1199" from-port="5" to-layer="1204" to-port="0" />
		<edge from-layer="1200" from-port="0" to-layer="1201" to-port="0" />
		<edge from-layer="1201" from-port="1" to-layer="1203" to-port="0" />
		<edge from-layer="1202" from-port="0" to-layer="1203" to-port="1" />
		<edge from-layer="1203" from-port="2" to-layer="1204" to-port="1" />
		<edge from-layer="1204" from-port="2" to-layer="1207" to-port="0" />
		<edge from-layer="1205" from-port="0" to-layer="1206" to-port="0" />
		<edge from-layer="1206" from-port="1" to-layer="1207" to-port="1" />
		<edge from-layer="1207" from-port="2" to-layer="1208" to-port="0" />
		<edge from-layer="1208" from-port="2" to-layer="1274" to-port="1" />
		<edge from-layer="1208" from-port="2" to-layer="1210" to-port="0" />
		<edge from-layer="1209" from-port="0" to-layer="1210" to-port="1" />
		<edge from-layer="1210" from-port="2" to-layer="1213" to-port="0" />
		<edge from-layer="1211" from-port="0" to-layer="1212" to-port="0" />
		<edge from-layer="1212" from-port="1" to-layer="1213" to-port="1" />
		<edge from-layer="1213" from-port="2" to-layer="1216" to-port="0" />
		<edge from-layer="1214" from-port="0" to-layer="1215" to-port="0" />
		<edge from-layer="1215" from-port="1" to-layer="1216" to-port="1" />
		<edge from-layer="1216" from-port="2" to-layer="1218" to-port="0" />
		<edge from-layer="1217" from-port="0" to-layer="1218" to-port="1" />
		<edge from-layer="1218" from-port="2" to-layer="1223" to-port="0" />
		<edge from-layer="1219" from-port="0" to-layer="1223" to-port="1" />
		<edge from-layer="1220" from-port="0" to-layer="1223" to-port="2" />
		<edge from-layer="1221" from-port="0" to-layer="1223" to-port="3" />
		<edge from-layer="1222" from-port="0" to-layer="1223" to-port="4" />
		<edge from-layer="1223" from-port="5" to-layer="1228" to-port="0" />
		<edge from-layer="1224" from-port="0" to-layer="1225" to-port="0" />
		<edge from-layer="1225" from-port="1" to-layer="1227" to-port="0" />
		<edge from-layer="1226" from-port="0" to-layer="1227" to-port="1" />
		<edge from-layer="1227" from-port="2" to-layer="1228" to-port="1" />
		<edge from-layer="1228" from-port="2" to-layer="1231" to-port="0" />
		<edge from-layer="1229" from-port="0" to-layer="1230" to-port="0" />
		<edge from-layer="1230" from-port="1" to-layer="1231" to-port="1" />
		<edge from-layer="1231" from-port="2" to-layer="1233" to-port="0" />
		<edge from-layer="1232" from-port="0" to-layer="1233" to-port="1" />
		<edge from-layer="1233" from-port="2" to-layer="1235" to-port="0" />
		<edge from-layer="1234" from-port="0" to-layer="1235" to-port="1" />
		<edge from-layer="1235" from-port="2" to-layer="1240" to-port="0" />
		<edge from-layer="1235" from-port="2" to-layer="1253" to-port="0" />
		<edge from-layer="1235" from-port="2" to-layer="1242" to-port="0" />
		<edge from-layer="1236" from-port="0" to-layer="1240" to-port="1" />
		<edge from-layer="1237" from-port="0" to-layer="1240" to-port="2" />
		<edge from-layer="1238" from-port="0" to-layer="1240" to-port="3" />
		<edge from-layer="1239" from-port="0" to-layer="1240" to-port="4" />
		<edge from-layer="1240" from-port="5" to-layer="1241" to-port="0" />
		<edge from-layer="1241" from-port="3" to-layer="1251" to-port="0" />
		<edge from-layer="1242" from-port="3" to-layer="1245" to-port="0" />
		<edge from-layer="1243" from-port="0" to-layer="1244" to-port="0" />
		<edge from-layer="1244" from-port="1" to-layer="1245" to-port="1" />
		<edge from-layer="1245" from-port="2" to-layer="1250" to-port="0" />
		<edge from-layer="1246" from-port="0" to-layer="1250" to-port="1" />
		<edge from-layer="1247" from-port="0" to-layer="1250" to-port="2" />
		<edge from-layer="1248" from-port="0" to-layer="1250" to-port="3" />
		<edge from-layer="1249" from-port="0" to-layer="1250" to-port="4" />
		<edge from-layer="1250" from-port="5" to-layer="1251" to-port="1" />
		<edge from-layer="1251" from-port="2" to-layer="1252" to-port="0" />
		<edge from-layer="1252" from-port="1" to-layer="1254" to-port="0" />
		<edge from-layer="1253" from-port="3" to-layer="1254" to-port="1" />
		<edge from-layer="1254" from-port="2" to-layer="1256" to-port="0" />
		<edge from-layer="1255" from-port="0" to-layer="1256" to-port="1" />
		<edge from-layer="1256" from-port="2" to-layer="1258" to-port="0" />
		<edge from-layer="1257" from-port="0" to-layer="1258" to-port="1" />
		<edge from-layer="1258" from-port="2" to-layer="1260" to-port="0" />
		<edge from-layer="1259" from-port="0" to-layer="1260" to-port="1" />
		<edge from-layer="1260" from-port="2" to-layer="1265" to-port="0" />
		<edge from-layer="1261" from-port="0" to-layer="1265" to-port="1" />
		<edge from-layer="1262" from-port="0" to-layer="1265" to-port="2" />
		<edge from-layer="1263" from-port="0" to-layer="1265" to-port="3" />
		<edge from-layer="1264" from-port="0" to-layer="1265" to-port="4" />
		<edge from-layer="1265" from-port="5" to-layer="1270" to-port="0" />
		<edge from-layer="1266" from-port="0" to-layer="1267" to-port="0" />
		<edge from-layer="1267" from-port="1" to-layer="1269" to-port="0" />
		<edge from-layer="1268" from-port="0" to-layer="1269" to-port="1" />
		<edge from-layer="1269" from-port="2" to-layer="1270" to-port="1" />
		<edge from-layer="1270" from-port="2" to-layer="1273" to-port="0" />
		<edge from-layer="1271" from-port="0" to-layer="1272" to-port="0" />
		<edge from-layer="1272" from-port="1" to-layer="1273" to-port="1" />
		<edge from-layer="1273" from-port="2" to-layer="1274" to-port="0" />
		<edge from-layer="1274" from-port="2" to-layer="1314" to-port="1" />
		<edge from-layer="1274" from-port="2" to-layer="1276" to-port="0" />
		<edge from-layer="1275" from-port="0" to-layer="1276" to-port="1" />
		<edge from-layer="1276" from-port="2" to-layer="1279" to-port="0" />
		<edge from-layer="1277" from-port="0" to-layer="1278" to-port="0" />
		<edge from-layer="1278" from-port="1" to-layer="1279" to-port="1" />
		<edge from-layer="1279" from-port="2" to-layer="1282" to-port="0" />
		<edge from-layer="1280" from-port="0" to-layer="1281" to-port="0" />
		<edge from-layer="1281" from-port="1" to-layer="1282" to-port="1" />
		<edge from-layer="1282" from-port="2" to-layer="1284" to-port="0" />
		<edge from-layer="1283" from-port="0" to-layer="1284" to-port="1" />
		<edge from-layer="1284" from-port="2" to-layer="1289" to-port="0" />
		<edge from-layer="1285" from-port="0" to-layer="1289" to-port="1" />
		<edge from-layer="1286" from-port="0" to-layer="1289" to-port="2" />
		<edge from-layer="1287" from-port="0" to-layer="1289" to-port="3" />
		<edge from-layer="1288" from-port="0" to-layer="1289" to-port="4" />
		<edge from-layer="1289" from-port="5" to-layer="1294" to-port="0" />
		<edge from-layer="1290" from-port="0" to-layer="1291" to-port="0" />
		<edge from-layer="1291" from-port="1" to-layer="1293" to-port="0" />
		<edge from-layer="1292" from-port="0" to-layer="1293" to-port="1" />
		<edge from-layer="1293" from-port="2" to-layer="1294" to-port="1" />
		<edge from-layer="1294" from-port="2" to-layer="1297" to-port="0" />
		<edge from-layer="1295" from-port="0" to-layer="1296" to-port="0" />
		<edge from-layer="1296" from-port="1" to-layer="1297" to-port="1" />
		<edge from-layer="1297" from-port="2" to-layer="1298" to-port="0" />
		<edge from-layer="1298" from-port="1" to-layer="1300" to-port="0" />
		<edge from-layer="1299" from-port="0" to-layer="1300" to-port="1" />
		<edge from-layer="1300" from-port="2" to-layer="1305" to-port="0" />
		<edge from-layer="1301" from-port="0" to-layer="1305" to-port="1" />
		<edge from-layer="1302" from-port="0" to-layer="1305" to-port="2" />
		<edge from-layer="1303" from-port="0" to-layer="1305" to-port="3" />
		<edge from-layer="1304" from-port="0" to-layer="1305" to-port="4" />
		<edge from-layer="1305" from-port="5" to-layer="1310" to-port="0" />
		<edge from-layer="1306" from-port="0" to-layer="1307" to-port="0" />
		<edge from-layer="1307" from-port="1" to-layer="1309" to-port="0" />
		<edge from-layer="1308" from-port="0" to-layer="1309" to-port="1" />
		<edge from-layer="1309" from-port="2" to-layer="1310" to-port="1" />
		<edge from-layer="1310" from-port="2" to-layer="1313" to-port="0" />
		<edge from-layer="1311" from-port="0" to-layer="1312" to-port="0" />
		<edge from-layer="1312" from-port="1" to-layer="1313" to-port="1" />
		<edge from-layer="1313" from-port="2" to-layer="1314" to-port="0" />
		<edge from-layer="1314" from-port="2" to-layer="1316" to-port="0" />
		<edge from-layer="1315" from-port="0" to-layer="1316" to-port="1" />
		<edge from-layer="1316" from-port="2" to-layer="1319" to-port="0" />
		<edge from-layer="1317" from-port="0" to-layer="1318" to-port="0" />
		<edge from-layer="1318" from-port="1" to-layer="1319" to-port="1" />
		<edge from-layer="1319" from-port="2" to-layer="1322" to-port="0" />
		<edge from-layer="1320" from-port="0" to-layer="1321" to-port="0" />
		<edge from-layer="1321" from-port="1" to-layer="1322" to-port="1" />
		<edge from-layer="1322" from-port="2" to-layer="1335" to-port="0" />
		<edge from-layer="1322" from-port="2" to-layer="1325" to-port="0" />
		<edge from-layer="1323" from-port="0" to-layer="1325" to-port="1" />
		<edge from-layer="1324" from-port="0" to-layer="1325" to-port="2" />
		<edge from-layer="1325" from-port="3" to-layer="1327" to-port="0" />
		<edge from-layer="1326" from-port="0" to-layer="1327" to-port="1" />
		<edge from-layer="1327" from-port="2" to-layer="1330" to-port="0" />
		<edge from-layer="1328" from-port="0" to-layer="1329" to-port="0" />
		<edge from-layer="1329" from-port="1" to-layer="1330" to-port="1" />
		<edge from-layer="1330" from-port="2" to-layer="1333" to-port="0" />
		<edge from-layer="1331" from-port="0" to-layer="1332" to-port="0" />
		<edge from-layer="1332" from-port="1" to-layer="1333" to-port="1" />
		<edge from-layer="1333" from-port="2" to-layer="1334" to-port="0" />
	</edges>
	<rt_info>
		<Runtime_version value="2025.1.0-18503-6fec06580ab-releases/2025/1" />
		<conversion_parameters>
			<framework value="pytorch" />
			<is_python_object value="True" />
		</conversion_parameters>
		<nncf>
			<friendly_names_were_updated value="True" />
			<quantization>
				<advanced_parameters value="{}" />
				<fast_bias_correction value="True" />
				<ignored_scope value="None" />
				<model_type value="transformer" />
				<preset value="None" />
				<subset_size value="300" />
				<target_device value="ANY" />
			</quantization>
		</nncf>
	</rt_info>
</net>
