<?xml version="1.0"?>
<net name="Model3" version="11">
	<layers>
		<layer id="3" name="input_ids" type="Parameter" version="opset1">
			<data shape="?,?" element_type="i64" />
			<output>
				<port id="0" precision="I64" names="input_ids">
					<dim>-1</dim>
					<dim>-1</dim>
				</port>
			</output>
		</layer>
		<layer id="2" name="attention_mask" type="Parameter" version="opset1">
			<data shape="?,?" element_type="i64" />
			<output>
				<port id="0" precision="I64" names="34,attention_mask">
					<dim>-1</dim>
					<dim>-1</dim>
				</port>
			</output>
		</layer>
		<layer id="1" name="encoder_hidden_states" type="Parameter" version="opset1">
			<data shape="?,?,?" element_type="f32" />
			<output>
				<port id="0" precision="FP32" names="encoder_hidden_states">
					<dim>-1</dim>
					<dim>-1</dim>
					<dim>-1</dim>
				</port>
			</output>
		</layer>
		<layer id="0" name="encoder_attention_mask" type="Parameter" version="opset1">
			<data shape="?,?" element_type="i64" />
			<output>
				<port id="0" precision="I64" names="41,encoder_attention_mask">
					<dim>-1</dim>
					<dim>-1</dim>
				</port>
			</output>
		</layer>
		<layer id="4" name="Constant_448982" type="Const" version="opset1">
			<data element_type="i8" shape="30524, 768" offset="0" size="23442432" />
			<output>
				<port id="0" precision="I8">
					<dim>30524</dim>
					<dim>768</dim>
				</port>
			</output>
		</layer>
		<layer id="5" name="Convert_448983" type="Convert" version="opset1">
			<data destination_type="f32" />
			<input>
				<port id="0" precision="I8">
					<dim>30524</dim>
					<dim>768</dim>
				</port>
			</input>
			<output>
				<port id="1" precision="FP32">
					<dim>30524</dim>
					<dim>768</dim>
				</port>
			</output>
		</layer>
		<layer id="6" name="Constant_448984" type="Const" version="opset1">
			<data element_type="f32" shape="30524, 1" offset="23442432" size="122096" />
			<output>
				<port id="0" precision="FP32">
					<dim>30524</dim>
					<dim>1</dim>
				</port>
			</output>
		</layer>
		<layer id="7" name="__module.model.embeddings.word_embeddings/aten::embedding/Gather/fq_weights_0" type="Multiply" version="opset1">
			<data auto_broadcast="numpy" />
			<input>
				<port id="0" precision="FP32">
					<dim>30524</dim>
					<dim>768</dim>
				</port>
				<port id="1" precision="FP32">
					<dim>30524</dim>
					<dim>1</dim>
				</port>
			</input>
			<output>
				<port id="2" precision="FP32">
					<dim>30524</dim>
					<dim>768</dim>
				</port>
			</output>
		</layer>
		<layer id="8" name="__module.model.embeddings.word_embeddings/aten::embedding/Convert" type="Convert" version="opset1">
			<data destination_type="i32" />
			<input>
				<port id="0" precision="I64">
					<dim>-1</dim>
					<dim>-1</dim>
				</port>
			</input>
			<output>
				<port id="1" precision="I32">
					<dim>-1</dim>
					<dim>-1</dim>
				</port>
			</output>
		</layer>
		<layer id="9" name="__module.model.embeddings.word_embeddings/aten::embedding/Constant" type="Const" version="opset1">
			<data element_type="i32" shape="" offset="23564528" size="4" />
			<output>
				<port id="0" precision="I32" />
			</output>
		</layer>
		<layer id="10" name="__module.model.embeddings.word_embeddings/aten::embedding/Gather" type="Gather" version="opset8">
			<data batch_dims="0" />
			<input>
				<port id="0" precision="FP32">
					<dim>30524</dim>
					<dim>768</dim>
				</port>
				<port id="1" precision="I32">
					<dim>-1</dim>
					<dim>-1</dim>
				</port>
				<port id="2" precision="I32" />
			</input>
			<output>
				<port id="3" precision="FP32" names="60_1">
					<dim>-1</dim>
					<dim>-1</dim>
					<dim>768</dim>
				</port>
			</output>
		</layer>
		<layer id="11" name="Constant_448987" type="Const" version="opset1">
			<data element_type="i8" shape="512, 768" offset="23564532" size="393216" />
			<output>
				<port id="0" precision="I8">
					<dim>512</dim>
					<dim>768</dim>
				</port>
			</output>
		</layer>
		<layer id="12" name="Convert_448988" type="Convert" version="opset1">
			<data destination_type="f32" />
			<input>
				<port id="0" precision="I8">
					<dim>512</dim>
					<dim>768</dim>
				</port>
			</input>
			<output>
				<port id="1" precision="FP32">
					<dim>512</dim>
					<dim>768</dim>
				</port>
			</output>
		</layer>
		<layer id="13" name="Constant_448989" type="Const" version="opset1">
			<data element_type="f32" shape="512, 1" offset="23957748" size="2048" />
			<output>
				<port id="0" precision="FP32">
					<dim>512</dim>
					<dim>1</dim>
				</port>
			</output>
		</layer>
		<layer id="14" name="__module.model.embeddings.position_embeddings/aten::embedding/Gather/fq_weights_0" type="Multiply" version="opset1">
			<data auto_broadcast="numpy" />
			<input>
				<port id="0" precision="FP32">
					<dim>512</dim>
					<dim>768</dim>
				</port>
				<port id="1" precision="FP32">
					<dim>512</dim>
					<dim>1</dim>
				</port>
			</input>
			<output>
				<port id="2" precision="FP32">
					<dim>512</dim>
					<dim>768</dim>
				</port>
			</output>
		</layer>
		<layer id="15" name="__module.model.embeddings/aten::slice/Slice" type="Const" version="opset1">
			<data element_type="i64" shape="1, 512" offset="23959796" size="4096" />
			<output>
				<port id="0" precision="I64" names="57">
					<dim>1</dim>
					<dim>512</dim>
				</port>
			</output>
		</layer>
		<layer id="16" name="Constant_10523" type="Const" version="opset1">
			<data element_type="i64" shape="1" offset="23963892" size="8" />
			<output>
				<port id="0" precision="I64">
					<dim>1</dim>
				</port>
			</output>
		</layer>
		<layer id="17" name="ShapeOf_26553" type="ShapeOf" version="opset3">
			<data output_type="i64" />
			<input>
				<port id="0" precision="I64">
					<dim>-1</dim>
					<dim>-1</dim>
				</port>
			</input>
			<output>
				<port id="1" precision="I64">
					<dim>2</dim>
				</port>
			</output>
		</layer>
		<layer id="18" name="Constant_26554" type="Const" version="opset1">
			<data element_type="i64" shape="1" offset="23963900" size="8" />
			<output>
				<port id="0" precision="I64">
					<dim>1</dim>
				</port>
			</output>
		</layer>
		<layer id="19" name="Constant_26555" type="Const" version="opset1">
			<data element_type="i64" shape="" offset="23963892" size="8" />
			<output>
				<port id="0" precision="I64" />
			</output>
		</layer>
		<layer id="20" name="Gather_26556" type="Gather" version="opset8">
			<data batch_dims="0" />
			<input>
				<port id="0" precision="I64">
					<dim>2</dim>
				</port>
				<port id="1" precision="I64">
					<dim>1</dim>
				</port>
				<port id="2" precision="I64" />
			</input>
			<output>
				<port id="3" precision="I64" names="53,55,56">
					<dim>1</dim>
				</port>
			</output>
		</layer>
		<layer id="21" name="Constant_10526" type="Const" version="opset1">
			<data element_type="i64" shape="1" offset="23963900" size="8" />
			<output>
				<port id="0" precision="I64">
					<dim>1</dim>
				</port>
			</output>
		</layer>
		<layer id="22" name="Constant_10521" type="Const" version="opset1">
			<data element_type="i64" shape="1" offset="23963900" size="8" />
			<output>
				<port id="0" precision="I64">
					<dim>1</dim>
				</port>
			</output>
		</layer>
		<layer id="23" name="__module.model.embeddings/aten::slice/Slice_1" type="Slice" version="opset8">
			<input>
				<port id="0" precision="I64">
					<dim>1</dim>
					<dim>512</dim>
				</port>
				<port id="1" precision="I64">
					<dim>1</dim>
				</port>
				<port id="2" precision="I64">
					<dim>1</dim>
				</port>
				<port id="3" precision="I64">
					<dim>1</dim>
				</port>
				<port id="4" precision="I64">
					<dim>1</dim>
				</port>
			</input>
			<output>
				<port id="5" precision="I64" names="58,input.1">
					<dim>1</dim>
					<dim>-1</dim>
				</port>
			</output>
		</layer>
		<layer id="24" name="__module.model.embeddings.position_embeddings/aten::embedding/Convert" type="Convert" version="opset1">
			<data destination_type="i32" />
			<input>
				<port id="0" precision="I64">
					<dim>1</dim>
					<dim>-1</dim>
				</port>
			</input>
			<output>
				<port id="1" precision="I32">
					<dim>1</dim>
					<dim>-1</dim>
				</port>
			</output>
		</layer>
		<layer id="25" name="__module.model.embeddings.position_embeddings/aten::embedding/Constant" type="Const" version="opset1">
			<data element_type="i32" shape="" offset="23564528" size="4" />
			<output>
				<port id="0" precision="I32" />
			</output>
		</layer>
		<layer id="26" name="__module.model.embeddings.position_embeddings/aten::embedding/Gather" type="Gather" version="opset8">
			<data batch_dims="0" />
			<input>
				<port id="0" precision="FP32">
					<dim>512</dim>
					<dim>768</dim>
				</port>
				<port id="1" precision="I32">
					<dim>1</dim>
					<dim>-1</dim>
				</port>
				<port id="2" precision="I32" />
			</input>
			<output>
				<port id="3" precision="FP32" names="62,position_embeddings.1">
					<dim>1</dim>
					<dim>-1</dim>
					<dim>768</dim>
				</port>
			</output>
		</layer>
		<layer id="27" name="__module.model.embeddings/aten::add_/Add" type="Add" version="opset1">
			<data auto_broadcast="numpy" />
			<input>
				<port id="0" precision="FP32">
					<dim>-1</dim>
					<dim>-1</dim>
					<dim>768</dim>
				</port>
				<port id="1" precision="FP32">
					<dim>1</dim>
					<dim>-1</dim>
					<dim>768</dim>
				</port>
			</input>
			<output>
				<port id="2" precision="FP32" names="60,inputs_embeds">
					<dim>-1</dim>
					<dim>-1</dim>
					<dim>768</dim>
				</port>
			</output>
		</layer>
		<layer id="28" name="__module.model.embeddings.LayerNorm/aten::layer_norm/Multiply" type="Const" version="opset1">
			<data element_type="i32" shape="1" offset="23963908" size="4" />
			<output>
				<port id="0" precision="I32">
					<dim>1</dim>
				</port>
			</output>
		</layer>
		<layer id="29" name="__module.model.embeddings.LayerNorm/aten::layer_norm/MVN" type="MVN" version="opset6">
			<data eps="9.999999960041972e-13" normalize_variance="true" eps_mode="INSIDE_SQRT" />
			<input>
				<port id="0" precision="FP32">
					<dim>-1</dim>
					<dim>-1</dim>
					<dim>768</dim>
				</port>
				<port id="1" precision="I32">
					<dim>1</dim>
				</port>
			</input>
			<output>
				<port id="2" precision="FP32" names="67,input.5">
					<dim>-1</dim>
					<dim>-1</dim>
					<dim>768</dim>
				</port>
			</output>
		</layer>
		<layer id="30" name="__module.model.embeddings.LayerNorm/aten::layer_norm/MVN_0_0/nncf_smooth_quant/scale" type="Const" version="opset1">
			<data element_type="f32" shape="1, 1, 768" offset="23963912" size="3072" />
			<output>
				<port id="0" precision="FP32">
					<dim>1</dim>
					<dim>1</dim>
					<dim>768</dim>
				</port>
			</output>
		</layer>
		<layer id="31" name="__module.model.embeddings.LayerNorm/aten::layer_norm/MVN_0_0/nncf_smooth_quant" type="Multiply" version="opset1">
			<data auto_broadcast="numpy" />
			<input>
				<port id="0" precision="FP32">
					<dim>-1</dim>
					<dim>-1</dim>
					<dim>768</dim>
				</port>
				<port id="1" precision="FP32">
					<dim>1</dim>
					<dim>1</dim>
					<dim>768</dim>
				</port>
			</input>
			<output>
				<port id="2" precision="FP32">
					<dim>-1</dim>
					<dim>-1</dim>
					<dim>768</dim>
				</port>
			</output>
		</layer>
		<layer id="32" name="__module.model.embeddings.LayerNorm/aten::layer_norm/MVN_0_0/nncf_smooth_quant/fq_output_0/input_low" type="Const" version="opset1">
			<data element_type="f32" shape="" offset="23966984" size="4" />
			<output>
				<port id="0" precision="FP32" />
			</output>
		</layer>
		<layer id="33" name="__module.model.embeddings.LayerNorm/aten::layer_norm/MVN_0_0/nncf_smooth_quant/fq_output_0/input_high" type="Const" version="opset1">
			<data element_type="f32" shape="" offset="23966988" size="4" />
			<output>
				<port id="0" precision="FP32" />
			</output>
		</layer>
		<layer id="34" name="__module.model.embeddings.LayerNorm/aten::layer_norm/MVN_0_0/nncf_smooth_quant/fq_output_0/output_low" type="Const" version="opset1">
			<data element_type="f32" shape="" offset="23966984" size="4" />
			<output>
				<port id="0" precision="FP32" />
			</output>
		</layer>
		<layer id="35" name="__module.model.embeddings.LayerNorm/aten::layer_norm/MVN_0_0/nncf_smooth_quant/fq_output_0/output_high" type="Const" version="opset1">
			<data element_type="f32" shape="" offset="23966988" size="4" />
			<output>
				<port id="0" precision="FP32" />
			</output>
		</layer>
		<layer id="36" name="__module.model.embeddings.LayerNorm/aten::layer_norm/MVN_0_0/nncf_smooth_quant/fq_output_0" type="FakeQuantize" version="opset1">
			<data levels="256" auto_broadcast="numpy" />
			<input>
				<port id="0" precision="FP32">
					<dim>-1</dim>
					<dim>-1</dim>
					<dim>768</dim>
				</port>
				<port id="1" precision="FP32" />
				<port id="2" precision="FP32" />
				<port id="3" precision="FP32" />
				<port id="4" precision="FP32" />
			</input>
			<output>
				<port id="5" precision="FP32">
					<dim>-1</dim>
					<dim>-1</dim>
					<dim>768</dim>
				</port>
			</output>
		</layer>
		<layer id="37" name="Constant_448992" type="Const" version="opset1">
			<data element_type="i8" shape="768, 768" offset="23966992" size="589824" />
			<output>
				<port id="0" precision="I8">
					<dim>768</dim>
					<dim>768</dim>
				</port>
			</output>
		</layer>
		<layer id="38" name="Convert_448993" type="Convert" version="opset1">
			<data destination_type="f32" />
			<input>
				<port id="0" precision="I8">
					<dim>768</dim>
					<dim>768</dim>
				</port>
			</input>
			<output>
				<port id="1" precision="FP32">
					<dim>768</dim>
					<dim>768</dim>
				</port>
			</output>
		</layer>
		<layer id="39" name="Constant_448994" type="Const" version="opset1">
			<data element_type="f32" shape="768, 1" offset="24556816" size="3072" />
			<output>
				<port id="0" precision="FP32">
					<dim>768</dim>
					<dim>1</dim>
				</port>
			</output>
		</layer>
		<layer id="40" name="__module.model.encoder.layer.0.attention.self.query/aten::linear/MatMul/fq_weights_1" type="Multiply" version="opset1">
			<data auto_broadcast="numpy" />
			<input>
				<port id="0" precision="FP32">
					<dim>768</dim>
					<dim>768</dim>
				</port>
				<port id="1" precision="FP32">
					<dim>768</dim>
					<dim>1</dim>
				</port>
			</input>
			<output>
				<port id="2" precision="FP32">
					<dim>768</dim>
					<dim>768</dim>
				</port>
			</output>
		</layer>
		<layer id="41" name="__module.model.encoder.layer.0.attention.self.query/aten::linear/MatMul" type="MatMul" version="opset1">
			<data transpose_a="false" transpose_b="true" />
			<input>
				<port id="0" precision="FP32">
					<dim>-1</dim>
					<dim>-1</dim>
					<dim>768</dim>
				</port>
				<port id="1" precision="FP32">
					<dim>768</dim>
					<dim>768</dim>
				</port>
			</input>
			<output>
				<port id="2" precision="FP32" names="104,x.9">
					<dim>-1</dim>
					<dim>-1</dim>
					<dim>768</dim>
				</port>
			</output>
		</layer>
		<layer id="42" name="__module.model.encoder.layer.0.attention.self.query/aten::linear/MatMul/fq_output_0/input_low" type="Const" version="opset1">
			<data element_type="f32" shape="" offset="24559888" size="4" />
			<output>
				<port id="0" precision="FP32" />
			</output>
		</layer>
		<layer id="43" name="__module.model.encoder.layer.0.attention.self.query/aten::linear/MatMul/fq_output_0/input_high" type="Const" version="opset1">
			<data element_type="f32" shape="" offset="24559892" size="4" />
			<output>
				<port id="0" precision="FP32" />
			</output>
		</layer>
		<layer id="44" name="__module.model.encoder.layer.0.attention.self.query/aten::linear/MatMul/fq_output_0/output_low" type="Const" version="opset1">
			<data element_type="f32" shape="" offset="24559888" size="4" />
			<output>
				<port id="0" precision="FP32" />
			</output>
		</layer>
		<layer id="45" name="__module.model.encoder.layer.0.attention.self.query/aten::linear/MatMul/fq_output_0/output_high" type="Const" version="opset1">
			<data element_type="f32" shape="" offset="24559892" size="4" />
			<output>
				<port id="0" precision="FP32" />
			</output>
		</layer>
		<layer id="46" name="__module.model.encoder.layer.0.attention.self.query/aten::linear/MatMul/fq_output_0" type="FakeQuantize" version="opset1">
			<data levels="256" auto_broadcast="numpy" />
			<input>
				<port id="0" precision="FP32">
					<dim>-1</dim>
					<dim>-1</dim>
					<dim>768</dim>
				</port>
				<port id="1" precision="FP32" />
				<port id="2" precision="FP32" />
				<port id="3" precision="FP32" />
				<port id="4" precision="FP32" />
			</input>
			<output>
				<port id="5" precision="FP32">
					<dim>-1</dim>
					<dim>-1</dim>
					<dim>768</dim>
				</port>
			</output>
		</layer>
		<layer id="47" name="__module.model.encoder.layer.0.attention.self/prim::ListConstruct" type="Const" version="opset1">
			<data element_type="i64" shape="4" offset="24559896" size="32" />
			<rt_info>
				<attribute name="precise" version="0" />
			</rt_info>
			<output>
				<port id="0" precision="I64">
					<dim>4</dim>
				</port>
			</output>
		</layer>
		<layer id="48" name="__module.model.encoder.layer.0.attention.self/aten::view/Reshape" type="Reshape" version="opset1">
			<data special_zero="true" />
			<input>
				<port id="0" precision="FP32">
					<dim>-1</dim>
					<dim>-1</dim>
					<dim>768</dim>
				</port>
				<port id="1" precision="I64">
					<dim>4</dim>
				</port>
			</input>
			<output>
				<port id="2" precision="FP32" names="126,x.11">
					<dim>-1</dim>
					<dim>-1</dim>
					<dim>12</dim>
					<dim>64</dim>
				</port>
			</output>
		</layer>
		<layer id="49" name="Constant_10691" type="Const" version="opset1">
			<data element_type="i64" shape="4" offset="24559928" size="32" />
			<output>
				<port id="0" precision="I64" names="127">
					<dim>4</dim>
				</port>
			</output>
		</layer>
		<layer id="50" name="__module.model.encoder.layer.0.attention.self/aten::permute/Transpose" type="Transpose" version="opset1">
			<input>
				<port id="0" precision="FP32">
					<dim>-1</dim>
					<dim>-1</dim>
					<dim>12</dim>
					<dim>64</dim>
				</port>
				<port id="1" precision="I64">
					<dim>4</dim>
				</port>
			</input>
			<output>
				<port id="2" precision="FP32" names="128,query_layer.1">
					<dim>-1</dim>
					<dim>12</dim>
					<dim>-1</dim>
					<dim>64</dim>
				</port>
			</output>
		</layer>
		<layer id="51" name="Constant_448997" type="Const" version="opset1">
			<data element_type="i8" shape="768, 768" offset="24559960" size="589824" />
			<output>
				<port id="0" precision="I8">
					<dim>768</dim>
					<dim>768</dim>
				</port>
			</output>
		</layer>
		<layer id="52" name="Convert_448998" type="Convert" version="opset1">
			<data destination_type="f32" />
			<input>
				<port id="0" precision="I8">
					<dim>768</dim>
					<dim>768</dim>
				</port>
			</input>
			<output>
				<port id="1" precision="FP32">
					<dim>768</dim>
					<dim>768</dim>
				</port>
			</output>
		</layer>
		<layer id="53" name="Constant_448999" type="Const" version="opset1">
			<data element_type="f32" shape="768, 1" offset="25149784" size="3072" />
			<output>
				<port id="0" precision="FP32">
					<dim>768</dim>
					<dim>1</dim>
				</port>
			</output>
		</layer>
		<layer id="54" name="__module.model.encoder.layer.0.attention.self.key/aten::linear/MatMul/fq_weights_1" type="Multiply" version="opset1">
			<data auto_broadcast="numpy" />
			<input>
				<port id="0" precision="FP32">
					<dim>768</dim>
					<dim>768</dim>
				</port>
				<port id="1" precision="FP32">
					<dim>768</dim>
					<dim>1</dim>
				</port>
			</input>
			<output>
				<port id="2" precision="FP32">
					<dim>768</dim>
					<dim>768</dim>
				</port>
			</output>
		</layer>
		<layer id="55" name="__module.model.encoder.layer.0.attention.self.key/aten::linear/MatMul" type="MatMul" version="opset1">
			<data transpose_a="false" transpose_b="true" />
			<input>
				<port id="0" precision="FP32">
					<dim>-1</dim>
					<dim>-1</dim>
					<dim>768</dim>
				</port>
				<port id="1" precision="FP32">
					<dim>768</dim>
					<dim>768</dim>
				</port>
			</input>
			<output>
				<port id="2" precision="FP32" names="107,x.1">
					<dim>-1</dim>
					<dim>-1</dim>
					<dim>768</dim>
				</port>
			</output>
		</layer>
		<layer id="56" name="__module.model.encoder.layer.0.attention.self.key/aten::linear/MatMul/fq_output_0/input_low" type="Const" version="opset1">
			<data element_type="f32" shape="" offset="25152856" size="4" />
			<output>
				<port id="0" precision="FP32" />
			</output>
		</layer>
		<layer id="57" name="__module.model.encoder.layer.0.attention.self.key/aten::linear/MatMul/fq_output_0/input_high" type="Const" version="opset1">
			<data element_type="f32" shape="" offset="25152860" size="4" />
			<output>
				<port id="0" precision="FP32" />
			</output>
		</layer>
		<layer id="58" name="__module.model.encoder.layer.0.attention.self.key/aten::linear/MatMul/fq_output_0/output_low" type="Const" version="opset1">
			<data element_type="f32" shape="" offset="25152856" size="4" />
			<output>
				<port id="0" precision="FP32" />
			</output>
		</layer>
		<layer id="59" name="__module.model.encoder.layer.0.attention.self.key/aten::linear/MatMul/fq_output_0/output_high" type="Const" version="opset1">
			<data element_type="f32" shape="" offset="25152860" size="4" />
			<output>
				<port id="0" precision="FP32" />
			</output>
		</layer>
		<layer id="60" name="__module.model.encoder.layer.0.attention.self.key/aten::linear/MatMul/fq_output_0" type="FakeQuantize" version="opset1">
			<data levels="256" auto_broadcast="numpy" />
			<input>
				<port id="0" precision="FP32">
					<dim>-1</dim>
					<dim>-1</dim>
					<dim>768</dim>
				</port>
				<port id="1" precision="FP32" />
				<port id="2" precision="FP32" />
				<port id="3" precision="FP32" />
				<port id="4" precision="FP32" />
			</input>
			<output>
				<port id="5" precision="FP32">
					<dim>-1</dim>
					<dim>-1</dim>
					<dim>768</dim>
				</port>
			</output>
		</layer>
		<layer id="61" name="__module.model.encoder.layer.0.attention.self/prim::ListConstruct_1" type="Const" version="opset1">
			<data element_type="i64" shape="4" offset="24559896" size="32" />
			<rt_info>
				<attribute name="precise" version="0" />
			</rt_info>
			<output>
				<port id="0" precision="I64">
					<dim>4</dim>
				</port>
			</output>
		</layer>
		<layer id="62" name="__module.model.encoder.layer.0.attention.self/aten::view/Reshape_1" type="Reshape" version="opset1">
			<data special_zero="true" />
			<input>
				<port id="0" precision="FP32">
					<dim>-1</dim>
					<dim>-1</dim>
					<dim>768</dim>
				</port>
				<port id="1" precision="I64">
					<dim>4</dim>
				</port>
			</input>
			<output>
				<port id="2" precision="FP32" names="111,x.3">
					<dim>-1</dim>
					<dim>-1</dim>
					<dim>12</dim>
					<dim>64</dim>
				</port>
			</output>
		</layer>
		<layer id="63" name="Constant_10629" type="Const" version="opset1">
			<data element_type="i64" shape="4" offset="24559928" size="32" />
			<output>
				<port id="0" precision="I64" names="112">
					<dim>4</dim>
				</port>
			</output>
		</layer>
		<layer id="64" name="__module.model.encoder.layer.0.attention.self/aten::permute/Transpose_1" type="Transpose" version="opset1">
			<input>
				<port id="0" precision="FP32">
					<dim>-1</dim>
					<dim>-1</dim>
					<dim>12</dim>
					<dim>64</dim>
				</port>
				<port id="1" precision="I64">
					<dim>4</dim>
				</port>
			</input>
			<output>
				<port id="2" precision="FP32" names="113,key_layer.1">
					<dim>-1</dim>
					<dim>12</dim>
					<dim>-1</dim>
					<dim>64</dim>
				</port>
			</output>
		</layer>
		<layer id="65" name="__module.model.encoder.layer.0.attention.self/aten::matmul/MatMul" type="MatMul" version="opset1">
			<data transpose_a="false" transpose_b="true" />
			<input>
				<port id="0" precision="FP32">
					<dim>-1</dim>
					<dim>12</dim>
					<dim>-1</dim>
					<dim>64</dim>
				</port>
				<port id="1" precision="FP32">
					<dim>-1</dim>
					<dim>12</dim>
					<dim>-1</dim>
					<dim>64</dim>
				</port>
			</input>
			<output>
				<port id="2" precision="FP32" names="130,attention_scores.1">
					<dim>-1</dim>
					<dim>12</dim>
					<dim>-1</dim>
					<dim>-1</dim>
				</port>
			</output>
		</layer>
		<layer id="66" name="Constant_26419_compressed" type="Const" version="opset1">
			<data element_type="f16" shape="1, 1, 1, 1" offset="25152864" size="2" />
			<output>
				<port id="0" precision="FP16">
					<dim>1</dim>
					<dim>1</dim>
					<dim>1</dim>
					<dim>1</dim>
				</port>
			</output>
		</layer>
		<layer id="67" name="Constant_26419" type="Convert" version="opset1">
			<data destination_type="f32" />
			<rt_info>
				<attribute name="decompression" version="0" />
			</rt_info>
			<input>
				<port id="0" precision="FP16">
					<dim>1</dim>
					<dim>1</dim>
					<dim>1</dim>
					<dim>1</dim>
				</port>
			</input>
			<output>
				<port id="1" precision="FP32">
					<dim>1</dim>
					<dim>1</dim>
					<dim>1</dim>
					<dim>1</dim>
				</port>
			</output>
		</layer>
		<layer id="68" name="__module.model.encoder.layer.0.attention.self/aten::div/Divide" type="Divide" version="opset1">
			<data auto_broadcast="numpy" m_pythondiv="true" />
			<input>
				<port id="0" precision="FP32">
					<dim>-1</dim>
					<dim>12</dim>
					<dim>-1</dim>
					<dim>-1</dim>
				</port>
				<port id="1" precision="FP32">
					<dim>1</dim>
					<dim>1</dim>
					<dim>1</dim>
					<dim>1</dim>
				</port>
			</input>
			<output>
				<port id="2" precision="FP32" names="131,attention_scores.3">
					<dim>-1</dim>
					<dim>12</dim>
					<dim>-1</dim>
					<dim>-1</dim>
				</port>
			</output>
		</layer>
		<layer id="69" name="Constant_26421_compressed" type="Const" version="opset1">
			<data element_type="f16" shape="1, 1, 1, 1" offset="25152866" size="2" />
			<output>
				<port id="0" precision="FP16">
					<dim>1</dim>
					<dim>1</dim>
					<dim>1</dim>
					<dim>1</dim>
				</port>
			</output>
		</layer>
		<layer id="70" name="Constant_26421" type="Convert" version="opset1">
			<data destination_type="f32" />
			<rt_info>
				<attribute name="decompression" version="0" />
			</rt_info>
			<input>
				<port id="0" precision="FP16">
					<dim>1</dim>
					<dim>1</dim>
					<dim>1</dim>
					<dim>1</dim>
				</port>
			</input>
			<output>
				<port id="1" precision="FP32">
					<dim>1</dim>
					<dim>1</dim>
					<dim>1</dim>
					<dim>1</dim>
				</port>
			</output>
		</layer>
		<layer id="71" name="29" type="Const" version="opset1">
			<data element_type="i64" shape="" offset="23963900" size="8" />
			<output>
				<port id="0" precision="I64" names="29" />
			</output>
		</layer>
		<layer id="72" name="__module.model/aten::unsqueeze/Unsqueeze" type="Unsqueeze" version="opset1">
			<input>
				<port id="0" precision="I64">
					<dim>-1</dim>
					<dim>-1</dim>
				</port>
				<port id="1" precision="I64" />
			</input>
			<output>
				<port id="2" precision="I64" names="35">
					<dim>-1</dim>
					<dim>1</dim>
					<dim>-1</dim>
				</port>
			</output>
		</layer>
		<layer id="73" name="28" type="Const" version="opset1">
			<data element_type="i64" shape="" offset="25152868" size="8" />
			<output>
				<port id="0" precision="I64" names="28" />
			</output>
		</layer>
		<layer id="74" name="__module.model/aten::unsqueeze/Unsqueeze_1" type="Unsqueeze" version="opset1">
			<input>
				<port id="0" precision="I64">
					<dim>-1</dim>
					<dim>1</dim>
					<dim>-1</dim>
				</port>
				<port id="1" precision="I64" />
			</input>
			<output>
				<port id="2" precision="I64" names="36,37,extended_attention_mask">
					<dim>-1</dim>
					<dim>1</dim>
					<dim>1</dim>
					<dim>-1</dim>
				</port>
			</output>
		</layer>
		<layer id="75" name="__module.model/aten::to/Convert" type="Convert" version="opset1">
			<data destination_type="f32" />
			<input>
				<port id="0" precision="I64">
					<dim>-1</dim>
					<dim>1</dim>
					<dim>1</dim>
					<dim>-1</dim>
				</port>
			</input>
			<output>
				<port id="1" precision="FP32" names="38">
					<dim>-1</dim>
					<dim>1</dim>
					<dim>1</dim>
					<dim>-1</dim>
				</port>
			</output>
		</layer>
		<layer id="76" name="Constant_26420_compressed" type="Const" version="opset1">
			<data element_type="f16" shape="1, 1, 1, 1" offset="25152866" size="2" />
			<output>
				<port id="0" precision="FP16">
					<dim>1</dim>
					<dim>1</dim>
					<dim>1</dim>
					<dim>1</dim>
				</port>
			</output>
		</layer>
		<layer id="77" name="Constant_26420" type="Convert" version="opset1">
			<data destination_type="f32" />
			<rt_info>
				<attribute name="decompression" version="0" />
			</rt_info>
			<input>
				<port id="0" precision="FP16">
					<dim>1</dim>
					<dim>1</dim>
					<dim>1</dim>
					<dim>1</dim>
				</port>
			</input>
			<output>
				<port id="1" precision="FP32">
					<dim>1</dim>
					<dim>1</dim>
					<dim>1</dim>
					<dim>1</dim>
				</port>
			</output>
		</layer>
		<layer id="78" name="__module.model/aten::rsub/Multiply" type="Multiply" version="opset1">
			<data auto_broadcast="numpy" />
			<input>
				<port id="0" precision="FP32">
					<dim>-1</dim>
					<dim>1</dim>
					<dim>1</dim>
					<dim>-1</dim>
				</port>
				<port id="1" precision="FP32">
					<dim>1</dim>
					<dim>1</dim>
					<dim>1</dim>
					<dim>1</dim>
				</port>
			</input>
			<output>
				<port id="2" precision="FP32">
					<dim>-1</dim>
					<dim>1</dim>
					<dim>1</dim>
					<dim>-1</dim>
				</port>
			</output>
		</layer>
		<layer id="79" name="__module.model/aten::rsub/Subtract" type="Subtract" version="opset1">
			<data auto_broadcast="numpy" />
			<input>
				<port id="0" precision="FP32">
					<dim>1</dim>
					<dim>1</dim>
					<dim>1</dim>
					<dim>1</dim>
				</port>
				<port id="1" precision="FP32">
					<dim>-1</dim>
					<dim>1</dim>
					<dim>1</dim>
					<dim>-1</dim>
				</port>
			</input>
			<output>
				<port id="2" precision="FP32" names="39">
					<dim>-1</dim>
					<dim>1</dim>
					<dim>1</dim>
					<dim>-1</dim>
				</port>
			</output>
		</layer>
		<layer id="80" name="Constant_26422_compressed" type="Const" version="opset1">
			<data element_type="f16" shape="1, 1, 1, 1" offset="25152876" size="2" />
			<output>
				<port id="0" precision="FP16">
					<dim>1</dim>
					<dim>1</dim>
					<dim>1</dim>
					<dim>1</dim>
				</port>
			</output>
		</layer>
		<layer id="81" name="Constant_26422" type="Convert" version="opset1">
			<data destination_type="f32" />
			<rt_info>
				<attribute name="decompression" version="0" />
			</rt_info>
			<input>
				<port id="0" precision="FP16">
					<dim>1</dim>
					<dim>1</dim>
					<dim>1</dim>
					<dim>1</dim>
				</port>
			</input>
			<output>
				<port id="1" precision="FP32">
					<dim>1</dim>
					<dim>1</dim>
					<dim>1</dim>
					<dim>1</dim>
				</port>
			</output>
		</layer>
		<layer id="82" name="__module.model/aten::mul/Multiply" type="Multiply" version="opset1">
			<data auto_broadcast="numpy" />
			<input>
				<port id="0" precision="FP32">
					<dim>-1</dim>
					<dim>1</dim>
					<dim>1</dim>
					<dim>-1</dim>
				</port>
				<port id="1" precision="FP32">
					<dim>1</dim>
					<dim>1</dim>
					<dim>1</dim>
					<dim>1</dim>
				</port>
			</input>
			<output>
				<port id="2" precision="FP32" names="1027,1068,1082,1097,1183,1224,1238,1253,132,1339,1380,1394,1409,146,1495,1536,1550,1565,161,1651,1692,1706,1721,1807,1848,247,288,302,317,40,403,444,458,473,559,600,614,629,715,756,770,785,871,912,926,941,attention_mask.11,attention_mask.15,attention_mask.19,attention_mask.23,attention_mask.27,attention_mask.3,attention_mask.31,attention_mask.35,attention_mask.39,attention_mask.43,attention_mask.47,attention_mask.5,attention_mask.51">
					<dim>-1</dim>
					<dim>1</dim>
					<dim>1</dim>
					<dim>-1</dim>
				</port>
			</output>
		</layer>
		<layer id="83" name="__module.model.encoder.layer.0.attention.self/aten::add/Add" type="Add" version="opset1">
			<data auto_broadcast="numpy" />
			<input>
				<port id="0" precision="FP32">
					<dim>-1</dim>
					<dim>12</dim>
					<dim>-1</dim>
					<dim>-1</dim>
				</port>
				<port id="1" precision="FP32">
					<dim>-1</dim>
					<dim>1</dim>
					<dim>1</dim>
					<dim>-1</dim>
				</port>
			</input>
			<output>
				<port id="2" precision="FP32" names="133,input.9">
					<dim>-1</dim>
					<dim>12</dim>
					<dim>-1</dim>
					<dim>-1</dim>
				</port>
			</output>
		</layer>
		<layer id="84" name="__module.model.encoder.layer.0.attention.self/aten::softmax/Softmax" type="SoftMax" version="opset8">
			<data axis="-1" />
			<input>
				<port id="0" precision="FP32">
					<dim>-1</dim>
					<dim>12</dim>
					<dim>-1</dim>
					<dim>-1</dim>
				</port>
			</input>
			<output>
				<port id="1" precision="FP32" names="134,input.11">
					<dim>-1</dim>
					<dim>12</dim>
					<dim>-1</dim>
					<dim>-1</dim>
				</port>
			</output>
		</layer>
		<layer id="85" name="Constant_449002" type="Const" version="opset1">
			<data element_type="i8" shape="768, 768" offset="25152878" size="589824" />
			<output>
				<port id="0" precision="I8">
					<dim>768</dim>
					<dim>768</dim>
				</port>
			</output>
		</layer>
		<layer id="86" name="Convert_449003" type="Convert" version="opset1">
			<data destination_type="f32" />
			<input>
				<port id="0" precision="I8">
					<dim>768</dim>
					<dim>768</dim>
				</port>
			</input>
			<output>
				<port id="1" precision="FP32">
					<dim>768</dim>
					<dim>768</dim>
				</port>
			</output>
		</layer>
		<layer id="87" name="Constant_449004" type="Const" version="opset1">
			<data element_type="f32" shape="768, 1" offset="25742702" size="3072" />
			<output>
				<port id="0" precision="FP32">
					<dim>768</dim>
					<dim>1</dim>
				</port>
			</output>
		</layer>
		<layer id="88" name="__module.model.encoder.layer.0.attention.self.value/aten::linear/MatMul/fq_weights_1" type="Multiply" version="opset1">
			<data auto_broadcast="numpy" />
			<input>
				<port id="0" precision="FP32">
					<dim>768</dim>
					<dim>768</dim>
				</port>
				<port id="1" precision="FP32">
					<dim>768</dim>
					<dim>1</dim>
				</port>
			</input>
			<output>
				<port id="2" precision="FP32">
					<dim>768</dim>
					<dim>768</dim>
				</port>
			</output>
		</layer>
		<layer id="89" name="__module.model.encoder.layer.0.attention.self.value/aten::linear/MatMul" type="MatMul" version="opset1">
			<data transpose_a="false" transpose_b="true" />
			<input>
				<port id="0" precision="FP32">
					<dim>-1</dim>
					<dim>-1</dim>
					<dim>768</dim>
				</port>
				<port id="1" precision="FP32">
					<dim>768</dim>
					<dim>768</dim>
				</port>
			</input>
			<output>
				<port id="2" precision="FP32" names="116,x.5">
					<dim>-1</dim>
					<dim>-1</dim>
					<dim>768</dim>
				</port>
			</output>
		</layer>
		<layer id="90" name="__module.model.encoder.layer.0.attention.self/prim::ListConstruct_2" type="Const" version="opset1">
			<data element_type="i64" shape="4" offset="24559896" size="32" />
			<rt_info>
				<attribute name="precise" version="0" />
			</rt_info>
			<output>
				<port id="0" precision="I64">
					<dim>4</dim>
				</port>
			</output>
		</layer>
		<layer id="91" name="__module.model.encoder.layer.0.attention.self/aten::view/Reshape_2" type="Reshape" version="opset1">
			<data special_zero="true" />
			<input>
				<port id="0" precision="FP32">
					<dim>-1</dim>
					<dim>-1</dim>
					<dim>768</dim>
				</port>
				<port id="1" precision="I64">
					<dim>4</dim>
				</port>
			</input>
			<output>
				<port id="2" precision="FP32" names="120,x.7">
					<dim>-1</dim>
					<dim>-1</dim>
					<dim>12</dim>
					<dim>64</dim>
				</port>
			</output>
		</layer>
		<layer id="92" name="Constant_10663" type="Const" version="opset1">
			<data element_type="i64" shape="4" offset="24559928" size="32" />
			<output>
				<port id="0" precision="I64" names="121">
					<dim>4</dim>
				</port>
			</output>
		</layer>
		<layer id="93" name="__module.model.encoder.layer.0.attention.self/aten::permute/Transpose_2" type="Transpose" version="opset1">
			<input>
				<port id="0" precision="FP32">
					<dim>-1</dim>
					<dim>-1</dim>
					<dim>12</dim>
					<dim>64</dim>
				</port>
				<port id="1" precision="I64">
					<dim>4</dim>
				</port>
			</input>
			<output>
				<port id="2" precision="FP32" names="122,value_layer.1">
					<dim>-1</dim>
					<dim>12</dim>
					<dim>-1</dim>
					<dim>64</dim>
				</port>
			</output>
		</layer>
		<layer id="94" name="__module.model.encoder.layer.0.attention.self/aten::matmul/MatMul_1" type="MatMul" version="opset1">
			<data transpose_a="false" transpose_b="false" />
			<input>
				<port id="0" precision="FP32">
					<dim>-1</dim>
					<dim>12</dim>
					<dim>-1</dim>
					<dim>-1</dim>
				</port>
				<port id="1" precision="FP32">
					<dim>-1</dim>
					<dim>12</dim>
					<dim>-1</dim>
					<dim>64</dim>
				</port>
			</input>
			<output>
				<port id="2" precision="FP32" names="136,context_layer.1">
					<dim>-1</dim>
					<dim>12</dim>
					<dim>-1</dim>
					<dim>64</dim>
				</port>
			</output>
		</layer>
		<layer id="95" name="Constant_10790" type="Const" version="opset1">
			<data element_type="i64" shape="4" offset="24559928" size="32" />
			<output>
				<port id="0" precision="I64" names="137">
					<dim>4</dim>
				</port>
			</output>
		</layer>
		<layer id="96" name="__module.model.encoder.layer.0.attention.self/aten::permute/Transpose_3" type="Transpose" version="opset1">
			<input>
				<port id="0" precision="FP32">
					<dim>-1</dim>
					<dim>12</dim>
					<dim>-1</dim>
					<dim>64</dim>
				</port>
				<port id="1" precision="I64">
					<dim>4</dim>
				</port>
			</input>
			<output>
				<port id="2" precision="FP32" names="138">
					<dim>-1</dim>
					<dim>-1</dim>
					<dim>12</dim>
					<dim>64</dim>
				</port>
			</output>
		</layer>
		<layer id="97" name="__module.model.encoder.layer.0.attention.self/prim::ListConstruct_3" type="Const" version="opset1">
			<data element_type="i64" shape="3" offset="25745774" size="24" />
			<rt_info>
				<attribute name="precise" version="0" />
			</rt_info>
			<output>
				<port id="0" precision="I64">
					<dim>3</dim>
				</port>
			</output>
		</layer>
		<layer id="98" name="__module.model.encoder.layer.0.attention.self/aten::view/Reshape_3" type="Reshape" version="opset1">
			<data special_zero="true" />
			<input>
				<port id="0" precision="FP32">
					<dim>-1</dim>
					<dim>-1</dim>
					<dim>12</dim>
					<dim>64</dim>
				</port>
				<port id="1" precision="I64">
					<dim>3</dim>
				</port>
			</input>
			<output>
				<port id="2" precision="FP32" names="143,145,input.13">
					<dim>-1</dim>
					<dim>-1</dim>
					<dim>768</dim>
				</port>
			</output>
		</layer>
		<layer id="99" name="__module.model.encoder.layer.0.attention.self/aten::view/Reshape_3_0_0/nncf_smooth_quant/scale" type="Const" version="opset1">
			<data element_type="f32" shape="1, 1, 768" offset="25745798" size="3072" />
			<output>
				<port id="0" precision="FP32">
					<dim>1</dim>
					<dim>1</dim>
					<dim>768</dim>
				</port>
			</output>
		</layer>
		<layer id="100" name="__module.model.encoder.layer.0.attention.self/aten::view/Reshape_3_0_0/nncf_smooth_quant" type="Multiply" version="opset1">
			<data auto_broadcast="numpy" />
			<input>
				<port id="0" precision="FP32">
					<dim>-1</dim>
					<dim>-1</dim>
					<dim>768</dim>
				</port>
				<port id="1" precision="FP32">
					<dim>1</dim>
					<dim>1</dim>
					<dim>768</dim>
				</port>
			</input>
			<output>
				<port id="2" precision="FP32">
					<dim>-1</dim>
					<dim>-1</dim>
					<dim>768</dim>
				</port>
			</output>
		</layer>
		<layer id="101" name="__module.model.encoder.layer.0.attention.self/aten::view/Reshape_3_0_0/nncf_smooth_quant/fq_output_0/input_low" type="Const" version="opset1">
			<data element_type="f32" shape="" offset="25748870" size="4" />
			<output>
				<port id="0" precision="FP32" />
			</output>
		</layer>
		<layer id="102" name="__module.model.encoder.layer.0.attention.self/aten::view/Reshape_3_0_0/nncf_smooth_quant/fq_output_0/input_high" type="Const" version="opset1">
			<data element_type="f32" shape="" offset="25748874" size="4" />
			<output>
				<port id="0" precision="FP32" />
			</output>
		</layer>
		<layer id="103" name="__module.model.encoder.layer.0.attention.self/aten::view/Reshape_3_0_0/nncf_smooth_quant/fq_output_0/output_low" type="Const" version="opset1">
			<data element_type="f32" shape="" offset="25748870" size="4" />
			<output>
				<port id="0" precision="FP32" />
			</output>
		</layer>
		<layer id="104" name="__module.model.encoder.layer.0.attention.self/aten::view/Reshape_3_0_0/nncf_smooth_quant/fq_output_0/output_high" type="Const" version="opset1">
			<data element_type="f32" shape="" offset="25748874" size="4" />
			<output>
				<port id="0" precision="FP32" />
			</output>
		</layer>
		<layer id="105" name="__module.model.encoder.layer.0.attention.self/aten::view/Reshape_3_0_0/nncf_smooth_quant/fq_output_0" type="FakeQuantize" version="opset1">
			<data levels="256" auto_broadcast="numpy" />
			<input>
				<port id="0" precision="FP32">
					<dim>-1</dim>
					<dim>-1</dim>
					<dim>768</dim>
				</port>
				<port id="1" precision="FP32" />
				<port id="2" precision="FP32" />
				<port id="3" precision="FP32" />
				<port id="4" precision="FP32" />
			</input>
			<output>
				<port id="5" precision="FP32">
					<dim>-1</dim>
					<dim>-1</dim>
					<dim>768</dim>
				</port>
			</output>
		</layer>
		<layer id="106" name="Constant_449007" type="Const" version="opset1">
			<data element_type="i8" shape="768, 768" offset="25748878" size="589824" />
			<output>
				<port id="0" precision="I8">
					<dim>768</dim>
					<dim>768</dim>
				</port>
			</output>
		</layer>
		<layer id="107" name="Convert_449008" type="Convert" version="opset1">
			<data destination_type="f32" />
			<input>
				<port id="0" precision="I8">
					<dim>768</dim>
					<dim>768</dim>
				</port>
			</input>
			<output>
				<port id="1" precision="FP32">
					<dim>768</dim>
					<dim>768</dim>
				</port>
			</output>
		</layer>
		<layer id="108" name="Constant_449009" type="Const" version="opset1">
			<data element_type="f32" shape="768, 1" offset="26338702" size="3072" />
			<output>
				<port id="0" precision="FP32">
					<dim>768</dim>
					<dim>1</dim>
				</port>
			</output>
		</layer>
		<layer id="109" name="__module.model.encoder.layer.0.attention.output.dense/aten::linear/MatMul/fq_weights_1" type="Multiply" version="opset1">
			<data auto_broadcast="numpy" />
			<input>
				<port id="0" precision="FP32">
					<dim>768</dim>
					<dim>768</dim>
				</port>
				<port id="1" precision="FP32">
					<dim>768</dim>
					<dim>1</dim>
				</port>
			</input>
			<output>
				<port id="2" precision="FP32">
					<dim>768</dim>
					<dim>768</dim>
				</port>
			</output>
		</layer>
		<layer id="110" name="__module.model.encoder.layer.0.attention.output.dense/aten::linear/MatMul" type="MatMul" version="opset1">
			<data transpose_a="false" transpose_b="true" />
			<input>
				<port id="0" precision="FP32">
					<dim>-1</dim>
					<dim>-1</dim>
					<dim>768</dim>
				</port>
				<port id="1" precision="FP32">
					<dim>768</dim>
					<dim>768</dim>
				</port>
			</input>
			<output>
				<port id="2" precision="FP32" names="152,input.15">
					<dim>-1</dim>
					<dim>-1</dim>
					<dim>768</dim>
				</port>
			</output>
		</layer>
		<layer id="111" name="__module.model.encoder.layer.0.attention.output/aten::add/Add" type="Add" version="opset1">
			<data auto_broadcast="numpy" />
			<input>
				<port id="0" precision="FP32">
					<dim>-1</dim>
					<dim>-1</dim>
					<dim>768</dim>
				</port>
				<port id="1" precision="FP32">
					<dim>-1</dim>
					<dim>-1</dim>
					<dim>768</dim>
				</port>
			</input>
			<output>
				<port id="2" precision="FP32" names="154,input.17">
					<dim>-1</dim>
					<dim>-1</dim>
					<dim>768</dim>
				</port>
			</output>
		</layer>
		<layer id="112" name="__module.model.encoder.layer.0.attention.output.LayerNorm/aten::layer_norm/Multiply" type="Const" version="opset1">
			<data element_type="i32" shape="1" offset="23963908" size="4" />
			<output>
				<port id="0" precision="I32">
					<dim>1</dim>
				</port>
			</output>
		</layer>
		<layer id="113" name="__module.model.encoder.layer.0.attention.output.LayerNorm/aten::layer_norm/MVN" type="MVN" version="opset6">
			<data eps="9.999999960041972e-13" normalize_variance="true" eps_mode="INSIDE_SQRT" />
			<input>
				<port id="0" precision="FP32">
					<dim>-1</dim>
					<dim>-1</dim>
					<dim>768</dim>
				</port>
				<port id="1" precision="I32">
					<dim>1</dim>
				</port>
			</input>
			<output>
				<port id="2" precision="FP32" names="158,160,input.19">
					<dim>-1</dim>
					<dim>-1</dim>
					<dim>768</dim>
				</port>
			</output>
		</layer>
		<layer id="114" name="__module.model.encoder.layer.0.attention.output.LayerNorm/aten::layer_norm/MVN_0_0/nncf_smooth_quant/scale" type="Const" version="opset1">
			<data element_type="f32" shape="1, 1, 768" offset="26341774" size="3072" />
			<output>
				<port id="0" precision="FP32">
					<dim>1</dim>
					<dim>1</dim>
					<dim>768</dim>
				</port>
			</output>
		</layer>
		<layer id="115" name="__module.model.encoder.layer.0.attention.output.LayerNorm/aten::layer_norm/MVN_0_0/nncf_smooth_quant" type="Multiply" version="opset1">
			<data auto_broadcast="numpy" />
			<input>
				<port id="0" precision="FP32">
					<dim>-1</dim>
					<dim>-1</dim>
					<dim>768</dim>
				</port>
				<port id="1" precision="FP32">
					<dim>1</dim>
					<dim>1</dim>
					<dim>768</dim>
				</port>
			</input>
			<output>
				<port id="2" precision="FP32">
					<dim>-1</dim>
					<dim>-1</dim>
					<dim>768</dim>
				</port>
			</output>
		</layer>
		<layer id="116" name="__module.model.encoder.layer.0.attention.output.LayerNorm/aten::layer_norm/MVN_0_0/nncf_smooth_quant/fq_output_0/input_low" type="Const" version="opset1">
			<data element_type="f32" shape="" offset="26344846" size="4" />
			<output>
				<port id="0" precision="FP32" />
			</output>
		</layer>
		<layer id="117" name="__module.model.encoder.layer.0.attention.output.LayerNorm/aten::layer_norm/MVN_0_0/nncf_smooth_quant/fq_output_0/input_high" type="Const" version="opset1">
			<data element_type="f32" shape="" offset="26344850" size="4" />
			<output>
				<port id="0" precision="FP32" />
			</output>
		</layer>
		<layer id="118" name="__module.model.encoder.layer.0.attention.output.LayerNorm/aten::layer_norm/MVN_0_0/nncf_smooth_quant/fq_output_0/output_low" type="Const" version="opset1">
			<data element_type="f32" shape="" offset="26344846" size="4" />
			<output>
				<port id="0" precision="FP32" />
			</output>
		</layer>
		<layer id="119" name="__module.model.encoder.layer.0.attention.output.LayerNorm/aten::layer_norm/MVN_0_0/nncf_smooth_quant/fq_output_0/output_high" type="Const" version="opset1">
			<data element_type="f32" shape="" offset="26344850" size="4" />
			<output>
				<port id="0" precision="FP32" />
			</output>
		</layer>
		<layer id="120" name="__module.model.encoder.layer.0.attention.output.LayerNorm/aten::layer_norm/MVN_0_0/nncf_smooth_quant/fq_output_0" type="FakeQuantize" version="opset1">
			<data levels="256" auto_broadcast="numpy" />
			<input>
				<port id="0" precision="FP32">
					<dim>-1</dim>
					<dim>-1</dim>
					<dim>768</dim>
				</port>
				<port id="1" precision="FP32" />
				<port id="2" precision="FP32" />
				<port id="3" precision="FP32" />
				<port id="4" precision="FP32" />
			</input>
			<output>
				<port id="5" precision="FP32">
					<dim>-1</dim>
					<dim>-1</dim>
					<dim>768</dim>
				</port>
			</output>
		</layer>
		<layer id="121" name="Constant_449012" type="Const" version="opset1">
			<data element_type="i8" shape="768, 768" offset="26344854" size="589824" />
			<output>
				<port id="0" precision="I8">
					<dim>768</dim>
					<dim>768</dim>
				</port>
			</output>
		</layer>
		<layer id="122" name="Convert_449013" type="Convert" version="opset1">
			<data destination_type="f32" />
			<input>
				<port id="0" precision="I8">
					<dim>768</dim>
					<dim>768</dim>
				</port>
			</input>
			<output>
				<port id="1" precision="FP32">
					<dim>768</dim>
					<dim>768</dim>
				</port>
			</output>
		</layer>
		<layer id="123" name="Constant_449014" type="Const" version="opset1">
			<data element_type="f32" shape="768, 1" offset="26934678" size="3072" />
			<output>
				<port id="0" precision="FP32">
					<dim>768</dim>
					<dim>1</dim>
				</port>
			</output>
		</layer>
		<layer id="124" name="__module.model.encoder.layer.0.crossattention.self.query/aten::linear/MatMul/fq_weights_1" type="Multiply" version="opset1">
			<data auto_broadcast="numpy" />
			<input>
				<port id="0" precision="FP32">
					<dim>768</dim>
					<dim>768</dim>
				</port>
				<port id="1" precision="FP32">
					<dim>768</dim>
					<dim>1</dim>
				</port>
			</input>
			<output>
				<port id="2" precision="FP32">
					<dim>768</dim>
					<dim>768</dim>
				</port>
			</output>
		</layer>
		<layer id="125" name="__module.model.encoder.layer.0.crossattention.self.query/aten::linear/MatMul" type="MatMul" version="opset1">
			<data transpose_a="false" transpose_b="true" />
			<input>
				<port id="0" precision="FP32">
					<dim>-1</dim>
					<dim>-1</dim>
					<dim>768</dim>
				</port>
				<port id="1" precision="FP32">
					<dim>768</dim>
					<dim>768</dim>
				</port>
			</input>
			<output>
				<port id="2" precision="FP32" names="169,x.21">
					<dim>-1</dim>
					<dim>-1</dim>
					<dim>768</dim>
				</port>
			</output>
		</layer>
		<layer id="126" name="__module.model.encoder.layer.0.crossattention.self.query/aten::linear/MatMul/fq_output_0/input_low" type="Const" version="opset1">
			<data element_type="f32" shape="" offset="26937750" size="4" />
			<output>
				<port id="0" precision="FP32" />
			</output>
		</layer>
		<layer id="127" name="__module.model.encoder.layer.0.crossattention.self.query/aten::linear/MatMul/fq_output_0/input_high" type="Const" version="opset1">
			<data element_type="f32" shape="" offset="26937754" size="4" />
			<output>
				<port id="0" precision="FP32" />
			</output>
		</layer>
		<layer id="128" name="__module.model.encoder.layer.0.crossattention.self.query/aten::linear/MatMul/fq_output_0/output_low" type="Const" version="opset1">
			<data element_type="f32" shape="" offset="26937750" size="4" />
			<output>
				<port id="0" precision="FP32" />
			</output>
		</layer>
		<layer id="129" name="__module.model.encoder.layer.0.crossattention.self.query/aten::linear/MatMul/fq_output_0/output_high" type="Const" version="opset1">
			<data element_type="f32" shape="" offset="26937754" size="4" />
			<output>
				<port id="0" precision="FP32" />
			</output>
		</layer>
		<layer id="130" name="__module.model.encoder.layer.0.crossattention.self.query/aten::linear/MatMul/fq_output_0" type="FakeQuantize" version="opset1">
			<data levels="256" auto_broadcast="numpy" />
			<input>
				<port id="0" precision="FP32">
					<dim>-1</dim>
					<dim>-1</dim>
					<dim>768</dim>
				</port>
				<port id="1" precision="FP32" />
				<port id="2" precision="FP32" />
				<port id="3" precision="FP32" />
				<port id="4" precision="FP32" />
			</input>
			<output>
				<port id="5" precision="FP32">
					<dim>-1</dim>
					<dim>-1</dim>
					<dim>768</dim>
				</port>
			</output>
		</layer>
		<layer id="131" name="__module.model.encoder.layer.0.crossattention.self/prim::ListConstruct" type="Const" version="opset1">
			<data element_type="i64" shape="4" offset="24559896" size="32" />
			<rt_info>
				<attribute name="precise" version="0" />
			</rt_info>
			<output>
				<port id="0" precision="I64">
					<dim>4</dim>
				</port>
			</output>
		</layer>
		<layer id="132" name="__module.model.encoder.layer.0.crossattention.self/aten::view/Reshape" type="Reshape" version="opset1">
			<data special_zero="true" />
			<input>
				<port id="0" precision="FP32">
					<dim>-1</dim>
					<dim>-1</dim>
					<dim>768</dim>
				</port>
				<port id="1" precision="I64">
					<dim>4</dim>
				</port>
			</input>
			<output>
				<port id="2" precision="FP32" names="191,x.23">
					<dim>-1</dim>
					<dim>-1</dim>
					<dim>12</dim>
					<dim>64</dim>
				</port>
			</output>
		</layer>
		<layer id="133" name="Constant_10951" type="Const" version="opset1">
			<data element_type="i64" shape="4" offset="24559928" size="32" />
			<output>
				<port id="0" precision="I64" names="192">
					<dim>4</dim>
				</port>
			</output>
		</layer>
		<layer id="134" name="__module.model.encoder.layer.0.crossattention.self/aten::permute/Transpose" type="Transpose" version="opset1">
			<input>
				<port id="0" precision="FP32">
					<dim>-1</dim>
					<dim>-1</dim>
					<dim>12</dim>
					<dim>64</dim>
				</port>
				<port id="1" precision="I64">
					<dim>4</dim>
				</port>
			</input>
			<output>
				<port id="2" precision="FP32" names="193,query_layer.3">
					<dim>-1</dim>
					<dim>12</dim>
					<dim>-1</dim>
					<dim>64</dim>
				</port>
			</output>
		</layer>
		<layer id="135" name="encoder_hidden_states_0_0/nncf_smooth_quant/scale" type="Const" version="opset1">
			<data element_type="f32" shape="1, 1, 768" offset="26937758" size="3072" />
			<output>
				<port id="0" precision="FP32">
					<dim>1</dim>
					<dim>1</dim>
					<dim>768</dim>
				</port>
			</output>
		</layer>
		<layer id="136" name="encoder_hidden_states_0_0/nncf_smooth_quant" type="Multiply" version="opset1">
			<data auto_broadcast="numpy" />
			<input>
				<port id="0" precision="FP32">
					<dim>-1</dim>
					<dim>-1</dim>
					<dim>-1</dim>
				</port>
				<port id="1" precision="FP32">
					<dim>1</dim>
					<dim>1</dim>
					<dim>768</dim>
				</port>
			</input>
			<output>
				<port id="2" precision="FP32">
					<dim>-1</dim>
					<dim>-1</dim>
					<dim>768</dim>
				</port>
			</output>
		</layer>
		<layer id="137" name="encoder_hidden_states_0_0/nncf_smooth_quant/fq_output_0/input_low" type="Const" version="opset1">
			<data element_type="f32" shape="" offset="26940830" size="4" />
			<output>
				<port id="0" precision="FP32" />
			</output>
		</layer>
		<layer id="138" name="encoder_hidden_states_0_0/nncf_smooth_quant/fq_output_0/input_high" type="Const" version="opset1">
			<data element_type="f32" shape="" offset="26940834" size="4" />
			<output>
				<port id="0" precision="FP32" />
			</output>
		</layer>
		<layer id="139" name="encoder_hidden_states_0_0/nncf_smooth_quant/fq_output_0/output_low" type="Const" version="opset1">
			<data element_type="f32" shape="" offset="26940830" size="4" />
			<output>
				<port id="0" precision="FP32" />
			</output>
		</layer>
		<layer id="140" name="encoder_hidden_states_0_0/nncf_smooth_quant/fq_output_0/output_high" type="Const" version="opset1">
			<data element_type="f32" shape="" offset="26940834" size="4" />
			<output>
				<port id="0" precision="FP32" />
			</output>
		</layer>
		<layer id="141" name="encoder_hidden_states_0_0/nncf_smooth_quant/fq_output_0" type="FakeQuantize" version="opset1">
			<data levels="256" auto_broadcast="numpy" />
			<input>
				<port id="0" precision="FP32">
					<dim>-1</dim>
					<dim>-1</dim>
					<dim>768</dim>
				</port>
				<port id="1" precision="FP32" />
				<port id="2" precision="FP32" />
				<port id="3" precision="FP32" />
				<port id="4" precision="FP32" />
			</input>
			<output>
				<port id="5" precision="FP32">
					<dim>-1</dim>
					<dim>-1</dim>
					<dim>768</dim>
				</port>
			</output>
		</layer>
		<layer id="142" name="Constant_449017" type="Const" version="opset1">
			<data element_type="i8" shape="768, 768" offset="26940838" size="589824" />
			<output>
				<port id="0" precision="I8">
					<dim>768</dim>
					<dim>768</dim>
				</port>
			</output>
		</layer>
		<layer id="143" name="Convert_449018" type="Convert" version="opset1">
			<data destination_type="f32" />
			<input>
				<port id="0" precision="I8">
					<dim>768</dim>
					<dim>768</dim>
				</port>
			</input>
			<output>
				<port id="1" precision="FP32">
					<dim>768</dim>
					<dim>768</dim>
				</port>
			</output>
		</layer>
		<layer id="144" name="Constant_449019" type="Const" version="opset1">
			<data element_type="f32" shape="768, 1" offset="27530662" size="3072" />
			<output>
				<port id="0" precision="FP32">
					<dim>768</dim>
					<dim>1</dim>
				</port>
			</output>
		</layer>
		<layer id="145" name="__module.model.encoder.layer.0.crossattention.self.key/aten::linear/MatMul/fq_weights_1" type="Multiply" version="opset1">
			<data auto_broadcast="numpy" />
			<input>
				<port id="0" precision="FP32">
					<dim>768</dim>
					<dim>768</dim>
				</port>
				<port id="1" precision="FP32">
					<dim>768</dim>
					<dim>1</dim>
				</port>
			</input>
			<output>
				<port id="2" precision="FP32">
					<dim>768</dim>
					<dim>768</dim>
				</port>
			</output>
		</layer>
		<layer id="146" name="__module.model.encoder.layer.0.crossattention.self.key/aten::linear/MatMul" type="MatMul" version="opset1">
			<data transpose_a="false" transpose_b="true" />
			<input>
				<port id="0" precision="FP32">
					<dim>-1</dim>
					<dim>-1</dim>
					<dim>768</dim>
				</port>
				<port id="1" precision="FP32">
					<dim>768</dim>
					<dim>768</dim>
				</port>
			</input>
			<output>
				<port id="2" precision="FP32" names="172,x.13">
					<dim>-1</dim>
					<dim>-1</dim>
					<dim>768</dim>
				</port>
			</output>
		</layer>
		<layer id="147" name="__module.model.encoder.layer.0.crossattention.self.key/aten::linear/MatMul/fq_output_0/input_low" type="Const" version="opset1">
			<data element_type="f32" shape="" offset="27533734" size="4" />
			<output>
				<port id="0" precision="FP32" />
			</output>
		</layer>
		<layer id="148" name="__module.model.encoder.layer.0.crossattention.self.key/aten::linear/MatMul/fq_output_0/input_high" type="Const" version="opset1">
			<data element_type="f32" shape="" offset="27533738" size="4" />
			<output>
				<port id="0" precision="FP32" />
			</output>
		</layer>
		<layer id="149" name="__module.model.encoder.layer.0.crossattention.self.key/aten::linear/MatMul/fq_output_0/output_low" type="Const" version="opset1">
			<data element_type="f32" shape="" offset="27533734" size="4" />
			<output>
				<port id="0" precision="FP32" />
			</output>
		</layer>
		<layer id="150" name="__module.model.encoder.layer.0.crossattention.self.key/aten::linear/MatMul/fq_output_0/output_high" type="Const" version="opset1">
			<data element_type="f32" shape="" offset="27533738" size="4" />
			<output>
				<port id="0" precision="FP32" />
			</output>
		</layer>
		<layer id="151" name="__module.model.encoder.layer.0.crossattention.self.key/aten::linear/MatMul/fq_output_0" type="FakeQuantize" version="opset1">
			<data levels="256" auto_broadcast="numpy" />
			<input>
				<port id="0" precision="FP32">
					<dim>-1</dim>
					<dim>-1</dim>
					<dim>768</dim>
				</port>
				<port id="1" precision="FP32" />
				<port id="2" precision="FP32" />
				<port id="3" precision="FP32" />
				<port id="4" precision="FP32" />
			</input>
			<output>
				<port id="5" precision="FP32">
					<dim>-1</dim>
					<dim>-1</dim>
					<dim>768</dim>
				</port>
			</output>
		</layer>
		<layer id="152" name="__module.model.encoder.layer.0.crossattention.self/prim::ListConstruct_1" type="Const" version="opset1">
			<data element_type="i64" shape="4" offset="24559896" size="32" />
			<rt_info>
				<attribute name="precise" version="0" />
			</rt_info>
			<output>
				<port id="0" precision="I64">
					<dim>4</dim>
				</port>
			</output>
		</layer>
		<layer id="153" name="__module.model.encoder.layer.0.crossattention.self/aten::view/Reshape_1" type="Reshape" version="opset1">
			<data special_zero="true" />
			<input>
				<port id="0" precision="FP32">
					<dim>-1</dim>
					<dim>-1</dim>
					<dim>768</dim>
				</port>
				<port id="1" precision="I64">
					<dim>4</dim>
				</port>
			</input>
			<output>
				<port id="2" precision="FP32" names="176,x.15">
					<dim>-1</dim>
					<dim>-1</dim>
					<dim>12</dim>
					<dim>64</dim>
				</port>
			</output>
		</layer>
		<layer id="154" name="Constant_10889" type="Const" version="opset1">
			<data element_type="i64" shape="4" offset="24559928" size="32" />
			<output>
				<port id="0" precision="I64" names="177">
					<dim>4</dim>
				</port>
			</output>
		</layer>
		<layer id="155" name="__module.model.encoder.layer.0.crossattention.self/aten::permute/Transpose_1" type="Transpose" version="opset1">
			<input>
				<port id="0" precision="FP32">
					<dim>-1</dim>
					<dim>-1</dim>
					<dim>12</dim>
					<dim>64</dim>
				</port>
				<port id="1" precision="I64">
					<dim>4</dim>
				</port>
			</input>
			<output>
				<port id="2" precision="FP32" names="178,key_layer.3">
					<dim>-1</dim>
					<dim>12</dim>
					<dim>-1</dim>
					<dim>64</dim>
				</port>
			</output>
		</layer>
		<layer id="156" name="__module.model.encoder.layer.0.crossattention.self/aten::matmul/MatMul" type="MatMul" version="opset1">
			<data transpose_a="false" transpose_b="true" />
			<input>
				<port id="0" precision="FP32">
					<dim>-1</dim>
					<dim>12</dim>
					<dim>-1</dim>
					<dim>64</dim>
				</port>
				<port id="1" precision="FP32">
					<dim>-1</dim>
					<dim>12</dim>
					<dim>-1</dim>
					<dim>64</dim>
				</port>
			</input>
			<output>
				<port id="2" precision="FP32" names="195,attention_scores.5">
					<dim>-1</dim>
					<dim>12</dim>
					<dim>-1</dim>
					<dim>-1</dim>
				</port>
			</output>
		</layer>
		<layer id="157" name="Constant_26423_compressed" type="Const" version="opset1">
			<data element_type="f16" shape="1, 1, 1, 1" offset="25152864" size="2" />
			<output>
				<port id="0" precision="FP16">
					<dim>1</dim>
					<dim>1</dim>
					<dim>1</dim>
					<dim>1</dim>
				</port>
			</output>
		</layer>
		<layer id="158" name="Constant_26423" type="Convert" version="opset1">
			<data destination_type="f32" />
			<rt_info>
				<attribute name="decompression" version="0" />
			</rt_info>
			<input>
				<port id="0" precision="FP16">
					<dim>1</dim>
					<dim>1</dim>
					<dim>1</dim>
					<dim>1</dim>
				</port>
			</input>
			<output>
				<port id="1" precision="FP32">
					<dim>1</dim>
					<dim>1</dim>
					<dim>1</dim>
					<dim>1</dim>
				</port>
			</output>
		</layer>
		<layer id="159" name="__module.model.encoder.layer.0.crossattention.self/aten::div/Divide" type="Divide" version="opset1">
			<data auto_broadcast="numpy" m_pythondiv="true" />
			<input>
				<port id="0" precision="FP32">
					<dim>-1</dim>
					<dim>12</dim>
					<dim>-1</dim>
					<dim>-1</dim>
				</port>
				<port id="1" precision="FP32">
					<dim>1</dim>
					<dim>1</dim>
					<dim>1</dim>
					<dim>1</dim>
				</port>
			</input>
			<output>
				<port id="2" precision="FP32" names="196,attention_scores.7">
					<dim>-1</dim>
					<dim>12</dim>
					<dim>-1</dim>
					<dim>-1</dim>
				</port>
			</output>
		</layer>
		<layer id="160" name="Constant_26425_compressed" type="Const" version="opset1">
			<data element_type="f16" shape="1, 1, 1, 1" offset="25152866" size="2" />
			<output>
				<port id="0" precision="FP16">
					<dim>1</dim>
					<dim>1</dim>
					<dim>1</dim>
					<dim>1</dim>
				</port>
			</output>
		</layer>
		<layer id="161" name="Constant_26425" type="Convert" version="opset1">
			<data destination_type="f32" />
			<rt_info>
				<attribute name="decompression" version="0" />
			</rt_info>
			<input>
				<port id="0" precision="FP16">
					<dim>1</dim>
					<dim>1</dim>
					<dim>1</dim>
					<dim>1</dim>
				</port>
			</input>
			<output>
				<port id="1" precision="FP32">
					<dim>1</dim>
					<dim>1</dim>
					<dim>1</dim>
					<dim>1</dim>
				</port>
			</output>
		</layer>
		<layer id="162" name="__module.model/aten::unsqueeze/Unsqueeze_2" type="Unsqueeze" version="opset1">
			<input>
				<port id="0" precision="I64">
					<dim>-1</dim>
					<dim>-1</dim>
				</port>
				<port id="1" precision="I64" />
			</input>
			<output>
				<port id="2" precision="I64" names="42">
					<dim>-1</dim>
					<dim>1</dim>
					<dim>-1</dim>
				</port>
			</output>
		</layer>
		<layer id="163" name="__module.model/aten::unsqueeze/Unsqueeze_3" type="Unsqueeze" version="opset1">
			<input>
				<port id="0" precision="I64">
					<dim>-1</dim>
					<dim>1</dim>
					<dim>-1</dim>
				</port>
				<port id="1" precision="I64" />
			</input>
			<output>
				<port id="2" precision="I64" names="43,44,encoder_extended_attention_mask">
					<dim>-1</dim>
					<dim>1</dim>
					<dim>1</dim>
					<dim>-1</dim>
				</port>
			</output>
		</layer>
		<layer id="164" name="__module.model/aten::to/Convert_1" type="Convert" version="opset1">
			<data destination_type="f32" />
			<input>
				<port id="0" precision="I64">
					<dim>-1</dim>
					<dim>1</dim>
					<dim>1</dim>
					<dim>-1</dim>
				</port>
			</input>
			<output>
				<port id="1" precision="FP32" names="45">
					<dim>-1</dim>
					<dim>1</dim>
					<dim>1</dim>
					<dim>-1</dim>
				</port>
			</output>
		</layer>
		<layer id="165" name="Constant_26424_compressed" type="Const" version="opset1">
			<data element_type="f16" shape="1, 1, 1, 1" offset="25152866" size="2" />
			<output>
				<port id="0" precision="FP16">
					<dim>1</dim>
					<dim>1</dim>
					<dim>1</dim>
					<dim>1</dim>
				</port>
			</output>
		</layer>
		<layer id="166" name="Constant_26424" type="Convert" version="opset1">
			<data destination_type="f32" />
			<rt_info>
				<attribute name="decompression" version="0" />
			</rt_info>
			<input>
				<port id="0" precision="FP16">
					<dim>1</dim>
					<dim>1</dim>
					<dim>1</dim>
					<dim>1</dim>
				</port>
			</input>
			<output>
				<port id="1" precision="FP32">
					<dim>1</dim>
					<dim>1</dim>
					<dim>1</dim>
					<dim>1</dim>
				</port>
			</output>
		</layer>
		<layer id="167" name="__module.model/aten::rsub/Multiply_1" type="Multiply" version="opset1">
			<data auto_broadcast="numpy" />
			<input>
				<port id="0" precision="FP32">
					<dim>-1</dim>
					<dim>1</dim>
					<dim>1</dim>
					<dim>-1</dim>
				</port>
				<port id="1" precision="FP32">
					<dim>1</dim>
					<dim>1</dim>
					<dim>1</dim>
					<dim>1</dim>
				</port>
			</input>
			<output>
				<port id="2" precision="FP32">
					<dim>-1</dim>
					<dim>1</dim>
					<dim>1</dim>
					<dim>-1</dim>
				</port>
			</output>
		</layer>
		<layer id="168" name="__module.model/aten::rsub/Subtract_1" type="Subtract" version="opset1">
			<data auto_broadcast="numpy" />
			<input>
				<port id="0" precision="FP32">
					<dim>1</dim>
					<dim>1</dim>
					<dim>1</dim>
					<dim>1</dim>
				</port>
				<port id="1" precision="FP32">
					<dim>-1</dim>
					<dim>1</dim>
					<dim>1</dim>
					<dim>-1</dim>
				</port>
			</input>
			<output>
				<port id="2" precision="FP32" names="46">
					<dim>-1</dim>
					<dim>1</dim>
					<dim>1</dim>
					<dim>-1</dim>
				</port>
			</output>
		</layer>
		<layer id="169" name="Constant_26426" type="Const" version="opset1">
			<data element_type="f32" shape="1, 1, 1, 1" offset="27533742" size="4" />
			<output>
				<port id="0" precision="FP32">
					<dim>1</dim>
					<dim>1</dim>
					<dim>1</dim>
					<dim>1</dim>
				</port>
			</output>
		</layer>
		<layer id="170" name="__module.model/aten::mul/Multiply_1" type="Multiply" version="opset1">
			<data auto_broadcast="numpy" />
			<input>
				<port id="0" precision="FP32">
					<dim>-1</dim>
					<dim>1</dim>
					<dim>1</dim>
					<dim>-1</dim>
				</port>
				<port id="1" precision="FP32">
					<dim>1</dim>
					<dim>1</dim>
					<dim>1</dim>
					<dim>1</dim>
				</port>
			</input>
			<output>
				<port id="2" precision="FP32" names="1006,1028,1133,1147,1162,1184,1289,1303,1318,1340,1445,1459,1474,1496,1601,1615,1630,1652,1757,1771,1786,1808,1907,197,211,226,248,353,367,382,404,47,509,523,538,560,665,679,694,716,821,835,850,872,977,991,attention_mask.13,attention_mask.17,attention_mask.21,attention_mask.25,attention_mask.29,attention_mask.33,attention_mask.37,attention_mask.41,attention_mask.45,attention_mask.49,attention_mask.7,attention_mask.9,attention_mask_1">
					<dim>-1</dim>
					<dim>1</dim>
					<dim>1</dim>
					<dim>-1</dim>
				</port>
			</output>
		</layer>
		<layer id="171" name="__module.model.encoder.layer.0.crossattention.self/aten::add/Add" type="Add" version="opset1">
			<data auto_broadcast="numpy" />
			<input>
				<port id="0" precision="FP32">
					<dim>-1</dim>
					<dim>12</dim>
					<dim>-1</dim>
					<dim>-1</dim>
				</port>
				<port id="1" precision="FP32">
					<dim>-1</dim>
					<dim>1</dim>
					<dim>1</dim>
					<dim>-1</dim>
				</port>
			</input>
			<output>
				<port id="2" precision="FP32" names="198,input.21">
					<dim>-1</dim>
					<dim>12</dim>
					<dim>-1</dim>
					<dim>-1</dim>
				</port>
			</output>
		</layer>
		<layer id="172" name="__module.model.encoder.layer.0.crossattention.self/aten::softmax/Softmax" type="SoftMax" version="opset8">
			<data axis="-1" />
			<input>
				<port id="0" precision="FP32">
					<dim>-1</dim>
					<dim>12</dim>
					<dim>-1</dim>
					<dim>-1</dim>
				</port>
			</input>
			<output>
				<port id="1" precision="FP32" names="199,input.23">
					<dim>-1</dim>
					<dim>12</dim>
					<dim>-1</dim>
					<dim>-1</dim>
				</port>
			</output>
		</layer>
		<layer id="173" name="Constant_449022" type="Const" version="opset1">
			<data element_type="i8" shape="768, 768" offset="27533746" size="589824" />
			<output>
				<port id="0" precision="I8">
					<dim>768</dim>
					<dim>768</dim>
				</port>
			</output>
		</layer>
		<layer id="174" name="Convert_449023" type="Convert" version="opset1">
			<data destination_type="f32" />
			<input>
				<port id="0" precision="I8">
					<dim>768</dim>
					<dim>768</dim>
				</port>
			</input>
			<output>
				<port id="1" precision="FP32">
					<dim>768</dim>
					<dim>768</dim>
				</port>
			</output>
		</layer>
		<layer id="175" name="Constant_449024" type="Const" version="opset1">
			<data element_type="f32" shape="768, 1" offset="28123570" size="3072" />
			<output>
				<port id="0" precision="FP32">
					<dim>768</dim>
					<dim>1</dim>
				</port>
			</output>
		</layer>
		<layer id="176" name="__module.model.encoder.layer.0.crossattention.self.value/aten::linear/MatMul/fq_weights_1" type="Multiply" version="opset1">
			<data auto_broadcast="numpy" />
			<input>
				<port id="0" precision="FP32">
					<dim>768</dim>
					<dim>768</dim>
				</port>
				<port id="1" precision="FP32">
					<dim>768</dim>
					<dim>1</dim>
				</port>
			</input>
			<output>
				<port id="2" precision="FP32">
					<dim>768</dim>
					<dim>768</dim>
				</port>
			</output>
		</layer>
		<layer id="177" name="__module.model.encoder.layer.0.crossattention.self.value/aten::linear/MatMul" type="MatMul" version="opset1">
			<data transpose_a="false" transpose_b="true" />
			<input>
				<port id="0" precision="FP32">
					<dim>-1</dim>
					<dim>-1</dim>
					<dim>768</dim>
				</port>
				<port id="1" precision="FP32">
					<dim>768</dim>
					<dim>768</dim>
				</port>
			</input>
			<output>
				<port id="2" precision="FP32" names="181,x.17">
					<dim>-1</dim>
					<dim>-1</dim>
					<dim>768</dim>
				</port>
			</output>
		</layer>
		<layer id="178" name="__module.model.encoder.layer.0.crossattention.self/prim::ListConstruct_2" type="Const" version="opset1">
			<data element_type="i64" shape="4" offset="24559896" size="32" />
			<rt_info>
				<attribute name="precise" version="0" />
			</rt_info>
			<output>
				<port id="0" precision="I64">
					<dim>4</dim>
				</port>
			</output>
		</layer>
		<layer id="179" name="__module.model.encoder.layer.0.crossattention.self/aten::view/Reshape_2" type="Reshape" version="opset1">
			<data special_zero="true" />
			<input>
				<port id="0" precision="FP32">
					<dim>-1</dim>
					<dim>-1</dim>
					<dim>768</dim>
				</port>
				<port id="1" precision="I64">
					<dim>4</dim>
				</port>
			</input>
			<output>
				<port id="2" precision="FP32" names="185,x.19">
					<dim>-1</dim>
					<dim>-1</dim>
					<dim>12</dim>
					<dim>64</dim>
				</port>
			</output>
		</layer>
		<layer id="180" name="Constant_10923" type="Const" version="opset1">
			<data element_type="i64" shape="4" offset="24559928" size="32" />
			<output>
				<port id="0" precision="I64" names="186">
					<dim>4</dim>
				</port>
			</output>
		</layer>
		<layer id="181" name="__module.model.encoder.layer.0.crossattention.self/aten::permute/Transpose_2" type="Transpose" version="opset1">
			<input>
				<port id="0" precision="FP32">
					<dim>-1</dim>
					<dim>-1</dim>
					<dim>12</dim>
					<dim>64</dim>
				</port>
				<port id="1" precision="I64">
					<dim>4</dim>
				</port>
			</input>
			<output>
				<port id="2" precision="FP32" names="187,value_layer.3">
					<dim>-1</dim>
					<dim>12</dim>
					<dim>-1</dim>
					<dim>64</dim>
				</port>
			</output>
		</layer>
		<layer id="182" name="__module.model.encoder.layer.0.crossattention.self/aten::matmul/MatMul_1" type="MatMul" version="opset1">
			<data transpose_a="false" transpose_b="false" />
			<input>
				<port id="0" precision="FP32">
					<dim>-1</dim>
					<dim>12</dim>
					<dim>-1</dim>
					<dim>-1</dim>
				</port>
				<port id="1" precision="FP32">
					<dim>-1</dim>
					<dim>12</dim>
					<dim>-1</dim>
					<dim>64</dim>
				</port>
			</input>
			<output>
				<port id="2" precision="FP32" names="201,context_layer.5">
					<dim>-1</dim>
					<dim>12</dim>
					<dim>-1</dim>
					<dim>64</dim>
				</port>
			</output>
		</layer>
		<layer id="183" name="Constant_11050" type="Const" version="opset1">
			<data element_type="i64" shape="4" offset="24559928" size="32" />
			<output>
				<port id="0" precision="I64" names="202">
					<dim>4</dim>
				</port>
			</output>
		</layer>
		<layer id="184" name="__module.model.encoder.layer.0.crossattention.self/aten::permute/Transpose_3" type="Transpose" version="opset1">
			<input>
				<port id="0" precision="FP32">
					<dim>-1</dim>
					<dim>12</dim>
					<dim>-1</dim>
					<dim>64</dim>
				</port>
				<port id="1" precision="I64">
					<dim>4</dim>
				</port>
			</input>
			<output>
				<port id="2" precision="FP32" names="203">
					<dim>-1</dim>
					<dim>-1</dim>
					<dim>12</dim>
					<dim>64</dim>
				</port>
			</output>
		</layer>
		<layer id="185" name="__module.model.encoder.layer.0.crossattention.self/prim::ListConstruct_3" type="Const" version="opset1">
			<data element_type="i64" shape="3" offset="25745774" size="24" />
			<rt_info>
				<attribute name="precise" version="0" />
			</rt_info>
			<output>
				<port id="0" precision="I64">
					<dim>3</dim>
				</port>
			</output>
		</layer>
		<layer id="186" name="__module.model.encoder.layer.0.crossattention.self/aten::view/Reshape_3" type="Reshape" version="opset1">
			<data special_zero="true" />
			<input>
				<port id="0" precision="FP32">
					<dim>-1</dim>
					<dim>-1</dim>
					<dim>12</dim>
					<dim>64</dim>
				</port>
				<port id="1" precision="I64">
					<dim>3</dim>
				</port>
			</input>
			<output>
				<port id="2" precision="FP32" names="208,210,input.25">
					<dim>-1</dim>
					<dim>-1</dim>
					<dim>768</dim>
				</port>
			</output>
		</layer>
		<layer id="187" name="__module.model.encoder.layer.0.crossattention.self/aten::view/Reshape_3_0_0/nncf_smooth_quant/scale" type="Const" version="opset1">
			<data element_type="f32" shape="1, 1, 768" offset="28126642" size="3072" />
			<output>
				<port id="0" precision="FP32">
					<dim>1</dim>
					<dim>1</dim>
					<dim>768</dim>
				</port>
			</output>
		</layer>
		<layer id="188" name="__module.model.encoder.layer.0.crossattention.self/aten::view/Reshape_3_0_0/nncf_smooth_quant" type="Multiply" version="opset1">
			<data auto_broadcast="numpy" />
			<input>
				<port id="0" precision="FP32">
					<dim>-1</dim>
					<dim>-1</dim>
					<dim>768</dim>
				</port>
				<port id="1" precision="FP32">
					<dim>1</dim>
					<dim>1</dim>
					<dim>768</dim>
				</port>
			</input>
			<output>
				<port id="2" precision="FP32">
					<dim>-1</dim>
					<dim>-1</dim>
					<dim>768</dim>
				</port>
			</output>
		</layer>
		<layer id="189" name="__module.model.encoder.layer.0.crossattention.self/aten::view/Reshape_3_0_0/nncf_smooth_quant/fq_output_0/input_low" type="Const" version="opset1">
			<data element_type="f32" shape="" offset="28129714" size="4" />
			<output>
				<port id="0" precision="FP32" />
			</output>
		</layer>
		<layer id="190" name="__module.model.encoder.layer.0.crossattention.self/aten::view/Reshape_3_0_0/nncf_smooth_quant/fq_output_0/input_high" type="Const" version="opset1">
			<data element_type="f32" shape="" offset="28129718" size="4" />
			<output>
				<port id="0" precision="FP32" />
			</output>
		</layer>
		<layer id="191" name="__module.model.encoder.layer.0.crossattention.self/aten::view/Reshape_3_0_0/nncf_smooth_quant/fq_output_0/output_low" type="Const" version="opset1">
			<data element_type="f32" shape="" offset="28129714" size="4" />
			<output>
				<port id="0" precision="FP32" />
			</output>
		</layer>
		<layer id="192" name="__module.model.encoder.layer.0.crossattention.self/aten::view/Reshape_3_0_0/nncf_smooth_quant/fq_output_0/output_high" type="Const" version="opset1">
			<data element_type="f32" shape="" offset="28129718" size="4" />
			<output>
				<port id="0" precision="FP32" />
			</output>
		</layer>
		<layer id="193" name="__module.model.encoder.layer.0.crossattention.self/aten::view/Reshape_3_0_0/nncf_smooth_quant/fq_output_0" type="FakeQuantize" version="opset1">
			<data levels="256" auto_broadcast="numpy" />
			<input>
				<port id="0" precision="FP32">
					<dim>-1</dim>
					<dim>-1</dim>
					<dim>768</dim>
				</port>
				<port id="1" precision="FP32" />
				<port id="2" precision="FP32" />
				<port id="3" precision="FP32" />
				<port id="4" precision="FP32" />
			</input>
			<output>
				<port id="5" precision="FP32">
					<dim>-1</dim>
					<dim>-1</dim>
					<dim>768</dim>
				</port>
			</output>
		</layer>
		<layer id="194" name="Constant_449027" type="Const" version="opset1">
			<data element_type="i8" shape="768, 768" offset="28129722" size="589824" />
			<output>
				<port id="0" precision="I8">
					<dim>768</dim>
					<dim>768</dim>
				</port>
			</output>
		</layer>
		<layer id="195" name="Convert_449028" type="Convert" version="opset1">
			<data destination_type="f32" />
			<input>
				<port id="0" precision="I8">
					<dim>768</dim>
					<dim>768</dim>
				</port>
			</input>
			<output>
				<port id="1" precision="FP32">
					<dim>768</dim>
					<dim>768</dim>
				</port>
			</output>
		</layer>
		<layer id="196" name="Constant_449029" type="Const" version="opset1">
			<data element_type="f32" shape="768, 1" offset="28719546" size="3072" />
			<output>
				<port id="0" precision="FP32">
					<dim>768</dim>
					<dim>1</dim>
				</port>
			</output>
		</layer>
		<layer id="197" name="__module.model.encoder.layer.0.crossattention.output.dense/aten::linear/MatMul/fq_weights_1" type="Multiply" version="opset1">
			<data auto_broadcast="numpy" />
			<input>
				<port id="0" precision="FP32">
					<dim>768</dim>
					<dim>768</dim>
				</port>
				<port id="1" precision="FP32">
					<dim>768</dim>
					<dim>1</dim>
				</port>
			</input>
			<output>
				<port id="2" precision="FP32">
					<dim>768</dim>
					<dim>768</dim>
				</port>
			</output>
		</layer>
		<layer id="198" name="__module.model.encoder.layer.0.crossattention.output.dense/aten::linear/MatMul" type="MatMul" version="opset1">
			<data transpose_a="false" transpose_b="true" />
			<input>
				<port id="0" precision="FP32">
					<dim>-1</dim>
					<dim>-1</dim>
					<dim>768</dim>
				</port>
				<port id="1" precision="FP32">
					<dim>768</dim>
					<dim>768</dim>
				</port>
			</input>
			<output>
				<port id="2" precision="FP32" names="217,input.27">
					<dim>-1</dim>
					<dim>-1</dim>
					<dim>768</dim>
				</port>
			</output>
		</layer>
		<layer id="199" name="__module.model.encoder.layer.0.crossattention.output/aten::add/Add" type="Add" version="opset1">
			<data auto_broadcast="numpy" />
			<input>
				<port id="0" precision="FP32">
					<dim>-1</dim>
					<dim>-1</dim>
					<dim>768</dim>
				</port>
				<port id="1" precision="FP32">
					<dim>-1</dim>
					<dim>-1</dim>
					<dim>768</dim>
				</port>
			</input>
			<output>
				<port id="2" precision="FP32" names="219,input.29">
					<dim>-1</dim>
					<dim>-1</dim>
					<dim>768</dim>
				</port>
			</output>
		</layer>
		<layer id="200" name="__module.model.encoder.layer.0.crossattention.output.LayerNorm/aten::layer_norm/Multiply" type="Const" version="opset1">
			<data element_type="i32" shape="1" offset="23963908" size="4" />
			<output>
				<port id="0" precision="I32">
					<dim>1</dim>
				</port>
			</output>
		</layer>
		<layer id="201" name="__module.model.encoder.layer.0.crossattention.output.LayerNorm/aten::layer_norm/MVN" type="MVN" version="opset6">
			<data eps="9.999999960041972e-13" normalize_variance="true" eps_mode="INSIDE_SQRT" />
			<input>
				<port id="0" precision="FP32">
					<dim>-1</dim>
					<dim>-1</dim>
					<dim>768</dim>
				</port>
				<port id="1" precision="I32">
					<dim>1</dim>
				</port>
			</input>
			<output>
				<port id="2" precision="FP32" names="223,225,input.31">
					<dim>-1</dim>
					<dim>-1</dim>
					<dim>768</dim>
				</port>
			</output>
		</layer>
		<layer id="202" name="__module.model.encoder.layer.0.crossattention.output.LayerNorm/aten::layer_norm/MVN_0_0/nncf_smooth_quant/scale" type="Const" version="opset1">
			<data element_type="f32" shape="1, 1, 768" offset="28722618" size="3072" />
			<output>
				<port id="0" precision="FP32">
					<dim>1</dim>
					<dim>1</dim>
					<dim>768</dim>
				</port>
			</output>
		</layer>
		<layer id="203" name="__module.model.encoder.layer.0.crossattention.output.LayerNorm/aten::layer_norm/MVN_0_0/nncf_smooth_quant" type="Multiply" version="opset1">
			<data auto_broadcast="numpy" />
			<input>
				<port id="0" precision="FP32">
					<dim>-1</dim>
					<dim>-1</dim>
					<dim>768</dim>
				</port>
				<port id="1" precision="FP32">
					<dim>1</dim>
					<dim>1</dim>
					<dim>768</dim>
				</port>
			</input>
			<output>
				<port id="2" precision="FP32">
					<dim>-1</dim>
					<dim>-1</dim>
					<dim>768</dim>
				</port>
			</output>
		</layer>
		<layer id="204" name="__module.model.encoder.layer.0.crossattention.output.LayerNorm/aten::layer_norm/MVN_0_0/nncf_smooth_quant/fq_output_0/input_low" type="Const" version="opset1">
			<data element_type="f32" shape="" offset="28725690" size="4" />
			<output>
				<port id="0" precision="FP32" />
			</output>
		</layer>
		<layer id="205" name="__module.model.encoder.layer.0.crossattention.output.LayerNorm/aten::layer_norm/MVN_0_0/nncf_smooth_quant/fq_output_0/input_high" type="Const" version="opset1">
			<data element_type="f32" shape="" offset="28725694" size="4" />
			<output>
				<port id="0" precision="FP32" />
			</output>
		</layer>
		<layer id="206" name="__module.model.encoder.layer.0.crossattention.output.LayerNorm/aten::layer_norm/MVN_0_0/nncf_smooth_quant/fq_output_0/output_low" type="Const" version="opset1">
			<data element_type="f32" shape="" offset="28725690" size="4" />
			<output>
				<port id="0" precision="FP32" />
			</output>
		</layer>
		<layer id="207" name="__module.model.encoder.layer.0.crossattention.output.LayerNorm/aten::layer_norm/MVN_0_0/nncf_smooth_quant/fq_output_0/output_high" type="Const" version="opset1">
			<data element_type="f32" shape="" offset="28725694" size="4" />
			<output>
				<port id="0" precision="FP32" />
			</output>
		</layer>
		<layer id="208" name="__module.model.encoder.layer.0.crossattention.output.LayerNorm/aten::layer_norm/MVN_0_0/nncf_smooth_quant/fq_output_0" type="FakeQuantize" version="opset1">
			<data levels="256" auto_broadcast="numpy" />
			<input>
				<port id="0" precision="FP32">
					<dim>-1</dim>
					<dim>-1</dim>
					<dim>768</dim>
				</port>
				<port id="1" precision="FP32" />
				<port id="2" precision="FP32" />
				<port id="3" precision="FP32" />
				<port id="4" precision="FP32" />
			</input>
			<output>
				<port id="5" precision="FP32">
					<dim>-1</dim>
					<dim>-1</dim>
					<dim>768</dim>
				</port>
			</output>
		</layer>
		<layer id="209" name="Constant_449032" type="Const" version="opset1">
			<data element_type="i8" shape="3072, 768" offset="28725698" size="2359296" />
			<output>
				<port id="0" precision="I8">
					<dim>3072</dim>
					<dim>768</dim>
				</port>
			</output>
		</layer>
		<layer id="210" name="Convert_449033" type="Convert" version="opset1">
			<data destination_type="f32" />
			<input>
				<port id="0" precision="I8">
					<dim>3072</dim>
					<dim>768</dim>
				</port>
			</input>
			<output>
				<port id="1" precision="FP32">
					<dim>3072</dim>
					<dim>768</dim>
				</port>
			</output>
		</layer>
		<layer id="211" name="Constant_449034" type="Const" version="opset1">
			<data element_type="f32" shape="3072, 1" offset="31084994" size="12288" />
			<output>
				<port id="0" precision="FP32">
					<dim>3072</dim>
					<dim>1</dim>
				</port>
			</output>
		</layer>
		<layer id="212" name="__module.model.encoder.layer.0.intermediate.dense/aten::linear/MatMul/fq_weights_1" type="Multiply" version="opset1">
			<data auto_broadcast="numpy" />
			<input>
				<port id="0" precision="FP32">
					<dim>3072</dim>
					<dim>768</dim>
				</port>
				<port id="1" precision="FP32">
					<dim>3072</dim>
					<dim>1</dim>
				</port>
			</input>
			<output>
				<port id="2" precision="FP32">
					<dim>3072</dim>
					<dim>768</dim>
				</port>
			</output>
		</layer>
		<layer id="213" name="__module.model.encoder.layer.0.intermediate.dense/aten::linear/MatMul" type="MatMul" version="opset1">
			<data transpose_a="false" transpose_b="true" />
			<input>
				<port id="0" precision="FP32">
					<dim>-1</dim>
					<dim>-1</dim>
					<dim>768</dim>
				</port>
				<port id="1" precision="FP32">
					<dim>3072</dim>
					<dim>768</dim>
				</port>
			</input>
			<output>
				<port id="2" precision="FP32" names="231,input.33">
					<dim>-1</dim>
					<dim>-1</dim>
					<dim>3072</dim>
				</port>
			</output>
		</layer>
		<layer id="214" name="__module.model.encoder.layer.0.intermediate.intermediate_act_fn/aten::gelu/Gelu" type="Gelu" version="opset7">
			<data approximation_mode="ERF" />
			<input>
				<port id="0" precision="FP32">
					<dim>-1</dim>
					<dim>-1</dim>
					<dim>3072</dim>
				</port>
			</input>
			<output>
				<port id="1" precision="FP32" names="232,input.35">
					<dim>-1</dim>
					<dim>-1</dim>
					<dim>3072</dim>
				</port>
			</output>
		</layer>
		<layer id="215" name="__module.model.encoder.layer.0.intermediate.intermediate_act_fn/aten::gelu/Gelu_0_0/nncf_smooth_quant/scale" type="Const" version="opset1">
			<data element_type="f32" shape="1, 1, 3072" offset="31097282" size="12288" />
			<output>
				<port id="0" precision="FP32">
					<dim>1</dim>
					<dim>1</dim>
					<dim>3072</dim>
				</port>
			</output>
		</layer>
		<layer id="216" name="__module.model.encoder.layer.0.intermediate.intermediate_act_fn/aten::gelu/Gelu_0_0/nncf_smooth_quant" type="Multiply" version="opset1">
			<data auto_broadcast="numpy" />
			<input>
				<port id="0" precision="FP32">
					<dim>-1</dim>
					<dim>-1</dim>
					<dim>3072</dim>
				</port>
				<port id="1" precision="FP32">
					<dim>1</dim>
					<dim>1</dim>
					<dim>3072</dim>
				</port>
			</input>
			<output>
				<port id="2" precision="FP32">
					<dim>-1</dim>
					<dim>-1</dim>
					<dim>3072</dim>
				</port>
			</output>
		</layer>
		<layer id="217" name="__module.model.encoder.layer.0.intermediate.intermediate_act_fn/aten::gelu/Gelu_0_0/nncf_smooth_quant/fq_output_0/input_low" type="Const" version="opset1">
			<data element_type="f32" shape="" offset="31109570" size="4" />
			<output>
				<port id="0" precision="FP32" />
			</output>
		</layer>
		<layer id="218" name="__module.model.encoder.layer.0.intermediate.intermediate_act_fn/aten::gelu/Gelu_0_0/nncf_smooth_quant/fq_output_0/input_high" type="Const" version="opset1">
			<data element_type="f32" shape="" offset="31109574" size="4" />
			<output>
				<port id="0" precision="FP32" />
			</output>
		</layer>
		<layer id="219" name="__module.model.encoder.layer.0.intermediate.intermediate_act_fn/aten::gelu/Gelu_0_0/nncf_smooth_quant/fq_output_0/output_low" type="Const" version="opset1">
			<data element_type="f32" shape="" offset="31109570" size="4" />
			<output>
				<port id="0" precision="FP32" />
			</output>
		</layer>
		<layer id="220" name="__module.model.encoder.layer.0.intermediate.intermediate_act_fn/aten::gelu/Gelu_0_0/nncf_smooth_quant/fq_output_0/output_high" type="Const" version="opset1">
			<data element_type="f32" shape="" offset="31109574" size="4" />
			<output>
				<port id="0" precision="FP32" />
			</output>
		</layer>
		<layer id="221" name="__module.model.encoder.layer.0.intermediate.intermediate_act_fn/aten::gelu/Gelu_0_0/nncf_smooth_quant/fq_output_0" type="FakeQuantize" version="opset1">
			<data levels="256" auto_broadcast="numpy" />
			<input>
				<port id="0" precision="FP32">
					<dim>-1</dim>
					<dim>-1</dim>
					<dim>3072</dim>
				</port>
				<port id="1" precision="FP32" />
				<port id="2" precision="FP32" />
				<port id="3" precision="FP32" />
				<port id="4" precision="FP32" />
			</input>
			<output>
				<port id="5" precision="FP32">
					<dim>-1</dim>
					<dim>-1</dim>
					<dim>3072</dim>
				</port>
			</output>
		</layer>
		<layer id="222" name="Constant_449037" type="Const" version="opset1">
			<data element_type="i8" shape="768, 3072" offset="31109578" size="2359296" />
			<output>
				<port id="0" precision="I8">
					<dim>768</dim>
					<dim>3072</dim>
				</port>
			</output>
		</layer>
		<layer id="223" name="Convert_449038" type="Convert" version="opset1">
			<data destination_type="f32" />
			<input>
				<port id="0" precision="I8">
					<dim>768</dim>
					<dim>3072</dim>
				</port>
			</input>
			<output>
				<port id="1" precision="FP32">
					<dim>768</dim>
					<dim>3072</dim>
				</port>
			</output>
		</layer>
		<layer id="224" name="Constant_449039" type="Const" version="opset1">
			<data element_type="f32" shape="768, 1" offset="33468874" size="3072" />
			<output>
				<port id="0" precision="FP32">
					<dim>768</dim>
					<dim>1</dim>
				</port>
			</output>
		</layer>
		<layer id="225" name="__module.model.encoder.layer.0.output.dense/aten::linear/MatMul/fq_weights_1" type="Multiply" version="opset1">
			<data auto_broadcast="numpy" />
			<input>
				<port id="0" precision="FP32">
					<dim>768</dim>
					<dim>3072</dim>
				</port>
				<port id="1" precision="FP32">
					<dim>768</dim>
					<dim>1</dim>
				</port>
			</input>
			<output>
				<port id="2" precision="FP32">
					<dim>768</dim>
					<dim>3072</dim>
				</port>
			</output>
		</layer>
		<layer id="226" name="__module.model.encoder.layer.0.output.dense/aten::linear/MatMul" type="MatMul" version="opset1">
			<data transpose_a="false" transpose_b="true" />
			<input>
				<port id="0" precision="FP32">
					<dim>-1</dim>
					<dim>-1</dim>
					<dim>3072</dim>
				</port>
				<port id="1" precision="FP32">
					<dim>768</dim>
					<dim>3072</dim>
				</port>
			</input>
			<output>
				<port id="2" precision="FP32" names="238,input.37">
					<dim>-1</dim>
					<dim>-1</dim>
					<dim>768</dim>
				</port>
			</output>
		</layer>
		<layer id="227" name="__module.model.encoder.layer.0.output/aten::add/Add" type="Add" version="opset1">
			<data auto_broadcast="numpy" />
			<input>
				<port id="0" precision="FP32">
					<dim>-1</dim>
					<dim>-1</dim>
					<dim>768</dim>
				</port>
				<port id="1" precision="FP32">
					<dim>-1</dim>
					<dim>-1</dim>
					<dim>768</dim>
				</port>
			</input>
			<output>
				<port id="2" precision="FP32" names="240,input.39">
					<dim>-1</dim>
					<dim>-1</dim>
					<dim>768</dim>
				</port>
			</output>
		</layer>
		<layer id="228" name="__module.model.encoder.layer.0.output.LayerNorm/aten::layer_norm/Multiply" type="Const" version="opset1">
			<data element_type="i32" shape="1" offset="23963908" size="4" />
			<output>
				<port id="0" precision="I32">
					<dim>1</dim>
				</port>
			</output>
		</layer>
		<layer id="229" name="__module.model.encoder.layer.0.output.LayerNorm/aten::layer_norm/MVN" type="MVN" version="opset6">
			<data eps="9.999999960041972e-13" normalize_variance="true" eps_mode="INSIDE_SQRT" />
			<input>
				<port id="0" precision="FP32">
					<dim>-1</dim>
					<dim>-1</dim>
					<dim>768</dim>
				</port>
				<port id="1" precision="I32">
					<dim>1</dim>
				</port>
			</input>
			<output>
				<port id="2" precision="FP32" names="244,246,input.41">
					<dim>-1</dim>
					<dim>-1</dim>
					<dim>768</dim>
				</port>
			</output>
		</layer>
		<layer id="230" name="__module.model.encoder.layer.0.output.LayerNorm/aten::layer_norm/MVN_0_0/nncf_smooth_quant/scale" type="Const" version="opset1">
			<data element_type="f32" shape="1, 1, 768" offset="33471946" size="3072" />
			<output>
				<port id="0" precision="FP32">
					<dim>1</dim>
					<dim>1</dim>
					<dim>768</dim>
				</port>
			</output>
		</layer>
		<layer id="231" name="__module.model.encoder.layer.0.output.LayerNorm/aten::layer_norm/MVN_0_0/nncf_smooth_quant" type="Multiply" version="opset1">
			<data auto_broadcast="numpy" />
			<input>
				<port id="0" precision="FP32">
					<dim>-1</dim>
					<dim>-1</dim>
					<dim>768</dim>
				</port>
				<port id="1" precision="FP32">
					<dim>1</dim>
					<dim>1</dim>
					<dim>768</dim>
				</port>
			</input>
			<output>
				<port id="2" precision="FP32">
					<dim>-1</dim>
					<dim>-1</dim>
					<dim>768</dim>
				</port>
			</output>
		</layer>
		<layer id="232" name="__module.model.encoder.layer.0.output.LayerNorm/aten::layer_norm/MVN_0_0/nncf_smooth_quant/fq_output_0/input_low" type="Const" version="opset1">
			<data element_type="f32" shape="" offset="33475018" size="4" />
			<output>
				<port id="0" precision="FP32" />
			</output>
		</layer>
		<layer id="233" name="__module.model.encoder.layer.0.output.LayerNorm/aten::layer_norm/MVN_0_0/nncf_smooth_quant/fq_output_0/input_high" type="Const" version="opset1">
			<data element_type="f32" shape="" offset="33475022" size="4" />
			<output>
				<port id="0" precision="FP32" />
			</output>
		</layer>
		<layer id="234" name="__module.model.encoder.layer.0.output.LayerNorm/aten::layer_norm/MVN_0_0/nncf_smooth_quant/fq_output_0/output_low" type="Const" version="opset1">
			<data element_type="f32" shape="" offset="33475018" size="4" />
			<output>
				<port id="0" precision="FP32" />
			</output>
		</layer>
		<layer id="235" name="__module.model.encoder.layer.0.output.LayerNorm/aten::layer_norm/MVN_0_0/nncf_smooth_quant/fq_output_0/output_high" type="Const" version="opset1">
			<data element_type="f32" shape="" offset="33475022" size="4" />
			<output>
				<port id="0" precision="FP32" />
			</output>
		</layer>
		<layer id="236" name="__module.model.encoder.layer.0.output.LayerNorm/aten::layer_norm/MVN_0_0/nncf_smooth_quant/fq_output_0" type="FakeQuantize" version="opset1">
			<data levels="256" auto_broadcast="numpy" />
			<input>
				<port id="0" precision="FP32">
					<dim>-1</dim>
					<dim>-1</dim>
					<dim>768</dim>
				</port>
				<port id="1" precision="FP32" />
				<port id="2" precision="FP32" />
				<port id="3" precision="FP32" />
				<port id="4" precision="FP32" />
			</input>
			<output>
				<port id="5" precision="FP32">
					<dim>-1</dim>
					<dim>-1</dim>
					<dim>768</dim>
				</port>
			</output>
		</layer>
		<layer id="237" name="Constant_449042" type="Const" version="opset1">
			<data element_type="i8" shape="768, 768" offset="33475026" size="589824" />
			<output>
				<port id="0" precision="I8">
					<dim>768</dim>
					<dim>768</dim>
				</port>
			</output>
		</layer>
		<layer id="238" name="Convert_449043" type="Convert" version="opset1">
			<data destination_type="f32" />
			<input>
				<port id="0" precision="I8">
					<dim>768</dim>
					<dim>768</dim>
				</port>
			</input>
			<output>
				<port id="1" precision="FP32">
					<dim>768</dim>
					<dim>768</dim>
				</port>
			</output>
		</layer>
		<layer id="239" name="Constant_449044" type="Const" version="opset1">
			<data element_type="f32" shape="768, 1" offset="34064850" size="3072" />
			<output>
				<port id="0" precision="FP32">
					<dim>768</dim>
					<dim>1</dim>
				</port>
			</output>
		</layer>
		<layer id="240" name="__module.model.encoder.layer.1.attention.self.query/aten::linear/MatMul/fq_weights_1" type="Multiply" version="opset1">
			<data auto_broadcast="numpy" />
			<input>
				<port id="0" precision="FP32">
					<dim>768</dim>
					<dim>768</dim>
				</port>
				<port id="1" precision="FP32">
					<dim>768</dim>
					<dim>1</dim>
				</port>
			</input>
			<output>
				<port id="2" precision="FP32">
					<dim>768</dim>
					<dim>768</dim>
				</port>
			</output>
		</layer>
		<layer id="241" name="__module.model.encoder.layer.1.attention.self.query/aten::linear/MatMul" type="MatMul" version="opset1">
			<data transpose_a="false" transpose_b="true" />
			<input>
				<port id="0" precision="FP32">
					<dim>-1</dim>
					<dim>-1</dim>
					<dim>768</dim>
				</port>
				<port id="1" precision="FP32">
					<dim>768</dim>
					<dim>768</dim>
				</port>
			</input>
			<output>
				<port id="2" precision="FP32" names="260,x.33">
					<dim>-1</dim>
					<dim>-1</dim>
					<dim>768</dim>
				</port>
			</output>
		</layer>
		<layer id="242" name="__module.model.encoder.layer.1.attention.self.query/aten::linear/MatMul/fq_output_0/input_low" type="Const" version="opset1">
			<data element_type="f32" shape="" offset="34067922" size="4" />
			<output>
				<port id="0" precision="FP32" />
			</output>
		</layer>
		<layer id="243" name="__module.model.encoder.layer.1.attention.self.query/aten::linear/MatMul/fq_output_0/input_high" type="Const" version="opset1">
			<data element_type="f32" shape="" offset="34067926" size="4" />
			<output>
				<port id="0" precision="FP32" />
			</output>
		</layer>
		<layer id="244" name="__module.model.encoder.layer.1.attention.self.query/aten::linear/MatMul/fq_output_0/output_low" type="Const" version="opset1">
			<data element_type="f32" shape="" offset="34067922" size="4" />
			<output>
				<port id="0" precision="FP32" />
			</output>
		</layer>
		<layer id="245" name="__module.model.encoder.layer.1.attention.self.query/aten::linear/MatMul/fq_output_0/output_high" type="Const" version="opset1">
			<data element_type="f32" shape="" offset="34067926" size="4" />
			<output>
				<port id="0" precision="FP32" />
			</output>
		</layer>
		<layer id="246" name="__module.model.encoder.layer.1.attention.self.query/aten::linear/MatMul/fq_output_0" type="FakeQuantize" version="opset1">
			<data levels="256" auto_broadcast="numpy" />
			<input>
				<port id="0" precision="FP32">
					<dim>-1</dim>
					<dim>-1</dim>
					<dim>768</dim>
				</port>
				<port id="1" precision="FP32" />
				<port id="2" precision="FP32" />
				<port id="3" precision="FP32" />
				<port id="4" precision="FP32" />
			</input>
			<output>
				<port id="5" precision="FP32">
					<dim>-1</dim>
					<dim>-1</dim>
					<dim>768</dim>
				</port>
			</output>
		</layer>
		<layer id="247" name="__module.model.encoder.layer.1.attention.self/prim::ListConstruct" type="Const" version="opset1">
			<data element_type="i64" shape="4" offset="24559896" size="32" />
			<rt_info>
				<attribute name="precise" version="0" />
			</rt_info>
			<output>
				<port id="0" precision="I64">
					<dim>4</dim>
				</port>
			</output>
		</layer>
		<layer id="248" name="__module.model.encoder.layer.1.attention.self/aten::view/Reshape" type="Reshape" version="opset1">
			<data special_zero="true" />
			<input>
				<port id="0" precision="FP32">
					<dim>-1</dim>
					<dim>-1</dim>
					<dim>768</dim>
				</port>
				<port id="1" precision="I64">
					<dim>4</dim>
				</port>
			</input>
			<output>
				<port id="2" precision="FP32" names="282,x.35">
					<dim>-1</dim>
					<dim>-1</dim>
					<dim>12</dim>
					<dim>64</dim>
				</port>
			</output>
		</layer>
		<layer id="249" name="Constant_11261" type="Const" version="opset1">
			<data element_type="i64" shape="4" offset="24559928" size="32" />
			<output>
				<port id="0" precision="I64" names="283">
					<dim>4</dim>
				</port>
			</output>
		</layer>
		<layer id="250" name="__module.model.encoder.layer.1.attention.self/aten::permute/Transpose" type="Transpose" version="opset1">
			<input>
				<port id="0" precision="FP32">
					<dim>-1</dim>
					<dim>-1</dim>
					<dim>12</dim>
					<dim>64</dim>
				</port>
				<port id="1" precision="I64">
					<dim>4</dim>
				</port>
			</input>
			<output>
				<port id="2" precision="FP32" names="284,query_layer.5">
					<dim>-1</dim>
					<dim>12</dim>
					<dim>-1</dim>
					<dim>64</dim>
				</port>
			</output>
		</layer>
		<layer id="251" name="Constant_449047" type="Const" version="opset1">
			<data element_type="i8" shape="768, 768" offset="34067930" size="589824" />
			<output>
				<port id="0" precision="I8">
					<dim>768</dim>
					<dim>768</dim>
				</port>
			</output>
		</layer>
		<layer id="252" name="Convert_449048" type="Convert" version="opset1">
			<data destination_type="f32" />
			<input>
				<port id="0" precision="I8">
					<dim>768</dim>
					<dim>768</dim>
				</port>
			</input>
			<output>
				<port id="1" precision="FP32">
					<dim>768</dim>
					<dim>768</dim>
				</port>
			</output>
		</layer>
		<layer id="253" name="Constant_449049" type="Const" version="opset1">
			<data element_type="f32" shape="768, 1" offset="34657754" size="3072" />
			<output>
				<port id="0" precision="FP32">
					<dim>768</dim>
					<dim>1</dim>
				</port>
			</output>
		</layer>
		<layer id="254" name="__module.model.encoder.layer.1.attention.self.key/aten::linear/MatMul/fq_weights_1" type="Multiply" version="opset1">
			<data auto_broadcast="numpy" />
			<input>
				<port id="0" precision="FP32">
					<dim>768</dim>
					<dim>768</dim>
				</port>
				<port id="1" precision="FP32">
					<dim>768</dim>
					<dim>1</dim>
				</port>
			</input>
			<output>
				<port id="2" precision="FP32">
					<dim>768</dim>
					<dim>768</dim>
				</port>
			</output>
		</layer>
		<layer id="255" name="__module.model.encoder.layer.1.attention.self.key/aten::linear/MatMul" type="MatMul" version="opset1">
			<data transpose_a="false" transpose_b="true" />
			<input>
				<port id="0" precision="FP32">
					<dim>-1</dim>
					<dim>-1</dim>
					<dim>768</dim>
				</port>
				<port id="1" precision="FP32">
					<dim>768</dim>
					<dim>768</dim>
				</port>
			</input>
			<output>
				<port id="2" precision="FP32" names="263,x.25">
					<dim>-1</dim>
					<dim>-1</dim>
					<dim>768</dim>
				</port>
			</output>
		</layer>
		<layer id="256" name="__module.model.encoder.layer.1.attention.self.key/aten::linear/MatMul/fq_output_0/input_low" type="Const" version="opset1">
			<data element_type="f32" shape="" offset="34660826" size="4" />
			<output>
				<port id="0" precision="FP32" />
			</output>
		</layer>
		<layer id="257" name="__module.model.encoder.layer.1.attention.self.key/aten::linear/MatMul/fq_output_0/input_high" type="Const" version="opset1">
			<data element_type="f32" shape="" offset="34660830" size="4" />
			<output>
				<port id="0" precision="FP32" />
			</output>
		</layer>
		<layer id="258" name="__module.model.encoder.layer.1.attention.self.key/aten::linear/MatMul/fq_output_0/output_low" type="Const" version="opset1">
			<data element_type="f32" shape="" offset="34660826" size="4" />
			<output>
				<port id="0" precision="FP32" />
			</output>
		</layer>
		<layer id="259" name="__module.model.encoder.layer.1.attention.self.key/aten::linear/MatMul/fq_output_0/output_high" type="Const" version="opset1">
			<data element_type="f32" shape="" offset="34660830" size="4" />
			<output>
				<port id="0" precision="FP32" />
			</output>
		</layer>
		<layer id="260" name="__module.model.encoder.layer.1.attention.self.key/aten::linear/MatMul/fq_output_0" type="FakeQuantize" version="opset1">
			<data levels="256" auto_broadcast="numpy" />
			<input>
				<port id="0" precision="FP32">
					<dim>-1</dim>
					<dim>-1</dim>
					<dim>768</dim>
				</port>
				<port id="1" precision="FP32" />
				<port id="2" precision="FP32" />
				<port id="3" precision="FP32" />
				<port id="4" precision="FP32" />
			</input>
			<output>
				<port id="5" precision="FP32">
					<dim>-1</dim>
					<dim>-1</dim>
					<dim>768</dim>
				</port>
			</output>
		</layer>
		<layer id="261" name="__module.model.encoder.layer.1.attention.self/prim::ListConstruct_1" type="Const" version="opset1">
			<data element_type="i64" shape="4" offset="24559896" size="32" />
			<rt_info>
				<attribute name="precise" version="0" />
			</rt_info>
			<output>
				<port id="0" precision="I64">
					<dim>4</dim>
				</port>
			</output>
		</layer>
		<layer id="262" name="__module.model.encoder.layer.1.attention.self/aten::view/Reshape_1" type="Reshape" version="opset1">
			<data special_zero="true" />
			<input>
				<port id="0" precision="FP32">
					<dim>-1</dim>
					<dim>-1</dim>
					<dim>768</dim>
				</port>
				<port id="1" precision="I64">
					<dim>4</dim>
				</port>
			</input>
			<output>
				<port id="2" precision="FP32" names="267,x.27">
					<dim>-1</dim>
					<dim>-1</dim>
					<dim>12</dim>
					<dim>64</dim>
				</port>
			</output>
		</layer>
		<layer id="263" name="Constant_11199" type="Const" version="opset1">
			<data element_type="i64" shape="4" offset="24559928" size="32" />
			<output>
				<port id="0" precision="I64" names="268">
					<dim>4</dim>
				</port>
			</output>
		</layer>
		<layer id="264" name="__module.model.encoder.layer.1.attention.self/aten::permute/Transpose_1" type="Transpose" version="opset1">
			<input>
				<port id="0" precision="FP32">
					<dim>-1</dim>
					<dim>-1</dim>
					<dim>12</dim>
					<dim>64</dim>
				</port>
				<port id="1" precision="I64">
					<dim>4</dim>
				</port>
			</input>
			<output>
				<port id="2" precision="FP32" names="269,key_layer.5">
					<dim>-1</dim>
					<dim>12</dim>
					<dim>-1</dim>
					<dim>64</dim>
				</port>
			</output>
		</layer>
		<layer id="265" name="__module.model.encoder.layer.1.attention.self/aten::matmul/MatMul" type="MatMul" version="opset1">
			<data transpose_a="false" transpose_b="true" />
			<input>
				<port id="0" precision="FP32">
					<dim>-1</dim>
					<dim>12</dim>
					<dim>-1</dim>
					<dim>64</dim>
				</port>
				<port id="1" precision="FP32">
					<dim>-1</dim>
					<dim>12</dim>
					<dim>-1</dim>
					<dim>64</dim>
				</port>
			</input>
			<output>
				<port id="2" precision="FP32" names="286,attention_scores.9">
					<dim>-1</dim>
					<dim>12</dim>
					<dim>-1</dim>
					<dim>-1</dim>
				</port>
			</output>
		</layer>
		<layer id="266" name="Constant_26427_compressed" type="Const" version="opset1">
			<data element_type="f16" shape="1, 1, 1, 1" offset="25152864" size="2" />
			<output>
				<port id="0" precision="FP16">
					<dim>1</dim>
					<dim>1</dim>
					<dim>1</dim>
					<dim>1</dim>
				</port>
			</output>
		</layer>
		<layer id="267" name="Constant_26427" type="Convert" version="opset1">
			<data destination_type="f32" />
			<rt_info>
				<attribute name="decompression" version="0" />
			</rt_info>
			<input>
				<port id="0" precision="FP16">
					<dim>1</dim>
					<dim>1</dim>
					<dim>1</dim>
					<dim>1</dim>
				</port>
			</input>
			<output>
				<port id="1" precision="FP32">
					<dim>1</dim>
					<dim>1</dim>
					<dim>1</dim>
					<dim>1</dim>
				</port>
			</output>
		</layer>
		<layer id="268" name="__module.model.encoder.layer.1.attention.self/aten::div/Divide" type="Divide" version="opset1">
			<data auto_broadcast="numpy" m_pythondiv="true" />
			<input>
				<port id="0" precision="FP32">
					<dim>-1</dim>
					<dim>12</dim>
					<dim>-1</dim>
					<dim>-1</dim>
				</port>
				<port id="1" precision="FP32">
					<dim>1</dim>
					<dim>1</dim>
					<dim>1</dim>
					<dim>1</dim>
				</port>
			</input>
			<output>
				<port id="2" precision="FP32" names="287,attention_scores.11">
					<dim>-1</dim>
					<dim>12</dim>
					<dim>-1</dim>
					<dim>-1</dim>
				</port>
			</output>
		</layer>
		<layer id="269" name="__module.model.encoder.layer.1.attention.self/aten::add/Add" type="Add" version="opset1">
			<data auto_broadcast="numpy" />
			<input>
				<port id="0" precision="FP32">
					<dim>-1</dim>
					<dim>12</dim>
					<dim>-1</dim>
					<dim>-1</dim>
				</port>
				<port id="1" precision="FP32">
					<dim>-1</dim>
					<dim>1</dim>
					<dim>1</dim>
					<dim>-1</dim>
				</port>
			</input>
			<output>
				<port id="2" precision="FP32" names="289,input.43">
					<dim>-1</dim>
					<dim>12</dim>
					<dim>-1</dim>
					<dim>-1</dim>
				</port>
			</output>
		</layer>
		<layer id="270" name="__module.model.encoder.layer.1.attention.self/aten::softmax/Softmax" type="SoftMax" version="opset8">
			<data axis="-1" />
			<input>
				<port id="0" precision="FP32">
					<dim>-1</dim>
					<dim>12</dim>
					<dim>-1</dim>
					<dim>-1</dim>
				</port>
			</input>
			<output>
				<port id="1" precision="FP32" names="290,input.45">
					<dim>-1</dim>
					<dim>12</dim>
					<dim>-1</dim>
					<dim>-1</dim>
				</port>
			</output>
		</layer>
		<layer id="271" name="Constant_449052" type="Const" version="opset1">
			<data element_type="i8" shape="768, 768" offset="34660834" size="589824" />
			<output>
				<port id="0" precision="I8">
					<dim>768</dim>
					<dim>768</dim>
				</port>
			</output>
		</layer>
		<layer id="272" name="Convert_449053" type="Convert" version="opset1">
			<data destination_type="f32" />
			<input>
				<port id="0" precision="I8">
					<dim>768</dim>
					<dim>768</dim>
				</port>
			</input>
			<output>
				<port id="1" precision="FP32">
					<dim>768</dim>
					<dim>768</dim>
				</port>
			</output>
		</layer>
		<layer id="273" name="Constant_449054" type="Const" version="opset1">
			<data element_type="f32" shape="768, 1" offset="35250658" size="3072" />
			<output>
				<port id="0" precision="FP32">
					<dim>768</dim>
					<dim>1</dim>
				</port>
			</output>
		</layer>
		<layer id="274" name="__module.model.encoder.layer.1.attention.self.value/aten::linear/MatMul/fq_weights_1" type="Multiply" version="opset1">
			<data auto_broadcast="numpy" />
			<input>
				<port id="0" precision="FP32">
					<dim>768</dim>
					<dim>768</dim>
				</port>
				<port id="1" precision="FP32">
					<dim>768</dim>
					<dim>1</dim>
				</port>
			</input>
			<output>
				<port id="2" precision="FP32">
					<dim>768</dim>
					<dim>768</dim>
				</port>
			</output>
		</layer>
		<layer id="275" name="__module.model.encoder.layer.1.attention.self.value/aten::linear/MatMul" type="MatMul" version="opset1">
			<data transpose_a="false" transpose_b="true" />
			<input>
				<port id="0" precision="FP32">
					<dim>-1</dim>
					<dim>-1</dim>
					<dim>768</dim>
				</port>
				<port id="1" precision="FP32">
					<dim>768</dim>
					<dim>768</dim>
				</port>
			</input>
			<output>
				<port id="2" precision="FP32" names="272,x.29">
					<dim>-1</dim>
					<dim>-1</dim>
					<dim>768</dim>
				</port>
			</output>
		</layer>
		<layer id="276" name="__module.model.encoder.layer.1.attention.self/prim::ListConstruct_2" type="Const" version="opset1">
			<data element_type="i64" shape="4" offset="24559896" size="32" />
			<rt_info>
				<attribute name="precise" version="0" />
			</rt_info>
			<output>
				<port id="0" precision="I64">
					<dim>4</dim>
				</port>
			</output>
		</layer>
		<layer id="277" name="__module.model.encoder.layer.1.attention.self/aten::view/Reshape_2" type="Reshape" version="opset1">
			<data special_zero="true" />
			<input>
				<port id="0" precision="FP32">
					<dim>-1</dim>
					<dim>-1</dim>
					<dim>768</dim>
				</port>
				<port id="1" precision="I64">
					<dim>4</dim>
				</port>
			</input>
			<output>
				<port id="2" precision="FP32" names="276,x.31">
					<dim>-1</dim>
					<dim>-1</dim>
					<dim>12</dim>
					<dim>64</dim>
				</port>
			</output>
		</layer>
		<layer id="278" name="Constant_11233" type="Const" version="opset1">
			<data element_type="i64" shape="4" offset="24559928" size="32" />
			<output>
				<port id="0" precision="I64" names="277">
					<dim>4</dim>
				</port>
			</output>
		</layer>
		<layer id="279" name="__module.model.encoder.layer.1.attention.self/aten::permute/Transpose_2" type="Transpose" version="opset1">
			<input>
				<port id="0" precision="FP32">
					<dim>-1</dim>
					<dim>-1</dim>
					<dim>12</dim>
					<dim>64</dim>
				</port>
				<port id="1" precision="I64">
					<dim>4</dim>
				</port>
			</input>
			<output>
				<port id="2" precision="FP32" names="278,value_layer.5">
					<dim>-1</dim>
					<dim>12</dim>
					<dim>-1</dim>
					<dim>64</dim>
				</port>
			</output>
		</layer>
		<layer id="280" name="__module.model.encoder.layer.1.attention.self/aten::matmul/MatMul_1" type="MatMul" version="opset1">
			<data transpose_a="false" transpose_b="false" />
			<input>
				<port id="0" precision="FP32">
					<dim>-1</dim>
					<dim>12</dim>
					<dim>-1</dim>
					<dim>-1</dim>
				</port>
				<port id="1" precision="FP32">
					<dim>-1</dim>
					<dim>12</dim>
					<dim>-1</dim>
					<dim>64</dim>
				</port>
			</input>
			<output>
				<port id="2" precision="FP32" names="292,context_layer.9">
					<dim>-1</dim>
					<dim>12</dim>
					<dim>-1</dim>
					<dim>64</dim>
				</port>
			</output>
		</layer>
		<layer id="281" name="Constant_11360" type="Const" version="opset1">
			<data element_type="i64" shape="4" offset="24559928" size="32" />
			<output>
				<port id="0" precision="I64" names="293">
					<dim>4</dim>
				</port>
			</output>
		</layer>
		<layer id="282" name="__module.model.encoder.layer.1.attention.self/aten::permute/Transpose_3" type="Transpose" version="opset1">
			<input>
				<port id="0" precision="FP32">
					<dim>-1</dim>
					<dim>12</dim>
					<dim>-1</dim>
					<dim>64</dim>
				</port>
				<port id="1" precision="I64">
					<dim>4</dim>
				</port>
			</input>
			<output>
				<port id="2" precision="FP32" names="294">
					<dim>-1</dim>
					<dim>-1</dim>
					<dim>12</dim>
					<dim>64</dim>
				</port>
			</output>
		</layer>
		<layer id="283" name="__module.model.encoder.layer.1.attention.self/prim::ListConstruct_3" type="Const" version="opset1">
			<data element_type="i64" shape="3" offset="25745774" size="24" />
			<rt_info>
				<attribute name="precise" version="0" />
			</rt_info>
			<output>
				<port id="0" precision="I64">
					<dim>3</dim>
				</port>
			</output>
		</layer>
		<layer id="284" name="__module.model.encoder.layer.1.attention.self/aten::view/Reshape_3" type="Reshape" version="opset1">
			<data special_zero="true" />
			<input>
				<port id="0" precision="FP32">
					<dim>-1</dim>
					<dim>-1</dim>
					<dim>12</dim>
					<dim>64</dim>
				</port>
				<port id="1" precision="I64">
					<dim>3</dim>
				</port>
			</input>
			<output>
				<port id="2" precision="FP32" names="299,301,input.47">
					<dim>-1</dim>
					<dim>-1</dim>
					<dim>768</dim>
				</port>
			</output>
		</layer>
		<layer id="285" name="__module.model.encoder.layer.1.attention.self/aten::view/Reshape_3_0_0/nncf_smooth_quant/scale" type="Const" version="opset1">
			<data element_type="f32" shape="1, 1, 768" offset="35253730" size="3072" />
			<output>
				<port id="0" precision="FP32">
					<dim>1</dim>
					<dim>1</dim>
					<dim>768</dim>
				</port>
			</output>
		</layer>
		<layer id="286" name="__module.model.encoder.layer.1.attention.self/aten::view/Reshape_3_0_0/nncf_smooth_quant" type="Multiply" version="opset1">
			<data auto_broadcast="numpy" />
			<input>
				<port id="0" precision="FP32">
					<dim>-1</dim>
					<dim>-1</dim>
					<dim>768</dim>
				</port>
				<port id="1" precision="FP32">
					<dim>1</dim>
					<dim>1</dim>
					<dim>768</dim>
				</port>
			</input>
			<output>
				<port id="2" precision="FP32">
					<dim>-1</dim>
					<dim>-1</dim>
					<dim>768</dim>
				</port>
			</output>
		</layer>
		<layer id="287" name="__module.model.encoder.layer.1.attention.self/aten::view/Reshape_3_0_0/nncf_smooth_quant/fq_output_0/input_low" type="Const" version="opset1">
			<data element_type="f32" shape="" offset="35256802" size="4" />
			<output>
				<port id="0" precision="FP32" />
			</output>
		</layer>
		<layer id="288" name="__module.model.encoder.layer.1.attention.self/aten::view/Reshape_3_0_0/nncf_smooth_quant/fq_output_0/input_high" type="Const" version="opset1">
			<data element_type="f32" shape="" offset="35256806" size="4" />
			<output>
				<port id="0" precision="FP32" />
			</output>
		</layer>
		<layer id="289" name="__module.model.encoder.layer.1.attention.self/aten::view/Reshape_3_0_0/nncf_smooth_quant/fq_output_0/output_low" type="Const" version="opset1">
			<data element_type="f32" shape="" offset="35256802" size="4" />
			<output>
				<port id="0" precision="FP32" />
			</output>
		</layer>
		<layer id="290" name="__module.model.encoder.layer.1.attention.self/aten::view/Reshape_3_0_0/nncf_smooth_quant/fq_output_0/output_high" type="Const" version="opset1">
			<data element_type="f32" shape="" offset="35256806" size="4" />
			<output>
				<port id="0" precision="FP32" />
			</output>
		</layer>
		<layer id="291" name="__module.model.encoder.layer.1.attention.self/aten::view/Reshape_3_0_0/nncf_smooth_quant/fq_output_0" type="FakeQuantize" version="opset1">
			<data levels="256" auto_broadcast="numpy" />
			<input>
				<port id="0" precision="FP32">
					<dim>-1</dim>
					<dim>-1</dim>
					<dim>768</dim>
				</port>
				<port id="1" precision="FP32" />
				<port id="2" precision="FP32" />
				<port id="3" precision="FP32" />
				<port id="4" precision="FP32" />
			</input>
			<output>
				<port id="5" precision="FP32">
					<dim>-1</dim>
					<dim>-1</dim>
					<dim>768</dim>
				</port>
			</output>
		</layer>
		<layer id="292" name="Constant_449057" type="Const" version="opset1">
			<data element_type="i8" shape="768, 768" offset="35256810" size="589824" />
			<output>
				<port id="0" precision="I8">
					<dim>768</dim>
					<dim>768</dim>
				</port>
			</output>
		</layer>
		<layer id="293" name="Convert_449058" type="Convert" version="opset1">
			<data destination_type="f32" />
			<input>
				<port id="0" precision="I8">
					<dim>768</dim>
					<dim>768</dim>
				</port>
			</input>
			<output>
				<port id="1" precision="FP32">
					<dim>768</dim>
					<dim>768</dim>
				</port>
			</output>
		</layer>
		<layer id="294" name="Constant_449059" type="Const" version="opset1">
			<data element_type="f32" shape="768, 1" offset="35846634" size="3072" />
			<output>
				<port id="0" precision="FP32">
					<dim>768</dim>
					<dim>1</dim>
				</port>
			</output>
		</layer>
		<layer id="295" name="__module.model.encoder.layer.1.attention.output.dense/aten::linear/MatMul/fq_weights_1" type="Multiply" version="opset1">
			<data auto_broadcast="numpy" />
			<input>
				<port id="0" precision="FP32">
					<dim>768</dim>
					<dim>768</dim>
				</port>
				<port id="1" precision="FP32">
					<dim>768</dim>
					<dim>1</dim>
				</port>
			</input>
			<output>
				<port id="2" precision="FP32">
					<dim>768</dim>
					<dim>768</dim>
				</port>
			</output>
		</layer>
		<layer id="296" name="__module.model.encoder.layer.1.attention.output.dense/aten::linear/MatMul" type="MatMul" version="opset1">
			<data transpose_a="false" transpose_b="true" />
			<input>
				<port id="0" precision="FP32">
					<dim>-1</dim>
					<dim>-1</dim>
					<dim>768</dim>
				</port>
				<port id="1" precision="FP32">
					<dim>768</dim>
					<dim>768</dim>
				</port>
			</input>
			<output>
				<port id="2" precision="FP32" names="308,input.49">
					<dim>-1</dim>
					<dim>-1</dim>
					<dim>768</dim>
				</port>
			</output>
		</layer>
		<layer id="297" name="__module.model.encoder.layer.1.attention.output/aten::add/Add" type="Add" version="opset1">
			<data auto_broadcast="numpy" />
			<input>
				<port id="0" precision="FP32">
					<dim>-1</dim>
					<dim>-1</dim>
					<dim>768</dim>
				</port>
				<port id="1" precision="FP32">
					<dim>-1</dim>
					<dim>-1</dim>
					<dim>768</dim>
				</port>
			</input>
			<output>
				<port id="2" precision="FP32" names="310,input.51">
					<dim>-1</dim>
					<dim>-1</dim>
					<dim>768</dim>
				</port>
			</output>
		</layer>
		<layer id="298" name="__module.model.encoder.layer.1.attention.output.LayerNorm/aten::layer_norm/Multiply" type="Const" version="opset1">
			<data element_type="i32" shape="1" offset="23963908" size="4" />
			<output>
				<port id="0" precision="I32">
					<dim>1</dim>
				</port>
			</output>
		</layer>
		<layer id="299" name="__module.model.encoder.layer.1.attention.output.LayerNorm/aten::layer_norm/MVN" type="MVN" version="opset6">
			<data eps="9.999999960041972e-13" normalize_variance="true" eps_mode="INSIDE_SQRT" />
			<input>
				<port id="0" precision="FP32">
					<dim>-1</dim>
					<dim>-1</dim>
					<dim>768</dim>
				</port>
				<port id="1" precision="I32">
					<dim>1</dim>
				</port>
			</input>
			<output>
				<port id="2" precision="FP32" names="314,316,input.53">
					<dim>-1</dim>
					<dim>-1</dim>
					<dim>768</dim>
				</port>
			</output>
		</layer>
		<layer id="300" name="__module.model.encoder.layer.1.attention.output.LayerNorm/aten::layer_norm/MVN_0_0/nncf_smooth_quant/scale" type="Const" version="opset1">
			<data element_type="f32" shape="1, 1, 768" offset="35849706" size="3072" />
			<output>
				<port id="0" precision="FP32">
					<dim>1</dim>
					<dim>1</dim>
					<dim>768</dim>
				</port>
			</output>
		</layer>
		<layer id="301" name="__module.model.encoder.layer.1.attention.output.LayerNorm/aten::layer_norm/MVN_0_0/nncf_smooth_quant" type="Multiply" version="opset1">
			<data auto_broadcast="numpy" />
			<input>
				<port id="0" precision="FP32">
					<dim>-1</dim>
					<dim>-1</dim>
					<dim>768</dim>
				</port>
				<port id="1" precision="FP32">
					<dim>1</dim>
					<dim>1</dim>
					<dim>768</dim>
				</port>
			</input>
			<output>
				<port id="2" precision="FP32">
					<dim>-1</dim>
					<dim>-1</dim>
					<dim>768</dim>
				</port>
			</output>
		</layer>
		<layer id="302" name="__module.model.encoder.layer.1.attention.output.LayerNorm/aten::layer_norm/MVN_0_0/nncf_smooth_quant/fq_output_0/input_low" type="Const" version="opset1">
			<data element_type="f32" shape="" offset="35852778" size="4" />
			<output>
				<port id="0" precision="FP32" />
			</output>
		</layer>
		<layer id="303" name="__module.model.encoder.layer.1.attention.output.LayerNorm/aten::layer_norm/MVN_0_0/nncf_smooth_quant/fq_output_0/input_high" type="Const" version="opset1">
			<data element_type="f32" shape="" offset="35852782" size="4" />
			<output>
				<port id="0" precision="FP32" />
			</output>
		</layer>
		<layer id="304" name="__module.model.encoder.layer.1.attention.output.LayerNorm/aten::layer_norm/MVN_0_0/nncf_smooth_quant/fq_output_0/output_low" type="Const" version="opset1">
			<data element_type="f32" shape="" offset="35852778" size="4" />
			<output>
				<port id="0" precision="FP32" />
			</output>
		</layer>
		<layer id="305" name="__module.model.encoder.layer.1.attention.output.LayerNorm/aten::layer_norm/MVN_0_0/nncf_smooth_quant/fq_output_0/output_high" type="Const" version="opset1">
			<data element_type="f32" shape="" offset="35852782" size="4" />
			<output>
				<port id="0" precision="FP32" />
			</output>
		</layer>
		<layer id="306" name="__module.model.encoder.layer.1.attention.output.LayerNorm/aten::layer_norm/MVN_0_0/nncf_smooth_quant/fq_output_0" type="FakeQuantize" version="opset1">
			<data levels="256" auto_broadcast="numpy" />
			<input>
				<port id="0" precision="FP32">
					<dim>-1</dim>
					<dim>-1</dim>
					<dim>768</dim>
				</port>
				<port id="1" precision="FP32" />
				<port id="2" precision="FP32" />
				<port id="3" precision="FP32" />
				<port id="4" precision="FP32" />
			</input>
			<output>
				<port id="5" precision="FP32">
					<dim>-1</dim>
					<dim>-1</dim>
					<dim>768</dim>
				</port>
			</output>
		</layer>
		<layer id="307" name="Constant_449062" type="Const" version="opset1">
			<data element_type="i8" shape="768, 768" offset="35852786" size="589824" />
			<output>
				<port id="0" precision="I8">
					<dim>768</dim>
					<dim>768</dim>
				</port>
			</output>
		</layer>
		<layer id="308" name="Convert_449063" type="Convert" version="opset1">
			<data destination_type="f32" />
			<input>
				<port id="0" precision="I8">
					<dim>768</dim>
					<dim>768</dim>
				</port>
			</input>
			<output>
				<port id="1" precision="FP32">
					<dim>768</dim>
					<dim>768</dim>
				</port>
			</output>
		</layer>
		<layer id="309" name="Constant_449064" type="Const" version="opset1">
			<data element_type="f32" shape="768, 1" offset="36442610" size="3072" />
			<output>
				<port id="0" precision="FP32">
					<dim>768</dim>
					<dim>1</dim>
				</port>
			</output>
		</layer>
		<layer id="310" name="__module.model.encoder.layer.1.crossattention.self.query/aten::linear/MatMul/fq_weights_1" type="Multiply" version="opset1">
			<data auto_broadcast="numpy" />
			<input>
				<port id="0" precision="FP32">
					<dim>768</dim>
					<dim>768</dim>
				</port>
				<port id="1" precision="FP32">
					<dim>768</dim>
					<dim>1</dim>
				</port>
			</input>
			<output>
				<port id="2" precision="FP32">
					<dim>768</dim>
					<dim>768</dim>
				</port>
			</output>
		</layer>
		<layer id="311" name="__module.model.encoder.layer.1.crossattention.self.query/aten::linear/MatMul" type="MatMul" version="opset1">
			<data transpose_a="false" transpose_b="true" />
			<input>
				<port id="0" precision="FP32">
					<dim>-1</dim>
					<dim>-1</dim>
					<dim>768</dim>
				</port>
				<port id="1" precision="FP32">
					<dim>768</dim>
					<dim>768</dim>
				</port>
			</input>
			<output>
				<port id="2" precision="FP32" names="325,x.45">
					<dim>-1</dim>
					<dim>-1</dim>
					<dim>768</dim>
				</port>
			</output>
		</layer>
		<layer id="312" name="__module.model.encoder.layer.1.crossattention.self.query/aten::linear/MatMul/fq_output_0/input_low" type="Const" version="opset1">
			<data element_type="f32" shape="" offset="36445682" size="4" />
			<output>
				<port id="0" precision="FP32" />
			</output>
		</layer>
		<layer id="313" name="__module.model.encoder.layer.1.crossattention.self.query/aten::linear/MatMul/fq_output_0/input_high" type="Const" version="opset1">
			<data element_type="f32" shape="" offset="36445686" size="4" />
			<output>
				<port id="0" precision="FP32" />
			</output>
		</layer>
		<layer id="314" name="__module.model.encoder.layer.1.crossattention.self.query/aten::linear/MatMul/fq_output_0/output_low" type="Const" version="opset1">
			<data element_type="f32" shape="" offset="36445682" size="4" />
			<output>
				<port id="0" precision="FP32" />
			</output>
		</layer>
		<layer id="315" name="__module.model.encoder.layer.1.crossattention.self.query/aten::linear/MatMul/fq_output_0/output_high" type="Const" version="opset1">
			<data element_type="f32" shape="" offset="36445686" size="4" />
			<output>
				<port id="0" precision="FP32" />
			</output>
		</layer>
		<layer id="316" name="__module.model.encoder.layer.1.crossattention.self.query/aten::linear/MatMul/fq_output_0" type="FakeQuantize" version="opset1">
			<data levels="256" auto_broadcast="numpy" />
			<input>
				<port id="0" precision="FP32">
					<dim>-1</dim>
					<dim>-1</dim>
					<dim>768</dim>
				</port>
				<port id="1" precision="FP32" />
				<port id="2" precision="FP32" />
				<port id="3" precision="FP32" />
				<port id="4" precision="FP32" />
			</input>
			<output>
				<port id="5" precision="FP32">
					<dim>-1</dim>
					<dim>-1</dim>
					<dim>768</dim>
				</port>
			</output>
		</layer>
		<layer id="317" name="__module.model.encoder.layer.1.crossattention.self/prim::ListConstruct" type="Const" version="opset1">
			<data element_type="i64" shape="4" offset="24559896" size="32" />
			<rt_info>
				<attribute name="precise" version="0" />
			</rt_info>
			<output>
				<port id="0" precision="I64">
					<dim>4</dim>
				</port>
			</output>
		</layer>
		<layer id="318" name="__module.model.encoder.layer.1.crossattention.self/aten::view/Reshape" type="Reshape" version="opset1">
			<data special_zero="true" />
			<input>
				<port id="0" precision="FP32">
					<dim>-1</dim>
					<dim>-1</dim>
					<dim>768</dim>
				</port>
				<port id="1" precision="I64">
					<dim>4</dim>
				</port>
			</input>
			<output>
				<port id="2" precision="FP32" names="347,x.47">
					<dim>-1</dim>
					<dim>-1</dim>
					<dim>12</dim>
					<dim>64</dim>
				</port>
			</output>
		</layer>
		<layer id="319" name="Constant_11521" type="Const" version="opset1">
			<data element_type="i64" shape="4" offset="24559928" size="32" />
			<output>
				<port id="0" precision="I64" names="348">
					<dim>4</dim>
				</port>
			</output>
		</layer>
		<layer id="320" name="__module.model.encoder.layer.1.crossattention.self/aten::permute/Transpose" type="Transpose" version="opset1">
			<input>
				<port id="0" precision="FP32">
					<dim>-1</dim>
					<dim>-1</dim>
					<dim>12</dim>
					<dim>64</dim>
				</port>
				<port id="1" precision="I64">
					<dim>4</dim>
				</port>
			</input>
			<output>
				<port id="2" precision="FP32" names="349,query_layer.7">
					<dim>-1</dim>
					<dim>12</dim>
					<dim>-1</dim>
					<dim>64</dim>
				</port>
			</output>
		</layer>
		<layer id="321" name="Constant_449067" type="Const" version="opset1">
			<data element_type="i8" shape="768, 768" offset="36445690" size="589824" />
			<output>
				<port id="0" precision="I8">
					<dim>768</dim>
					<dim>768</dim>
				</port>
			</output>
		</layer>
		<layer id="322" name="Convert_449068" type="Convert" version="opset1">
			<data destination_type="f32" />
			<input>
				<port id="0" precision="I8">
					<dim>768</dim>
					<dim>768</dim>
				</port>
			</input>
			<output>
				<port id="1" precision="FP32">
					<dim>768</dim>
					<dim>768</dim>
				</port>
			</output>
		</layer>
		<layer id="323" name="Constant_449069" type="Const" version="opset1">
			<data element_type="f32" shape="768, 1" offset="37035514" size="3072" />
			<output>
				<port id="0" precision="FP32">
					<dim>768</dim>
					<dim>1</dim>
				</port>
			</output>
		</layer>
		<layer id="324" name="__module.model.encoder.layer.1.crossattention.self.key/aten::linear/MatMul/fq_weights_1" type="Multiply" version="opset1">
			<data auto_broadcast="numpy" />
			<input>
				<port id="0" precision="FP32">
					<dim>768</dim>
					<dim>768</dim>
				</port>
				<port id="1" precision="FP32">
					<dim>768</dim>
					<dim>1</dim>
				</port>
			</input>
			<output>
				<port id="2" precision="FP32">
					<dim>768</dim>
					<dim>768</dim>
				</port>
			</output>
		</layer>
		<layer id="325" name="__module.model.encoder.layer.1.crossattention.self.key/aten::linear/MatMul" type="MatMul" version="opset1">
			<data transpose_a="false" transpose_b="true" />
			<input>
				<port id="0" precision="FP32">
					<dim>-1</dim>
					<dim>-1</dim>
					<dim>768</dim>
				</port>
				<port id="1" precision="FP32">
					<dim>768</dim>
					<dim>768</dim>
				</port>
			</input>
			<output>
				<port id="2" precision="FP32" names="328,x.37">
					<dim>-1</dim>
					<dim>-1</dim>
					<dim>768</dim>
				</port>
			</output>
		</layer>
		<layer id="326" name="__module.model.encoder.layer.1.crossattention.self.key/aten::linear/MatMul/fq_output_0/input_low" type="Const" version="opset1">
			<data element_type="f32" shape="" offset="37038586" size="4" />
			<output>
				<port id="0" precision="FP32" />
			</output>
		</layer>
		<layer id="327" name="__module.model.encoder.layer.1.crossattention.self.key/aten::linear/MatMul/fq_output_0/input_high" type="Const" version="opset1">
			<data element_type="f32" shape="" offset="37038590" size="4" />
			<output>
				<port id="0" precision="FP32" />
			</output>
		</layer>
		<layer id="328" name="__module.model.encoder.layer.1.crossattention.self.key/aten::linear/MatMul/fq_output_0/output_low" type="Const" version="opset1">
			<data element_type="f32" shape="" offset="37038586" size="4" />
			<output>
				<port id="0" precision="FP32" />
			</output>
		</layer>
		<layer id="329" name="__module.model.encoder.layer.1.crossattention.self.key/aten::linear/MatMul/fq_output_0/output_high" type="Const" version="opset1">
			<data element_type="f32" shape="" offset="37038590" size="4" />
			<output>
				<port id="0" precision="FP32" />
			</output>
		</layer>
		<layer id="330" name="__module.model.encoder.layer.1.crossattention.self.key/aten::linear/MatMul/fq_output_0" type="FakeQuantize" version="opset1">
			<data levels="256" auto_broadcast="numpy" />
			<input>
				<port id="0" precision="FP32">
					<dim>-1</dim>
					<dim>-1</dim>
					<dim>768</dim>
				</port>
				<port id="1" precision="FP32" />
				<port id="2" precision="FP32" />
				<port id="3" precision="FP32" />
				<port id="4" precision="FP32" />
			</input>
			<output>
				<port id="5" precision="FP32">
					<dim>-1</dim>
					<dim>-1</dim>
					<dim>768</dim>
				</port>
			</output>
		</layer>
		<layer id="331" name="__module.model.encoder.layer.1.crossattention.self/prim::ListConstruct_1" type="Const" version="opset1">
			<data element_type="i64" shape="4" offset="24559896" size="32" />
			<rt_info>
				<attribute name="precise" version="0" />
			</rt_info>
			<output>
				<port id="0" precision="I64">
					<dim>4</dim>
				</port>
			</output>
		</layer>
		<layer id="332" name="__module.model.encoder.layer.1.crossattention.self/aten::view/Reshape_1" type="Reshape" version="opset1">
			<data special_zero="true" />
			<input>
				<port id="0" precision="FP32">
					<dim>-1</dim>
					<dim>-1</dim>
					<dim>768</dim>
				</port>
				<port id="1" precision="I64">
					<dim>4</dim>
				</port>
			</input>
			<output>
				<port id="2" precision="FP32" names="332,x.39">
					<dim>-1</dim>
					<dim>-1</dim>
					<dim>12</dim>
					<dim>64</dim>
				</port>
			</output>
		</layer>
		<layer id="333" name="Constant_11459" type="Const" version="opset1">
			<data element_type="i64" shape="4" offset="24559928" size="32" />
			<output>
				<port id="0" precision="I64" names="333">
					<dim>4</dim>
				</port>
			</output>
		</layer>
		<layer id="334" name="__module.model.encoder.layer.1.crossattention.self/aten::permute/Transpose_1" type="Transpose" version="opset1">
			<input>
				<port id="0" precision="FP32">
					<dim>-1</dim>
					<dim>-1</dim>
					<dim>12</dim>
					<dim>64</dim>
				</port>
				<port id="1" precision="I64">
					<dim>4</dim>
				</port>
			</input>
			<output>
				<port id="2" precision="FP32" names="334,key_layer.7">
					<dim>-1</dim>
					<dim>12</dim>
					<dim>-1</dim>
					<dim>64</dim>
				</port>
			</output>
		</layer>
		<layer id="335" name="__module.model.encoder.layer.1.crossattention.self/aten::matmul/MatMul" type="MatMul" version="opset1">
			<data transpose_a="false" transpose_b="true" />
			<input>
				<port id="0" precision="FP32">
					<dim>-1</dim>
					<dim>12</dim>
					<dim>-1</dim>
					<dim>64</dim>
				</port>
				<port id="1" precision="FP32">
					<dim>-1</dim>
					<dim>12</dim>
					<dim>-1</dim>
					<dim>64</dim>
				</port>
			</input>
			<output>
				<port id="2" precision="FP32" names="351,attention_scores.13">
					<dim>-1</dim>
					<dim>12</dim>
					<dim>-1</dim>
					<dim>-1</dim>
				</port>
			</output>
		</layer>
		<layer id="336" name="Constant_26428_compressed" type="Const" version="opset1">
			<data element_type="f16" shape="1, 1, 1, 1" offset="25152864" size="2" />
			<output>
				<port id="0" precision="FP16">
					<dim>1</dim>
					<dim>1</dim>
					<dim>1</dim>
					<dim>1</dim>
				</port>
			</output>
		</layer>
		<layer id="337" name="Constant_26428" type="Convert" version="opset1">
			<data destination_type="f32" />
			<rt_info>
				<attribute name="decompression" version="0" />
			</rt_info>
			<input>
				<port id="0" precision="FP16">
					<dim>1</dim>
					<dim>1</dim>
					<dim>1</dim>
					<dim>1</dim>
				</port>
			</input>
			<output>
				<port id="1" precision="FP32">
					<dim>1</dim>
					<dim>1</dim>
					<dim>1</dim>
					<dim>1</dim>
				</port>
			</output>
		</layer>
		<layer id="338" name="__module.model.encoder.layer.1.crossattention.self/aten::div/Divide" type="Divide" version="opset1">
			<data auto_broadcast="numpy" m_pythondiv="true" />
			<input>
				<port id="0" precision="FP32">
					<dim>-1</dim>
					<dim>12</dim>
					<dim>-1</dim>
					<dim>-1</dim>
				</port>
				<port id="1" precision="FP32">
					<dim>1</dim>
					<dim>1</dim>
					<dim>1</dim>
					<dim>1</dim>
				</port>
			</input>
			<output>
				<port id="2" precision="FP32" names="352,attention_scores.15">
					<dim>-1</dim>
					<dim>12</dim>
					<dim>-1</dim>
					<dim>-1</dim>
				</port>
			</output>
		</layer>
		<layer id="339" name="__module.model.encoder.layer.1.crossattention.self/aten::add/Add" type="Add" version="opset1">
			<data auto_broadcast="numpy" />
			<input>
				<port id="0" precision="FP32">
					<dim>-1</dim>
					<dim>12</dim>
					<dim>-1</dim>
					<dim>-1</dim>
				</port>
				<port id="1" precision="FP32">
					<dim>-1</dim>
					<dim>1</dim>
					<dim>1</dim>
					<dim>-1</dim>
				</port>
			</input>
			<output>
				<port id="2" precision="FP32" names="354,input.55">
					<dim>-1</dim>
					<dim>12</dim>
					<dim>-1</dim>
					<dim>-1</dim>
				</port>
			</output>
		</layer>
		<layer id="340" name="__module.model.encoder.layer.1.crossattention.self/aten::softmax/Softmax" type="SoftMax" version="opset8">
			<data axis="-1" />
			<input>
				<port id="0" precision="FP32">
					<dim>-1</dim>
					<dim>12</dim>
					<dim>-1</dim>
					<dim>-1</dim>
				</port>
			</input>
			<output>
				<port id="1" precision="FP32" names="355,input.57">
					<dim>-1</dim>
					<dim>12</dim>
					<dim>-1</dim>
					<dim>-1</dim>
				</port>
			</output>
		</layer>
		<layer id="341" name="Constant_449072" type="Const" version="opset1">
			<data element_type="i8" shape="768, 768" offset="37038594" size="589824" />
			<output>
				<port id="0" precision="I8">
					<dim>768</dim>
					<dim>768</dim>
				</port>
			</output>
		</layer>
		<layer id="342" name="Convert_449073" type="Convert" version="opset1">
			<data destination_type="f32" />
			<input>
				<port id="0" precision="I8">
					<dim>768</dim>
					<dim>768</dim>
				</port>
			</input>
			<output>
				<port id="1" precision="FP32">
					<dim>768</dim>
					<dim>768</dim>
				</port>
			</output>
		</layer>
		<layer id="343" name="Constant_449074" type="Const" version="opset1">
			<data element_type="f32" shape="768, 1" offset="37628418" size="3072" />
			<output>
				<port id="0" precision="FP32">
					<dim>768</dim>
					<dim>1</dim>
				</port>
			</output>
		</layer>
		<layer id="344" name="__module.model.encoder.layer.1.crossattention.self.value/aten::linear/MatMul/fq_weights_1" type="Multiply" version="opset1">
			<data auto_broadcast="numpy" />
			<input>
				<port id="0" precision="FP32">
					<dim>768</dim>
					<dim>768</dim>
				</port>
				<port id="1" precision="FP32">
					<dim>768</dim>
					<dim>1</dim>
				</port>
			</input>
			<output>
				<port id="2" precision="FP32">
					<dim>768</dim>
					<dim>768</dim>
				</port>
			</output>
		</layer>
		<layer id="345" name="__module.model.encoder.layer.1.crossattention.self.value/aten::linear/MatMul" type="MatMul" version="opset1">
			<data transpose_a="false" transpose_b="true" />
			<input>
				<port id="0" precision="FP32">
					<dim>-1</dim>
					<dim>-1</dim>
					<dim>768</dim>
				</port>
				<port id="1" precision="FP32">
					<dim>768</dim>
					<dim>768</dim>
				</port>
			</input>
			<output>
				<port id="2" precision="FP32" names="337,x.41">
					<dim>-1</dim>
					<dim>-1</dim>
					<dim>768</dim>
				</port>
			</output>
		</layer>
		<layer id="346" name="__module.model.encoder.layer.1.crossattention.self/prim::ListConstruct_2" type="Const" version="opset1">
			<data element_type="i64" shape="4" offset="24559896" size="32" />
			<rt_info>
				<attribute name="precise" version="0" />
			</rt_info>
			<output>
				<port id="0" precision="I64">
					<dim>4</dim>
				</port>
			</output>
		</layer>
		<layer id="347" name="__module.model.encoder.layer.1.crossattention.self/aten::view/Reshape_2" type="Reshape" version="opset1">
			<data special_zero="true" />
			<input>
				<port id="0" precision="FP32">
					<dim>-1</dim>
					<dim>-1</dim>
					<dim>768</dim>
				</port>
				<port id="1" precision="I64">
					<dim>4</dim>
				</port>
			</input>
			<output>
				<port id="2" precision="FP32" names="341,x.43">
					<dim>-1</dim>
					<dim>-1</dim>
					<dim>12</dim>
					<dim>64</dim>
				</port>
			</output>
		</layer>
		<layer id="348" name="Constant_11493" type="Const" version="opset1">
			<data element_type="i64" shape="4" offset="24559928" size="32" />
			<output>
				<port id="0" precision="I64" names="342">
					<dim>4</dim>
				</port>
			</output>
		</layer>
		<layer id="349" name="__module.model.encoder.layer.1.crossattention.self/aten::permute/Transpose_2" type="Transpose" version="opset1">
			<input>
				<port id="0" precision="FP32">
					<dim>-1</dim>
					<dim>-1</dim>
					<dim>12</dim>
					<dim>64</dim>
				</port>
				<port id="1" precision="I64">
					<dim>4</dim>
				</port>
			</input>
			<output>
				<port id="2" precision="FP32" names="343,value_layer.7">
					<dim>-1</dim>
					<dim>12</dim>
					<dim>-1</dim>
					<dim>64</dim>
				</port>
			</output>
		</layer>
		<layer id="350" name="__module.model.encoder.layer.1.crossattention.self/aten::matmul/MatMul_1" type="MatMul" version="opset1">
			<data transpose_a="false" transpose_b="false" />
			<input>
				<port id="0" precision="FP32">
					<dim>-1</dim>
					<dim>12</dim>
					<dim>-1</dim>
					<dim>-1</dim>
				</port>
				<port id="1" precision="FP32">
					<dim>-1</dim>
					<dim>12</dim>
					<dim>-1</dim>
					<dim>64</dim>
				</port>
			</input>
			<output>
				<port id="2" precision="FP32" names="357,context_layer.13">
					<dim>-1</dim>
					<dim>12</dim>
					<dim>-1</dim>
					<dim>64</dim>
				</port>
			</output>
		</layer>
		<layer id="351" name="Constant_11620" type="Const" version="opset1">
			<data element_type="i64" shape="4" offset="24559928" size="32" />
			<output>
				<port id="0" precision="I64" names="358">
					<dim>4</dim>
				</port>
			</output>
		</layer>
		<layer id="352" name="__module.model.encoder.layer.1.crossattention.self/aten::permute/Transpose_3" type="Transpose" version="opset1">
			<input>
				<port id="0" precision="FP32">
					<dim>-1</dim>
					<dim>12</dim>
					<dim>-1</dim>
					<dim>64</dim>
				</port>
				<port id="1" precision="I64">
					<dim>4</dim>
				</port>
			</input>
			<output>
				<port id="2" precision="FP32" names="359">
					<dim>-1</dim>
					<dim>-1</dim>
					<dim>12</dim>
					<dim>64</dim>
				</port>
			</output>
		</layer>
		<layer id="353" name="__module.model.encoder.layer.1.crossattention.self/prim::ListConstruct_3" type="Const" version="opset1">
			<data element_type="i64" shape="3" offset="25745774" size="24" />
			<rt_info>
				<attribute name="precise" version="0" />
			</rt_info>
			<output>
				<port id="0" precision="I64">
					<dim>3</dim>
				</port>
			</output>
		</layer>
		<layer id="354" name="__module.model.encoder.layer.1.crossattention.self/aten::view/Reshape_3" type="Reshape" version="opset1">
			<data special_zero="true" />
			<input>
				<port id="0" precision="FP32">
					<dim>-1</dim>
					<dim>-1</dim>
					<dim>12</dim>
					<dim>64</dim>
				</port>
				<port id="1" precision="I64">
					<dim>3</dim>
				</port>
			</input>
			<output>
				<port id="2" precision="FP32" names="364,366,input.59">
					<dim>-1</dim>
					<dim>-1</dim>
					<dim>768</dim>
				</port>
			</output>
		</layer>
		<layer id="355" name="__module.model.encoder.layer.1.crossattention.self/aten::view/Reshape_3_0_0/nncf_smooth_quant/scale" type="Const" version="opset1">
			<data element_type="f32" shape="1, 1, 768" offset="37631490" size="3072" />
			<output>
				<port id="0" precision="FP32">
					<dim>1</dim>
					<dim>1</dim>
					<dim>768</dim>
				</port>
			</output>
		</layer>
		<layer id="356" name="__module.model.encoder.layer.1.crossattention.self/aten::view/Reshape_3_0_0/nncf_smooth_quant" type="Multiply" version="opset1">
			<data auto_broadcast="numpy" />
			<input>
				<port id="0" precision="FP32">
					<dim>-1</dim>
					<dim>-1</dim>
					<dim>768</dim>
				</port>
				<port id="1" precision="FP32">
					<dim>1</dim>
					<dim>1</dim>
					<dim>768</dim>
				</port>
			</input>
			<output>
				<port id="2" precision="FP32">
					<dim>-1</dim>
					<dim>-1</dim>
					<dim>768</dim>
				</port>
			</output>
		</layer>
		<layer id="357" name="__module.model.encoder.layer.1.crossattention.self/aten::view/Reshape_3_0_0/nncf_smooth_quant/fq_output_0/input_low" type="Const" version="opset1">
			<data element_type="f32" shape="" offset="37634562" size="4" />
			<output>
				<port id="0" precision="FP32" />
			</output>
		</layer>
		<layer id="358" name="__module.model.encoder.layer.1.crossattention.self/aten::view/Reshape_3_0_0/nncf_smooth_quant/fq_output_0/input_high" type="Const" version="opset1">
			<data element_type="f32" shape="" offset="37634566" size="4" />
			<output>
				<port id="0" precision="FP32" />
			</output>
		</layer>
		<layer id="359" name="__module.model.encoder.layer.1.crossattention.self/aten::view/Reshape_3_0_0/nncf_smooth_quant/fq_output_0/output_low" type="Const" version="opset1">
			<data element_type="f32" shape="" offset="37634562" size="4" />
			<output>
				<port id="0" precision="FP32" />
			</output>
		</layer>
		<layer id="360" name="__module.model.encoder.layer.1.crossattention.self/aten::view/Reshape_3_0_0/nncf_smooth_quant/fq_output_0/output_high" type="Const" version="opset1">
			<data element_type="f32" shape="" offset="37634566" size="4" />
			<output>
				<port id="0" precision="FP32" />
			</output>
		</layer>
		<layer id="361" name="__module.model.encoder.layer.1.crossattention.self/aten::view/Reshape_3_0_0/nncf_smooth_quant/fq_output_0" type="FakeQuantize" version="opset1">
			<data levels="256" auto_broadcast="numpy" />
			<input>
				<port id="0" precision="FP32">
					<dim>-1</dim>
					<dim>-1</dim>
					<dim>768</dim>
				</port>
				<port id="1" precision="FP32" />
				<port id="2" precision="FP32" />
				<port id="3" precision="FP32" />
				<port id="4" precision="FP32" />
			</input>
			<output>
				<port id="5" precision="FP32">
					<dim>-1</dim>
					<dim>-1</dim>
					<dim>768</dim>
				</port>
			</output>
		</layer>
		<layer id="362" name="Constant_449077" type="Const" version="opset1">
			<data element_type="i8" shape="768, 768" offset="37634570" size="589824" />
			<output>
				<port id="0" precision="I8">
					<dim>768</dim>
					<dim>768</dim>
				</port>
			</output>
		</layer>
		<layer id="363" name="Convert_449078" type="Convert" version="opset1">
			<data destination_type="f32" />
			<input>
				<port id="0" precision="I8">
					<dim>768</dim>
					<dim>768</dim>
				</port>
			</input>
			<output>
				<port id="1" precision="FP32">
					<dim>768</dim>
					<dim>768</dim>
				</port>
			</output>
		</layer>
		<layer id="364" name="Constant_449079" type="Const" version="opset1">
			<data element_type="f32" shape="768, 1" offset="38224394" size="3072" />
			<output>
				<port id="0" precision="FP32">
					<dim>768</dim>
					<dim>1</dim>
				</port>
			</output>
		</layer>
		<layer id="365" name="__module.model.encoder.layer.1.crossattention.output.dense/aten::linear/MatMul/fq_weights_1" type="Multiply" version="opset1">
			<data auto_broadcast="numpy" />
			<input>
				<port id="0" precision="FP32">
					<dim>768</dim>
					<dim>768</dim>
				</port>
				<port id="1" precision="FP32">
					<dim>768</dim>
					<dim>1</dim>
				</port>
			</input>
			<output>
				<port id="2" precision="FP32">
					<dim>768</dim>
					<dim>768</dim>
				</port>
			</output>
		</layer>
		<layer id="366" name="__module.model.encoder.layer.1.crossattention.output.dense/aten::linear/MatMul" type="MatMul" version="opset1">
			<data transpose_a="false" transpose_b="true" />
			<input>
				<port id="0" precision="FP32">
					<dim>-1</dim>
					<dim>-1</dim>
					<dim>768</dim>
				</port>
				<port id="1" precision="FP32">
					<dim>768</dim>
					<dim>768</dim>
				</port>
			</input>
			<output>
				<port id="2" precision="FP32" names="373,input.61">
					<dim>-1</dim>
					<dim>-1</dim>
					<dim>768</dim>
				</port>
			</output>
		</layer>
		<layer id="367" name="__module.model.encoder.layer.1.crossattention.output/aten::add/Add" type="Add" version="opset1">
			<data auto_broadcast="numpy" />
			<input>
				<port id="0" precision="FP32">
					<dim>-1</dim>
					<dim>-1</dim>
					<dim>768</dim>
…
		<edge from-layer="1402" from-port="2" to-layer="1403" to-port="0" />
		<edge from-layer="1403" from-port="2" to-layer="1405" to-port="0" />
		<edge from-layer="1404" from-port="0" to-layer="1405" to-port="1" />
		<edge from-layer="1405" from-port="2" to-layer="1407" to-port="0" />
		<edge from-layer="1405" from-port="2" to-layer="1473" to-port="1" />
		<edge from-layer="1406" from-port="0" to-layer="1407" to-port="1" />
		<edge from-layer="1407" from-port="2" to-layer="1412" to-port="0" />
		<edge from-layer="1408" from-port="0" to-layer="1412" to-port="1" />
		<edge from-layer="1409" from-port="0" to-layer="1412" to-port="2" />
		<edge from-layer="1410" from-port="0" to-layer="1412" to-port="3" />
		<edge from-layer="1411" from-port="0" to-layer="1412" to-port="4" />
		<edge from-layer="1412" from-port="5" to-layer="1451" to-port="0" />
		<edge from-layer="1412" from-port="5" to-layer="1417" to-port="0" />
		<edge from-layer="1412" from-port="5" to-layer="1431" to-port="0" />
		<edge from-layer="1413" from-port="0" to-layer="1414" to-port="0" />
		<edge from-layer="1414" from-port="1" to-layer="1416" to-port="0" />
		<edge from-layer="1415" from-port="0" to-layer="1416" to-port="1" />
		<edge from-layer="1416" from-port="2" to-layer="1417" to-port="1" />
		<edge from-layer="1417" from-port="2" to-layer="1422" to-port="0" />
		<edge from-layer="1418" from-port="0" to-layer="1422" to-port="1" />
		<edge from-layer="1419" from-port="0" to-layer="1422" to-port="2" />
		<edge from-layer="1420" from-port="0" to-layer="1422" to-port="3" />
		<edge from-layer="1421" from-port="0" to-layer="1422" to-port="4" />
		<edge from-layer="1422" from-port="5" to-layer="1424" to-port="0" />
		<edge from-layer="1423" from-port="0" to-layer="1424" to-port="1" />
		<edge from-layer="1424" from-port="2" to-layer="1426" to-port="0" />
		<edge from-layer="1425" from-port="0" to-layer="1426" to-port="1" />
		<edge from-layer="1426" from-port="2" to-layer="1441" to-port="0" />
		<edge from-layer="1427" from-port="0" to-layer="1428" to-port="0" />
		<edge from-layer="1428" from-port="1" to-layer="1430" to-port="0" />
		<edge from-layer="1429" from-port="0" to-layer="1430" to-port="1" />
		<edge from-layer="1430" from-port="2" to-layer="1431" to-port="1" />
		<edge from-layer="1431" from-port="2" to-layer="1436" to-port="0" />
		<edge from-layer="1432" from-port="0" to-layer="1436" to-port="1" />
		<edge from-layer="1433" from-port="0" to-layer="1436" to-port="2" />
		<edge from-layer="1434" from-port="0" to-layer="1436" to-port="3" />
		<edge from-layer="1435" from-port="0" to-layer="1436" to-port="4" />
		<edge from-layer="1436" from-port="5" to-layer="1438" to-port="0" />
		<edge from-layer="1437" from-port="0" to-layer="1438" to-port="1" />
		<edge from-layer="1438" from-port="2" to-layer="1440" to-port="0" />
		<edge from-layer="1439" from-port="0" to-layer="1440" to-port="1" />
		<edge from-layer="1440" from-port="2" to-layer="1441" to-port="1" />
		<edge from-layer="1441" from-port="2" to-layer="1444" to-port="0" />
		<edge from-layer="1442" from-port="0" to-layer="1443" to-port="0" />
		<edge from-layer="1443" from-port="1" to-layer="1444" to-port="1" />
		<edge from-layer="1444" from-port="2" to-layer="1445" to-port="0" />
		<edge from-layer="1445" from-port="2" to-layer="1446" to-port="0" />
		<edge from-layer="1446" from-port="1" to-layer="1456" to-port="0" />
		<edge from-layer="1447" from-port="0" to-layer="1448" to-port="0" />
		<edge from-layer="1448" from-port="1" to-layer="1450" to-port="0" />
		<edge from-layer="1449" from-port="0" to-layer="1450" to-port="1" />
		<edge from-layer="1450" from-port="2" to-layer="1451" to-port="1" />
		<edge from-layer="1451" from-port="2" to-layer="1453" to-port="0" />
		<edge from-layer="1452" from-port="0" to-layer="1453" to-port="1" />
		<edge from-layer="1453" from-port="2" to-layer="1455" to-port="0" />
		<edge from-layer="1454" from-port="0" to-layer="1455" to-port="1" />
		<edge from-layer="1455" from-port="2" to-layer="1456" to-port="1" />
		<edge from-layer="1456" from-port="2" to-layer="1458" to-port="0" />
		<edge from-layer="1457" from-port="0" to-layer="1458" to-port="1" />
		<edge from-layer="1458" from-port="2" to-layer="1460" to-port="0" />
		<edge from-layer="1459" from-port="0" to-layer="1460" to-port="1" />
		<edge from-layer="1460" from-port="2" to-layer="1462" to-port="0" />
		<edge from-layer="1461" from-port="0" to-layer="1462" to-port="1" />
		<edge from-layer="1462" from-port="2" to-layer="1467" to-port="0" />
		<edge from-layer="1463" from-port="0" to-layer="1467" to-port="1" />
		<edge from-layer="1464" from-port="0" to-layer="1467" to-port="2" />
		<edge from-layer="1465" from-port="0" to-layer="1467" to-port="3" />
		<edge from-layer="1466" from-port="0" to-layer="1467" to-port="4" />
		<edge from-layer="1467" from-port="5" to-layer="1472" to-port="0" />
		<edge from-layer="1468" from-port="0" to-layer="1469" to-port="0" />
		<edge from-layer="1469" from-port="1" to-layer="1471" to-port="0" />
		<edge from-layer="1470" from-port="0" to-layer="1471" to-port="1" />
		<edge from-layer="1471" from-port="2" to-layer="1472" to-port="1" />
		<edge from-layer="1472" from-port="2" to-layer="1473" to-port="0" />
		<edge from-layer="1473" from-port="2" to-layer="1475" to-port="0" />
		<edge from-layer="1474" from-port="0" to-layer="1475" to-port="1" />
		<edge from-layer="1475" from-port="2" to-layer="1543" to-port="1" />
		<edge from-layer="1475" from-port="2" to-layer="1477" to-port="0" />
		<edge from-layer="1476" from-port="0" to-layer="1477" to-port="1" />
		<edge from-layer="1477" from-port="2" to-layer="1482" to-port="0" />
		<edge from-layer="1478" from-port="0" to-layer="1482" to-port="1" />
		<edge from-layer="1479" from-port="0" to-layer="1482" to-port="2" />
		<edge from-layer="1480" from-port="0" to-layer="1482" to-port="3" />
		<edge from-layer="1481" from-port="0" to-layer="1482" to-port="4" />
		<edge from-layer="1482" from-port="5" to-layer="1487" to-port="0" />
		<edge from-layer="1483" from-port="0" to-layer="1484" to-port="0" />
		<edge from-layer="1484" from-port="1" to-layer="1486" to-port="0" />
		<edge from-layer="1485" from-port="0" to-layer="1486" to-port="1" />
		<edge from-layer="1486" from-port="2" to-layer="1487" to-port="1" />
		<edge from-layer="1487" from-port="2" to-layer="1492" to-port="0" />
		<edge from-layer="1488" from-port="0" to-layer="1492" to-port="1" />
		<edge from-layer="1489" from-port="0" to-layer="1492" to-port="2" />
		<edge from-layer="1490" from-port="0" to-layer="1492" to-port="3" />
		<edge from-layer="1491" from-port="0" to-layer="1492" to-port="4" />
		<edge from-layer="1492" from-port="5" to-layer="1494" to-port="0" />
		<edge from-layer="1493" from-port="0" to-layer="1494" to-port="1" />
		<edge from-layer="1494" from-port="2" to-layer="1496" to-port="0" />
		<edge from-layer="1495" from-port="0" to-layer="1496" to-port="1" />
		<edge from-layer="1496" from-port="2" to-layer="1511" to-port="0" />
		<edge from-layer="1497" from-port="0" to-layer="1498" to-port="0" />
		<edge from-layer="1498" from-port="1" to-layer="1500" to-port="0" />
		<edge from-layer="1499" from-port="0" to-layer="1500" to-port="1" />
		<edge from-layer="1500" from-port="2" to-layer="1501" to-port="1" />
		<edge from-layer="1501" from-port="2" to-layer="1506" to-port="0" />
		<edge from-layer="1502" from-port="0" to-layer="1506" to-port="1" />
		<edge from-layer="1503" from-port="0" to-layer="1506" to-port="2" />
		<edge from-layer="1504" from-port="0" to-layer="1506" to-port="3" />
		<edge from-layer="1505" from-port="0" to-layer="1506" to-port="4" />
		<edge from-layer="1506" from-port="5" to-layer="1508" to-port="0" />
		<edge from-layer="1507" from-port="0" to-layer="1508" to-port="1" />
		<edge from-layer="1508" from-port="2" to-layer="1510" to-port="0" />
		<edge from-layer="1509" from-port="0" to-layer="1510" to-port="1" />
		<edge from-layer="1510" from-port="2" to-layer="1511" to-port="1" />
		<edge from-layer="1511" from-port="2" to-layer="1514" to-port="0" />
		<edge from-layer="1512" from-port="0" to-layer="1513" to-port="0" />
		<edge from-layer="1513" from-port="1" to-layer="1514" to-port="1" />
		<edge from-layer="1514" from-port="2" to-layer="1515" to-port="0" />
		<edge from-layer="1515" from-port="2" to-layer="1516" to-port="0" />
		<edge from-layer="1516" from-port="1" to-layer="1526" to-port="0" />
		<edge from-layer="1517" from-port="0" to-layer="1518" to-port="0" />
		<edge from-layer="1518" from-port="1" to-layer="1520" to-port="0" />
		<edge from-layer="1519" from-port="0" to-layer="1520" to-port="1" />
		<edge from-layer="1520" from-port="2" to-layer="1521" to-port="1" />
		<edge from-layer="1521" from-port="2" to-layer="1523" to-port="0" />
		<edge from-layer="1522" from-port="0" to-layer="1523" to-port="1" />
		<edge from-layer="1523" from-port="2" to-layer="1525" to-port="0" />
		<edge from-layer="1524" from-port="0" to-layer="1525" to-port="1" />
		<edge from-layer="1525" from-port="2" to-layer="1526" to-port="1" />
		<edge from-layer="1526" from-port="2" to-layer="1528" to-port="0" />
		<edge from-layer="1527" from-port="0" to-layer="1528" to-port="1" />
		<edge from-layer="1528" from-port="2" to-layer="1530" to-port="0" />
		<edge from-layer="1529" from-port="0" to-layer="1530" to-port="1" />
		<edge from-layer="1530" from-port="2" to-layer="1532" to-port="0" />
		<edge from-layer="1531" from-port="0" to-layer="1532" to-port="1" />
		<edge from-layer="1532" from-port="2" to-layer="1537" to-port="0" />
		<edge from-layer="1533" from-port="0" to-layer="1537" to-port="1" />
		<edge from-layer="1534" from-port="0" to-layer="1537" to-port="2" />
		<edge from-layer="1535" from-port="0" to-layer="1537" to-port="3" />
		<edge from-layer="1536" from-port="0" to-layer="1537" to-port="4" />
		<edge from-layer="1537" from-port="5" to-layer="1542" to-port="0" />
		<edge from-layer="1538" from-port="0" to-layer="1539" to-port="0" />
		<edge from-layer="1539" from-port="1" to-layer="1541" to-port="0" />
		<edge from-layer="1540" from-port="0" to-layer="1541" to-port="1" />
		<edge from-layer="1541" from-port="2" to-layer="1542" to-port="1" />
		<edge from-layer="1542" from-port="2" to-layer="1543" to-port="0" />
		<edge from-layer="1543" from-port="2" to-layer="1545" to-port="0" />
		<edge from-layer="1544" from-port="0" to-layer="1545" to-port="1" />
		<edge from-layer="1545" from-port="2" to-layer="1547" to-port="0" />
		<edge from-layer="1545" from-port="2" to-layer="1571" to-port="1" />
		<edge from-layer="1546" from-port="0" to-layer="1547" to-port="1" />
		<edge from-layer="1547" from-port="2" to-layer="1552" to-port="0" />
		<edge from-layer="1548" from-port="0" to-layer="1552" to-port="1" />
		<edge from-layer="1549" from-port="0" to-layer="1552" to-port="2" />
		<edge from-layer="1550" from-port="0" to-layer="1552" to-port="3" />
		<edge from-layer="1551" from-port="0" to-layer="1552" to-port="4" />
		<edge from-layer="1552" from-port="5" to-layer="1557" to-port="0" />
		<edge from-layer="1553" from-port="0" to-layer="1554" to-port="0" />
		<edge from-layer="1554" from-port="1" to-layer="1556" to-port="0" />
		<edge from-layer="1555" from-port="0" to-layer="1556" to-port="1" />
		<edge from-layer="1556" from-port="2" to-layer="1557" to-port="1" />
		<edge from-layer="1557" from-port="2" to-layer="1558" to-port="0" />
		<edge from-layer="1558" from-port="1" to-layer="1560" to-port="0" />
		<edge from-layer="1559" from-port="0" to-layer="1560" to-port="1" />
		<edge from-layer="1560" from-port="2" to-layer="1565" to-port="0" />
		<edge from-layer="1561" from-port="0" to-layer="1565" to-port="1" />
		<edge from-layer="1562" from-port="0" to-layer="1565" to-port="2" />
		<edge from-layer="1563" from-port="0" to-layer="1565" to-port="3" />
		<edge from-layer="1564" from-port="0" to-layer="1565" to-port="4" />
		<edge from-layer="1565" from-port="5" to-layer="1570" to-port="0" />
		<edge from-layer="1566" from-port="0" to-layer="1567" to-port="0" />
		<edge from-layer="1567" from-port="1" to-layer="1569" to-port="0" />
		<edge from-layer="1568" from-port="0" to-layer="1569" to-port="1" />
		<edge from-layer="1569" from-port="2" to-layer="1570" to-port="1" />
		<edge from-layer="1570" from-port="2" to-layer="1571" to-port="0" />
		<edge from-layer="1571" from-port="2" to-layer="1573" to-port="0" />
		<edge from-layer="1572" from-port="0" to-layer="1573" to-port="1" />
		<edge from-layer="1573" from-port="2" to-layer="1575" to-port="0" />
		<edge from-layer="1573" from-port="2" to-layer="1641" to-port="1" />
		<edge from-layer="1574" from-port="0" to-layer="1575" to-port="1" />
		<edge from-layer="1575" from-port="2" to-layer="1580" to-port="0" />
		<edge from-layer="1576" from-port="0" to-layer="1580" to-port="1" />
		<edge from-layer="1577" from-port="0" to-layer="1580" to-port="2" />
		<edge from-layer="1578" from-port="0" to-layer="1580" to-port="3" />
		<edge from-layer="1579" from-port="0" to-layer="1580" to-port="4" />
		<edge from-layer="1580" from-port="5" to-layer="1585" to-port="0" />
		<edge from-layer="1580" from-port="5" to-layer="1619" to-port="0" />
		<edge from-layer="1580" from-port="5" to-layer="1599" to-port="0" />
		<edge from-layer="1581" from-port="0" to-layer="1582" to-port="0" />
		<edge from-layer="1582" from-port="1" to-layer="1584" to-port="0" />
		<edge from-layer="1583" from-port="0" to-layer="1584" to-port="1" />
		<edge from-layer="1584" from-port="2" to-layer="1585" to-port="1" />
		<edge from-layer="1585" from-port="2" to-layer="1590" to-port="0" />
		<edge from-layer="1586" from-port="0" to-layer="1590" to-port="1" />
		<edge from-layer="1587" from-port="0" to-layer="1590" to-port="2" />
		<edge from-layer="1588" from-port="0" to-layer="1590" to-port="3" />
		<edge from-layer="1589" from-port="0" to-layer="1590" to-port="4" />
		<edge from-layer="1590" from-port="5" to-layer="1592" to-port="0" />
		<edge from-layer="1591" from-port="0" to-layer="1592" to-port="1" />
		<edge from-layer="1592" from-port="2" to-layer="1594" to-port="0" />
		<edge from-layer="1593" from-port="0" to-layer="1594" to-port="1" />
		<edge from-layer="1594" from-port="2" to-layer="1609" to-port="0" />
		<edge from-layer="1595" from-port="0" to-layer="1596" to-port="0" />
		<edge from-layer="1596" from-port="1" to-layer="1598" to-port="0" />
		<edge from-layer="1597" from-port="0" to-layer="1598" to-port="1" />
		<edge from-layer="1598" from-port="2" to-layer="1599" to-port="1" />
		<edge from-layer="1599" from-port="2" to-layer="1604" to-port="0" />
		<edge from-layer="1600" from-port="0" to-layer="1604" to-port="1" />
		<edge from-layer="1601" from-port="0" to-layer="1604" to-port="2" />
		<edge from-layer="1602" from-port="0" to-layer="1604" to-port="3" />
		<edge from-layer="1603" from-port="0" to-layer="1604" to-port="4" />
		<edge from-layer="1604" from-port="5" to-layer="1606" to-port="0" />
		<edge from-layer="1605" from-port="0" to-layer="1606" to-port="1" />
		<edge from-layer="1606" from-port="2" to-layer="1608" to-port="0" />
		<edge from-layer="1607" from-port="0" to-layer="1608" to-port="1" />
		<edge from-layer="1608" from-port="2" to-layer="1609" to-port="1" />
		<edge from-layer="1609" from-port="2" to-layer="1612" to-port="0" />
		<edge from-layer="1610" from-port="0" to-layer="1611" to-port="0" />
		<edge from-layer="1611" from-port="1" to-layer="1612" to-port="1" />
		<edge from-layer="1612" from-port="2" to-layer="1613" to-port="0" />
		<edge from-layer="1613" from-port="2" to-layer="1614" to-port="0" />
		<edge from-layer="1614" from-port="1" to-layer="1624" to-port="0" />
		<edge from-layer="1615" from-port="0" to-layer="1616" to-port="0" />
		<edge from-layer="1616" from-port="1" to-layer="1618" to-port="0" />
		<edge from-layer="1617" from-port="0" to-layer="1618" to-port="1" />
		<edge from-layer="1618" from-port="2" to-layer="1619" to-port="1" />
		<edge from-layer="1619" from-port="2" to-layer="1621" to-port="0" />
		<edge from-layer="1620" from-port="0" to-layer="1621" to-port="1" />
		<edge from-layer="1621" from-port="2" to-layer="1623" to-port="0" />
		<edge from-layer="1622" from-port="0" to-layer="1623" to-port="1" />
		<edge from-layer="1623" from-port="2" to-layer="1624" to-port="1" />
		<edge from-layer="1624" from-port="2" to-layer="1626" to-port="0" />
		<edge from-layer="1625" from-port="0" to-layer="1626" to-port="1" />
		<edge from-layer="1626" from-port="2" to-layer="1628" to-port="0" />
		<edge from-layer="1627" from-port="0" to-layer="1628" to-port="1" />
		<edge from-layer="1628" from-port="2" to-layer="1630" to-port="0" />
		<edge from-layer="1629" from-port="0" to-layer="1630" to-port="1" />
		<edge from-layer="1630" from-port="2" to-layer="1635" to-port="0" />
		<edge from-layer="1631" from-port="0" to-layer="1635" to-port="1" />
		<edge from-layer="1632" from-port="0" to-layer="1635" to-port="2" />
		<edge from-layer="1633" from-port="0" to-layer="1635" to-port="3" />
		<edge from-layer="1634" from-port="0" to-layer="1635" to-port="4" />
		<edge from-layer="1635" from-port="5" to-layer="1640" to-port="0" />
		<edge from-layer="1636" from-port="0" to-layer="1637" to-port="0" />
		<edge from-layer="1637" from-port="1" to-layer="1639" to-port="0" />
		<edge from-layer="1638" from-port="0" to-layer="1639" to-port="1" />
		<edge from-layer="1639" from-port="2" to-layer="1640" to-port="1" />
		<edge from-layer="1640" from-port="2" to-layer="1641" to-port="0" />
		<edge from-layer="1641" from-port="2" to-layer="1643" to-port="0" />
		<edge from-layer="1642" from-port="0" to-layer="1643" to-port="1" />
		<edge from-layer="1643" from-port="2" to-layer="1711" to-port="1" />
		<edge from-layer="1643" from-port="2" to-layer="1645" to-port="0" />
		<edge from-layer="1644" from-port="0" to-layer="1645" to-port="1" />
		<edge from-layer="1645" from-port="2" to-layer="1650" to-port="0" />
		<edge from-layer="1646" from-port="0" to-layer="1650" to-port="1" />
		<edge from-layer="1647" from-port="0" to-layer="1650" to-port="2" />
		<edge from-layer="1648" from-port="0" to-layer="1650" to-port="3" />
		<edge from-layer="1649" from-port="0" to-layer="1650" to-port="4" />
		<edge from-layer="1650" from-port="5" to-layer="1655" to-port="0" />
		<edge from-layer="1651" from-port="0" to-layer="1652" to-port="0" />
		<edge from-layer="1652" from-port="1" to-layer="1654" to-port="0" />
		<edge from-layer="1653" from-port="0" to-layer="1654" to-port="1" />
		<edge from-layer="1654" from-port="2" to-layer="1655" to-port="1" />
		<edge from-layer="1655" from-port="2" to-layer="1660" to-port="0" />
		<edge from-layer="1656" from-port="0" to-layer="1660" to-port="1" />
		<edge from-layer="1657" from-port="0" to-layer="1660" to-port="2" />
		<edge from-layer="1658" from-port="0" to-layer="1660" to-port="3" />
		<edge from-layer="1659" from-port="0" to-layer="1660" to-port="4" />
		<edge from-layer="1660" from-port="5" to-layer="1662" to-port="0" />
		<edge from-layer="1661" from-port="0" to-layer="1662" to-port="1" />
		<edge from-layer="1662" from-port="2" to-layer="1664" to-port="0" />
		<edge from-layer="1663" from-port="0" to-layer="1664" to-port="1" />
		<edge from-layer="1664" from-port="2" to-layer="1679" to-port="0" />
		<edge from-layer="1665" from-port="0" to-layer="1666" to-port="0" />
		<edge from-layer="1666" from-port="1" to-layer="1668" to-port="0" />
		<edge from-layer="1667" from-port="0" to-layer="1668" to-port="1" />
		<edge from-layer="1668" from-port="2" to-layer="1669" to-port="1" />
		<edge from-layer="1669" from-port="2" to-layer="1674" to-port="0" />
		<edge from-layer="1670" from-port="0" to-layer="1674" to-port="1" />
		<edge from-layer="1671" from-port="0" to-layer="1674" to-port="2" />
		<edge from-layer="1672" from-port="0" to-layer="1674" to-port="3" />
		<edge from-layer="1673" from-port="0" to-layer="1674" to-port="4" />
		<edge from-layer="1674" from-port="5" to-layer="1676" to-port="0" />
		<edge from-layer="1675" from-port="0" to-layer="1676" to-port="1" />
		<edge from-layer="1676" from-port="2" to-layer="1678" to-port="0" />
		<edge from-layer="1677" from-port="0" to-layer="1678" to-port="1" />
		<edge from-layer="1678" from-port="2" to-layer="1679" to-port="1" />
		<edge from-layer="1679" from-port="2" to-layer="1682" to-port="0" />
		<edge from-layer="1680" from-port="0" to-layer="1681" to-port="0" />
		<edge from-layer="1681" from-port="1" to-layer="1682" to-port="1" />
		<edge from-layer="1682" from-port="2" to-layer="1683" to-port="0" />
		<edge from-layer="1683" from-port="2" to-layer="1684" to-port="0" />
		<edge from-layer="1684" from-port="1" to-layer="1694" to-port="0" />
		<edge from-layer="1685" from-port="0" to-layer="1686" to-port="0" />
		<edge from-layer="1686" from-port="1" to-layer="1688" to-port="0" />
		<edge from-layer="1687" from-port="0" to-layer="1688" to-port="1" />
		<edge from-layer="1688" from-port="2" to-layer="1689" to-port="1" />
		<edge from-layer="1689" from-port="2" to-layer="1691" to-port="0" />
		<edge from-layer="1690" from-port="0" to-layer="1691" to-port="1" />
		<edge from-layer="1691" from-port="2" to-layer="1693" to-port="0" />
		<edge from-layer="1692" from-port="0" to-layer="1693" to-port="1" />
		<edge from-layer="1693" from-port="2" to-layer="1694" to-port="1" />
		<edge from-layer="1694" from-port="2" to-layer="1696" to-port="0" />
		<edge from-layer="1695" from-port="0" to-layer="1696" to-port="1" />
		<edge from-layer="1696" from-port="2" to-layer="1698" to-port="0" />
		<edge from-layer="1697" from-port="0" to-layer="1698" to-port="1" />
		<edge from-layer="1698" from-port="2" to-layer="1700" to-port="0" />
		<edge from-layer="1699" from-port="0" to-layer="1700" to-port="1" />
		<edge from-layer="1700" from-port="2" to-layer="1705" to-port="0" />
		<edge from-layer="1701" from-port="0" to-layer="1705" to-port="1" />
		<edge from-layer="1702" from-port="0" to-layer="1705" to-port="2" />
		<edge from-layer="1703" from-port="0" to-layer="1705" to-port="3" />
		<edge from-layer="1704" from-port="0" to-layer="1705" to-port="4" />
		<edge from-layer="1705" from-port="5" to-layer="1710" to-port="0" />
		<edge from-layer="1706" from-port="0" to-layer="1707" to-port="0" />
		<edge from-layer="1707" from-port="1" to-layer="1709" to-port="0" />
		<edge from-layer="1708" from-port="0" to-layer="1709" to-port="1" />
		<edge from-layer="1709" from-port="2" to-layer="1710" to-port="1" />
		<edge from-layer="1710" from-port="2" to-layer="1711" to-port="0" />
		<edge from-layer="1711" from-port="2" to-layer="1713" to-port="0" />
		<edge from-layer="1712" from-port="0" to-layer="1713" to-port="1" />
		<edge from-layer="1713" from-port="2" to-layer="1739" to-port="1" />
		<edge from-layer="1713" from-port="2" to-layer="1715" to-port="0" />
		<edge from-layer="1714" from-port="0" to-layer="1715" to-port="1" />
		<edge from-layer="1715" from-port="2" to-layer="1720" to-port="0" />
		<edge from-layer="1716" from-port="0" to-layer="1720" to-port="1" />
		<edge from-layer="1717" from-port="0" to-layer="1720" to-port="2" />
		<edge from-layer="1718" from-port="0" to-layer="1720" to-port="3" />
		<edge from-layer="1719" from-port="0" to-layer="1720" to-port="4" />
		<edge from-layer="1720" from-port="5" to-layer="1725" to-port="0" />
		<edge from-layer="1721" from-port="0" to-layer="1722" to-port="0" />
		<edge from-layer="1722" from-port="1" to-layer="1724" to-port="0" />
		<edge from-layer="1723" from-port="0" to-layer="1724" to-port="1" />
		<edge from-layer="1724" from-port="2" to-layer="1725" to-port="1" />
		<edge from-layer="1725" from-port="2" to-layer="1726" to-port="0" />
		<edge from-layer="1726" from-port="1" to-layer="1728" to-port="0" />
		<edge from-layer="1727" from-port="0" to-layer="1728" to-port="1" />
		<edge from-layer="1728" from-port="2" to-layer="1733" to-port="0" />
		<edge from-layer="1729" from-port="0" to-layer="1733" to-port="1" />
		<edge from-layer="1730" from-port="0" to-layer="1733" to-port="2" />
		<edge from-layer="1731" from-port="0" to-layer="1733" to-port="3" />
		<edge from-layer="1732" from-port="0" to-layer="1733" to-port="4" />
		<edge from-layer="1733" from-port="5" to-layer="1738" to-port="0" />
		<edge from-layer="1734" from-port="0" to-layer="1735" to-port="0" />
		<edge from-layer="1735" from-port="1" to-layer="1737" to-port="0" />
		<edge from-layer="1736" from-port="0" to-layer="1737" to-port="1" />
		<edge from-layer="1737" from-port="2" to-layer="1738" to-port="1" />
		<edge from-layer="1738" from-port="2" to-layer="1739" to-port="0" />
		<edge from-layer="1739" from-port="2" to-layer="1741" to-port="0" />
		<edge from-layer="1740" from-port="0" to-layer="1741" to-port="1" />
		<edge from-layer="1741" from-port="2" to-layer="1809" to-port="1" />
		<edge from-layer="1741" from-port="2" to-layer="1743" to-port="0" />
		<edge from-layer="1742" from-port="0" to-layer="1743" to-port="1" />
		<edge from-layer="1743" from-port="2" to-layer="1748" to-port="0" />
		<edge from-layer="1744" from-port="0" to-layer="1748" to-port="1" />
		<edge from-layer="1745" from-port="0" to-layer="1748" to-port="2" />
		<edge from-layer="1746" from-port="0" to-layer="1748" to-port="3" />
		<edge from-layer="1747" from-port="0" to-layer="1748" to-port="4" />
		<edge from-layer="1748" from-port="5" to-layer="1753" to-port="0" />
		<edge from-layer="1748" from-port="5" to-layer="1787" to-port="0" />
		<edge from-layer="1748" from-port="5" to-layer="1767" to-port="0" />
		<edge from-layer="1749" from-port="0" to-layer="1750" to-port="0" />
		<edge from-layer="1750" from-port="1" to-layer="1752" to-port="0" />
		<edge from-layer="1751" from-port="0" to-layer="1752" to-port="1" />
		<edge from-layer="1752" from-port="2" to-layer="1753" to-port="1" />
		<edge from-layer="1753" from-port="2" to-layer="1758" to-port="0" />
		<edge from-layer="1754" from-port="0" to-layer="1758" to-port="1" />
		<edge from-layer="1755" from-port="0" to-layer="1758" to-port="2" />
		<edge from-layer="1756" from-port="0" to-layer="1758" to-port="3" />
		<edge from-layer="1757" from-port="0" to-layer="1758" to-port="4" />
		<edge from-layer="1758" from-port="5" to-layer="1760" to-port="0" />
		<edge from-layer="1759" from-port="0" to-layer="1760" to-port="1" />
		<edge from-layer="1760" from-port="2" to-layer="1762" to-port="0" />
		<edge from-layer="1761" from-port="0" to-layer="1762" to-port="1" />
		<edge from-layer="1762" from-port="2" to-layer="1777" to-port="0" />
		<edge from-layer="1763" from-port="0" to-layer="1764" to-port="0" />
		<edge from-layer="1764" from-port="1" to-layer="1766" to-port="0" />
		<edge from-layer="1765" from-port="0" to-layer="1766" to-port="1" />
		<edge from-layer="1766" from-port="2" to-layer="1767" to-port="1" />
		<edge from-layer="1767" from-port="2" to-layer="1772" to-port="0" />
		<edge from-layer="1768" from-port="0" to-layer="1772" to-port="1" />
		<edge from-layer="1769" from-port="0" to-layer="1772" to-port="2" />
		<edge from-layer="1770" from-port="0" to-layer="1772" to-port="3" />
		<edge from-layer="1771" from-port="0" to-layer="1772" to-port="4" />
		<edge from-layer="1772" from-port="5" to-layer="1774" to-port="0" />
		<edge from-layer="1773" from-port="0" to-layer="1774" to-port="1" />
		<edge from-layer="1774" from-port="2" to-layer="1776" to-port="0" />
		<edge from-layer="1775" from-port="0" to-layer="1776" to-port="1" />
		<edge from-layer="1776" from-port="2" to-layer="1777" to-port="1" />
		<edge from-layer="1777" from-port="2" to-layer="1780" to-port="0" />
		<edge from-layer="1778" from-port="0" to-layer="1779" to-port="0" />
		<edge from-layer="1779" from-port="1" to-layer="1780" to-port="1" />
		<edge from-layer="1780" from-port="2" to-layer="1781" to-port="0" />
		<edge from-layer="1781" from-port="2" to-layer="1782" to-port="0" />
		<edge from-layer="1782" from-port="1" to-layer="1792" to-port="0" />
		<edge from-layer="1783" from-port="0" to-layer="1784" to-port="0" />
		<edge from-layer="1784" from-port="1" to-layer="1786" to-port="0" />
		<edge from-layer="1785" from-port="0" to-layer="1786" to-port="1" />
		<edge from-layer="1786" from-port="2" to-layer="1787" to-port="1" />
		<edge from-layer="1787" from-port="2" to-layer="1789" to-port="0" />
		<edge from-layer="1788" from-port="0" to-layer="1789" to-port="1" />
		<edge from-layer="1789" from-port="2" to-layer="1791" to-port="0" />
		<edge from-layer="1790" from-port="0" to-layer="1791" to-port="1" />
		<edge from-layer="1791" from-port="2" to-layer="1792" to-port="1" />
		<edge from-layer="1792" from-port="2" to-layer="1794" to-port="0" />
		<edge from-layer="1793" from-port="0" to-layer="1794" to-port="1" />
		<edge from-layer="1794" from-port="2" to-layer="1796" to-port="0" />
		<edge from-layer="1795" from-port="0" to-layer="1796" to-port="1" />
		<edge from-layer="1796" from-port="2" to-layer="1798" to-port="0" />
		<edge from-layer="1797" from-port="0" to-layer="1798" to-port="1" />
		<edge from-layer="1798" from-port="2" to-layer="1803" to-port="0" />
		<edge from-layer="1799" from-port="0" to-layer="1803" to-port="1" />
		<edge from-layer="1800" from-port="0" to-layer="1803" to-port="2" />
		<edge from-layer="1801" from-port="0" to-layer="1803" to-port="3" />
		<edge from-layer="1802" from-port="0" to-layer="1803" to-port="4" />
		<edge from-layer="1803" from-port="5" to-layer="1808" to-port="0" />
		<edge from-layer="1804" from-port="0" to-layer="1805" to-port="0" />
		<edge from-layer="1805" from-port="1" to-layer="1807" to-port="0" />
		<edge from-layer="1806" from-port="0" to-layer="1807" to-port="1" />
		<edge from-layer="1807" from-port="2" to-layer="1808" to-port="1" />
		<edge from-layer="1808" from-port="2" to-layer="1809" to-port="0" />
		<edge from-layer="1809" from-port="2" to-layer="1811" to-port="0" />
		<edge from-layer="1810" from-port="0" to-layer="1811" to-port="1" />
		<edge from-layer="1811" from-port="2" to-layer="1813" to-port="0" />
		<edge from-layer="1811" from-port="2" to-layer="1879" to-port="1" />
		<edge from-layer="1812" from-port="0" to-layer="1813" to-port="1" />
		<edge from-layer="1813" from-port="2" to-layer="1818" to-port="0" />
		<edge from-layer="1814" from-port="0" to-layer="1818" to-port="1" />
		<edge from-layer="1815" from-port="0" to-layer="1818" to-port="2" />
		<edge from-layer="1816" from-port="0" to-layer="1818" to-port="3" />
		<edge from-layer="1817" from-port="0" to-layer="1818" to-port="4" />
		<edge from-layer="1818" from-port="5" to-layer="1823" to-port="0" />
		<edge from-layer="1819" from-port="0" to-layer="1820" to-port="0" />
		<edge from-layer="1820" from-port="1" to-layer="1822" to-port="0" />
		<edge from-layer="1821" from-port="0" to-layer="1822" to-port="1" />
		<edge from-layer="1822" from-port="2" to-layer="1823" to-port="1" />
		<edge from-layer="1823" from-port="2" to-layer="1828" to-port="0" />
		<edge from-layer="1824" from-port="0" to-layer="1828" to-port="1" />
		<edge from-layer="1825" from-port="0" to-layer="1828" to-port="2" />
		<edge from-layer="1826" from-port="0" to-layer="1828" to-port="3" />
		<edge from-layer="1827" from-port="0" to-layer="1828" to-port="4" />
		<edge from-layer="1828" from-port="5" to-layer="1830" to-port="0" />
		<edge from-layer="1829" from-port="0" to-layer="1830" to-port="1" />
		<edge from-layer="1830" from-port="2" to-layer="1832" to-port="0" />
		<edge from-layer="1831" from-port="0" to-layer="1832" to-port="1" />
		<edge from-layer="1832" from-port="2" to-layer="1847" to-port="0" />
		<edge from-layer="1833" from-port="0" to-layer="1834" to-port="0" />
		<edge from-layer="1834" from-port="1" to-layer="1836" to-port="0" />
		<edge from-layer="1835" from-port="0" to-layer="1836" to-port="1" />
		<edge from-layer="1836" from-port="2" to-layer="1837" to-port="1" />
		<edge from-layer="1837" from-port="2" to-layer="1842" to-port="0" />
		<edge from-layer="1838" from-port="0" to-layer="1842" to-port="1" />
		<edge from-layer="1839" from-port="0" to-layer="1842" to-port="2" />
		<edge from-layer="1840" from-port="0" to-layer="1842" to-port="3" />
		<edge from-layer="1841" from-port="0" to-layer="1842" to-port="4" />
		<edge from-layer="1842" from-port="5" to-layer="1844" to-port="0" />
		<edge from-layer="1843" from-port="0" to-layer="1844" to-port="1" />
		<edge from-layer="1844" from-port="2" to-layer="1846" to-port="0" />
		<edge from-layer="1845" from-port="0" to-layer="1846" to-port="1" />
		<edge from-layer="1846" from-port="2" to-layer="1847" to-port="1" />
		<edge from-layer="1847" from-port="2" to-layer="1850" to-port="0" />
		<edge from-layer="1848" from-port="0" to-layer="1849" to-port="0" />
		<edge from-layer="1849" from-port="1" to-layer="1850" to-port="1" />
		<edge from-layer="1850" from-port="2" to-layer="1851" to-port="0" />
		<edge from-layer="1851" from-port="2" to-layer="1852" to-port="0" />
		<edge from-layer="1852" from-port="1" to-layer="1862" to-port="0" />
		<edge from-layer="1853" from-port="0" to-layer="1854" to-port="0" />
		<edge from-layer="1854" from-port="1" to-layer="1856" to-port="0" />
		<edge from-layer="1855" from-port="0" to-layer="1856" to-port="1" />
		<edge from-layer="1856" from-port="2" to-layer="1857" to-port="1" />
		<edge from-layer="1857" from-port="2" to-layer="1859" to-port="0" />
		<edge from-layer="1858" from-port="0" to-layer="1859" to-port="1" />
		<edge from-layer="1859" from-port="2" to-layer="1861" to-port="0" />
		<edge from-layer="1860" from-port="0" to-layer="1861" to-port="1" />
		<edge from-layer="1861" from-port="2" to-layer="1862" to-port="1" />
		<edge from-layer="1862" from-port="2" to-layer="1864" to-port="0" />
		<edge from-layer="1863" from-port="0" to-layer="1864" to-port="1" />
		<edge from-layer="1864" from-port="2" to-layer="1866" to-port="0" />
		<edge from-layer="1865" from-port="0" to-layer="1866" to-port="1" />
		<edge from-layer="1866" from-port="2" to-layer="1868" to-port="0" />
		<edge from-layer="1867" from-port="0" to-layer="1868" to-port="1" />
		<edge from-layer="1868" from-port="2" to-layer="1873" to-port="0" />
		<edge from-layer="1869" from-port="0" to-layer="1873" to-port="1" />
		<edge from-layer="1870" from-port="0" to-layer="1873" to-port="2" />
		<edge from-layer="1871" from-port="0" to-layer="1873" to-port="3" />
		<edge from-layer="1872" from-port="0" to-layer="1873" to-port="4" />
		<edge from-layer="1873" from-port="5" to-layer="1878" to-port="0" />
		<edge from-layer="1874" from-port="0" to-layer="1875" to-port="0" />
		<edge from-layer="1875" from-port="1" to-layer="1877" to-port="0" />
		<edge from-layer="1876" from-port="0" to-layer="1877" to-port="1" />
		<edge from-layer="1877" from-port="2" to-layer="1878" to-port="1" />
		<edge from-layer="1878" from-port="2" to-layer="1879" to-port="0" />
		<edge from-layer="1879" from-port="2" to-layer="1881" to-port="0" />
		<edge from-layer="1880" from-port="0" to-layer="1881" to-port="1" />
		<edge from-layer="1881" from-port="2" to-layer="1883" to-port="0" />
		<edge from-layer="1881" from-port="2" to-layer="1907" to-port="1" />
		<edge from-layer="1882" from-port="0" to-layer="1883" to-port="1" />
		<edge from-layer="1883" from-port="2" to-layer="1888" to-port="0" />
		<edge from-layer="1884" from-port="0" to-layer="1888" to-port="1" />
		<edge from-layer="1885" from-port="0" to-layer="1888" to-port="2" />
		<edge from-layer="1886" from-port="0" to-layer="1888" to-port="3" />
		<edge from-layer="1887" from-port="0" to-layer="1888" to-port="4" />
		<edge from-layer="1888" from-port="5" to-layer="1893" to-port="0" />
		<edge from-layer="1889" from-port="0" to-layer="1890" to-port="0" />
		<edge from-layer="1890" from-port="1" to-layer="1892" to-port="0" />
		<edge from-layer="1891" from-port="0" to-layer="1892" to-port="1" />
		<edge from-layer="1892" from-port="2" to-layer="1893" to-port="1" />
		<edge from-layer="1893" from-port="2" to-layer="1894" to-port="0" />
		<edge from-layer="1894" from-port="1" to-layer="1896" to-port="0" />
		<edge from-layer="1895" from-port="0" to-layer="1896" to-port="1" />
		<edge from-layer="1896" from-port="2" to-layer="1901" to-port="0" />
		<edge from-layer="1897" from-port="0" to-layer="1901" to-port="1" />
		<edge from-layer="1898" from-port="0" to-layer="1901" to-port="2" />
		<edge from-layer="1899" from-port="0" to-layer="1901" to-port="3" />
		<edge from-layer="1900" from-port="0" to-layer="1901" to-port="4" />
		<edge from-layer="1901" from-port="5" to-layer="1906" to-port="0" />
		<edge from-layer="1902" from-port="0" to-layer="1903" to-port="0" />
		<edge from-layer="1903" from-port="1" to-layer="1905" to-port="0" />
		<edge from-layer="1904" from-port="0" to-layer="1905" to-port="1" />
		<edge from-layer="1905" from-port="2" to-layer="1906" to-port="1" />
		<edge from-layer="1906" from-port="2" to-layer="1907" to-port="0" />
		<edge from-layer="1907" from-port="2" to-layer="1909" to-port="0" />
		<edge from-layer="1908" from-port="0" to-layer="1909" to-port="1" />
		<edge from-layer="1909" from-port="2" to-layer="1911" to-port="0" />
		<edge from-layer="1909" from-port="2" to-layer="1977" to-port="1" />
		<edge from-layer="1910" from-port="0" to-layer="1911" to-port="1" />
		<edge from-layer="1911" from-port="2" to-layer="1916" to-port="0" />
		<edge from-layer="1912" from-port="0" to-layer="1916" to-port="1" />
		<edge from-layer="1913" from-port="0" to-layer="1916" to-port="2" />
		<edge from-layer="1914" from-port="0" to-layer="1916" to-port="3" />
		<edge from-layer="1915" from-port="0" to-layer="1916" to-port="4" />
		<edge from-layer="1916" from-port="5" to-layer="1935" to-port="0" />
		<edge from-layer="1916" from-port="5" to-layer="1955" to-port="0" />
		<edge from-layer="1916" from-port="5" to-layer="1921" to-port="0" />
		<edge from-layer="1917" from-port="0" to-layer="1918" to-port="0" />
		<edge from-layer="1918" from-port="1" to-layer="1920" to-port="0" />
		<edge from-layer="1919" from-port="0" to-layer="1920" to-port="1" />
		<edge from-layer="1920" from-port="2" to-layer="1921" to-port="1" />
		<edge from-layer="1921" from-port="2" to-layer="1926" to-port="0" />
		<edge from-layer="1922" from-port="0" to-layer="1926" to-port="1" />
		<edge from-layer="1923" from-port="0" to-layer="1926" to-port="2" />
		<edge from-layer="1924" from-port="0" to-layer="1926" to-port="3" />
		<edge from-layer="1925" from-port="0" to-layer="1926" to-port="4" />
		<edge from-layer="1926" from-port="5" to-layer="1928" to-port="0" />
		<edge from-layer="1927" from-port="0" to-layer="1928" to-port="1" />
		<edge from-layer="1928" from-port="2" to-layer="1930" to-port="0" />
		<edge from-layer="1929" from-port="0" to-layer="1930" to-port="1" />
		<edge from-layer="1930" from-port="2" to-layer="1945" to-port="0" />
		<edge from-layer="1931" from-port="0" to-layer="1932" to-port="0" />
		<edge from-layer="1932" from-port="1" to-layer="1934" to-port="0" />
		<edge from-layer="1933" from-port="0" to-layer="1934" to-port="1" />
		<edge from-layer="1934" from-port="2" to-layer="1935" to-port="1" />
		<edge from-layer="1935" from-port="2" to-layer="1940" to-port="0" />
		<edge from-layer="1936" from-port="0" to-layer="1940" to-port="1" />
		<edge from-layer="1937" from-port="0" to-layer="1940" to-port="2" />
		<edge from-layer="1938" from-port="0" to-layer="1940" to-port="3" />
		<edge from-layer="1939" from-port="0" to-layer="1940" to-port="4" />
		<edge from-layer="1940" from-port="5" to-layer="1942" to-port="0" />
		<edge from-layer="1941" from-port="0" to-layer="1942" to-port="1" />
		<edge from-layer="1942" from-port="2" to-layer="1944" to-port="0" />
		<edge from-layer="1943" from-port="0" to-layer="1944" to-port="1" />
		<edge from-layer="1944" from-port="2" to-layer="1945" to-port="1" />
		<edge from-layer="1945" from-port="2" to-layer="1948" to-port="0" />
		<edge from-layer="1946" from-port="0" to-layer="1947" to-port="0" />
		<edge from-layer="1947" from-port="1" to-layer="1948" to-port="1" />
		<edge from-layer="1948" from-port="2" to-layer="1949" to-port="0" />
		<edge from-layer="1949" from-port="2" to-layer="1950" to-port="0" />
		<edge from-layer="1950" from-port="1" to-layer="1960" to-port="0" />
		<edge from-layer="1951" from-port="0" to-layer="1952" to-port="0" />
		<edge from-layer="1952" from-port="1" to-layer="1954" to-port="0" />
		<edge from-layer="1953" from-port="0" to-layer="1954" to-port="1" />
		<edge from-layer="1954" from-port="2" to-layer="1955" to-port="1" />
		<edge from-layer="1955" from-port="2" to-layer="1957" to-port="0" />
		<edge from-layer="1956" from-port="0" to-layer="1957" to-port="1" />
		<edge from-layer="1957" from-port="2" to-layer="1959" to-port="0" />
		<edge from-layer="1958" from-port="0" to-layer="1959" to-port="1" />
		<edge from-layer="1959" from-port="2" to-layer="1960" to-port="1" />
		<edge from-layer="1960" from-port="2" to-layer="1962" to-port="0" />
		<edge from-layer="1961" from-port="0" to-layer="1962" to-port="1" />
		<edge from-layer="1962" from-port="2" to-layer="1964" to-port="0" />
		<edge from-layer="1963" from-port="0" to-layer="1964" to-port="1" />
		<edge from-layer="1964" from-port="2" to-layer="1966" to-port="0" />
		<edge from-layer="1965" from-port="0" to-layer="1966" to-port="1" />
		<edge from-layer="1966" from-port="2" to-layer="1971" to-port="0" />
		<edge from-layer="1967" from-port="0" to-layer="1971" to-port="1" />
		<edge from-layer="1968" from-port="0" to-layer="1971" to-port="2" />
		<edge from-layer="1969" from-port="0" to-layer="1971" to-port="3" />
		<edge from-layer="1970" from-port="0" to-layer="1971" to-port="4" />
		<edge from-layer="1971" from-port="5" to-layer="1976" to-port="0" />
		<edge from-layer="1972" from-port="0" to-layer="1973" to-port="0" />
		<edge from-layer="1973" from-port="1" to-layer="1975" to-port="0" />
		<edge from-layer="1974" from-port="0" to-layer="1975" to-port="1" />
		<edge from-layer="1975" from-port="2" to-layer="1976" to-port="1" />
		<edge from-layer="1976" from-port="2" to-layer="1977" to-port="0" />
		<edge from-layer="1977" from-port="2" to-layer="1979" to-port="0" />
		<edge from-layer="1978" from-port="0" to-layer="1979" to-port="1" />
		<edge from-layer="1979" from-port="2" to-layer="1981" to-port="0" />
		<edge from-layer="1979" from-port="2" to-layer="2047" to-port="1" />
		<edge from-layer="1980" from-port="0" to-layer="1981" to-port="1" />
		<edge from-layer="1981" from-port="2" to-layer="1986" to-port="0" />
		<edge from-layer="1982" from-port="0" to-layer="1986" to-port="1" />
		<edge from-layer="1983" from-port="0" to-layer="1986" to-port="2" />
		<edge from-layer="1984" from-port="0" to-layer="1986" to-port="3" />
		<edge from-layer="1985" from-port="0" to-layer="1986" to-port="4" />
		<edge from-layer="1986" from-port="5" to-layer="1991" to-port="0" />
		<edge from-layer="1987" from-port="0" to-layer="1988" to-port="0" />
		<edge from-layer="1988" from-port="1" to-layer="1990" to-port="0" />
		<edge from-layer="1989" from-port="0" to-layer="1990" to-port="1" />
		<edge from-layer="1990" from-port="2" to-layer="1991" to-port="1" />
		<edge from-layer="1991" from-port="2" to-layer="1996" to-port="0" />
		<edge from-layer="1992" from-port="0" to-layer="1996" to-port="1" />
		<edge from-layer="1993" from-port="0" to-layer="1996" to-port="2" />
		<edge from-layer="1994" from-port="0" to-layer="1996" to-port="3" />
		<edge from-layer="1995" from-port="0" to-layer="1996" to-port="4" />
		<edge from-layer="1996" from-port="5" to-layer="1998" to-port="0" />
		<edge from-layer="1997" from-port="0" to-layer="1998" to-port="1" />
		<edge from-layer="1998" from-port="2" to-layer="2000" to-port="0" />
		<edge from-layer="1999" from-port="0" to-layer="2000" to-port="1" />
		<edge from-layer="2000" from-port="2" to-layer="2015" to-port="0" />
		<edge from-layer="2001" from-port="0" to-layer="2002" to-port="0" />
		<edge from-layer="2002" from-port="1" to-layer="2004" to-port="0" />
		<edge from-layer="2003" from-port="0" to-layer="2004" to-port="1" />
		<edge from-layer="2004" from-port="2" to-layer="2005" to-port="1" />
		<edge from-layer="2005" from-port="2" to-layer="2010" to-port="0" />
		<edge from-layer="2006" from-port="0" to-layer="2010" to-port="1" />
		<edge from-layer="2007" from-port="0" to-layer="2010" to-port="2" />
		<edge from-layer="2008" from-port="0" to-layer="2010" to-port="3" />
		<edge from-layer="2009" from-port="0" to-layer="2010" to-port="4" />
		<edge from-layer="2010" from-port="5" to-layer="2012" to-port="0" />
		<edge from-layer="2011" from-port="0" to-layer="2012" to-port="1" />
		<edge from-layer="2012" from-port="2" to-layer="2014" to-port="0" />
		<edge from-layer="2013" from-port="0" to-layer="2014" to-port="1" />
		<edge from-layer="2014" from-port="2" to-layer="2015" to-port="1" />
		<edge from-layer="2015" from-port="2" to-layer="2018" to-port="0" />
		<edge from-layer="2016" from-port="0" to-layer="2017" to-port="0" />
		<edge from-layer="2017" from-port="1" to-layer="2018" to-port="1" />
		<edge from-layer="2018" from-port="2" to-layer="2019" to-port="0" />
		<edge from-layer="2019" from-port="2" to-layer="2020" to-port="0" />
		<edge from-layer="2020" from-port="1" to-layer="2030" to-port="0" />
		<edge from-layer="2021" from-port="0" to-layer="2022" to-port="0" />
		<edge from-layer="2022" from-port="1" to-layer="2024" to-port="0" />
		<edge from-layer="2023" from-port="0" to-layer="2024" to-port="1" />
		<edge from-layer="2024" from-port="2" to-layer="2025" to-port="1" />
		<edge from-layer="2025" from-port="2" to-layer="2027" to-port="0" />
		<edge from-layer="2026" from-port="0" to-layer="2027" to-port="1" />
		<edge from-layer="2027" from-port="2" to-layer="2029" to-port="0" />
		<edge from-layer="2028" from-port="0" to-layer="2029" to-port="1" />
		<edge from-layer="2029" from-port="2" to-layer="2030" to-port="1" />
		<edge from-layer="2030" from-port="2" to-layer="2032" to-port="0" />
		<edge from-layer="2031" from-port="0" to-layer="2032" to-port="1" />
		<edge from-layer="2032" from-port="2" to-layer="2034" to-port="0" />
		<edge from-layer="2033" from-port="0" to-layer="2034" to-port="1" />
		<edge from-layer="2034" from-port="2" to-layer="2036" to-port="0" />
		<edge from-layer="2035" from-port="0" to-layer="2036" to-port="1" />
		<edge from-layer="2036" from-port="2" to-layer="2041" to-port="0" />
		<edge from-layer="2037" from-port="0" to-layer="2041" to-port="1" />
		<edge from-layer="2038" from-port="0" to-layer="2041" to-port="2" />
		<edge from-layer="2039" from-port="0" to-layer="2041" to-port="3" />
		<edge from-layer="2040" from-port="0" to-layer="2041" to-port="4" />
		<edge from-layer="2041" from-port="5" to-layer="2046" to-port="0" />
		<edge from-layer="2042" from-port="0" to-layer="2043" to-port="0" />
		<edge from-layer="2043" from-port="1" to-layer="2045" to-port="0" />
		<edge from-layer="2044" from-port="0" to-layer="2045" to-port="1" />
		<edge from-layer="2045" from-port="2" to-layer="2046" to-port="1" />
		<edge from-layer="2046" from-port="2" to-layer="2047" to-port="0" />
		<edge from-layer="2047" from-port="2" to-layer="2049" to-port="0" />
		<edge from-layer="2048" from-port="0" to-layer="2049" to-port="1" />
		<edge from-layer="2049" from-port="2" to-layer="2075" to-port="1" />
		<edge from-layer="2049" from-port="2" to-layer="2051" to-port="0" />
		<edge from-layer="2050" from-port="0" to-layer="2051" to-port="1" />
		<edge from-layer="2051" from-port="2" to-layer="2056" to-port="0" />
		<edge from-layer="2052" from-port="0" to-layer="2056" to-port="1" />
		<edge from-layer="2053" from-port="0" to-layer="2056" to-port="2" />
		<edge from-layer="2054" from-port="0" to-layer="2056" to-port="3" />
		<edge from-layer="2055" from-port="0" to-layer="2056" to-port="4" />
		<edge from-layer="2056" from-port="5" to-layer="2061" to-port="0" />
		<edge from-layer="2057" from-port="0" to-layer="2058" to-port="0" />
		<edge from-layer="2058" from-port="1" to-layer="2060" to-port="0" />
		<edge from-layer="2059" from-port="0" to-layer="2060" to-port="1" />
		<edge from-layer="2060" from-port="2" to-layer="2061" to-port="1" />
		<edge from-layer="2061" from-port="2" to-layer="2062" to-port="0" />
		<edge from-layer="2062" from-port="1" to-layer="2064" to-port="0" />
		<edge from-layer="2063" from-port="0" to-layer="2064" to-port="1" />
		<edge from-layer="2064" from-port="2" to-layer="2069" to-port="0" />
		<edge from-layer="2065" from-port="0" to-layer="2069" to-port="1" />
		<edge from-layer="2066" from-port="0" to-layer="2069" to-port="2" />
		<edge from-layer="2067" from-port="0" to-layer="2069" to-port="3" />
		<edge from-layer="2068" from-port="0" to-layer="2069" to-port="4" />
		<edge from-layer="2069" from-port="5" to-layer="2074" to-port="0" />
		<edge from-layer="2070" from-port="0" to-layer="2071" to-port="0" />
		<edge from-layer="2071" from-port="1" to-layer="2073" to-port="0" />
		<edge from-layer="2072" from-port="0" to-layer="2073" to-port="1" />
		<edge from-layer="2073" from-port="2" to-layer="2074" to-port="1" />
		<edge from-layer="2074" from-port="2" to-layer="2075" to-port="0" />
		<edge from-layer="2075" from-port="2" to-layer="2077" to-port="0" />
		<edge from-layer="2076" from-port="0" to-layer="2077" to-port="1" />
		<edge from-layer="2077" from-port="2" to-layer="2078" to-port="0" />
	</edges>
	<rt_info>
		<Runtime_version value="2025.1.0-18503-6fec06580ab-releases/2025/1" />
		<conversion_parameters>
			<framework value="pytorch" />
			<is_python_object value="True" />
		</conversion_parameters>
		<nncf>
			<friendly_names_were_updated value="True" />
			<quantization>
				<advanced_parameters value="{}" />
				<fast_bias_correction value="True" />
				<ignored_scope value="None" />
				<model_type value="transformer" />
				<preset value="None" />
				<subset_size value="300" />
				<target_device value="ANY" />
			</quantization>
		</nncf>
	</rt_info>
</net>
