<?xml version="1.0"?>
<net name="Model3" version="11">
	<layers>
		<layer id="3" name="input_ids" type="Parameter" version="opset1">
			<data shape="?,?" element_type="i64" />
			<output>
				<port id="0" precision="I64" names="input_ids">
					<dim>-1</dim>
					<dim>-1</dim>
				</port>
			</output>
		</layer>
		<layer id="2" name="attention_mask" type="Parameter" version="opset1">
			<data shape="?,?" element_type="i64" />
			<output>
				<port id="0" precision="I64" names="34,attention_mask">
					<dim>-1</dim>
					<dim>-1</dim>
				</port>
			</output>
		</layer>
		<layer id="1" name="encoder_hidden_states" type="Parameter" version="opset1">
			<data shape="?,?,?" element_type="f32" />
			<output>
				<port id="0" precision="FP32" names="encoder_hidden_states">
					<dim>-1</dim>
					<dim>-1</dim>
					<dim>-1</dim>
				</port>
			</output>
		</layer>
		<layer id="0" name="encoder_attention_mask" type="Parameter" version="opset1">
			<data shape="?,?" element_type="i64" />
			<output>
				<port id="0" precision="I64" names="41,encoder_attention_mask">
					<dim>-1</dim>
					<dim>-1</dim>
				</port>
			</output>
		</layer>
		<layer id="4" name="Constant_1005194" type="Const" version="opset1">
			<data element_type="i8" shape="30524, 768" offset="0" size="23442432" />
			<output>
				<port id="0" precision="I8">
					<dim>30524</dim>
					<dim>768</dim>
				</port>
			</output>
		</layer>
		<layer id="5" name="Convert_1005195" type="Convert" version="opset1">
			<data destination_type="f32" />
			<input>
				<port id="0" precision="I8">
					<dim>30524</dim>
					<dim>768</dim>
				</port>
			</input>
			<output>
				<port id="1" precision="FP32">
					<dim>30524</dim>
					<dim>768</dim>
				</port>
			</output>
		</layer>
		<layer id="6" name="Constant_1005196" type="Const" version="opset1">
			<data element_type="f32" shape="30524, 1" offset="23442432" size="122096" />
			<output>
				<port id="0" precision="FP32">
					<dim>30524</dim>
					<dim>1</dim>
				</port>
			</output>
		</layer>
		<layer id="7" name="__module.model.embeddings.word_embeddings/aten::embedding/Gather/fq_weights_0" type="Multiply" version="opset1">
			<data auto_broadcast="numpy" />
			<input>
				<port id="0" precision="FP32">
					<dim>30524</dim>
					<dim>768</dim>
				</port>
				<port id="1" precision="FP32">
					<dim>30524</dim>
					<dim>1</dim>
				</port>
			</input>
			<output>
				<port id="2" precision="FP32">
					<dim>30524</dim>
					<dim>768</dim>
				</port>
			</output>
		</layer>
		<layer id="8" name="__module.model.embeddings.word_embeddings/aten::embedding/Convert" type="Convert" version="opset1">
			<data destination_type="i32" />
			<input>
				<port id="0" precision="I64">
					<dim>-1</dim>
					<dim>-1</dim>
				</port>
			</input>
			<output>
				<port id="1" precision="I32">
					<dim>-1</dim>
					<dim>-1</dim>
				</port>
			</output>
		</layer>
		<layer id="9" name="__module.model.embeddings.word_embeddings/aten::embedding/Constant" type="Const" version="opset1">
			<data element_type="i32" shape="" offset="23564528" size="4" />
			<output>
				<port id="0" precision="I32" />
			</output>
		</layer>
		<layer id="10" name="__module.model.embeddings.word_embeddings/aten::embedding/Gather" type="Gather" version="opset8">
			<data batch_dims="0" />
			<input>
				<port id="0" precision="FP32">
					<dim>30524</dim>
					<dim>768</dim>
				</port>
				<port id="1" precision="I32">
					<dim>-1</dim>
					<dim>-1</dim>
				</port>
				<port id="2" precision="I32" />
			</input>
			<output>
				<port id="3" precision="FP32" names="60_1">
					<dim>-1</dim>
					<dim>-1</dim>
					<dim>768</dim>
				</port>
			</output>
		</layer>
		<layer id="11" name="Constant_1005199" type="Const" version="opset1">
			<data element_type="i8" shape="512, 768" offset="23564532" size="393216" />
			<output>
				<port id="0" precision="I8">
					<dim>512</dim>
					<dim>768</dim>
				</port>
			</output>
		</layer>
		<layer id="12" name="Convert_1005200" type="Convert" version="opset1">
			<data destination_type="f32" />
			<input>
				<port id="0" precision="I8">
					<dim>512</dim>
					<dim>768</dim>
				</port>
			</input>
			<output>
				<port id="1" precision="FP32">
					<dim>512</dim>
					<dim>768</dim>
				</port>
			</output>
		</layer>
		<layer id="13" name="Constant_1005201" type="Const" version="opset1">
			<data element_type="f32" shape="512, 1" offset="23957748" size="2048" />
			<output>
				<port id="0" precision="FP32">
					<dim>512</dim>
					<dim>1</dim>
				</port>
			</output>
		</layer>
		<layer id="14" name="__module.model.embeddings.position_embeddings/aten::embedding/Gather/fq_weights_0" type="Multiply" version="opset1">
			<data auto_broadcast="numpy" />
			<input>
				<port id="0" precision="FP32">
					<dim>512</dim>
					<dim>768</dim>
				</port>
				<port id="1" precision="FP32">
					<dim>512</dim>
					<dim>1</dim>
				</port>
			</input>
			<output>
				<port id="2" precision="FP32">
					<dim>512</dim>
					<dim>768</dim>
				</port>
			</output>
		</layer>
		<layer id="15" name="__module.model.embeddings/aten::slice/Slice" type="Const" version="opset1">
			<data element_type="i64" shape="1, 512" offset="23959796" size="4096" />
			<output>
				<port id="0" precision="I64" names="57">
					<dim>1</dim>
					<dim>512</dim>
				</port>
			</output>
		</layer>
		<layer id="16" name="Constant_10523" type="Const" version="opset1">
			<data element_type="i64" shape="1" offset="23963892" size="8" />
			<output>
				<port id="0" precision="I64">
					<dim>1</dim>
				</port>
			</output>
		</layer>
		<layer id="17" name="ShapeOf_27135" type="ShapeOf" version="opset3">
			<data output_type="i64" />
			<input>
				<port id="0" precision="I64">
					<dim>-1</dim>
					<dim>-1</dim>
				</port>
			</input>
			<output>
				<port id="1" precision="I64">
					<dim>2</dim>
				</port>
			</output>
		</layer>
		<layer id="18" name="Constant_27136" type="Const" version="opset1">
			<data element_type="i64" shape="1" offset="23963900" size="8" />
			<output>
				<port id="0" precision="I64">
					<dim>1</dim>
				</port>
			</output>
		</layer>
		<layer id="19" name="Constant_27137" type="Const" version="opset1">
			<data element_type="i64" shape="" offset="23963892" size="8" />
			<output>
				<port id="0" precision="I64" />
			</output>
		</layer>
		<layer id="20" name="Gather_27138" type="Gather" version="opset8">
			<data batch_dims="0" />
			<input>
				<port id="0" precision="I64">
					<dim>2</dim>
				</port>
				<port id="1" precision="I64">
					<dim>1</dim>
				</port>
				<port id="2" precision="I64" />
			</input>
			<output>
				<port id="3" precision="I64" names="53,55,56">
					<dim>1</dim>
				</port>
			</output>
		</layer>
		<layer id="21" name="Constant_10526" type="Const" version="opset1">
			<data element_type="i64" shape="1" offset="23963900" size="8" />
			<output>
				<port id="0" precision="I64">
					<dim>1</dim>
				</port>
			</output>
		</layer>
		<layer id="22" name="Constant_10521" type="Const" version="opset1">
			<data element_type="i64" shape="1" offset="23963900" size="8" />
			<output>
				<port id="0" precision="I64">
					<dim>1</dim>
				</port>
			</output>
		</layer>
		<layer id="23" name="__module.model.embeddings/aten::slice/Slice_1" type="Slice" version="opset8">
			<input>
				<port id="0" precision="I64">
					<dim>1</dim>
					<dim>512</dim>
				</port>
				<port id="1" precision="I64">
					<dim>1</dim>
				</port>
				<port id="2" precision="I64">
					<dim>1</dim>
				</port>
				<port id="3" precision="I64">
					<dim>1</dim>
				</port>
				<port id="4" precision="I64">
					<dim>1</dim>
				</port>
			</input>
			<output>
				<port id="5" precision="I64" names="58,input.1">
					<dim>1</dim>
					<dim>-1</dim>
				</port>
			</output>
		</layer>
		<layer id="24" name="__module.model.embeddings.position_embeddings/aten::embedding/Convert" type="Convert" version="opset1">
			<data destination_type="i32" />
			<input>
				<port id="0" precision="I64">
					<dim>1</dim>
					<dim>-1</dim>
				</port>
			</input>
			<output>
				<port id="1" precision="I32">
					<dim>1</dim>
					<dim>-1</dim>
				</port>
			</output>
		</layer>
		<layer id="25" name="__module.model.embeddings.position_embeddings/aten::embedding/Constant" type="Const" version="opset1">
			<data element_type="i32" shape="" offset="23564528" size="4" />
			<output>
				<port id="0" precision="I32" />
			</output>
		</layer>
		<layer id="26" name="__module.model.embeddings.position_embeddings/aten::embedding/Gather" type="Gather" version="opset8">
			<data batch_dims="0" />
			<input>
				<port id="0" precision="FP32">
					<dim>512</dim>
					<dim>768</dim>
				</port>
				<port id="1" precision="I32">
					<dim>1</dim>
					<dim>-1</dim>
				</port>
				<port id="2" precision="I32" />
			</input>
			<output>
				<port id="3" precision="FP32" names="62,position_embeddings.1">
					<dim>1</dim>
					<dim>-1</dim>
					<dim>768</dim>
				</port>
			</output>
		</layer>
		<layer id="27" name="__module.model.embeddings/aten::add_/Add" type="Add" version="opset1">
			<data auto_broadcast="numpy" />
			<input>
				<port id="0" precision="FP32">
					<dim>-1</dim>
					<dim>-1</dim>
					<dim>768</dim>
				</port>
				<port id="1" precision="FP32">
					<dim>1</dim>
					<dim>-1</dim>
					<dim>768</dim>
				</port>
			</input>
			<output>
				<port id="2" precision="FP32" names="60,inputs_embeds">
					<dim>-1</dim>
					<dim>-1</dim>
					<dim>768</dim>
				</port>
			</output>
		</layer>
		<layer id="28" name="__module.model.embeddings.LayerNorm/aten::layer_norm/Multiply" type="Const" version="opset1">
			<data element_type="i32" shape="1" offset="23963908" size="4" />
			<output>
				<port id="0" precision="I32">
					<dim>1</dim>
				</port>
			</output>
		</layer>
		<layer id="29" name="__module.model.embeddings.LayerNorm/aten::layer_norm/MVN" type="MVN" version="opset6">
			<data eps="9.999999960041972e-13" normalize_variance="true" eps_mode="INSIDE_SQRT" />
			<input>
				<port id="0" precision="FP32">
					<dim>-1</dim>
					<dim>-1</dim>
					<dim>768</dim>
				</port>
				<port id="1" precision="I32">
					<dim>1</dim>
				</port>
			</input>
			<output>
				<port id="2" precision="FP32">
					<dim>-1</dim>
					<dim>-1</dim>
					<dim>768</dim>
				</port>
			</output>
		</layer>
		<layer id="30" name="Constant_26807_compressed" type="Const" version="opset1">
			<data element_type="f16" shape="1, 1, 768" offset="23963912" size="1536" />
			<output>
				<port id="0" precision="FP16">
					<dim>1</dim>
					<dim>1</dim>
					<dim>768</dim>
				</port>
			</output>
		</layer>
		<layer id="31" name="Constant_26807" type="Convert" version="opset1">
			<data destination_type="f32" />
			<rt_info>
				<attribute name="decompression" version="0" />
			</rt_info>
			<input>
				<port id="0" precision="FP16">
					<dim>1</dim>
					<dim>1</dim>
					<dim>768</dim>
				</port>
			</input>
			<output>
				<port id="1" precision="FP32">
					<dim>1</dim>
					<dim>1</dim>
					<dim>768</dim>
				</port>
			</output>
		</layer>
		<layer id="32" name="__module.model.embeddings.LayerNorm/aten::layer_norm/Multiply_1" type="Multiply" version="opset1">
			<data auto_broadcast="numpy" />
			<input>
				<port id="0" precision="FP32">
					<dim>-1</dim>
					<dim>-1</dim>
					<dim>768</dim>
				</port>
				<port id="1" precision="FP32">
					<dim>1</dim>
					<dim>1</dim>
					<dim>768</dim>
				</port>
			</input>
			<output>
				<port id="2" precision="FP32">
					<dim>-1</dim>
					<dim>-1</dim>
					<dim>768</dim>
				</port>
			</output>
		</layer>
		<layer id="33" name="Constant_26808_compressed" type="Const" version="opset1">
			<data element_type="f16" shape="1, 1, 768" offset="23965448" size="1536" />
			<output>
				<port id="0" precision="FP16">
					<dim>1</dim>
					<dim>1</dim>
					<dim>768</dim>
				</port>
			</output>
		</layer>
		<layer id="34" name="Constant_26808" type="Convert" version="opset1">
			<data destination_type="f32" />
			<rt_info>
				<attribute name="decompression" version="0" />
			</rt_info>
			<input>
				<port id="0" precision="FP16">
					<dim>1</dim>
					<dim>1</dim>
					<dim>768</dim>
				</port>
			</input>
			<output>
				<port id="1" precision="FP32">
					<dim>1</dim>
					<dim>1</dim>
					<dim>768</dim>
				</port>
			</output>
		</layer>
		<layer id="35" name="__module.model.embeddings.LayerNorm/aten::layer_norm/Add" type="Add" version="opset1">
			<data auto_broadcast="numpy" />
			<input>
				<port id="0" precision="FP32">
					<dim>-1</dim>
					<dim>-1</dim>
					<dim>768</dim>
				</port>
				<port id="1" precision="FP32">
					<dim>1</dim>
					<dim>1</dim>
					<dim>768</dim>
				</port>
			</input>
			<output>
				<port id="2" precision="FP32" names="67,input.5">
					<dim>-1</dim>
					<dim>-1</dim>
					<dim>768</dim>
				</port>
			</output>
		</layer>
		<layer id="36" name="__module.model.embeddings.LayerNorm/aten::layer_norm/Add_0_0/nncf_smooth_quant/scale" type="Const" version="opset1">
			<data element_type="f32" shape="1, 1, 768" offset="23966984" size="3072" />
			<output>
				<port id="0" precision="FP32">
					<dim>1</dim>
					<dim>1</dim>
					<dim>768</dim>
				</port>
			</output>
		</layer>
		<layer id="37" name="__module.model.embeddings.LayerNorm/aten::layer_norm/Add_0_0/nncf_smooth_quant" type="Multiply" version="opset1">
			<data auto_broadcast="numpy" />
			<input>
				<port id="0" precision="FP32">
					<dim>-1</dim>
					<dim>-1</dim>
					<dim>768</dim>
				</port>
				<port id="1" precision="FP32">
					<dim>1</dim>
					<dim>1</dim>
					<dim>768</dim>
				</port>
			</input>
			<output>
				<port id="2" precision="FP32">
					<dim>-1</dim>
					<dim>-1</dim>
					<dim>768</dim>
				</port>
			</output>
		</layer>
		<layer id="38" name="__module.model.embeddings.LayerNorm/aten::layer_norm/Add_0_0/nncf_smooth_quant/fq_output_0/input_low" type="Const" version="opset1">
			<data element_type="f32" shape="" offset="23970056" size="4" />
			<output>
				<port id="0" precision="FP32" />
			</output>
		</layer>
		<layer id="39" name="__module.model.embeddings.LayerNorm/aten::layer_norm/Add_0_0/nncf_smooth_quant/fq_output_0/input_high" type="Const" version="opset1">
			<data element_type="f32" shape="" offset="23970060" size="4" />
			<output>
				<port id="0" precision="FP32" />
			</output>
		</layer>
		<layer id="40" name="__module.model.embeddings.LayerNorm/aten::layer_norm/Add_0_0/nncf_smooth_quant/fq_output_0/output_low" type="Const" version="opset1">
			<data element_type="f32" shape="" offset="23970056" size="4" />
			<output>
				<port id="0" precision="FP32" />
			</output>
		</layer>
		<layer id="41" name="__module.model.embeddings.LayerNorm/aten::layer_norm/Add_0_0/nncf_smooth_quant/fq_output_0/output_high" type="Const" version="opset1">
			<data element_type="f32" shape="" offset="23970060" size="4" />
			<output>
				<port id="0" precision="FP32" />
			</output>
		</layer>
		<layer id="42" name="__module.model.embeddings.LayerNorm/aten::layer_norm/Add_0_0/nncf_smooth_quant/fq_output_0" type="FakeQuantize" version="opset1">
			<data levels="256" auto_broadcast="numpy" />
			<input>
				<port id="0" precision="FP32">
					<dim>-1</dim>
					<dim>-1</dim>
					<dim>768</dim>
				</port>
				<port id="1" precision="FP32" />
				<port id="2" precision="FP32" />
				<port id="3" precision="FP32" />
				<port id="4" precision="FP32" />
			</input>
			<output>
				<port id="5" precision="FP32">
					<dim>-1</dim>
					<dim>-1</dim>
					<dim>768</dim>
				</port>
			</output>
		</layer>
		<layer id="43" name="Constant_1005204" type="Const" version="opset1">
			<data element_type="i8" shape="768, 768" offset="23970064" size="589824" />
			<output>
				<port id="0" precision="I8">
					<dim>768</dim>
					<dim>768</dim>
				</port>
			</output>
		</layer>
		<layer id="44" name="Convert_1005205" type="Convert" version="opset1">
			<data destination_type="f32" />
			<input>
				<port id="0" precision="I8">
					<dim>768</dim>
					<dim>768</dim>
				</port>
			</input>
			<output>
				<port id="1" precision="FP32">
					<dim>768</dim>
					<dim>768</dim>
				</port>
			</output>
		</layer>
		<layer id="45" name="Constant_1005206" type="Const" version="opset1">
			<data element_type="f32" shape="768, 1" offset="24559888" size="3072" />
			<output>
				<port id="0" precision="FP32">
					<dim>768</dim>
					<dim>1</dim>
				</port>
			</output>
		</layer>
		<layer id="46" name="__module.model.encoder.layer.0.attention.self.query/aten::linear/MatMul/fq_weights_1" type="Multiply" version="opset1">
			<data auto_broadcast="numpy" />
			<input>
				<port id="0" precision="FP32">
					<dim>768</dim>
					<dim>768</dim>
				</port>
				<port id="1" precision="FP32">
					<dim>768</dim>
					<dim>1</dim>
				</port>
			</input>
			<output>
				<port id="2" precision="FP32">
					<dim>768</dim>
					<dim>768</dim>
				</port>
			</output>
		</layer>
		<layer id="47" name="__module.model.encoder.layer.0.attention.self.query/aten::linear/MatMul" type="MatMul" version="opset1">
			<data transpose_a="false" transpose_b="true" />
			<input>
				<port id="0" precision="FP32">
					<dim>-1</dim>
					<dim>-1</dim>
					<dim>768</dim>
				</port>
				<port id="1" precision="FP32">
					<dim>768</dim>
					<dim>768</dim>
				</port>
			</input>
			<output>
				<port id="2" precision="FP32">
					<dim>-1</dim>
					<dim>-1</dim>
					<dim>768</dim>
				</port>
			</output>
		</layer>
		<layer id="48" name="Constant_26809_compressed" type="Const" version="opset1">
			<data element_type="f16" shape="1, 1, 768" offset="24562960" size="1536" />
			<output>
				<port id="0" precision="FP16">
					<dim>1</dim>
					<dim>1</dim>
					<dim>768</dim>
				</port>
			</output>
		</layer>
		<layer id="49" name="Constant_26809" type="Convert" version="opset1">
			<data destination_type="f32" />
			<rt_info>
				<attribute name="decompression" version="0" />
			</rt_info>
			<input>
				<port id="0" precision="FP16">
					<dim>1</dim>
					<dim>1</dim>
					<dim>768</dim>
				</port>
			</input>
			<output>
				<port id="1" precision="FP32">
					<dim>1</dim>
					<dim>1</dim>
					<dim>768</dim>
				</port>
			</output>
		</layer>
		<layer id="50" name="__module.model.encoder.layer.0.attention.self.query/aten::linear/Add" type="Add" version="opset1">
			<data auto_broadcast="numpy" />
			<input>
				<port id="0" precision="FP32">
					<dim>-1</dim>
					<dim>-1</dim>
					<dim>768</dim>
				</port>
				<port id="1" precision="FP32">
					<dim>1</dim>
					<dim>1</dim>
					<dim>768</dim>
				</port>
			</input>
			<output>
				<port id="2" precision="FP32" names="104,x.9">
					<dim>-1</dim>
					<dim>-1</dim>
					<dim>768</dim>
				</port>
			</output>
		</layer>
		<layer id="51" name="__module.model.encoder.layer.0.attention.self.query/aten::linear/Add/fq_output_0/input_low" type="Const" version="opset1">
			<data element_type="f32" shape="" offset="24564496" size="4" />
			<output>
				<port id="0" precision="FP32" />
			</output>
		</layer>
		<layer id="52" name="__module.model.encoder.layer.0.attention.self.query/aten::linear/Add/fq_output_0/input_high" type="Const" version="opset1">
			<data element_type="f32" shape="" offset="24564500" size="4" />
			<output>
				<port id="0" precision="FP32" />
			</output>
		</layer>
		<layer id="53" name="__module.model.encoder.layer.0.attention.self.query/aten::linear/Add/fq_output_0/output_low" type="Const" version="opset1">
			<data element_type="f32" shape="" offset="24564496" size="4" />
			<output>
				<port id="0" precision="FP32" />
			</output>
		</layer>
		<layer id="54" name="__module.model.encoder.layer.0.attention.self.query/aten::linear/Add/fq_output_0/output_high" type="Const" version="opset1">
			<data element_type="f32" shape="" offset="24564500" size="4" />
			<output>
				<port id="0" precision="FP32" />
			</output>
		</layer>
		<layer id="55" name="__module.model.encoder.layer.0.attention.self.query/aten::linear/Add/fq_output_0" type="FakeQuantize" version="opset1">
			<data levels="256" auto_broadcast="numpy" />
			<input>
				<port id="0" precision="FP32">
					<dim>-1</dim>
					<dim>-1</dim>
					<dim>768</dim>
				</port>
				<port id="1" precision="FP32" />
				<port id="2" precision="FP32" />
				<port id="3" precision="FP32" />
				<port id="4" precision="FP32" />
			</input>
			<output>
				<port id="5" precision="FP32">
					<dim>-1</dim>
					<dim>-1</dim>
					<dim>768</dim>
				</port>
			</output>
		</layer>
		<layer id="56" name="__module.model.encoder.layer.0.attention.self/prim::ListConstruct" type="Const" version="opset1">
			<data element_type="i64" shape="4" offset="24564504" size="32" />
			<rt_info>
				<attribute name="precise" version="0" />
			</rt_info>
			<output>
				<port id="0" precision="I64">
					<dim>4</dim>
				</port>
			</output>
		</layer>
		<layer id="57" name="__module.model.encoder.layer.0.attention.self/aten::view/Reshape" type="Reshape" version="opset1">
			<data special_zero="true" />
			<input>
				<port id="0" precision="FP32">
					<dim>-1</dim>
					<dim>-1</dim>
					<dim>768</dim>
				</port>
				<port id="1" precision="I64">
					<dim>4</dim>
				</port>
			</input>
			<output>
				<port id="2" precision="FP32" names="126,x.11">
					<dim>-1</dim>
					<dim>-1</dim>
					<dim>12</dim>
					<dim>64</dim>
				</port>
			</output>
		</layer>
		<layer id="58" name="Constant_10691" type="Const" version="opset1">
			<data element_type="i64" shape="4" offset="24564536" size="32" />
			<output>
				<port id="0" precision="I64" names="127">
					<dim>4</dim>
				</port>
			</output>
		</layer>
		<layer id="59" name="__module.model.encoder.layer.0.attention.self/aten::permute/Transpose" type="Transpose" version="opset1">
			<input>
				<port id="0" precision="FP32">
					<dim>-1</dim>
					<dim>-1</dim>
					<dim>12</dim>
					<dim>64</dim>
				</port>
				<port id="1" precision="I64">
					<dim>4</dim>
				</port>
			</input>
			<output>
				<port id="2" precision="FP32" names="128,query_layer.1">
					<dim>-1</dim>
					<dim>12</dim>
					<dim>-1</dim>
					<dim>64</dim>
				</port>
			</output>
		</layer>
		<layer id="60" name="Constant_1005209" type="Const" version="opset1">
			<data element_type="i8" shape="768, 768" offset="24564568" size="589824" />
			<output>
				<port id="0" precision="I8">
					<dim>768</dim>
					<dim>768</dim>
				</port>
			</output>
		</layer>
		<layer id="61" name="Convert_1005210" type="Convert" version="opset1">
			<data destination_type="f32" />
			<input>
				<port id="0" precision="I8">
					<dim>768</dim>
					<dim>768</dim>
				</port>
			</input>
			<output>
				<port id="1" precision="FP32">
					<dim>768</dim>
					<dim>768</dim>
				</port>
			</output>
		</layer>
		<layer id="62" name="Constant_1005211" type="Const" version="opset1">
			<data element_type="f32" shape="768, 1" offset="25154392" size="3072" />
			<output>
				<port id="0" precision="FP32">
					<dim>768</dim>
					<dim>1</dim>
				</port>
			</output>
		</layer>
		<layer id="63" name="__module.model.encoder.layer.0.attention.self.key/aten::linear/MatMul/fq_weights_1" type="Multiply" version="opset1">
			<data auto_broadcast="numpy" />
			<input>
				<port id="0" precision="FP32">
					<dim>768</dim>
					<dim>768</dim>
				</port>
				<port id="1" precision="FP32">
					<dim>768</dim>
					<dim>1</dim>
				</port>
			</input>
			<output>
				<port id="2" precision="FP32">
					<dim>768</dim>
					<dim>768</dim>
				</port>
			</output>
		</layer>
		<layer id="64" name="__module.model.encoder.layer.0.attention.self.key/aten::linear/MatMul" type="MatMul" version="opset1">
			<data transpose_a="false" transpose_b="true" />
			<input>
				<port id="0" precision="FP32">
					<dim>-1</dim>
					<dim>-1</dim>
					<dim>768</dim>
				</port>
				<port id="1" precision="FP32">
					<dim>768</dim>
					<dim>768</dim>
				</port>
			</input>
			<output>
				<port id="2" precision="FP32">
					<dim>-1</dim>
					<dim>-1</dim>
					<dim>768</dim>
				</port>
			</output>
		</layer>
		<layer id="65" name="Constant_26810_compressed" type="Const" version="opset1">
			<data element_type="f16" shape="1, 1, 768" offset="25157464" size="1536" />
			<output>
				<port id="0" precision="FP16">
					<dim>1</dim>
					<dim>1</dim>
					<dim>768</dim>
				</port>
			</output>
		</layer>
		<layer id="66" name="Constant_26810" type="Convert" version="opset1">
			<data destination_type="f32" />
			<rt_info>
				<attribute name="decompression" version="0" />
			</rt_info>
			<input>
				<port id="0" precision="FP16">
					<dim>1</dim>
					<dim>1</dim>
					<dim>768</dim>
				</port>
			</input>
			<output>
				<port id="1" precision="FP32">
					<dim>1</dim>
					<dim>1</dim>
					<dim>768</dim>
				</port>
			</output>
		</layer>
		<layer id="67" name="__module.model.encoder.layer.0.attention.self.key/aten::linear/Add" type="Add" version="opset1">
			<data auto_broadcast="numpy" />
			<input>
				<port id="0" precision="FP32">
					<dim>-1</dim>
					<dim>-1</dim>
					<dim>768</dim>
				</port>
				<port id="1" precision="FP32">
					<dim>1</dim>
					<dim>1</dim>
					<dim>768</dim>
				</port>
			</input>
			<output>
				<port id="2" precision="FP32" names="107,x.1">
					<dim>-1</dim>
					<dim>-1</dim>
					<dim>768</dim>
				</port>
			</output>
		</layer>
		<layer id="68" name="__module.model.encoder.layer.0.attention.self.key/aten::linear/Add/fq_output_0/input_low" type="Const" version="opset1">
			<data element_type="f32" shape="" offset="25159000" size="4" />
			<output>
				<port id="0" precision="FP32" />
			</output>
		</layer>
		<layer id="69" name="__module.model.encoder.layer.0.attention.self.key/aten::linear/Add/fq_output_0/input_high" type="Const" version="opset1">
			<data element_type="f32" shape="" offset="25159004" size="4" />
			<output>
				<port id="0" precision="FP32" />
			</output>
		</layer>
		<layer id="70" name="__module.model.encoder.layer.0.attention.self.key/aten::linear/Add/fq_output_0/output_low" type="Const" version="opset1">
			<data element_type="f32" shape="" offset="25159000" size="4" />
			<output>
				<port id="0" precision="FP32" />
			</output>
		</layer>
		<layer id="71" name="__module.model.encoder.layer.0.attention.self.key/aten::linear/Add/fq_output_0/output_high" type="Const" version="opset1">
			<data element_type="f32" shape="" offset="25159004" size="4" />
			<output>
				<port id="0" precision="FP32" />
			</output>
		</layer>
		<layer id="72" name="__module.model.encoder.layer.0.attention.self.key/aten::linear/Add/fq_output_0" type="FakeQuantize" version="opset1">
			<data levels="256" auto_broadcast="numpy" />
			<input>
				<port id="0" precision="FP32">
					<dim>-1</dim>
					<dim>-1</dim>
					<dim>768</dim>
				</port>
				<port id="1" precision="FP32" />
				<port id="2" precision="FP32" />
				<port id="3" precision="FP32" />
				<port id="4" precision="FP32" />
			</input>
			<output>
				<port id="5" precision="FP32">
					<dim>-1</dim>
					<dim>-1</dim>
					<dim>768</dim>
				</port>
			</output>
		</layer>
		<layer id="73" name="__module.model.encoder.layer.0.attention.self/prim::ListConstruct_1" type="Const" version="opset1">
			<data element_type="i64" shape="4" offset="24564504" size="32" />
			<rt_info>
				<attribute name="precise" version="0" />
			</rt_info>
			<output>
				<port id="0" precision="I64">
					<dim>4</dim>
				</port>
			</output>
		</layer>
		<layer id="74" name="__module.model.encoder.layer.0.attention.self/aten::view/Reshape_1" type="Reshape" version="opset1">
			<data special_zero="true" />
			<input>
				<port id="0" precision="FP32">
					<dim>-1</dim>
					<dim>-1</dim>
					<dim>768</dim>
				</port>
				<port id="1" precision="I64">
					<dim>4</dim>
				</port>
			</input>
			<output>
				<port id="2" precision="FP32" names="111,x.3">
					<dim>-1</dim>
					<dim>-1</dim>
					<dim>12</dim>
					<dim>64</dim>
				</port>
			</output>
		</layer>
		<layer id="75" name="Constant_10629" type="Const" version="opset1">
			<data element_type="i64" shape="4" offset="24564536" size="32" />
			<output>
				<port id="0" precision="I64" names="112">
					<dim>4</dim>
				</port>
			</output>
		</layer>
		<layer id="76" name="__module.model.encoder.layer.0.attention.self/aten::permute/Transpose_1" type="Transpose" version="opset1">
			<input>
				<port id="0" precision="FP32">
					<dim>-1</dim>
					<dim>-1</dim>
					<dim>12</dim>
					<dim>64</dim>
				</port>
				<port id="1" precision="I64">
					<dim>4</dim>
				</port>
			</input>
			<output>
				<port id="2" precision="FP32" names="113,key_layer.1">
					<dim>-1</dim>
					<dim>12</dim>
					<dim>-1</dim>
					<dim>64</dim>
				</port>
			</output>
		</layer>
		<layer id="77" name="__module.model.encoder.layer.0.attention.self/aten::matmul/MatMul" type="MatMul" version="opset1">
			<data transpose_a="false" transpose_b="true" />
			<input>
				<port id="0" precision="FP32">
					<dim>-1</dim>
					<dim>12</dim>
					<dim>-1</dim>
					<dim>64</dim>
				</port>
				<port id="1" precision="FP32">
					<dim>-1</dim>
					<dim>12</dim>
					<dim>-1</dim>
					<dim>64</dim>
				</port>
			</input>
			<output>
				<port id="2" precision="FP32" names="130,attention_scores.1">
					<dim>-1</dim>
					<dim>12</dim>
					<dim>-1</dim>
					<dim>-1</dim>
				</port>
			</output>
		</layer>
		<layer id="78" name="Constant_26811_compressed" type="Const" version="opset1">
			<data element_type="f16" shape="1, 1, 1, 1" offset="25159008" size="2" />
			<output>
				<port id="0" precision="FP16">
					<dim>1</dim>
					<dim>1</dim>
					<dim>1</dim>
					<dim>1</dim>
				</port>
			</output>
		</layer>
		<layer id="79" name="Constant_26811" type="Convert" version="opset1">
			<data destination_type="f32" />
			<rt_info>
				<attribute name="decompression" version="0" />
			</rt_info>
			<input>
				<port id="0" precision="FP16">
					<dim>1</dim>
					<dim>1</dim>
					<dim>1</dim>
					<dim>1</dim>
				</port>
			</input>
			<output>
				<port id="1" precision="FP32">
					<dim>1</dim>
					<dim>1</dim>
					<dim>1</dim>
					<dim>1</dim>
				</port>
			</output>
		</layer>
		<layer id="80" name="__module.model.encoder.layer.0.attention.self/aten::div/Divide" type="Divide" version="opset1">
			<data auto_broadcast="numpy" m_pythondiv="true" />
			<input>
				<port id="0" precision="FP32">
					<dim>-1</dim>
					<dim>12</dim>
					<dim>-1</dim>
					<dim>-1</dim>
				</port>
				<port id="1" precision="FP32">
					<dim>1</dim>
					<dim>1</dim>
					<dim>1</dim>
					<dim>1</dim>
				</port>
			</input>
			<output>
				<port id="2" precision="FP32" names="131,attention_scores.3">
					<dim>-1</dim>
					<dim>12</dim>
					<dim>-1</dim>
					<dim>-1</dim>
				</port>
			</output>
		</layer>
		<layer id="81" name="Constant_26813_compressed" type="Const" version="opset1">
			<data element_type="f16" shape="1, 1, 1, 1" offset="25159010" size="2" />
			<output>
				<port id="0" precision="FP16">
					<dim>1</dim>
					<dim>1</dim>
					<dim>1</dim>
					<dim>1</dim>
				</port>
			</output>
		</layer>
		<layer id="82" name="Constant_26813" type="Convert" version="opset1">
			<data destination_type="f32" />
			<rt_info>
				<attribute name="decompression" version="0" />
			</rt_info>
			<input>
				<port id="0" precision="FP16">
					<dim>1</dim>
					<dim>1</dim>
					<dim>1</dim>
					<dim>1</dim>
				</port>
			</input>
			<output>
				<port id="1" precision="FP32">
					<dim>1</dim>
					<dim>1</dim>
					<dim>1</dim>
					<dim>1</dim>
				</port>
			</output>
		</layer>
		<layer id="83" name="29" type="Const" version="opset1">
			<data element_type="i64" shape="" offset="23963900" size="8" />
			<output>
				<port id="0" precision="I64" names="29" />
			</output>
		</layer>
		<layer id="84" name="__module.model/aten::unsqueeze/Unsqueeze" type="Unsqueeze" version="opset1">
			<input>
				<port id="0" precision="I64">
					<dim>-1</dim>
					<dim>-1</dim>
				</port>
				<port id="1" precision="I64" />
			</input>
			<output>
				<port id="2" precision="I64" names="35">
					<dim>-1</dim>
					<dim>1</dim>
					<dim>-1</dim>
				</port>
			</output>
		</layer>
		<layer id="85" name="28" type="Const" version="opset1">
			<data element_type="i64" shape="" offset="25159012" size="8" />
			<output>
				<port id="0" precision="I64" names="28" />
			</output>
		</layer>
		<layer id="86" name="__module.model/aten::unsqueeze/Unsqueeze_1" type="Unsqueeze" version="opset1">
			<input>
				<port id="0" precision="I64">
					<dim>-1</dim>
					<dim>1</dim>
					<dim>-1</dim>
				</port>
				<port id="1" precision="I64" />
			</input>
			<output>
				<port id="2" precision="I64" names="36,37,extended_attention_mask">
					<dim>-1</dim>
					<dim>1</dim>
					<dim>1</dim>
					<dim>-1</dim>
				</port>
			</output>
		</layer>
		<layer id="87" name="__module.model/aten::to/Convert" type="Convert" version="opset1">
			<data destination_type="f32" />
			<input>
				<port id="0" precision="I64">
					<dim>-1</dim>
					<dim>1</dim>
					<dim>1</dim>
					<dim>-1</dim>
				</port>
			</input>
			<output>
				<port id="1" precision="FP32" names="38">
					<dim>-1</dim>
					<dim>1</dim>
					<dim>1</dim>
					<dim>-1</dim>
				</port>
			</output>
		</layer>
		<layer id="88" name="Constant_26812_compressed" type="Const" version="opset1">
			<data element_type="f16" shape="1, 1, 1, 1" offset="25159010" size="2" />
			<output>
				<port id="0" precision="FP16">
					<dim>1</dim>
					<dim>1</dim>
					<dim>1</dim>
					<dim>1</dim>
				</port>
			</output>
		</layer>
		<layer id="89" name="Constant_26812" type="Convert" version="opset1">
			<data destination_type="f32" />
			<rt_info>
				<attribute name="decompression" version="0" />
			</rt_info>
			<input>
				<port id="0" precision="FP16">
					<dim>1</dim>
					<dim>1</dim>
					<dim>1</dim>
					<dim>1</dim>
				</port>
			</input>
			<output>
				<port id="1" precision="FP32">
					<dim>1</dim>
					<dim>1</dim>
					<dim>1</dim>
					<dim>1</dim>
				</port>
			</output>
		</layer>
		<layer id="90" name="__module.model/aten::rsub/Multiply" type="Multiply" version="opset1">
			<data auto_broadcast="numpy" />
			<input>
				<port id="0" precision="FP32">
					<dim>-1</dim>
					<dim>1</dim>
					<dim>1</dim>
					<dim>-1</dim>
				</port>
				<port id="1" precision="FP32">
					<dim>1</dim>
					<dim>1</dim>
					<dim>1</dim>
					<dim>1</dim>
				</port>
			</input>
			<output>
				<port id="2" precision="FP32">
					<dim>-1</dim>
					<dim>1</dim>
					<dim>1</dim>
					<dim>-1</dim>
				</port>
			</output>
		</layer>
		<layer id="91" name="__module.model/aten::rsub/Subtract" type="Subtract" version="opset1">
			<data auto_broadcast="numpy" />
			<input>
				<port id="0" precision="FP32">
					<dim>1</dim>
					<dim>1</dim>
					<dim>1</dim>
					<dim>1</dim>
				</port>
				<port id="1" precision="FP32">
					<dim>-1</dim>
					<dim>1</dim>
					<dim>1</dim>
					<dim>-1</dim>
				</port>
			</input>
			<output>
				<port id="2" precision="FP32" names="39">
					<dim>-1</dim>
					<dim>1</dim>
					<dim>1</dim>
					<dim>-1</dim>
				</port>
			</output>
		</layer>
		<layer id="92" name="Constant_26814_compressed" type="Const" version="opset1">
			<data element_type="f16" shape="1, 1, 1, 1" offset="25159020" size="2" />
			<output>
				<port id="0" precision="FP16">
					<dim>1</dim>
					<dim>1</dim>
					<dim>1</dim>
					<dim>1</dim>
				</port>
			</output>
		</layer>
		<layer id="93" name="Constant_26814" type="Convert" version="opset1">
			<data destination_type="f32" />
			<rt_info>
				<attribute name="decompression" version="0" />
			</rt_info>
			<input>
				<port id="0" precision="FP16">
					<dim>1</dim>
					<dim>1</dim>
					<dim>1</dim>
					<dim>1</dim>
				</port>
			</input>
			<output>
				<port id="1" precision="FP32">
					<dim>1</dim>
					<dim>1</dim>
					<dim>1</dim>
					<dim>1</dim>
				</port>
			</output>
		</layer>
		<layer id="94" name="__module.model/aten::mul/Multiply" type="Multiply" version="opset1">
			<data auto_broadcast="numpy" />
			<input>
				<port id="0" precision="FP32">
					<dim>-1</dim>
					<dim>1</dim>
					<dim>1</dim>
					<dim>-1</dim>
				</port>
				<port id="1" precision="FP32">
					<dim>1</dim>
					<dim>1</dim>
					<dim>1</dim>
					<dim>1</dim>
				</port>
			</input>
			<output>
				<port id="2" precision="FP32" names="1027,1068,1082,1097,1183,1224,1238,1253,132,1339,1380,1394,1409,146,1495,1536,1550,1565,161,1651,1692,1706,1721,1807,1848,247,288,302,317,40,403,444,458,473,559,600,614,629,715,756,770,785,871,912,926,941,attention_mask.11,attention_mask.15,attention_mask.19,attention_mask.23,attention_mask.27,attention_mask.3,attention_mask.31,attention_mask.35,attention_mask.39,attention_mask.43,attention_mask.47,attention_mask.5,attention_mask.51">
					<dim>-1</dim>
					<dim>1</dim>
					<dim>1</dim>
					<dim>-1</dim>
				</port>
			</output>
		</layer>
		<layer id="95" name="__module.model.encoder.layer.0.attention.self/aten::add/Add" type="Add" version="opset1">
			<data auto_broadcast="numpy" />
			<input>
				<port id="0" precision="FP32">
					<dim>-1</dim>
					<dim>12</dim>
					<dim>-1</dim>
					<dim>-1</dim>
				</port>
				<port id="1" precision="FP32">
					<dim>-1</dim>
					<dim>1</dim>
					<dim>1</dim>
					<dim>-1</dim>
				</port>
			</input>
			<output>
				<port id="2" precision="FP32" names="133,input.9">
					<dim>-1</dim>
					<dim>12</dim>
					<dim>-1</dim>
					<dim>-1</dim>
				</port>
			</output>
		</layer>
		<layer id="96" name="__module.model.encoder.layer.0.attention.self/aten::softmax/Softmax" type="SoftMax" version="opset8">
			<data axis="-1" />
			<input>
				<port id="0" precision="FP32">
					<dim>-1</dim>
					<dim>12</dim>
					<dim>-1</dim>
					<dim>-1</dim>
				</port>
			</input>
			<output>
				<port id="1" precision="FP32" names="134,input.11">
					<dim>-1</dim>
					<dim>12</dim>
					<dim>-1</dim>
					<dim>-1</dim>
				</port>
			</output>
		</layer>
		<layer id="97" name="Constant_1005214" type="Const" version="opset1">
			<data element_type="i8" shape="768, 768" offset="25159022" size="589824" />
			<output>
				<port id="0" precision="I8">
					<dim>768</dim>
					<dim>768</dim>
				</port>
			</output>
		</layer>
		<layer id="98" name="Convert_1005215" type="Convert" version="opset1">
			<data destination_type="f32" />
			<input>
				<port id="0" precision="I8">
					<dim>768</dim>
					<dim>768</dim>
				</port>
			</input>
			<output>
				<port id="1" precision="FP32">
					<dim>768</dim>
					<dim>768</dim>
				</port>
			</output>
		</layer>
		<layer id="99" name="Constant_1005216" type="Const" version="opset1">
			<data element_type="f32" shape="768, 1" offset="25748846" size="3072" />
			<output>
				<port id="0" precision="FP32">
					<dim>768</dim>
					<dim>1</dim>
				</port>
			</output>
		</layer>
		<layer id="100" name="__module.model.encoder.layer.0.attention.self.value/aten::linear/MatMul/fq_weights_1" type="Multiply" version="opset1">
			<data auto_broadcast="numpy" />
			<input>
				<port id="0" precision="FP32">
					<dim>768</dim>
					<dim>768</dim>
				</port>
				<port id="1" precision="FP32">
					<dim>768</dim>
					<dim>1</dim>
				</port>
			</input>
			<output>
				<port id="2" precision="FP32">
					<dim>768</dim>
					<dim>768</dim>
				</port>
			</output>
		</layer>
		<layer id="101" name="__module.model.encoder.layer.0.attention.self.value/aten::linear/MatMul" type="MatMul" version="opset1">
			<data transpose_a="false" transpose_b="true" />
			<input>
				<port id="0" precision="FP32">
					<dim>-1</dim>
					<dim>-1</dim>
					<dim>768</dim>
				</port>
				<port id="1" precision="FP32">
					<dim>768</dim>
					<dim>768</dim>
				</port>
			</input>
			<output>
				<port id="2" precision="FP32">
					<dim>-1</dim>
					<dim>-1</dim>
					<dim>768</dim>
				</port>
			</output>
		</layer>
		<layer id="102" name="Constant_26815_compressed" type="Const" version="opset1">
			<data element_type="f16" shape="1, 1, 768" offset="25751918" size="1536" />
			<output>
				<port id="0" precision="FP16">
					<dim>1</dim>
					<dim>1</dim>
					<dim>768</dim>
				</port>
			</output>
		</layer>
		<layer id="103" name="Constant_26815" type="Convert" version="opset1">
			<data destination_type="f32" />
			<rt_info>
				<attribute name="decompression" version="0" />
			</rt_info>
			<input>
				<port id="0" precision="FP16">
					<dim>1</dim>
					<dim>1</dim>
					<dim>768</dim>
				</port>
			</input>
			<output>
				<port id="1" precision="FP32">
					<dim>1</dim>
					<dim>1</dim>
					<dim>768</dim>
				</port>
			</output>
		</layer>
		<layer id="104" name="__module.model.encoder.layer.0.attention.self.value/aten::linear/Add" type="Add" version="opset1">
			<data auto_broadcast="numpy" />
			<input>
				<port id="0" precision="FP32">
					<dim>-1</dim>
					<dim>-1</dim>
					<dim>768</dim>
				</port>
				<port id="1" precision="FP32">
					<dim>1</dim>
					<dim>1</dim>
					<dim>768</dim>
				</port>
			</input>
			<output>
				<port id="2" precision="FP32" names="116,x.5">
					<dim>-1</dim>
					<dim>-1</dim>
					<dim>768</dim>
				</port>
			</output>
		</layer>
		<layer id="105" name="__module.model.encoder.layer.0.attention.self/prim::ListConstruct_2" type="Const" version="opset1">
			<data element_type="i64" shape="4" offset="24564504" size="32" />
			<rt_info>
				<attribute name="precise" version="0" />
			</rt_info>
			<output>
				<port id="0" precision="I64">
					<dim>4</dim>
				</port>
			</output>
		</layer>
		<layer id="106" name="__module.model.encoder.layer.0.attention.self/aten::view/Reshape_2" type="Reshape" version="opset1">
			<data special_zero="true" />
			<input>
				<port id="0" precision="FP32">
					<dim>-1</dim>
					<dim>-1</dim>
					<dim>768</dim>
				</port>
				<port id="1" precision="I64">
					<dim>4</dim>
				</port>
			</input>
			<output>
				<port id="2" precision="FP32" names="120,x.7">
					<dim>-1</dim>
					<dim>-1</dim>
					<dim>12</dim>
					<dim>64</dim>
				</port>
			</output>
		</layer>
		<layer id="107" name="Constant_10663" type="Const" version="opset1">
			<data element_type="i64" shape="4" offset="24564536" size="32" />
			<output>
				<port id="0" precision="I64" names="121">
					<dim>4</dim>
				</port>
			</output>
		</layer>
		<layer id="108" name="__module.model.encoder.layer.0.attention.self/aten::permute/Transpose_2" type="Transpose" version="opset1">
			<input>
				<port id="0" precision="FP32">
					<dim>-1</dim>
					<dim>-1</dim>
					<dim>12</dim>
					<dim>64</dim>
				</port>
				<port id="1" precision="I64">
					<dim>4</dim>
				</port>
			</input>
			<output>
				<port id="2" precision="FP32" names="122,value_layer.1">
					<dim>-1</dim>
					<dim>12</dim>
					<dim>-1</dim>
					<dim>64</dim>
				</port>
			</output>
		</layer>
		<layer id="109" name="__module.model.encoder.layer.0.attention.self/aten::matmul/MatMul_1" type="MatMul" version="opset1">
			<data transpose_a="false" transpose_b="false" />
			<input>
				<port id="0" precision="FP32">
					<dim>-1</dim>
					<dim>12</dim>
					<dim>-1</dim>
					<dim>-1</dim>
				</port>
				<port id="1" precision="FP32">
					<dim>-1</dim>
					<dim>12</dim>
					<dim>-1</dim>
					<dim>64</dim>
				</port>
			</input>
			<output>
				<port id="2" precision="FP32" names="136,context_layer.1">
					<dim>-1</dim>
					<dim>12</dim>
					<dim>-1</dim>
					<dim>64</dim>
				</port>
			</output>
		</layer>
		<layer id="110" name="Constant_10790" type="Const" version="opset1">
			<data element_type="i64" shape="4" offset="24564536" size="32" />
			<output>
				<port id="0" precision="I64" names="137">
					<dim>4</dim>
				</port>
			</output>
		</layer>
		<layer id="111" name="__module.model.encoder.layer.0.attention.self/aten::permute/Transpose_3" type="Transpose" version="opset1">
			<input>
				<port id="0" precision="FP32">
					<dim>-1</dim>
					<dim>12</dim>
					<dim>-1</dim>
					<dim>64</dim>
				</port>
				<port id="1" precision="I64">
					<dim>4</dim>
				</port>
			</input>
			<output>
				<port id="2" precision="FP32" names="138">
					<dim>-1</dim>
					<dim>-1</dim>
					<dim>12</dim>
					<dim>64</dim>
				</port>
			</output>
		</layer>
		<layer id="112" name="__module.model.encoder.layer.0.attention.self/prim::ListConstruct_3" type="Const" version="opset1">
			<data element_type="i64" shape="3" offset="25753454" size="24" />
			<rt_info>
				<attribute name="precise" version="0" />
			</rt_info>
			<output>
				<port id="0" precision="I64">
					<dim>3</dim>
				</port>
			</output>
		</layer>
		<layer id="113" name="__module.model.encoder.layer.0.attention.self/aten::view/Reshape_3" type="Reshape" version="opset1">
			<data special_zero="true" />
			<input>
				<port id="0" precision="FP32">
					<dim>-1</dim>
					<dim>-1</dim>
					<dim>12</dim>
					<dim>64</dim>
				</port>
				<port id="1" precision="I64">
					<dim>3</dim>
				</port>
			</input>
			<output>
				<port id="2" precision="FP32" names="143,145,input.13">
					<dim>-1</dim>
					<dim>-1</dim>
					<dim>768</dim>
				</port>
			</output>
		</layer>
		<layer id="114" name="__module.model.encoder.layer.0.attention.self/aten::view/Reshape_3_0_0/nncf_smooth_quant/scale" type="Const" version="opset1">
			<data element_type="f32" shape="1, 1, 768" offset="25753478" size="3072" />
			<output>
				<port id="0" precision="FP32">
					<dim>1</dim>
					<dim>1</dim>
					<dim>768</dim>
				</port>
			</output>
		</layer>
		<layer id="115" name="__module.model.encoder.layer.0.attention.self/aten::view/Reshape_3_0_0/nncf_smooth_quant" type="Multiply" version="opset1">
			<data auto_broadcast="numpy" />
			<input>
				<port id="0" precision="FP32">
					<dim>-1</dim>
					<dim>-1</dim>
					<dim>768</dim>
				</port>
				<port id="1" precision="FP32">
					<dim>1</dim>
					<dim>1</dim>
					<dim>768</dim>
				</port>
			</input>
			<output>
				<port id="2" precision="FP32">
					<dim>-1</dim>
					<dim>-1</dim>
					<dim>768</dim>
				</port>
			</output>
		</layer>
		<layer id="116" name="__module.model.encoder.layer.0.attention.self/aten::view/Reshape_3_0_0/nncf_smooth_quant/fq_output_0/input_low" type="Const" version="opset1">
			<data element_type="f32" shape="" offset="25756550" size="4" />
			<output>
				<port id="0" precision="FP32" />
			</output>
		</layer>
		<layer id="117" name="__module.model.encoder.layer.0.attention.self/aten::view/Reshape_3_0_0/nncf_smooth_quant/fq_output_0/input_high" type="Const" version="opset1">
			<data element_type="f32" shape="" offset="25756554" size="4" />
			<output>
				<port id="0" precision="FP32" />
			</output>
		</layer>
		<layer id="118" name="__module.model.encoder.layer.0.attention.self/aten::view/Reshape_3_0_0/nncf_smooth_quant/fq_output_0/output_low" type="Const" version="opset1">
			<data element_type="f32" shape="" offset="25756550" size="4" />
			<output>
				<port id="0" precision="FP32" />
			</output>
		</layer>
		<layer id="119" name="__module.model.encoder.layer.0.attention.self/aten::view/Reshape_3_0_0/nncf_smooth_quant/fq_output_0/output_high" type="Const" version="opset1">
			<data element_type="f32" shape="" offset="25756554" size="4" />
			<output>
				<port id="0" precision="FP32" />
			</output>
		</layer>
		<layer id="120" name="__module.model.encoder.layer.0.attention.self/aten::view/Reshape_3_0_0/nncf_smooth_quant/fq_output_0" type="FakeQuantize" version="opset1">
			<data levels="256" auto_broadcast="numpy" />
			<input>
				<port id="0" precision="FP32">
					<dim>-1</dim>
					<dim>-1</dim>
					<dim>768</dim>
				</port>
				<port id="1" precision="FP32" />
				<port id="2" precision="FP32" />
				<port id="3" precision="FP32" />
				<port id="4" precision="FP32" />
			</input>
			<output>
				<port id="5" precision="FP32">
					<dim>-1</dim>
					<dim>-1</dim>
					<dim>768</dim>
				</port>
			</output>
		</layer>
		<layer id="121" name="Constant_1005219" type="Const" version="opset1">
			<data element_type="i8" shape="768, 768" offset="25756558" size="589824" />
			<output>
				<port id="0" precision="I8">
					<dim>768</dim>
					<dim>768</dim>
				</port>
			</output>
		</layer>
		<layer id="122" name="Convert_1005220" type="Convert" version="opset1">
			<data destination_type="f32" />
			<input>
				<port id="0" precision="I8">
					<dim>768</dim>
					<dim>768</dim>
				</port>
			</input>
			<output>
				<port id="1" precision="FP32">
					<dim>768</dim>
					<dim>768</dim>
				</port>
			</output>
		</layer>
		<layer id="123" name="Constant_1005221" type="Const" version="opset1">
			<data element_type="f32" shape="768, 1" offset="26346382" size="3072" />
			<output>
				<port id="0" precision="FP32">
					<dim>768</dim>
					<dim>1</dim>
				</port>
			</output>
		</layer>
		<layer id="124" name="__module.model.encoder.layer.0.attention.output.dense/aten::linear/MatMul/fq_weights_1" type="Multiply" version="opset1">
			<data auto_broadcast="numpy" />
			<input>
				<port id="0" precision="FP32">
					<dim>768</dim>
					<dim>768</dim>
				</port>
				<port id="1" precision="FP32">
					<dim>768</dim>
					<dim>1</dim>
				</port>
			</input>
			<output>
				<port id="2" precision="FP32">
					<dim>768</dim>
					<dim>768</dim>
				</port>
			</output>
		</layer>
		<layer id="125" name="__module.model.encoder.layer.0.attention.output.dense/aten::linear/MatMul" type="MatMul" version="opset1">
			<data transpose_a="false" transpose_b="true" />
			<input>
				<port id="0" precision="FP32">
					<dim>-1</dim>
					<dim>-1</dim>
					<dim>768</dim>
				</port>
				<port id="1" precision="FP32">
					<dim>768</dim>
					<dim>768</dim>
				</port>
			</input>
			<output>
				<port id="2" precision="FP32">
					<dim>-1</dim>
					<dim>-1</dim>
					<dim>768</dim>
				</port>
			</output>
		</layer>
		<layer id="126" name="Constant_26816_compressed" type="Const" version="opset1">
			<data element_type="f16" shape="1, 1, 768" offset="26349454" size="1536" />
			<output>
				<port id="0" precision="FP16">
					<dim>1</dim>
					<dim>1</dim>
					<dim>768</dim>
				</port>
			</output>
		</layer>
		<layer id="127" name="Constant_26816" type="Convert" version="opset1">
			<data destination_type="f32" />
			<rt_info>
				<attribute name="decompression" version="0" />
			</rt_info>
			<input>
				<port id="0" precision="FP16">
					<dim>1</dim>
					<dim>1</dim>
					<dim>768</dim>
				</port>
			</input>
			<output>
				<port id="1" precision="FP32">
					<dim>1</dim>
					<dim>1</dim>
					<dim>768</dim>
				</port>
			</output>
		</layer>
		<layer id="128" name="__module.model.encoder.layer.0.attention.output.dense/aten::linear/Add" type="Add" version="opset1">
			<data auto_broadcast="numpy" />
			<input>
				<port id="0" precision="FP32">
					<dim>-1</dim>
					<dim>-1</dim>
					<dim>768</dim>
				</port>
				<port id="1" precision="FP32">
					<dim>1</dim>
					<dim>1</dim>
					<dim>768</dim>
				</port>
			</input>
			<output>
				<port id="2" precision="FP32" names="152,input.15">
					<dim>-1</dim>
					<dim>-1</dim>
					<dim>768</dim>
				</port>
			</output>
		</layer>
		<layer id="129" name="__module.model.encoder.layer.0.attention.output/aten::add/Add" type="Add" version="opset1">
			<data auto_broadcast="numpy" />
			<input>
				<port id="0" precision="FP32">
					<dim>-1</dim>
					<dim>-1</dim>
					<dim>768</dim>
				</port>
				<port id="1" precision="FP32">
					<dim>-1</dim>
					<dim>-1</dim>
					<dim>768</dim>
				</port>
			</input>
			<output>
				<port id="2" precision="FP32" names="154,input.17">
					<dim>-1</dim>
					<dim>-1</dim>
					<dim>768</dim>
				</port>
			</output>
		</layer>
		<layer id="130" name="__module.model.encoder.layer.0.attention.output.LayerNorm/aten::layer_norm/Multiply" type="Const" version="opset1">
			<data element_type="i32" shape="1" offset="23963908" size="4" />
			<output>
				<port id="0" precision="I32">
					<dim>1</dim>
				</port>
			</output>
		</layer>
		<layer id="131" name="__module.model.encoder.layer.0.attention.output.LayerNorm/aten::layer_norm/MVN" type="MVN" version="opset6">
			<data eps="9.999999960041972e-13" normalize_variance="true" eps_mode="INSIDE_SQRT" />
			<input>
				<port id="0" precision="FP32">
					<dim>-1</dim>
					<dim>-1</dim>
					<dim>768</dim>
				</port>
				<port id="1" precision="I32">
					<dim>1</dim>
				</port>
			</input>
			<output>
				<port id="2" precision="FP32">
					<dim>-1</dim>
					<dim>-1</dim>
					<dim>768</dim>
				</port>
			</output>
		</layer>
		<layer id="132" name="Constant_26817_compressed" type="Const" version="opset1">
			<data element_type="f16" shape="1, 1, 768" offset="26350990" size="1536" />
			<output>
				<port id="0" precision="FP16">
					<dim>1</dim>
					<dim>1</dim>
					<dim>768</dim>
				</port>
			</output>
		</layer>
		<layer id="133" name="Constant_26817" type="Convert" version="opset1">
			<data destination_type="f32" />
			<rt_info>
				<attribute name="decompression" version="0" />
			</rt_info>
			<input>
				<port id="0" precision="FP16">
					<dim>1</dim>
					<dim>1</dim>
					<dim>768</dim>
				</port>
			</input>
			<output>
				<port id="1" precision="FP32">
					<dim>1</dim>
					<dim>1</dim>
					<dim>768</dim>
				</port>
			</output>
		</layer>
		<layer id="134" name="__module.model.encoder.layer.0.attention.output.LayerNorm/aten::layer_norm/Multiply_1" type="Multiply" version="opset1">
			<data auto_broadcast="numpy" />
			<input>
				<port id="0" precision="FP32">
					<dim>-1</dim>
					<dim>-1</dim>
					<dim>768</dim>
				</port>
				<port id="1" precision="FP32">
					<dim>1</dim>
					<dim>1</dim>
					<dim>768</dim>
				</port>
			</input>
			<output>
				<port id="2" precision="FP32">
					<dim>-1</dim>
					<dim>-1</dim>
					<dim>768</dim>
				</port>
			</output>
		</layer>
		<layer id="135" name="Constant_26818_compressed" type="Const" version="opset1">
			<data element_type="f16" shape="1, 1, 768" offset="26352526" size="1536" />
			<output>
				<port id="0" precision="FP16">
					<dim>1</dim>
					<dim>1</dim>
					<dim>768</dim>
				</port>
			</output>
		</layer>
		<layer id="136" name="Constant_26818" type="Convert" version="opset1">
			<data destination_type="f32" />
			<rt_info>
				<attribute name="decompression" version="0" />
			</rt_info>
			<input>
				<port id="0" precision="FP16">
					<dim>1</dim>
					<dim>1</dim>
					<dim>768</dim>
				</port>
			</input>
			<output>
				<port id="1" precision="FP32">
					<dim>1</dim>
					<dim>1</dim>
					<dim>768</dim>
				</port>
			</output>
		</layer>
		<layer id="137" name="__module.model.encoder.layer.0.attention.output.LayerNorm/aten::layer_norm/Add" type="Add" version="opset1">
			<data auto_broadcast="numpy" />
			<input>
				<port id="0" precision="FP32">
					<dim>-1</dim>
					<dim>-1</dim>
					<dim>768</dim>
				</port>
				<port id="1" precision="FP32">
					<dim>1</dim>
					<dim>1</dim>
					<dim>768</dim>
				</port>
			</input>
			<output>
				<port id="2" precision="FP32" names="158,160,input.19">
					<dim>-1</dim>
					<dim>-1</dim>
					<dim>768</dim>
				</port>
			</output>
		</layer>
		<layer id="138" name="__module.model.encoder.layer.0.attention.output.LayerNorm/aten::layer_norm/Add_0_0/nncf_smooth_quant/scale" type="Const" version="opset1">
			<data element_type="f32" shape="1, 1, 768" offset="26354062" size="3072" />
			<output>
				<port id="0" precision="FP32">
					<dim>1</dim>
					<dim>1</dim>
					<dim>768</dim>
				</port>
			</output>
		</layer>
		<layer id="139" name="__module.model.encoder.layer.0.attention.output.LayerNorm/aten::layer_norm/Add_0_0/nncf_smooth_quant" type="Multiply" version="opset1">
			<data auto_broadcast="numpy" />
			<input>
				<port id="0" precision="FP32">
					<dim>-1</dim>
					<dim>-1</dim>
					<dim>768</dim>
				</port>
				<port id="1" precision="FP32">
					<dim>1</dim>
					<dim>1</dim>
					<dim>768</dim>
				</port>
			</input>
			<output>
				<port id="2" precision="FP32">
					<dim>-1</dim>
					<dim>-1</dim>
					<dim>768</dim>
				</port>
			</output>
		</layer>
		<layer id="140" name="__module.model.encoder.layer.0.attention.output.LayerNorm/aten::layer_norm/Add_0_0/nncf_smooth_quant/fq_output_0/input_low" type="Const" version="opset1">
			<data element_type="f32" shape="" offset="26357134" size="4" />
			<output>
				<port id="0" precision="FP32" />
			</output>
		</layer>
		<layer id="141" name="__module.model.encoder.layer.0.attention.output.LayerNorm/aten::layer_norm/Add_0_0/nncf_smooth_quant/fq_output_0/input_high" type="Const" version="opset1">
			<data element_type="f32" shape="" offset="26357138" size="4" />
			<output>
				<port id="0" precision="FP32" />
			</output>
		</layer>
		<layer id="142" name="__module.model.encoder.layer.0.attention.output.LayerNorm/aten::layer_norm/Add_0_0/nncf_smooth_quant/fq_output_0/output_low" type="Const" version="opset1">
			<data element_type="f32" shape="" offset="26357134" size="4" />
			<output>
				<port id="0" precision="FP32" />
			</output>
		</layer>
		<layer id="143" name="__module.model.encoder.layer.0.attention.output.LayerNorm/aten::layer_norm/Add_0_0/nncf_smooth_quant/fq_output_0/output_high" type="Const" version="opset1">
			<data element_type="f32" shape="" offset="26357138" size="4" />
			<output>
				<port id="0" precision="FP32" />
			</output>
		</layer>
		<layer id="144" name="__module.model.encoder.layer.0.attention.output.LayerNorm/aten::layer_norm/Add_0_0/nncf_smooth_quant/fq_output_0" type="FakeQuantize" version="opset1">
			<data levels="256" auto_broadcast="numpy" />
			<input>
				<port id="0" precision="FP32">
					<dim>-1</dim>
					<dim>-1</dim>
					<dim>768</dim>
				</port>
				<port id="1" precision="FP32" />
				<port id="2" precision="FP32" />
				<port id="3" precision="FP32" />
				<port id="4" precision="FP32" />
			</input>
			<output>
				<port id="5" precision="FP32">
					<dim>-1</dim>
					<dim>-1</dim>
					<dim>768</dim>
				</port>
			</output>
		</layer>
		<layer id="145" name="Constant_1005224" type="Const" version="opset1">
			<data element_type="i8" shape="768, 768" offset="26357142" size="589824" />
			<output>
				<port id="0" precision="I8">
					<dim>768</dim>
					<dim>768</dim>
				</port>
			</output>
		</layer>
		<layer id="146" name="Convert_1005225" type="Convert" version="opset1">
			<data destination_type="f32" />
			<input>
				<port id="0" precision="I8">
					<dim>768</dim>
					<dim>768</dim>
				</port>
			</input>
			<output>
				<port id="1" precision="FP32">
					<dim>768</dim>
					<dim>768</dim>
				</port>
			</output>
		</layer>
		<layer id="147" name="Constant_1005226" type="Const" version="opset1">
			<data element_type="f32" shape="768, 1" offset="26946966" size="3072" />
			<output>
				<port id="0" precision="FP32">
					<dim>768</dim>
					<dim>1</dim>
				</port>
			</output>
		</layer>
		<layer id="148" name="__module.model.encoder.layer.0.crossattention.self.query/aten::linear/MatMul/fq_weights_1" type="Multiply" version="opset1">
			<data auto_broadcast="numpy" />
			<input>
				<port id="0" precision="FP32">
					<dim>768</dim>
					<dim>768</dim>
				</port>
				<port id="1" precision="FP32">
					<dim>768</dim>
					<dim>1</dim>
				</port>
			</input>
			<output>
				<port id="2" precision="FP32">
					<dim>768</dim>
					<dim>768</dim>
				</port>
			</output>
		</layer>
		<layer id="149" name="__module.model.encoder.layer.0.crossattention.self.query/aten::linear/MatMul" type="MatMul" version="opset1">
			<data transpose_a="false" transpose_b="true" />
			<input>
				<port id="0" precision="FP32">
					<dim>-1</dim>
					<dim>-1</dim>
					<dim>768</dim>
				</port>
				<port id="1" precision="FP32">
					<dim>768</dim>
					<dim>768</dim>
				</port>
			</input>
			<output>
				<port id="2" precision="FP32">
					<dim>-1</dim>
					<dim>-1</dim>
					<dim>768</dim>
				</port>
			</output>
		</layer>
		<layer id="150" name="Constant_26819_compressed" type="Const" version="opset1">
			<data element_type="f16" shape="1, 1, 768" offset="26950038" size="1536" />
			<output>
				<port id="0" precision="FP16">
					<dim>1</dim>
					<dim>1</dim>
					<dim>768</dim>
				</port>
			</output>
		</layer>
		<layer id="151" name="Constant_26819" type="Convert" version="opset1">
			<data destination_type="f32" />
			<rt_info>
				<attribute name="decompression" version="0" />
			</rt_info>
			<input>
				<port id="0" precision="FP16">
					<dim>1</dim>
					<dim>1</dim>
					<dim>768</dim>
				</port>
			</input>
			<output>
				<port id="1" precision="FP32">
					<dim>1</dim>
					<dim>1</dim>
					<dim>768</dim>
				</port>
			</output>
		</layer>
		<layer id="152" name="__module.model.encoder.layer.0.crossattention.self.query/aten::linear/Add" type="Add" version="opset1">
			<data auto_broadcast="numpy" />
			<input>
				<port id="0" precision="FP32">
					<dim>-1</dim>
					<dim>-1</dim>
					<dim>768</dim>
				</port>
				<port id="1" precision="FP32">
					<dim>1</dim>
					<dim>1</dim>
					<dim>768</dim>
				</port>
			</input>
			<output>
				<port id="2" precision="FP32" names="169,x.21">
					<dim>-1</dim>
					<dim>-1</dim>
					<dim>768</dim>
				</port>
			</output>
		</layer>
		<layer id="153" name="__module.model.encoder.layer.0.crossattention.self.query/aten::linear/Add/fq_output_0/input_low" type="Const" version="opset1">
			<data element_type="f32" shape="" offset="26951574" size="4" />
			<output>
				<port id="0" precision="FP32" />
			</output>
		</layer>
		<layer id="154" name="__module.model.encoder.layer.0.crossattention.self.query/aten::linear/Add/fq_output_0/input_high" type="Const" version="opset1">
			<data element_type="f32" shape="" offset="26951578" size="4" />
			<output>
				<port id="0" precision="FP32" />
			</output>
		</layer>
		<layer id="155" name="__module.model.encoder.layer.0.crossattention.self.query/aten::linear/Add/fq_output_0/output_low" type="Const" version="opset1">
			<data element_type="f32" shape="" offset="26951574" size="4" />
			<output>
				<port id="0" precision="FP32" />
			</output>
		</layer>
		<layer id="156" name="__module.model.encoder.layer.0.crossattention.self.query/aten::linear/Add/fq_output_0/output_high" type="Const" version="opset1">
			<data element_type="f32" shape="" offset="26951578" size="4" />
			<output>
				<port id="0" precision="FP32" />
			</output>
		</layer>
		<layer id="157" name="__module.model.encoder.layer.0.crossattention.self.query/aten::linear/Add/fq_output_0" type="FakeQuantize" version="opset1">
			<data levels="256" auto_broadcast="numpy" />
			<input>
				<port id="0" precision="FP32">
					<dim>-1</dim>
					<dim>-1</dim>
					<dim>768</dim>
				</port>
				<port id="1" precision="FP32" />
				<port id="2" precision="FP32" />
				<port id="3" precision="FP32" />
				<port id="4" precision="FP32" />
			</input>
			<output>
				<port id="5" precision="FP32">
					<dim>-1</dim>
					<dim>-1</dim>
					<dim>768</dim>
				</port>
			</output>
		</layer>
		<layer id="158" name="__module.model.encoder.layer.0.crossattention.self/prim::ListConstruct" type="Const" version="opset1">
			<data element_type="i64" shape="4" offset="24564504" size="32" />
			<rt_info>
				<attribute name="precise" version="0" />
			</rt_info>
			<output>
				<port id="0" precision="I64">
					<dim>4</dim>
				</port>
			</output>
		</layer>
		<layer id="159" name="__module.model.encoder.layer.0.crossattention.self/aten::view/Reshape" type="Reshape" version="opset1">
			<data special_zero="true" />
			<input>
				<port id="0" precision="FP32">
					<dim>-1</dim>
					<dim>-1</dim>
					<dim>768</dim>
				</port>
				<port id="1" precision="I64">
					<dim>4</dim>
				</port>
			</input>
			<output>
				<port id="2" precision="FP32" names="191,x.23">
					<dim>-1</dim>
					<dim>-1</dim>
					<dim>12</dim>
					<dim>64</dim>
				</port>
			</output>
		</layer>
		<layer id="160" name="Constant_10951" type="Const" version="opset1">
			<data element_type="i64" shape="4" offset="24564536" size="32" />
			<output>
				<port id="0" precision="I64" names="192">
					<dim>4</dim>
				</port>
			</output>
		</layer>
		<layer id="161" name="__module.model.encoder.layer.0.crossattention.self/aten::permute/Transpose" type="Transpose" version="opset1">
			<input>
				<port id="0" precision="FP32">
					<dim>-1</dim>
					<dim>-1</dim>
					<dim>12</dim>
					<dim>64</dim>
				</port>
				<port id="1" precision="I64">
					<dim>4</dim>
				</port>
			</input>
			<output>
				<port id="2" precision="FP32" names="193,query_layer.3">
					<dim>-1</dim>
					<dim>12</dim>
					<dim>-1</dim>
					<dim>64</dim>
				</port>
			</output>
		</layer>
		<layer id="162" name="encoder_hidden_states_0_0/nncf_smooth_quant/scale" type="Const" version="opset1">
			<data element_type="f32" shape="1, 1, 768" offset="26951582" size="3072" />
			<output>
				<port id="0" precision="FP32">
					<dim>1</dim>
					<dim>1</dim>
					<dim>768</dim>
				</port>
			</output>
		</layer>
		<layer id="163" name="encoder_hidden_states_0_0/nncf_smooth_quant" type="Multiply" version="opset1">
			<data auto_broadcast="numpy" />
			<input>
				<port id="0" precision="FP32">
					<dim>-1</dim>
					<dim>-1</dim>
					<dim>-1</dim>
				</port>
				<port id="1" precision="FP32">
					<dim>1</dim>
					<dim>1</dim>
					<dim>768</dim>
				</port>
			</input>
			<output>
				<port id="2" precision="FP32">
					<dim>-1</dim>
					<dim>-1</dim>
					<dim>768</dim>
				</port>
			</output>
		</layer>
		<layer id="164" name="encoder_hidden_states_0_0/nncf_smooth_quant/fq_output_0/input_low" type="Const" version="opset1">
			<data element_type="f32" shape="" offset="26954654" size="4" />
			<output>
				<port id="0" precision="FP32" />
			</output>
		</layer>
		<layer id="165" name="encoder_hidden_states_0_0/nncf_smooth_quant/fq_output_0/input_high" type="Const" version="opset1">
			<data element_type="f32" shape="" offset="26954658" size="4" />
			<output>
				<port id="0" precision="FP32" />
			</output>
		</layer>
		<layer id="166" name="encoder_hidden_states_0_0/nncf_smooth_quant/fq_output_0/output_low" type="Const" version="opset1">
			<data element_type="f32" shape="" offset="26954654" size="4" />
			<output>
				<port id="0" precision="FP32" />
			</output>
		</layer>
		<layer id="167" name="encoder_hidden_states_0_0/nncf_smooth_quant/fq_output_0/output_high" type="Const" version="opset1">
			<data element_type="f32" shape="" offset="26954658" size="4" />
			<output>
				<port id="0" precision="FP32" />
			</output>
		</layer>
		<layer id="168" name="encoder_hidden_states_0_0/nncf_smooth_quant/fq_output_0" type="FakeQuantize" version="opset1">
			<data levels="256" auto_broadcast="numpy" />
			<input>
				<port id="0" precision="FP32">
					<dim>-1</dim>
					<dim>-1</dim>
					<dim>768</dim>
				</port>
				<port id="1" precision="FP32" />
				<port id="2" precision="FP32" />
				<port id="3" precision="FP32" />
				<port id="4" precision="FP32" />
			</input>
			<output>
				<port id="5" precision="FP32">
					<dim>-1</dim>
					<dim>-1</dim>
					<dim>768</dim>
				</port>
			</output>
		</layer>
		<layer id="169" name="Constant_1005229" type="Const" version="opset1">
			<data element_type="i8" shape="768, 768" offset="26954662" size="589824" />
			<output>
				<port id="0" precision="I8">
					<dim>768</dim>
					<dim>768</dim>
				</port>
			</output>
		</layer>
		<layer id="170" name="Convert_1005230" type="Convert" version="opset1">
			<data destination_type="f32" />
			<input>
				<port id="0" precision="I8">
					<dim>768</dim>
					<dim>768</dim>
				</port>
			</input>
			<output>
				<port id="1" precision="FP32">
					<dim>768</dim>
					<dim>768</dim>
				</port>
			</output>
		</layer>
		<layer id="171" name="Constant_1005231" type="Const" version="opset1">
			<data element_type="f32" shape="768, 1" offset="27544486" size="3072" />
			<output>
				<port id="0" precision="FP32">
					<dim>768</dim>
					<dim>1</dim>
				</port>
			</output>
		</layer>
		<layer id="172" name="__module.model.encoder.layer.0.crossattention.self.key/aten::linear/MatMul/fq_weights_1" type="Multiply" version="opset1">
			<data auto_broadcast="numpy" />
			<input>
				<port id="0" precision="FP32">
					<dim>768</dim>
					<dim>768</dim>
				</port>
				<port id="1" precision="FP32">
					<dim>768</dim>
					<dim>1</dim>
				</port>
			</input>
			<output>
				<port id="2" precision="FP32">
					<dim>768</dim>
					<dim>768</dim>
				</port>
			</output>
		</layer>
		<layer id="173" name="__module.model.encoder.layer.0.crossattention.self.key/aten::linear/MatMul" type="MatMul" version="opset1">
			<data transpose_a="false" transpose_b="true" />
			<input>
				<port id="0" precision="FP32">
					<dim>-1</dim>
					<dim>-1</dim>
					<dim>768</dim>
				</port>
				<port id="1" precision="FP32">
					<dim>768</dim>
					<dim>768</dim>
				</port>
			</input>
			<output>
				<port id="2" precision="FP32">
					<dim>-1</dim>
					<dim>-1</dim>
					<dim>768</dim>
				</port>
			</output>
		</layer>
		<layer id="174" name="Constant_26820_compressed" type="Const" version="opset1">
			<data element_type="f16" shape="1, 1, 768" offset="27547558" size="1536" />
			<output>
				<port id="0" precision="FP16">
					<dim>1</dim>
					<dim>1</dim>
					<dim>768</dim>
				</port>
			</output>
		</layer>
		<layer id="175" name="Constant_26820" type="Convert" version="opset1">
			<data destination_type="f32" />
			<rt_info>
				<attribute name="decompression" version="0" />
			</rt_info>
			<input>
				<port id="0" precision="FP16">
					<dim>1</dim>
					<dim>1</dim>
					<dim>768</dim>
				</port>
			</input>
			<output>
				<port id="1" precision="FP32">
					<dim>1</dim>
					<dim>1</dim>
					<dim>768</dim>
				</port>
			</output>
		</layer>
		<layer id="176" name="__module.model.encoder.layer.0.crossattention.self.key/aten::linear/Add" type="Add" version="opset1">
			<data auto_broadcast="numpy" />
			<input>
				<port id="0" precision="FP32">
					<dim>-1</dim>
					<dim>-1</dim>
					<dim>768</dim>
				</port>
				<port id="1" precision="FP32">
					<dim>1</dim>
					<dim>1</dim>
					<dim>768</dim>
				</port>
			</input>
			<output>
				<port id="2" precision="FP32" names="172,x.13">
					<dim>-1</dim>
					<dim>-1</dim>
					<dim>768</dim>
				</port>
			</output>
		</layer>
		<layer id="177" name="__module.model.encoder.layer.0.crossattention.self.key/aten::linear/Add/fq_output_0/input_low" type="Const" version="opset1">
			<data element_type="f32" shape="" offset="27549094" size="4" />
			<output>
				<port id="0" precision="FP32" />
			</output>
		</layer>
		<layer id="178" name="__module.model.encoder.layer.0.crossattention.self.key/aten::linear/Add/fq_output_0/input_high" type="Const" version="opset1">
			<data element_type="f32" shape="" offset="27549098" size="4" />
			<output>
				<port id="0" precision="FP32" />
			</output>
		</layer>
		<layer id="179" name="__module.model.encoder.layer.0.crossattention.self.key/aten::linear/Add/fq_output_0/output_low" type="Const" version="opset1">
			<data element_type="f32" shape="" offset="27549094" size="4" />
			<output>
				<port id="0" precision="FP32" />
			</output>
		</layer>
		<layer id="180" name="__module.model.encoder.layer.0.crossattention.self.key/aten::linear/Add/fq_output_0/output_high" type="Const" version="opset1">
			<data element_type="f32" shape="" offset="27549098" size="4" />
			<output>
				<port id="0" precision="FP32" />
			</output>
		</layer>
		<layer id="181" name="__module.model.encoder.layer.0.crossattention.self.key/aten::linear/Add/fq_output_0" type="FakeQuantize" version="opset1">
			<data levels="256" auto_broadcast="numpy" />
			<input>
				<port id="0" precision="FP32">
					<dim>-1</dim>
					<dim>-1</dim>
					<dim>768</dim>
				</port>
				<port id="1" precision="FP32" />
				<port id="2" precision="FP32" />
				<port id="3" precision="FP32" />
				<port id="4" precision="FP32" />
			</input>
			<output>
				<port id="5" precision="FP32">
					<dim>-1</dim>
					<dim>-1</dim>
					<dim>768</dim>
				</port>
			</output>
		</layer>
		<layer id="182" name="__module.model.encoder.layer.0.crossattention.self/prim::ListConstruct_1" type="Const" version="opset1">
			<data element_type="i64" shape="4" offset="24564504" size="32" />
			<rt_info>
				<attribute name="precise" version="0" />
			</rt_info>
			<output>
				<port id="0" precision="I64">
					<dim>4</dim>
				</port>
			</output>
		</layer>
		<layer id="183" name="__module.model.encoder.layer.0.crossattention.self/aten::view/Reshape_1" type="Reshape" version="opset1">
			<data special_zero="true" />
			<input>
				<port id="0" precision="FP32">
					<dim>-1</dim>
					<dim>-1</dim>
					<dim>768</dim>
				</port>
				<port id="1" precision="I64">
					<dim>4</dim>
				</port>
			</input>
			<output>
				<port id="2" precision="FP32" names="176,x.15">
					<dim>-1</dim>
					<dim>-1</dim>
					<dim>12</dim>
					<dim>64</dim>
				</port>
			</output>
		</layer>
		<layer id="184" name="Constant_10889" type="Const" version="opset1">
			<data element_type="i64" shape="4" offset="24564536" size="32" />
			<output>
				<port id="0" precision="I64" names="177">
					<dim>4</dim>
				</port>
			</output>
		</layer>
		<layer id="185" name="__module.model.encoder.layer.0.crossattention.self/aten::permute/Transpose_1" type="Transpose" version="opset1">
			<input>
				<port id="0" precision="FP32">
					<dim>-1</dim>
					<dim>-1</dim>
					<dim>12</dim>
					<dim>64</dim>
				</port>
				<port id="1" precision="I64">
					<dim>4</dim>
				</port>
			</input>
			<output>
				<port id="2" precision="FP32" names="178,key_layer.3">
					<dim>-1</dim>
					<dim>12</dim>
					<dim>-1</dim>
					<dim>64</dim>
				</port>
			</output>
		</layer>
		<layer id="186" name="__module.model.encoder.layer.0.crossattention.self/aten::matmul/MatMul" type="MatMul" version="opset1">
			<data transpose_a="false" transpose_b="true" />
			<input>
				<port id="0" precision="FP32">
					<dim>-1</dim>
					<dim>12</dim>
					<dim>-1</dim>
					<dim>64</dim>
				</port>
				<port id="1" precision="FP32">
					<dim>-1</dim>
					<dim>12</dim>
					<dim>-1</dim>
					<dim>64</dim>
				</port>
			</input>
			<output>
				<port id="2" precision="FP32" names="195,attention_scores.5">
					<dim>-1</dim>
					<dim>12</dim>
					<dim>-1</dim>
					<dim>-1</dim>
				</port>
			</output>
		</layer>
		<layer id="187" name="Constant_26821_compressed" type="Const" version="opset1">
			<data element_type="f16" shape="1, 1, 1, 1" offset="25159008" size="2" />
			<output>
				<port id="0" precision="FP16">
					<dim>1</dim>
					<dim>1</dim>
					<dim>1</dim>
					<dim>1</dim>
				</port>
			</output>
		</layer>
		<layer id="188" name="Constant_26821" type="Convert" version="opset1">
			<data destination_type="f32" />
			<rt_info>
				<attribute name="decompression" version="0" />
			</rt_info>
			<input>
				<port id="0" precision="FP16">
					<dim>1</dim>
					<dim>1</dim>
					<dim>1</dim>
					<dim>1</dim>
				</port>
			</input>
			<output>
				<port id="1" precision="FP32">
					<dim>1</dim>
					<dim>1</dim>
					<dim>1</dim>
					<dim>1</dim>
				</port>
			</output>
		</layer>
		<layer id="189" name="__module.model.encoder.layer.0.crossattention.self/aten::div/Divide" type="Divide" version="opset1">
			<data auto_broadcast="numpy" m_pythondiv="true" />
			<input>
				<port id="0" precision="FP32">
					<dim>-1</dim>
					<dim>12</dim>
					<dim>-1</dim>
					<dim>-1</dim>
				</port>
				<port id="1" precision="FP32">
					<dim>1</dim>
					<dim>1</dim>
					<dim>1</dim>
					<dim>1</dim>
				</port>
			</input>
			<output>
				<port id="2" precision="FP32" names="196,attention_scores.7">
					<dim>-1</dim>
					<dim>12</dim>
					<dim>-1</dim>
					<dim>-1</dim>
				</port>
			</output>
		</layer>
		<layer id="190" name="Constant_26823_compressed" type="Const" version="opset1">
			<data element_type="f16" shape="1, 1, 1, 1" offset="25159010" size="2" />
			<output>
				<port id="0" precision="FP16">
					<dim>1</dim>
					<dim>1</dim>
					<dim>1</dim>
					<dim>1</dim>
				</port>
			</output>
		</layer>
		<layer id="191" name="Constant_26823" type="Convert" version="opset1">
			<data destination_type="f32" />
			<rt_info>
				<attribute name="decompression" version="0" />
			</rt_info>
			<input>
				<port id="0" precision="FP16">
					<dim>1</dim>
					<dim>1</dim>
					<dim>1</dim>
					<dim>1</dim>
				</port>
			</input>
			<output>
				<port id="1" precision="FP32">
					<dim>1</dim>
					<dim>1</dim>
					<dim>1</dim>
					<dim>1</dim>
				</port>
			</output>
		</layer>
		<layer id="192" name="__module.model/aten::unsqueeze/Unsqueeze_2" type="Unsqueeze" version="opset1">
			<input>
				<port id="0" precision="I64">
					<dim>-1</dim>
					<dim>-1</dim>
				</port>
				<port id="1" precision="I64" />
			</input>
			<output>
				<port id="2" precision="I64" names="42">
					<dim>-1</dim>
					<dim>1</dim>
					<dim>-1</dim>
				</port>
			</output>
		</layer>
		<layer id="193" name="__module.model/aten::unsqueeze/Unsqueeze_3" type="Unsqueeze" version="opset1">
			<input>
				<port id="0" precision="I64">
					<dim>-1</dim>
					<dim>1</dim>
					<dim>-1</dim>
				</port>
				<port id="1" precision="I64" />
			</input>
			<output>
				<port id="2" precision="I64" names="43,44,encoder_extended_attention_mask">
					<dim>-1</dim>
					<dim>1</dim>
					<dim>1</dim>
					<dim>-1</dim>
				</port>
			</output>
		</layer>
		<layer id="194" name="__module.model/aten::to/Convert_1" type="Convert" version="opset1">
			<data destination_type="f32" />
			<input>
				<port id="0" precision="I64">
					<dim>-1</dim>
					<dim>1</dim>
					<dim>1</dim>
					<dim>-1</dim>
				</port>
			</input>
			<output>
				<port id="1" precision="FP32" names="45">
					<dim>-1</dim>
					<dim>1</dim>
					<dim>1</dim>
					<dim>-1</dim>
				</port>
			</output>
		</layer>
		<layer id="195" name="Constant_26822_compressed" type="Const" version="opset1">
			<data element_type="f16" shape="1, 1, 1, 1" offset="25159010" size="2" />
			<output>
				<port id="0" precision="FP16">
					<dim>1</dim>
					<dim>1</dim>
					<dim>1</dim>
					<dim>1</dim>
				</port>
			</output>
		</layer>
		<layer id="196" name="Constant_26822" type="Convert" version="opset1">
			<data destination_type="f32" />
			<rt_info>
				<attribute name="decompression" version="0" />
			</rt_info>
			<input>
				<port id="0" precision="FP16">
					<dim>1</dim>
					<dim>1</dim>
					<dim>1</dim>
					<dim>1</dim>
				</port>
			</input>
			<output>
				<port id="1" precision="FP32">
					<dim>1</dim>
					<dim>1</dim>
					<dim>1</dim>
					<dim>1</dim>
				</port>
			</output>
		</layer>
		<layer id="197" name="__module.model/aten::rsub/Multiply_1" type="Multiply" version="opset1">
			<data auto_broadcast="numpy" />
			<input>
				<port id="0" precision="FP32">
					<dim>-1</dim>
					<dim>1</dim>
					<dim>1</dim>
					<dim>-1</dim>
				</port>
				<port id="1" precision="FP32">
					<dim>1</dim>
					<dim>1</dim>
					<dim>1</dim>
					<dim>1</dim>
				</port>
			</input>
			<output>
				<port id="2" precision="FP32">
					<dim>-1</dim>
					<dim>1</dim>
					<dim>1</dim>
					<dim>-1</dim>
				</port>
			</output>
		</layer>
		<layer id="198" name="__module.model/aten::rsub/Subtract_1" type="Subtract" version="opset1">
			<data auto_broadcast="numpy" />
			<input>
				<port id="0" precision="FP32">
					<dim>1</dim>
					<dim>1</dim>
					<dim>1</dim>
					<dim>1</dim>
				</port>
				<port id="1" precision="FP32">
					<dim>-1</dim>
					<dim>1</dim>
					<dim>1</dim>
					<dim>-1</dim>
				</port>
			</input>
			<output>
				<port id="2" precision="FP32" names="46">
					<dim>-1</dim>
					<dim>1</dim>
					<dim>1</dim>
					<dim>-1</dim>
				</port>
			</output>
		</layer>
		<layer id="199" name="Constant_26824" type="Const" version="opset1">
			<data element_type="f32" shape="1, 1, 1, 1" offset="27549102" size="4" />
			<output>
				<port id="0" precision="FP32">
					<dim>1</dim>
					<dim>1</dim>
					<dim>1</dim>
					<dim>1</dim>
				</port>
			</output>
		</layer>
		<layer id="200" name="__module.model/aten::mul/Multiply_1" type="Multiply" version="opset1">
			<data auto_broadcast="numpy" />
			<input>
				<port id="0" precision="FP32">
					<dim>-1</dim>
					<dim>1</dim>
					<dim>1</dim>
					<dim>-1</dim>
				</port>
				<port id="1" precision="FP32">
					<dim>1</dim>
					<dim>1</dim>
					<dim>1</dim>
					<dim>1</dim>
				</port>
			</input>
			<output>
				<port id="2" precision="FP32" names="1006,1028,1133,1147,1162,1184,1289,1303,1318,1340,1445,1459,1474,1496,1601,1615,1630,1652,1757,1771,1786,1808,1907,197,211,226,248,353,367,382,404,47,509,523,538,560,665,679,694,716,821,835,850,872,977,991,attention_mask.13,attention_mask.17,attention_mask.21,attention_mask.25,attention_mask.29,attention_mask.33,attention_mask.37,attention_mask.41,attention_mask.45,attention_mask.49,attention_mask.7,attention_mask.9,attention_mask_1">
					<dim>-1</dim>
					<dim>1</dim>
					<dim>1</dim>
					<dim>-1</dim>
				</port>
			</output>
		</layer>
		<layer id="201" name="__module.model.encoder.layer.0.crossattention.self/aten::add/Add" type="Add" version="opset1">
			<data auto_broadcast="numpy" />
			<input>
				<port id="0" precision="FP32">
					<dim>-1</dim>
					<dim>12</dim>
					<dim>-1</dim>
					<dim>-1</dim>
				</port>
				<port id="1" precision="FP32">
					<dim>-1</dim>
					<dim>1</dim>
					<dim>1</dim>
					<dim>-1</dim>
				</port>
			</input>
			<output>
				<port id="2" precision="FP32" names="198,input.21">
					<dim>-1</dim>
					<dim>12</dim>
					<dim>-1</dim>
					<dim>-1</dim>
				</port>
			</output>
		</layer>
		<layer id="202" name="__module.model.encoder.layer.0.crossattention.self/aten::softmax/Softmax" type="SoftMax" version="opset8">
			<data axis="-1" />
			<input>
				<port id="0" precision="FP32">
					<dim>-1</dim>
					<dim>12</dim>
					<dim>-1</dim>
					<dim>-1</dim>
				</port>
			</input>
			<output>
				<port id="1" precision="FP32" names="199,input.23">
					<dim>-1</dim>
					<dim>12</dim>
					<dim>-1</dim>
					<dim>-1</dim>
				</port>
			</output>
		</layer>
		<layer id="203" name="Constant_1005234" type="Const" version="opset1">
			<data element_type="i8" shape="768, 768" offset="27549106" size="589824" />
			<output>
				<port id="0" precision="I8">
					<dim>768</dim>
					<dim>768</dim>
				</port>
			</output>
		</layer>
		<layer id="204" name="Convert_1005235" type="Convert" version="opset1">
			<data destination_type="f32" />
			<input>
				<port id="0" precision="I8">
					<dim>768</dim>
					<dim>768</dim>
				</port>
			</input>
			<output>
				<port id="1" precision="FP32">
					<dim>768</dim>
					<dim>768</dim>
				</port>
			</output>
		</layer>
		<layer id="205" name="Constant_1005236" type="Const" version="opset1">
			<data element_type="f32" shape="768, 1" offset="28138930" size="3072" />
			<output>
				<port id="0" precision="FP32">
					<dim>768</dim>
					<dim>1</dim>
				</port>
			</output>
		</layer>
		<layer id="206" name="__module.model.encoder.layer.0.crossattention.self.value/aten::linear/MatMul/fq_weights_1" type="Multiply" version="opset1">
			<data auto_broadcast="numpy" />
			<input>
				<port id="0" precision="FP32">
					<dim>768</dim>
					<dim>768</dim>
				</port>
				<port id="1" precision="FP32">
					<dim>768</dim>
					<dim>1</dim>
				</port>
			</input>
			<output>
				<port id="2" precision="FP32">
					<dim>768</dim>
					<dim>768</dim>
				</port>
			</output>
		</layer>
		<layer id="207" name="__module.model.encoder.layer.0.crossattention.self.value/aten::linear/MatMul" type="MatMul" version="opset1">
			<data transpose_a="false" transpose_b="true" />
			<input>
				<port id="0" precision="FP32">
					<dim>-1</dim>
					<dim>-1</dim>
					<dim>768</dim>
				</port>
				<port id="1" precision="FP32">
					<dim>768</dim>
					<dim>768</dim>
				</port>
			</input>
			<output>
				<port id="2" precision="FP32">
					<dim>-1</dim>
					<dim>-1</dim>
					<dim>768</dim>
				</port>
			</output>
		</layer>
		<layer id="208" name="Constant_26825_compressed" type="Const" version="opset1">
			<data element_type="f16" shape="1, 1, 768" offset="28142002" size="1536" />
			<output>
				<port id="0" precision="FP16">
					<dim>1</dim>
					<dim>1</dim>
					<dim>768</dim>
				</port>
			</output>
		</layer>
		<layer id="209" name="Constant_26825" type="Convert" version="opset1">
			<data destination_type="f32" />
			<rt_info>
				<attribute name="decompression" version="0" />
			</rt_info>
			<input>
				<port id="0" precision="FP16">
					<dim>1</dim>
					<dim>1</dim>
					<dim>768</dim>
				</port>
			</input>
			<output>
				<port id="1" precision="FP32">
					<dim>1</dim>
					<dim>1</dim>
					<dim>768</dim>
				</port>
			</output>
		</layer>
		<layer id="210" name="__module.model.encoder.layer.0.crossattention.self.value/aten::linear/Add" type="Add" version="opset1">
			<data auto_broadcast="numpy" />
			<input>
				<port id="0" precision="FP32">
					<dim>-1</dim>
					<dim>-1</dim>
					<dim>768</dim>
				</port>
				<port id="1" precision="FP32">
					<dim>1</dim>
					<dim>1</dim>
					<dim>768</dim>
				</port>
			</input>
			<output>
				<port id="2" precision="FP32" names="181,x.17">
					<dim>-1</dim>
					<dim>-1</dim>
					<dim>768</dim>
				</port>
			</output>
		</layer>
		<layer id="211" name="__module.model.encoder.layer.0.crossattention.self/prim::ListConstruct_2" type="Const" version="opset1">
			<data element_type="i64" shape="4" offset="24564504" size="32" />
			<rt_info>
				<attribute name="precise" version="0" />
			</rt_info>
			<output>
				<port id="0" precision="I64">
					<dim>4</dim>
				</port>
			</output>
		</layer>
		<layer id="212" name="__module.model.encoder.layer.0.crossattention.self/aten::view/Reshape_2" type="Reshape" version="opset1">
			<data special_zero="true" />
			<input>
				<port id="0" precision="FP32">
					<dim>-1</dim>
					<dim>-1</dim>
					<dim>768</dim>
				</port>
				<port id="1" precision="I64">
					<dim>4</dim>
				</port>
			</input>
			<output>
				<port id="2" precision="FP32" names="185,x.19">
					<dim>-1</dim>
					<dim>-1</dim>
					<dim>12</dim>
					<dim>64</dim>
				</port>
			</output>
		</layer>
		<layer id="213" name="Constant_10923" type="Const" version="opset1">
			<data element_type="i64" shape="4" offset="24564536" size="32" />
			<output>
				<port id="0" precision="I64" names="186">
					<dim>4</dim>
				</port>
			</output>
		</layer>
		<layer id="214" name="__module.model.encoder.layer.0.crossattention.self/aten::permute/Transpose_2" type="Transpose" version="opset1">
			<input>
				<port id="0" precision="FP32">
					<dim>-1</dim>
					<dim>-1</dim>
					<dim>12</dim>
					<dim>64</dim>
				</port>
				<port id="1" precision="I64">
					<dim>4</dim>
				</port>
			</input>
			<output>
				<port id="2" precision="FP32" names="187,value_layer.3">
					<dim>-1</dim>
					<dim>12</dim>
					<dim>-1</dim>
					<dim>64</dim>
				</port>
			</output>
		</layer>
		<layer id="215" name="__module.model.encoder.layer.0.crossattention.self/aten::matmul/MatMul_1" type="MatMul" version="opset1">
			<data transpose_a="false" transpose_b="false" />
			<input>
				<port id="0" precision="FP32">
					<dim>-1</dim>
					<dim>12</dim>
					<dim>-1</dim>
					<dim>-1</dim>
				</port>
				<port id="1" precision="FP32">
					<dim>-1</dim>
					<dim>12</dim>
					<dim>-1</dim>
					<dim>64</dim>
				</port>
			</input>
			<output>
				<port id="2" precision="FP32" names="201,context_layer.5">
					<dim>-1</dim>
					<dim>12</dim>
					<dim>-1</dim>
					<dim>64</dim>
				</port>
			</output>
		</layer>
		<layer id="216" name="Constant_11050" type="Const" version="opset1">
			<data element_type="i64" shape="4" offset="24564536" size="32" />
			<output>
				<port id="0" precision="I64" names="202">
					<dim>4</dim>
				</port>
			</output>
		</layer>
		<layer id="217" name="__module.model.encoder.layer.0.crossattention.self/aten::permute/Transpose_3" type="Transpose" version="opset1">
			<input>
				<port id="0" precision="FP32">
					<dim>-1</dim>
					<dim>12</dim>
					<dim>-1</dim>
					<dim>64</dim>
				</port>
				<port id="1" precision="I64">
					<dim>4</dim>
				</port>
			</input>
			<output>
				<port id="2" precision="FP32" names="203">
					<dim>-1</dim>
					<dim>-1</dim>
					<dim>12</dim>
					<dim>64</dim>
				</port>
			</output>
		</layer>
		<layer id="218" name="__module.model.encoder.layer.0.crossattention.self/prim::ListConstruct_3" type="Const" version="opset1">
			<data element_type="i64" shape="3" offset="25753454" size="24" />
			<rt_info>
				<attribute name="precise" version="0" />
			</rt_info>
			<output>
				<port id="0" precision="I64">
					<dim>3</dim>
				</port>
			</output>
		</layer>
		<layer id="219" name="__module.model.encoder.layer.0.crossattention.self/aten::view/Reshape_3" type="Reshape" version="opset1">
			<data special_zero="true" />
			<input>
				<port id="0" precision="FP32">
					<dim>-1</dim>
					<dim>-1</dim>
					<dim>12</dim>
					<dim>64</dim>
				</port>
				<port id="1" precision="I64">
					<dim>3</dim>
				</port>
			</input>
			<output>
				<port id="2" precision="FP32" names="208,210,input.25">
					<dim>-1</dim>
					<dim>-1</dim>
					<dim>768</dim>
				</port>
			</output>
		</layer>
		<layer id="220" name="__module.model.encoder.layer.0.crossattention.self/aten::view/Reshape_3_0_0/nncf_smooth_quant/scale" type="Const" version="opset1">
			<data element_type="f32" shape="1, 1, 768" offset="28143538" size="3072" />
			<output>
				<port id="0" precision="FP32">
					<dim>1</dim>
					<dim>1</dim>
					<dim>768</dim>
				</port>
			</output>
		</layer>
		<layer id="221" name="__module.model.encoder.layer.0.crossattention.self/aten::view/Reshape_3_0_0/nncf_smooth_quant" type="Multiply" version="opset1">
			<data auto_broadcast="numpy" />
			<input>
				<port id="0" precision="FP32">
					<dim>-1</dim>
					<dim>-1</dim>
					<dim>768</dim>
				</port>
				<port id="1" precision="FP32">
					<dim>1</dim>
					<dim>1</dim>
					<dim>768</dim>
				</port>
			</input>
			<output>
				<port id="2" precision="FP32">
					<dim>-1</dim>
					<dim>-1</dim>
					<dim>768</dim>
				</port>
			</output>
		</layer>
		<layer id="222" name="__module.model.encoder.layer.0.crossattention.self/aten::view/Reshape_3_0_0/nncf_smooth_quant/fq_output_0/input_low" type="Const" version="opset1">
			<data element_type="f32" shape="" offset="28146610" size="4" />
			<output>
				<port id="0" precision="FP32" />
			</output>
		</layer>
		<layer id="223" name="__module.model.encoder.layer.0.crossattention.self/aten::view/Reshape_3_0_0/nncf_smooth_quant/fq_output_0/input_high" type="Const" version="opset1">
			<data element_type="f32" shape="" offset="28146614" size="4" />
			<output>
				<port id="0" precision="FP32" />
			</output>
		</layer>
		<layer id="224" name="__module.model.encoder.layer.0.crossattention.self/aten::view/Reshape_3_0_0/nncf_smooth_quant/fq_output_0/output_low" type="Const" version="opset1">
			<data element_type="f32" shape="" offset="28146610" size="4" />
			<output>
				<port id="0" precision="FP32" />
			</output>
		</layer>
		<layer id="225" name="__module.model.encoder.layer.0.crossattention.self/aten::view/Reshape_3_0_0/nncf_smooth_quant/fq_output_0/output_high" type="Const" version="opset1">
			<data element_type="f32" shape="" offset="28146614" size="4" />
			<output>
				<port id="0" precision="FP32" />
			</output>
		</layer>
		<layer id="226" name="__module.model.encoder.layer.0.crossattention.self/aten::view/Reshape_3_0_0/nncf_smooth_quant/fq_output_0" type="FakeQuantize" version="opset1">
			<data levels="256" auto_broadcast="numpy" />
			<input>
				<port id="0" precision="FP32">
					<dim>-1</dim>
					<dim>-1</dim>
					<dim>768</dim>
				</port>
				<port id="1" precision="FP32" />
				<port id="2" precision="FP32" />
				<port id="3" precision="FP32" />
				<port id="4" precision="FP32" />
			</input>
			<output>
				<port id="5" precision="FP32">
					<dim>-1</dim>
					<dim>-1</dim>
					<dim>768</dim>
				</port>
			</output>
		</layer>
		<layer id="227" name="Constant_1005239" type="Const" version="opset1">
			<data element_type="i8" shape="768, 768" offset="28146618" size="589824" />
			<output>
				<port id="0" precision="I8">
					<dim>768</dim>
					<dim>768</dim>
				</port>
			</output>
		</layer>
		<layer id="228" name="Convert_1005240" type="Convert" version="opset1">
			<data destination_type="f32" />
			<input>
				<port id="0" precision="I8">
					<dim>768</dim>
					<dim>768</dim>
				</port>
			</input>
			<output>
				<port id="1" precision="FP32">
					<dim>768</dim>
					<dim>768</dim>
				</port>
			</output>
		</layer>
		<layer id="229" name="Constant_1005241" type="Const" version="opset1">
			<data element_type="f32" shape="768, 1" offset="28736442" size="3072" />
			<output>
				<port id="0" precision="FP32">
					<dim>768</dim>
					<dim>1</dim>
				</port>
			</output>
		</layer>
		<layer id="230" name="__module.model.encoder.layer.0.crossattention.output.dense/aten::linear/MatMul/fq_weights_1" type="Multiply" version="opset1">
			<data auto_broadcast="numpy" />
			<input>
				<port id="0" precision="FP32">
					<dim>768</dim>
					<dim>768</dim>
				</port>
				<port id="1" precision="FP32">
					<dim>768</dim>
					<dim>1</dim>
				</port>
			</input>
			<output>
				<port id="2" precision="FP32">
					<dim>768</dim>
					<dim>768</dim>
				</port>
			</output>
		</layer>
		<layer id="231" name="__module.model.encoder.layer.0.crossattention.output.dense/aten::linear/MatMul" type="MatMul" version="opset1">
			<data transpose_a="false" transpose_b="true" />
			<input>
				<port id="0" precision="FP32">
					<dim>-1</dim>
					<dim>-1</dim>
					<dim>768</dim>
				</port>
				<port id="1" precision="FP32">
					<dim>768</dim>
					<dim>768</dim>
				</port>
			</input>
			<output>
				<port id="2" precision="FP32">
					<dim>-1</dim>
					<dim>-1</dim>
					<dim>768</dim>
				</port>
			</output>
		</layer>
		<layer id="232" name="Constant_26826_compressed" type="Const" version="opset1">
			<data element_type="f16" shape="1, 1, 768" offset="28739514" size="1536" />
			<output>
				<port id="0" precision="FP16">
					<dim>1</dim>
					<dim>1</dim>
					<dim>768</dim>
				</port>
			</output>
		</layer>
		<layer id="233" name="Constant_26826" type="Convert" version="opset1">
			<data destination_type="f32" />
			<rt_info>
				<attribute name="decompression" version="0" />
			</rt_info>
			<input>
				<port id="0" precision="FP16">
					<dim>1</dim>
					<dim>1</dim>
					<dim>768</dim>
				</port>
			</input>
			<output>
				<port id="1" precision="FP32">
					<dim>1</dim>
					<dim>1</dim>
					<dim>768</dim>
				</port>
			</output>
		</layer>
		<layer id="234" name="__module.model.encoder.layer.0.crossattention.output.dense/aten::linear/Add" type="Add" version="opset1">
			<data auto_broadcast="numpy" />
			<input>
				<port id="0" precision="FP32">
					<dim>-1</dim>
					<dim>-1</dim>
					<dim>768</dim>
				</port>
				<port id="1" precision="FP32">
					<dim>1</dim>
					<dim>1</dim>
					<dim>768</dim>
				</port>
			</input>
			<output>
				<port id="2" precision="FP32" names="217,input.27">
					<dim>-1</dim>
					<dim>-1</dim>
					<dim>768</dim>
				</port>
			</output>
		</layer>
		<layer id="235" name="__module.model.encoder.layer.0.crossattention.output/aten::add/Add" type="Add" version="opset1">
			<data auto_broadcast="numpy" />
			<input>
				<port id="0" precision="FP32">
					<dim>-1</dim>
					<dim>-1</dim>
					<dim>768</dim>
				</port>
				<port id="1" precision="FP32">
					<dim>-1</dim>
					<dim>-1</dim>
					<dim>768</dim>
				</port>
			</input>
			<output>
				<port id="2" precision="FP32" names="219,input.29">
					<dim>-1</dim>
					<dim>-1</dim>
					<dim>768</dim>
				</port>
			</output>
		</layer>
		<layer id="236" name="__module.model.encoder.layer.0.crossattention.output.LayerNorm/aten::layer_norm/Multiply" type="Const" version="opset1">
			<data element_type="i32" shape="1" offset="23963908" size="4" />
			<output>
				<port id="0" precision="I32">
					<dim>1</dim>
				</port>
			</output>
		</layer>
		<layer id="237" name="__module.model.encoder.layer.0.crossattention.output.LayerNorm/aten::layer_norm/MVN" type="MVN" version="opset6">
			<data eps="9.999999960041972e-13" normalize_variance="true" eps_mode="INSIDE_SQRT" />
			<input>
				<port id="0" precision="FP32">
					<dim>-1</dim>
					<dim>-1</dim>
					<dim>768</dim>
				</port>
				<port id="1" precision="I32">
					<dim>1</dim>
				</port>
			</input>
			<output>
				<port id="2" precision="FP32">
					<dim>-1</dim>
					<dim>-1</dim>
					<dim>768</dim>
				</port>
			</output>
		</layer>
		<layer id="238" name="Constant_26827_compressed" type="Const" version="opset1">
			<data element_type="f16" shape="1, 1, 768" offset="28741050" size="1536" />
			<output>
				<port id="0" precision="FP16">
					<dim>1</dim>
					<dim>1</dim>
					<dim>768</dim>
				</port>
			</output>
		</layer>
		<layer id="239" name="Constant_26827" type="Convert" version="opset1">
			<data destination_type="f32" />
			<rt_info>
				<attribute name="decompression" version="0" />
			</rt_info>
			<input>
				<port id="0" precision="FP16">
					<dim>1</dim>
					<dim>1</dim>
					<dim>768</dim>
				</port>
			</input>
			<output>
				<port id="1" precision="FP32">
					<dim>1</dim>
					<dim>1</dim>
					<dim>768</dim>
				</port>
			</output>
		</layer>
		<layer id="240" name="__module.model.encoder.layer.0.crossattention.output.LayerNorm/aten::layer_norm/Multiply_1" type="Multiply" version="opset1">
			<data auto_broadcast="numpy" />
			<input>
				<port id="0" precision="FP32">
					<dim>-1</dim>
					<dim>-1</dim>
					<dim>768</dim>
				</port>
				<port id="1" precision="FP32">
					<dim>1</dim>
					<dim>1</dim>
					<dim>768</dim>
				</port>
			</input>
			<output>
				<port id="2" precision="FP32">
					<dim>-1</dim>
					<dim>-1</dim>
					<dim>768</dim>
				</port>
			</output>
		</layer>
		<layer id="241" name="Constant_26828_compressed" type="Const" version="opset1">
			<data element_type="f16" shape="1, 1, 768" offset="28742586" size="1536" />
			<output>
				<port id="0" precision="FP16">
					<dim>1</dim>
					<dim>1</dim>
					<dim>768</dim>
				</port>
			</output>
		</layer>
		<layer id="242" name="Constant_26828" type="Convert" version="opset1">
			<data destination_type="f32" />
			<rt_info>
				<attribute name="decompression" version="0" />
			</rt_info>
			<input>
				<port id="0" precision="FP16">
					<dim>1</dim>
					<dim>1</dim>
					<dim>768</dim>
				</port>
			</input>
			<output>
				<port id="1" precision="FP32">
					<dim>1</dim>
					<dim>1</dim>
					<dim>768</dim>
				</port>
			</output>
		</layer>
		<layer id="243" name="__module.model.encoder.layer.0.crossattention.output.LayerNorm/aten::layer_norm/Add" type="Add" version="opset1">
			<data auto_broadcast="numpy" />
			<input>
				<port id="0" precision="FP32">
					<dim>-1</dim>
					<dim>-1</dim>
					<dim>768</dim>
				</port>
				<port id="1" precision="FP32">
					<dim>1</dim>
					<dim>1</dim>
					<dim>768</dim>
				</port>
			</input>
			<output>
				<port id="2" precision="FP32" names="223,225,input.31">
					<dim>-1</dim>
					<dim>-1</dim>
					<dim>768</dim>
				</port>
			</output>
		</layer>
		<layer id="244" name="__module.model.encoder.layer.0.crossattention.output.LayerNorm/aten::layer_norm/Add_0_0/nncf_smooth_quant/scale" type="Const" version="opset1">
			<data element_type="f32" shape="1, 1, 768" offset="28744122" size="3072" />
			<output>
				<port id="0" precision="FP32">
					<dim>1</dim>
					<dim>1</dim>
					<dim>768</dim>
				</port>
			</output>
		</layer>
		<layer id="245" name="__module.model.encoder.layer.0.crossattention.output.LayerNorm/aten::layer_norm/Add_0_0/nncf_smooth_quant" type="Multiply" version="opset1">
			<data auto_broadcast="numpy" />
			<input>
				<port id="0" precision="FP32">
					<dim>-1</dim>
					<dim>-1</dim>
					<dim>768</dim>
				</port>
				<port id="1" precision="FP32">
					<dim>1</dim>
					<dim>1</dim>
					<dim>768</dim>
				</port>
			</input>
			<output>
				<port id="2" precision="FP32">
					<dim>-1</dim>
					<dim>-1</dim>
					<dim>768</dim>
				</port>
			</output>
		</layer>
		<layer id="246" name="__module.model.encoder.layer.0.crossattention.output.LayerNorm/aten::layer_norm/Add_0_0/nncf_smooth_quant/fq_output_0/input_low" type="Const" version="opset1">
			<data element_type="f32" shape="" offset="28747194" size="4" />
			<output>
				<port id="0" precision="FP32" />
			</output>
		</layer>
		<layer id="247" name="__module.model.encoder.layer.0.crossattention.output.LayerNorm/aten::layer_norm/Add_0_0/nncf_smooth_quant/fq_output_0/input_high" type="Const" version="opset1">
			<data element_type="f32" shape="" offset="28747198" size="4" />
			<output>
				<port id="0" precision="FP32" />
			</output>
		</layer>
		<layer id="248" name="__module.model.encoder.layer.0.crossattention.output.LayerNorm/aten::layer_norm/Add_0_0/nncf_smooth_quant/fq_output_0/output_low" type="Const" version="opset1">
			<data element_type="f32" shape="" offset="28747194" size="4" />
			<output>
				<port id="0" precision="FP32" />
			</output>
		</layer>
		<layer id="249" name="__module.model.encoder.layer.0.crossattention.output.LayerNorm/aten::layer_norm/Add_0_0/nncf_smooth_quant/fq_output_0/output_high" type="Const" version="opset1">
			<data element_type="f32" shape="" offset="28747198" size="4" />
			<output>
				<port id="0" precision="FP32" />
			</output>
		</layer>
		<layer id="250" name="__module.model.encoder.layer.0.crossattention.output.LayerNorm/aten::layer_norm/Add_0_0/nncf_smooth_quant/fq_output_0" type="FakeQuantize" version="opset1">
			<data levels="256" auto_broadcast="numpy" />
			<input>
				<port id="0" precision="FP32">
					<dim>-1</dim>
					<dim>-1</dim>
					<dim>768</dim>
				</port>
				<port id="1" precision="FP32" />
				<port id="2" precision="FP32" />
				<port id="3" precision="FP32" />
				<port id="4" precision="FP32" />
			</input>
			<output>
				<port id="5" precision="FP32">
					<dim>-1</dim>
					<dim>-1</dim>
					<dim>768</dim>
				</port>
			</output>
		</layer>
		<layer id="251" name="Constant_1005244" type="Const" version="opset1">
			<data element_type="i8" shape="3072, 768" offset="28747202" size="2359296" />
			<output>
				<port id="0" precision="I8">
					<dim>3072</dim>
					<dim>768</dim>
				</port>
			</output>
		</layer>
		<layer id="252" name="Convert_1005245" type="Convert" version="opset1">
			<data destination_type="f32" />
			<input>
				<port id="0" precision="I8">
					<dim>3072</dim>
					<dim>768</dim>
				</port>
			</input>
			<output>
				<port id="1" precision="FP32">
					<dim>3072</dim>
					<dim>768</dim>
				</port>
			</output>
		</layer>
		<layer id="253" name="Constant_1005246" type="Const" version="opset1">
			<data element_type="f32" shape="3072, 1" offset="31106498" size="12288" />
			<output>
				<port id="0" precision="FP32">
					<dim>3072</dim>
					<dim>1</dim>
				</port>
			</output>
		</layer>
		<layer id="254" name="__module.model.encoder.layer.0.intermediate.dense/aten::linear/MatMul/fq_weights_1" type="Multiply" version="opset1">
			<data auto_broadcast="numpy" />
			<input>
				<port id="0" precision="FP32">
					<dim>3072</dim>
					<dim>768</dim>
				</port>
				<port id="1" precision="FP32">
					<dim>3072</dim>
					<dim>1</dim>
				</port>
			</input>
			<output>
				<port id="2" precision="FP32">
					<dim>3072</dim>
					<dim>768</dim>
				</port>
			</output>
		</layer>
		<layer id="255" name="__module.model.encoder.layer.0.intermediate.dense/aten::linear/MatMul" type="MatMul" version="opset1">
			<data transpose_a="false" transpose_b="true" />
			<input>
				<port id="0" precision="FP32">
					<dim>-1</dim>
					<dim>-1</dim>
					<dim>768</dim>
				</port>
				<port id="1" precision="FP32">
					<dim>3072</dim>
					<dim>768</dim>
				</port>
			</input>
			<output>
				<port id="2" precision="FP32">
					<dim>-1</dim>
					<dim>-1</dim>
					<dim>3072</dim>
				</port>
			</output>
		</layer>
		<layer id="256" name="Constant_26829_compressed" type="Const" version="opset1">
			<data element_type="f16" shape="1, 1, 3072" offset="31118786" size="6144" />
			<output>
				<port id="0" precision="FP16">
					<dim>1</dim>
					<dim>1</dim>
					<dim>3072</dim>
				</port>
			</output>
		</layer>
		<layer id="257" name="Constant_26829" type="Convert" version="opset1">
			<data destination_type="f32" />
			<rt_info>
				<attribute name="decompression" version="0" />
			</rt_info>
			<input>
				<port id="0" precision="FP16">
					<dim>1</dim>
					<dim>1</dim>
					<dim>3072</dim>
				</port>
			</input>
			<output>
				<port id="1" precision="FP32">
					<dim>1</dim>
					<dim>1</dim>
					<dim>3072</dim>
				</port>
			</output>
		</layer>
		<layer id="258" name="__module.model.encoder.layer.0.intermediate.dense/aten::linear/Add" type="Add" version="opset1">
			<data auto_broadcast="numpy" />
			<input>
				<port id="0" precision="FP32">
					<dim>-1</dim>
					<dim>-1</dim>
					<dim>3072</dim>
				</port>
				<port id="1" precision="FP32">
					<dim>1</dim>
					<dim>1</dim>
					<dim>3072</dim>
				</port>
			</input>
			<output>
				<port id="2" precision="FP32" names="231,input.33">
					<dim>-1</dim>
					<dim>-1</dim>
					<dim>3072</dim>
				</port>
			</output>
		</layer>
		<layer id="259" name="__module.model.encoder.layer.0.intermediate.intermediate_act_fn/aten::gelu/Gelu" type="Gelu" version="opset7">
			<data approximation_mode="ERF" />
			<input>
				<port id="0" precision="FP32">
					<dim>-1</dim>
					<dim>-1</dim>
					<dim>3072</dim>
				</port>
			</input>
			<output>
				<port id="1" precision="FP32" names="232,input.35">
					<dim>-1</dim>
					<dim>-1</dim>
					<dim>3072</dim>
				</port>
			</output>
		</layer>
		<layer id="260" name="__module.model.encoder.layer.0.intermediate.intermediate_act_fn/aten::gelu/Gelu_0_0/nncf_smooth_quant/scale" type="Const" version="opset1">
			<data element_type="f32" shape="1, 1, 3072" offset="31124930" size="12288" />
			<output>
				<port id="0" precision="FP32">
					<dim>1</dim>
					<dim>1</dim>
					<dim>3072</dim>
				</port>
			</output>
		</layer>
		<layer id="261" name="__module.model.encoder.layer.0.intermediate.intermediate_act_fn/aten::gelu/Gelu_0_0/nncf_smooth_quant" type="Multiply" version="opset1">
			<data auto_broadcast="numpy" />
			<input>
				<port id="0" precision="FP32">
					<dim>-1</dim>
					<dim>-1</dim>
					<dim>3072</dim>
				</port>
				<port id="1" precision="FP32">
					<dim>1</dim>
					<dim>1</dim>
					<dim>3072</dim>
				</port>
			</input>
			<output>
				<port id="2" precision="FP32">
					<dim>-1</dim>
					<dim>-1</dim>
					<dim>3072</dim>
				</port>
			</output>
		</layer>
		<layer id="262" name="__module.model.encoder.layer.0.intermediate.intermediate_act_fn/aten::gelu/Gelu_0_0/nncf_smooth_quant/fq_output_0/input_low" type="Const" version="opset1">
			<data element_type="f32" shape="" offset="31137218" size="4" />
			<output>
				<port id="0" precision="FP32" />
			</output>
		</layer>
		<layer id="263" name="__module.model.encoder.layer.0.intermediate.intermediate_act_fn/aten::gelu/Gelu_0_0/nncf_smooth_quant/fq_output_0/input_high" type="Const" version="opset1">
			<data element_type="f32" shape="" offset="31137222" size="4" />
			<output>
				<port id="0" precision="FP32" />
			</output>
		</layer>
		<layer id="264" name="__module.model.encoder.layer.0.intermediate.intermediate_act_fn/aten::gelu/Gelu_0_0/nncf_smooth_quant/fq_output_0/output_low" type="Const" version="opset1">
			<data element_type="f32" shape="" offset="31137218" size="4" />
			<output>
				<port id="0" precision="FP32" />
			</output>
		</layer>
		<layer id="265" name="__module.model.encoder.layer.0.intermediate.intermediate_act_fn/aten::gelu/Gelu_0_0/nncf_smooth_quant/fq_output_0/output_high" type="Const" version="opset1">
			<data element_type="f32" shape="" offset="31137222" size="4" />
			<output>
				<port id="0" precision="FP32" />
			</output>
		</layer>
		<layer id="266" name="__module.model.encoder.layer.0.intermediate.intermediate_act_fn/aten::gelu/Gelu_0_0/nncf_smooth_quant/fq_output_0" type="FakeQuantize" version="opset1">
			<data levels="256" auto_broadcast="numpy" />
			<input>
				<port id="0" precision="FP32">
					<dim>-1</dim>
					<dim>-1</dim>
					<dim>3072</dim>
				</port>
				<port id="1" precision="FP32" />
				<port id="2" precision="FP32" />
				<port id="3" precision="FP32" />
				<port id="4" precision="FP32" />
			</input>
			<output>
				<port id="5" precision="FP32">
					<dim>-1</dim>
					<dim>-1</dim>
					<dim>3072</dim>
				</port>
			</output>
		</layer>
		<layer id="267" name="Constant_1005249" type="Const" version="opset1">
			<data element_type="i8" shape="768, 3072" offset="31137226" size="2359296" />
			<output>
				<port id="0" precision="I8">
					<dim>768</dim>
					<dim>3072</dim>
				</port>
			</output>
		</layer>
		<layer id="268" name="Convert_1005250" type="Convert" version="opset1">
			<data destination_type="f32" />
			<input>
				<port id="0" precision="I8">
					<dim>768</dim>
					<dim>3072</dim>
				</port>
			</input>
			<output>
				<port id="1" precision="FP32">
					<dim>768</dim>
					<dim>3072</dim>
				</port>
			</output>
		</layer>
		<layer id="269" name="Constant_1005251" type="Const" version="opset1">
			<data element_type="f32" shape="768, 1" offset="33496522" size="3072" />
			<output>
				<port id="0" precision="FP32">
					<dim>768</dim>
					<dim>1</dim>
				</port>
			</output>
		</layer>
		<layer id="270" name="__module.model.encoder.layer.0.output.dense/aten::linear/MatMul/fq_weights_1" type="Multiply" version="opset1">
			<data auto_broadcast="numpy" />
			<input>
				<port id="0" precision="FP32">
					<dim>768</dim>
					<dim>3072</dim>
				</port>
				<port id="1" precision="FP32">
					<dim>768</dim>
					<dim>1</dim>
				</port>
			</input>
			<output>
				<port id="2" precision="FP32">
					<dim>768</dim>
					<dim>3072</dim>
				</port>
			</output>
		</layer>
		<layer id="271" name="__module.model.encoder.layer.0.output.dense/aten::linear/MatMul" type="MatMul" version="opset1">
			<data transpose_a="false" transpose_b="true" />
			<input>
				<port id="0" precision="FP32">
					<dim>-1</dim>
					<dim>-1</dim>
					<dim>3072</dim>
				</port>
				<port id="1" precision="FP32">
					<dim>768</dim>
					<dim>3072</dim>
				</port>
			</input>
			<output>
				<port id="2" precision="FP32">
					<dim>-1</dim>
					<dim>-1</dim>
					<dim>768</dim>
				</port>
			</output>
		</layer>
		<layer id="272" name="Constant_26830_compressed" type="Const" version="opset1">
			<data element_type="f16" shape="1, 1, 768" offset="33499594" size="1536" />
			<output>
				<port id="0" precision="FP16">
					<dim>1</dim>
					<dim>1</dim>
					<dim>768</dim>
				</port>
			</output>
		</layer>
		<layer id="273" name="Constant_26830" type="Convert" version="opset1">
			<data destination_type="f32" />
			<rt_info>
				<attribute name="decompression" version="0" />
			</rt_info>
			<input>
				<port id="0" precision="FP16">
					<dim>1</dim>
					<dim>1</dim>
					<dim>768</dim>
				</port>
			</input>
			<output>
				<port id="1" precision="FP32">
					<dim>1</dim>
					<dim>1</dim>
					<dim>768</dim>
				</port>
			</output>
		</layer>
		<layer id="274" name="__module.model.encoder.layer.0.output.dense/aten::linear/Add" type="Add" version="opset1">
			<data auto_broadcast="numpy" />
			<input>
				<port id="0" precision="FP32">
					<dim>-1</dim>
					<dim>-1</dim>
					<dim>768</dim>
				</port>
				<port id="1" precision="FP32">
					<dim>1</dim>
					<dim>1</dim>
					<dim>768</dim>
				</port>
			</input>
			<output>
				<port id="2" precision="FP32" names="238,input.37">
					<dim>-1</dim>
					<dim>-1</dim>
					<dim>768</dim>
				</port>
			</output>
		</layer>
		<layer id="275" name="__module.model.encoder.layer.0.output/aten::add/Add" type="Add" version="opset1">
			<data auto_broadcast="numpy" />
			<input>
				<port id="0" precision="FP32">
					<dim>-1</dim>
					<dim>-1</dim>
					<dim>768</dim>
				</port>
				<port id="1" precision="FP32">
					<dim>-1</dim>
					<dim>-1</dim>
					<dim>768</dim>
				</port>
			</input>
			<output>
				<port id="2" precision="FP32" names="240,input.39">
					<dim>-1</dim>
					<dim>-1</dim>
					<dim>768</dim>
				</port>
			</output>
		</layer>
		<layer id="276" name="__module.model.encoder.layer.0.output.LayerNorm/aten::layer_norm/Multiply" type="Const" version="opset1">
			<data element_type="i32" shape="1" offset="23963908" size="4" />
			<output>
				<port id="0" precision="I32">
					<dim>1</dim>
				</port>
			</output>
		</layer>
		<layer id="277" name="__module.model.encoder.layer.0.output.LayerNorm/aten::layer_norm/MVN" type="MVN" version="opset6">
			<data eps="9.999999960041972e-13" normalize_variance="true" eps_mode="INSIDE_SQRT" />
			<input>
				<port id="0" precision="FP32">
					<dim>-1</dim>
					<dim>-1</dim>
					<dim>768</dim>
				</port>
				<port id="1" precision="I32">
					<dim>1</dim>
				</port>
			</input>
			<output>
				<port id="2" precision="FP32">
					<dim>-1</dim>
					<dim>-1</dim>
					<dim>768</dim>
				</port>
			</output>
		</layer>
		<layer id="278" name="Constant_26831_compressed" type="Const" version="opset1">
			<data element_type="f16" shape="1, 1, 768" offset="33501130" size="1536" />
			<output>
				<port id="0" precision="FP16">
					<dim>1</dim>
					<dim>1</dim>
					<dim>768</dim>
				</port>
			</output>
		</layer>
		<layer id="279" name="Constant_26831" type="Convert" version="opset1">
			<data destination_type="f32" />
			<rt_info>
				<attribute name="decompression" version="0" />
			</rt_info>
			<input>
				<port id="0" precision="FP16">
					<dim>1</dim>
					<dim>1</dim>
					<dim>768</dim>
				</port>
			</input>
			<output>
				<port id="1" precision="FP32">
					<dim>1</dim>
					<dim>1</dim>
					<dim>768</dim>
				</port>
			</output>
		</layer>
		<layer id="280" name="__module.model.encoder.layer.0.output.LayerNorm/aten::layer_norm/Multiply_1" type="Multiply" version="opset1">
			<data auto_broadcast="numpy" />
			<input>
				<port id="0" precision="FP32">
					<dim>-1</dim>
					<dim>-1</dim>
					<dim>768</dim>
				</port>
				<port id="1" precision="FP32">
					<dim>1</dim>
					<dim>1</dim>
					<dim>768</dim>
				</port>
			</input>
			<output>
				<port id="2" precision="FP32">
					<dim>-1</dim>
					<dim>-1</dim>
					<dim>768</dim>
				</port>
			</output>
		</layer>
		<layer id="281" name="Constant_26832_compressed" type="Const" version="opset1">
			<data element_type="f16" shape="1, 1, 768" offset="33502666" size="1536" />
			<output>
				<port id="0" precision="FP16">
					<dim>1</dim>
					<dim>1</dim>
					<dim>768</dim>
				</port>
			</output>
		</layer>
		<layer id="282" name="Constant_26832" type="Convert" version="opset1">
			<data destination_type="f32" />
			<rt_info>
				<attribute name="decompression" version="0" />
			</rt_info>
			<input>
				<port id="0" precision="FP16">
					<dim>1</dim>
					<dim>1</dim>
					<dim>768</dim>
				</port>
			</input>
			<output>
				<port id="1" precision="FP32">
					<dim>1</dim>
					<dim>1</dim>
					<dim>768</dim>
				</port>
			</output>
		</layer>
		<layer id="283" name="__module.model.encoder.layer.0.output.LayerNorm/aten::layer_norm/Add" type="Add" version="opset1">
			<data auto_broadcast="numpy" />
			<input>
				<port id="0" precision="FP32">
					<dim>-1</dim>
					<dim>-1</dim>
					<dim>768</dim>
				</port>
				<port id="1" precision="FP32">
					<dim>1</dim>
					<dim>1</dim>
					<dim>768</dim>
				</port>
			</input>
			<output>
				<port id="2" precision="FP32" names="244,246,input.41">
					<dim>-1</dim>
					<dim>-1</dim>
					<dim>768</dim>
				</port>
			</output>
		</layer>
		<layer id="284" name="__module.model.encoder.layer.0.output.LayerNorm/aten::layer_norm/Add_0_0/nncf_smooth_quant/scale" type="Const" version="opset1">
			<data element_type="f32" shape="1, 1, 768" offset="33504202" size="3072" />
			<output>
				<port id="0" precision="FP32">
					<dim>1</dim>
					<dim>1</dim>
					<dim>768</dim>
				</port>
			</output>
		</layer>
		<layer id="285" name="__module.model.encoder.layer.0.output.LayerNorm/aten::layer_norm/Add_0_0/nncf_smooth_quant" type="Multiply" version="opset1">
			<data auto_broadcast="numpy" />
			<input>
				<port id="0" precision="FP32">
					<dim>-1</dim>
					<dim>-1</dim>
					<dim>768</dim>
				</port>
				<port id="1" precision="FP32">
					<dim>1</dim>
					<dim>1</dim>
					<dim>768</dim>
				</port>
			</input>
			<output>
				<port id="2" precision="FP32">
					<dim>-1</dim>
					<dim>-1</dim>
					<dim>768</dim>
				</port>
			</output>
		</layer>
		<layer id="286" name="__module.model.encoder.layer.0.output.LayerNorm/aten::layer_norm/Add_0_0/nncf_smooth_quant/fq_output_0/input_low" type="Const" version="opset1">
			<data element_type="f32" shape="" offset="33507274" size="4" />
			<output>
				<port id="0" precision="FP32" />
			</output>
		</layer>
		<layer id="287" name="__module.model.encoder.layer.0.output.LayerNorm/aten::layer_norm/Add_0_0/nncf_smooth_quant/fq_output_0/input_high" type="Const" version="opset1">
			<data element_type="f32" shape="" offset="33507278" size="4" />
			<output>
				<port id="0" precision="FP32" />
			</output>
		</layer>
		<layer id="288" name="__module.model.encoder.layer.0.output.LayerNorm/aten::layer_norm/Add_0_0/nncf_smooth_quant/fq_output_0/output_low" type="Const" version="opset1">
			<data element_type="f32" shape="" offset="33507274" size="4" />
			<output>
				<port id="0" precision="FP32" />
			</output>
		</layer>
		<layer id="289" name="__module.model.encoder.layer.0.output.LayerNorm/aten::layer_norm/Add_0_0/nncf_smooth_quant/fq_output_0/output_high" type="Const" version="opset1">
			<data element_type="f32" shape="" offset="33507278" size="4" />
			<output>
				<port id="0" precision="FP32" />
			</output>
		</layer>
		<layer id="290" name="__module.model.encoder.layer.0.output.LayerNorm/aten::layer_norm/Add_0_0/nncf_smooth_quant/fq_output_0" type="FakeQuantize" version="opset1">
			<data levels="256" auto_broadcast="numpy" />
			<input>
				<port id="0" precision="FP32">
					<dim>-1</dim>
					<dim>-1</dim>
					<dim>768</dim>
				</port>
				<port id="1" precision="FP32" />
				<port id="2" precision="FP32" />
				<port id="3" precision="FP32" />
				<port id="4" precision="FP32" />
			</input>
			<output>
				<port id="5" precision="FP32">
					<dim>-1</dim>
					<dim>-1</dim>
					<dim>768</dim>
				</port>
			</output>
		</layer>
		<layer id="291" name="Constant_1005254" type="Const" version="opset1">
			<data element_type="i8" shape="768, 768" offset="33507282" size="589824" />
			<output>
				<port id="0" precision="I8">
					<dim>768</dim>
					<dim>768</dim>
				</port>
			</output>
		</layer>
		<layer id="292" name="Convert_1005255" type="Convert" version="opset1">
			<data destination_type="f32" />
			<input>
				<port id="0" precision="I8">
					<dim>768</dim>
					<dim>768</dim>
				</port>
			</input>
			<output>
				<port id="1" precision="FP32">
					<dim>768</dim>
					<dim>768</dim>
				</port>
			</output>
		</layer>
		<layer id="293" name="Constant_1005256" type="Const" version="opset1">
			<data element_type="f32" shape="768, 1" offset="34097106" size="3072" />
			<output>
				<port id="0" precision="FP32">
					<dim>768</dim>
					<dim>1</dim>
				</port>
			</output>
		</layer>
		<layer id="294" name="__module.model.encoder.layer.1.attention.self.query/aten::linear/MatMul/fq_weights_1" type="Multiply" version="opset1">
			<data auto_broadcast="numpy" />
			<input>
				<port id="0" precision="FP32">
					<dim>768</dim>
					<dim>768</dim>
				</port>
				<port id="1" precision="FP32">
					<dim>768</dim>
					<dim>1</dim>
				</port>
			</input>
			<output>
				<port id="2" precision="FP32">
					<dim>768</dim>
					<dim>768</dim>
				</port>
			</output>
		</layer>
		<layer id="295" name="__module.model.encoder.layer.1.attention.self.query/aten::linear/MatMul" type="MatMul" version="opset1">
			<data transpose_a="false" transpose_b="true" />
			<input>
				<port id="0" precision="FP32">
					<dim>-1</dim>
					<dim>-1</dim>
					<dim>768</dim>
				</port>
				<port id="1" precision="FP32">
					<dim>768</dim>
					<dim>768</dim>
				</port>
			</input>
			<output>
				<port id="2" precision="FP32">
					<dim>-1</dim>
					<dim>-1</dim>
					<dim>768</dim>
				</port>
			</output>
		</layer>
		<layer id="296" name="Constant_26833_compressed" type="Const" version="opset1">
			<data element_type="f16" shape="1, 1, 768" offset="34100178" size="1536" />
			<output>
				<port id="0" precision="FP16">
					<dim>1</dim>
					<dim>1</dim>
					<dim>768</dim>
				</port>
			</output>
		</layer>
		<layer id="297" name="Constant_26833" type="Convert" version="opset1">
			<data destination_type="f32" />
			<rt_info>
				<attribute name="decompression" version="0" />
			</rt_info>
			<input>
				<port id="0" precision="FP16">
					<dim>1</dim>
					<dim>1</dim>
					<dim>768</dim>
				</port>
			</input>
			<output>
				<port id="1" precision="FP32">
					<dim>1</dim>
					<dim>1</dim>
					<dim>768</dim>
				</port>
			</output>
		</layer>
		<layer id="298" name="__module.model.encoder.layer.1.attention.self.query/aten::linear/Add" type="Add" version="opset1">
			<data auto_broadcast="numpy" />
			<input>
				<port id="0" precision="FP32">
					<dim>-1</dim>
					<dim>-1</dim>
					<dim>768</dim>
				</port>
				<port id="1" precision="FP32">
					<dim>1</dim>
					<dim>1</dim>
					<dim>768</dim>
				</port>
			</input>
			<output>
				<port id="2" precision="FP32" names="260,x.33">
					<dim>-1</dim>
					<dim>-1</dim>
					<dim>768</dim>
				</port>
			</output>
		</layer>
		<layer id="299" name="__module.model.encoder.layer.1.attention.self.query/aten::linear/Add/fq_output_0/input_low" type="Const" version="opset1">
			<data element_type="f32" shape="" offset="34101714" size="4" />
			<output>
				<port id="0" precision="FP32" />
			</output>
		</layer>
		<layer id="300" name="__module.model.encoder.layer.1.attention.self.query/aten::linear/Add/fq_output_0/input_high" type="Const" version="opset1">
			<data element_type="f32" shape="" offset="34101718" size="4" />
			<output>
				<port id="0" precision="FP32" />
			</output>
		</layer>
		<layer id="301" name="__module.model.encoder.layer.1.attention.self.query/aten::linear/Add/fq_output_0/output_low" type="Const" version="opset1">
			<data element_type="f32" shape="" offset="34101714" size="4" />
			<output>
				<port id="0" precision="FP32" />
			</output>
		</layer>
		<layer id="302" name="__module.model.encoder.layer.1.attention.self.query/aten::linear/Add/fq_output_0/output_high" type="Const" version="opset1">
			<data element_type="f32" shape="" offset="34101718" size="4" />
			<output>
				<port id="0" precision="FP32" />
			</output>
		</layer>
		<layer id="303" name="__module.model.encoder.layer.1.attention.self.query/aten::linear/Add/fq_output_0" type="FakeQuantize" version="opset1">
			<data levels="256" auto_broadcast="numpy" />
			<input>
				<port id="0" precision="FP32">
					<dim>-1</dim>
					<dim>-1</dim>
					<dim>768</dim>
				</port>
				<port id="1" precision="FP32" />
				<port id="2" precision="FP32" />
				<port id="3" precision="FP32" />
				<port id="4" precision="FP32" />
			</input>
			<output>
				<port id="5" precision="FP32">
					<dim>-1</dim>
					<dim>-1</dim>
					<dim>768</dim>
				</port>
			</output>
		</layer>
		<layer id="304" name="__module.model.encoder.layer.1.attention.self/prim::ListConstruct" type="Const" version="opset1">
			<data element_type="i64" shape="4" offset="24564504" size="32" />
			<rt_info>
				<attribute name="precise" version="0" />
			</rt_info>
			<output>
				<port id="0" precision="I64">
					<dim>4</dim>
				</port>
			</output>
		</layer>
		<layer id="305" name="__module.model.encoder.layer.1.attention.self/aten::view/Reshape" type="Reshape" version="opset1">
			<data special_zero="true" />
			<input>
				<port id="0" precision="FP32">
					<dim>-1</dim>
					<dim>-1</dim>
					<dim>768</dim>
				</port>
				<port id="1" precision="I64">
					<dim>4</dim>
				</port>
			</input>
			<output>
				<port id="2" precision="FP32" names="282,x.35">
					<dim>-1</dim>
					<dim>-1</dim>
					<dim>12</dim>
					<dim>64</dim>
				</port>
			</output>
		</layer>
		<layer id="306" name="Constant_11261" type="Const" version="opset1">
			<data element_type="i64" shape="4" offset="24564536" size="32" />
			<output>
				<port id="0" precision="I64" names="283">
					<dim>4</dim>
				</port>
			</output>
		</layer>
		<layer id="307" name="__module.model.encoder.layer.1.attention.self/aten::permute/Transpose" type="Transpose" version="opset1">
			<input>
				<port id="0" precision="FP32">
					<dim>-1</dim>
					<dim>-1</dim>
					<dim>12</dim>
					<dim>64</dim>
				</port>
				<port id="1" precision="I64">
					<dim>4</dim>
				</port>
			</input>
			<output>
				<port id="2" precision="FP32" names="284,query_layer.5">
					<dim>-1</dim>
					<dim>12</dim>
					<dim>-1</dim>
					<dim>64</dim>
				</port>
			</output>
		</layer>
		<layer id="308" name="Constant_1005259" type="Const" version="opset1">
			<data element_type="i8" shape="768, 768" offset="34101722" size="589824" />
			<output>
				<port id="0" precision="I8">
					<dim>768</dim>
					<dim>768</dim>
				</port>
			</output>
		</layer>
		<layer id="309" name="Convert_1005260" type="Convert" version="opset1">
			<data destination_type="f32" />
			<input>
				<port id="0" precision="I8">
					<dim>768</dim>
					<dim>768</dim>
				</port>
			</input>
			<output>
				<port id="1" precision="FP32">
					<dim>768</dim>
					<dim>768</dim>
				</port>
			</output>
		</layer>
		<layer id="310" name="Constant_1005261" type="Const" version="opset1">
			<data element_type="f32" shape="768, 1" offset="34691546" size="3072" />
			<output>
				<port id="0" precision="FP32">
					<dim>768</dim>
					<dim>1</dim>
				</port>
			</output>
		</layer>
		<layer id="311" name="__module.model.encoder.layer.1.attention.self.key/aten::linear/MatMul/fq_weights_1" type="Multiply" version="opset1">
			<data auto_broadcast="numpy" />
			<input>
				<port id="0" precision="FP32">
					<dim>768</dim>
					<dim>768</dim>
				</port>
				<port id="1" precision="FP32">
					<dim>768</dim>
					<dim>1</dim>
				</port>
			</input>
			<output>
				<port id="2" precision="FP32">
					<dim>768</dim>
					<dim>768</dim>
				</port>
			</output>
		</layer>
		<layer id="312" name="__module.model.encoder.layer.1.attention.self.key/aten::linear/MatMul" type="MatMul" version="opset1">
			<data transpose_a="false" transpose_b="true" />
			<input>
				<port id="0" precision="FP32">
					<dim>-1</dim>
					<dim>-1</dim>
					<dim>768</dim>
				</port>
				<port id="1" precision="FP32">
					<dim>768</dim>
					<dim>768</dim>
				</port>
			</input>
			<output>
				<port id="2" precision="FP32">
					<dim>-1</dim>
					<dim>-1</dim>
					<dim>768</dim>
				</port>
			</output>
		</layer>
		<layer id="313" name="Constant_26834_compressed" type="Const" version="opset1">
			<data element_type="f16" shape="1, 1, 768" offset="34694618" size="1536" />
			<output>
				<port id="0" precision="FP16">
					<dim>1</dim>
					<dim>1</dim>
					<dim>768</dim>
				</port>
			</output>
		</layer>
		<layer id="314" name="Constant_26834" type="Convert" version="opset1">
			<data destination_type="f32" />
			<rt_info>
				<attribute name="decompression" version="0" />
			</rt_info>
			<input>
				<port id="0" precision="FP16">
					<dim>1</dim>
					<dim>1</dim>
					<dim>768</dim>
				</port>
			</input>
			<output>
				<port id="1" precision="FP32">
					<dim>1</dim>
					<dim>1</dim>
					<dim>768</dim>
				</port>
			</output>
		</layer>
		<layer id="315" name="__module.model.encoder.layer.1.attention.self.key/aten::linear/Add" type="Add" version="opset1">
			<data auto_broadcast="numpy" />
			<input>
				<port id="0" precision="FP32">
					<dim>-1</dim>
					<dim>-1</dim>
					<dim>768</dim>
				</port>
				<port id="1" precision="FP32">
					<dim>1</dim>
					<dim>1</dim>
					<dim>768</dim>
				</port>
			</input>
			<output>
				<port id="2" precision="FP32" names="263,x.25">
					<dim>-1</dim>
					<dim>-1</dim>
					<dim>768</dim>
				</port>
			</output>
		</layer>
		<layer id="316" name="__module.model.encoder.layer.1.attention.self.key/aten::linear/Add/fq_output_0/input_low" type="Const" version="opset1">
			<data element_type="f32" shape="" offset="34696154" size="4" />
			<output>
				<port id="0" precision="FP32" />
			</output>
		</layer>
		<layer id="317" name="__module.model.encoder.layer.1.attention.self.key/aten::linear/Add/fq_output_0/input_high" type="Const" version="opset1">
			<data element_type="f32" shape="" offset="34696158" size="4" />
			<output>
				<port id="0" precision="FP32" />
			</output>
		</layer>
		<layer id="318" name="__module.model.encoder.layer.1.attention.self.key/aten::linear/Add/fq_output_0/output_low" type="Const" version="opset1">
			<data element_type="f32" shape="" offset="34696154" size="4" />
			<output>
				<port id="0" precision="FP32" />
			</output>
		</layer>
		<layer id="319" name="__module.model.encoder.layer.1.attention.self.key/aten::linear/Add/fq_output_0/output_high" type="Const" version="opset1">
			<data element_type="f32" shape="" offset="34696158" size="4" />
			<output>
				<port id="0" precision="FP32" />
			</output>
		</layer>
		<layer id="320" name="__module.model.encoder.layer.1.attention.self.key/aten::linear/Add/fq_output_0" type="FakeQuantize" version="opset1">
			<data levels="256" auto_broadcast="numpy" />
			<input>
				<port id="0" precision="FP32">
					<dim>-1</dim>
					<dim>-1</dim>
					<dim>768</dim>
				</port>
				<port id="1" precision="FP32" />
				<port id="2" precision="FP32" />
				<port id="3" precision="FP32" />
				<port id="4" precision="FP32" />
			</input>
			<output>
				<port id="5" precision="FP32">
					<dim>-1</dim>
					<dim>-1</dim>
					<dim>768</dim>
				</port>
			</output>
		</layer>
		<layer id="321" name="__module.model.encoder.layer.1.attention.self/prim::ListConstruct_1" type="Const" version="opset1">
			<data element_type="i64" shape="4" offset="24564504" size="32" />
			<rt_info>
				<attribute name="precise" version="0" />
			</rt_info>
			<output>
				<port id="0" precision="I64">
					<dim>4</dim>
				</port>
			</output>
		</layer>
		<layer id="322" name="__module.model.encoder.layer.1.attention.self/aten::view/Reshape_1" type="Reshape" version="opset1">
			<data special_zero="true" />
			<input>
				<port id="0" precision="FP32">
					<dim>-1</dim>
					<dim>-1</dim>
					<dim>768</dim>
				</port>
				<port id="1" precision="I64">
					<dim>4</dim>
				</port>
			</input>
			<output>
				<port id="2" precision="FP32" names="267,x.27">
					<dim>-1</dim>
					<dim>-1</dim>
					<dim>12</dim>
					<dim>64</dim>
				</port>
			</output>
		</layer>
		<layer id="323" name="Constant_11199" type="Const" version="opset1">
			<data element_type="i64" shape="4" offset="24564536" size="32" />
			<output>
				<port id="0" precision="I64" names="268">
					<dim>4</dim>
				</port>
			</output>
		</layer>
		<layer id="324" name="__module.model.encoder.layer.1.attention.self/aten::permute/Transpose_1" type="Transpose" version="opset1">
			<input>
				<port id="0" precision="FP32">
					<dim>-1</dim>
					<dim>-1</dim>
					<dim>12</dim>
					<dim>64</dim>
				</port>
				<port id="1" precision="I64">
					<dim>4</dim>
				</port>
			</input>
			<output>
				<port id="2" precision="FP32" names="269,key_layer.5">
					<dim>-1</dim>
					<dim>12</dim>
					<dim>-1</dim>
					<dim>64</dim>
				</port>
			</output>
		</layer>
		<layer id="325" name="__module.model.encoder.layer.1.attention.self/aten::matmul/MatMul" type="MatMul" version="opset1">
			<data transpose_a="false" transpose_b="true" />
			<input>
				<port id="0" precision="FP32">
					<dim>-1</dim>
					<dim>12</dim>
					<dim>-1</dim>
					<dim>64</dim>
				</port>
				<port id="1" precision="FP32">
					<dim>-1</dim>
					<dim>12</dim>
					<dim>-1</dim>
					<dim>64</dim>
				</port>
			</input>
			<output>
				<port id="2" precision="FP32" names="286,attention_scores.9">
					<dim>-1</dim>
					<dim>12</dim>
					<dim>-1</dim>
					<dim>-1</dim>
				</port>
			</output>
		</layer>
		<layer id="326" name="Constant_26835_compressed" type="Const" version="opset1">
			<data element_type="f16" shape="1, 1, 1, 1" offset="25159008" size="2" />
			<output>
				<port id="0" precision="FP16">
					<dim>1</dim>
					<dim>1</dim>
					<dim>1</dim>
					<dim>1</dim>
				</port>
			</output>
		</layer>
		<layer id="327" name="Constant_26835" type="Convert" version="opset1">
			<data destination_type="f32" />
			<rt_info>
				<attribute name="decompression" version="0" />
			</rt_info>
			<input>
				<port id="0" precision="FP16">
					<dim>1</dim>
					<dim>1</dim>
					<dim>1</dim>
					<dim>1</dim>
				</port>
			</input>
			<output>
				<port id="1" precision="FP32">
					<dim>1</dim>
					<dim>1</dim>
					<dim>1</dim>
					<dim>1</dim>
				</port>
			</output>
		</layer>
		<layer id="328" name="__module.model.encoder.layer.1.attention.self/aten::div/Divide" type="Divide" version="opset1">
			<data auto_broadcast="numpy" m_pythondiv="true" />
			<input>
				<port id="0" precision="FP32">
					<dim>-1</dim>
					<dim>12</dim>
					<dim>-1</dim>
					<dim>-1</dim>
				</port>
				<port id="1" precision="FP32">
					<dim>1</dim>
					<dim>1</dim>
					<dim>1</dim>
					<dim>1</dim>
				</port>
			</input>
			<output>
				<port id="2" precision="FP32" names="287,attention_scores.11">
					<dim>-1</dim>
					<dim>12</dim>
					<dim>-1</dim>
					<dim>-1</dim>
				</port>
			</output>
		</layer>
		<layer id="329" name="__module.model.encoder.layer.1.attention.self/aten::add/Add" type="Add" version="opset1">
			<data auto_broadcast="numpy" />
			<input>
				<port id="0" precision="FP32">
					<dim>-1</dim>
					<dim>12</dim>
					<dim>-1</dim>
					<dim>-1</dim>
				</port>
				<port id="1" precision="FP32">
					<dim>-1</dim>
					<dim>1</dim>
					<dim>1</dim>
					<dim>-1</dim>
				</port>
			</input>
			<output>
				<port id="2" precision="FP32" names="289,input.43">
					<dim>-1</dim>
					<dim>12</dim>
					<dim>-1</dim>
					<dim>-1</dim>
				</port>
			</output>
		</layer>
		<layer id="330" name="__module.model.encoder.layer.1.attention.self/aten::softmax/Softmax" type="SoftMax" version="opset8">
			<data axis="-1" />
			<input>
				<port id="0" precision="FP32">
					<dim>-1</dim>
					<dim>12</dim>
					<dim>-1</dim>
					<dim>-1</dim>
				</port>
			</input>
			<output>
				<port id="1" precision="FP32" names="290,input.45">
					<dim>-1</dim>
					<dim>12</dim>
					<dim>-1</dim>
					<dim>-1</dim>
				</port>
			</output>
		</layer>
		<layer id="331" name="Constant_1005264" type="Const" version="opset1">
			<data element_type="i8" shape="768, 768" offset="34696162" size="589824" />
			<output>
				<port id="0" precision="I8">
					<dim>768</dim>
					<dim>768</dim>
				</port>
			</output>
		</layer>
		<layer id="332" name="Convert_1005265" type="Convert" version="opset1">
			<data destination_type="f32" />
			<input>
				<port id="0" precision="I8">
					<dim>768</dim>
					<dim>768</dim>
				</port>
			</input>
			<output>
				<port id="1" precision="FP32">
					<dim>768</dim>
					<dim>768</dim>
				</port>
			</output>
		</layer>
		<layer id="333" name="Constant_1005266" type="Const" version="opset1">
			<data element_type="f32" shape="768, 1" offset="35285986" size="3072" />
			<output>
				<port id="0" precision="FP32">
					<dim>768</dim>
					<dim>1</dim>
				</port>
			</output>
		</layer>
		<layer id="334" name="__module.model.encoder.layer.1.attention.self.value/aten::linear/MatMul/fq_weights_1" type="Multiply" version="opset1">
			<data auto_broadcast="numpy" />
			<input>
				<port id="0" precision="FP32">
					<dim>768</dim>
					<dim>768</dim>
				</port>
				<port id="1" precision="FP32">
					<dim>768</dim>
					<dim>1</dim>
				</port>
			</input>
			<output>
				<port id="2" precision="FP32">
					<dim>768</dim>
					<dim>768</dim>
				</port>
			</output>
		</layer>
		<layer id="335" name="__module.model.encoder.layer.1.attention.self.value/aten::linear/MatMul" type="MatMul" version="opset1">
			<data transpose_a="false" transpose_b="true" />
			<input>
				<port id="0" precision="FP32">
					<dim>-1</dim>
					<dim>-1</dim>
					<dim>768</dim>
				</port>
				<port id="1" precision="FP32">
					<dim>768</dim>
					<dim>768</dim>
				</port>
			</input>
			<output>
				<port id="2" precision="FP32">
					<dim>-1</dim>
					<dim>-1</dim>
					<dim>768</dim>
				</port>
			</output>
		</layer>
		<layer id="336" name="Constant_26836_compressed" type="Const" version="opset1">
			<data element_type="f16" shape="1, 1, 768" offset="35289058" size="1536" />
			<output>
				<port id="0" precision="FP16">
					<dim>1</dim>
					<dim>1</dim>
					<dim>768</dim>
				</port>
			</output>
		</layer>
		<layer id="337" name="Constant_26836" type="Convert" version="opset1">
			<data destination_type="f32" />
			<rt_info>
				<attribute name="decompression" version="0" />
			</rt_info>
			<input>
				<port id="0" precision="FP16">
					<dim>1</dim>
					<dim>1</dim>
					<dim>768</dim>
				</port>
			</input>
			<output>
				<port id="1" precision="FP32">
					<dim>1</dim>
					<dim>1</dim>
					<dim>768</dim>
				</port>
			</output>
		</layer>
		<layer id="338" name="__module.model.encoder.layer.1.attention.self.value/aten::linear/Add" type="Add" version="opset1">
			<data auto_broadcast="numpy" />
			<input>
				<port id="0" precision="FP32">
					<dim>-1</dim>
					<dim>-1</dim>
					<dim>768</dim>
				</port>
				<port id="1" precision="FP32">
					<dim>1</dim>
					<dim>1</dim>
					<dim>768</dim>
				</port>
			</input>
			<output>
				<port id="2" precision="FP32" names="272,x.29">
					<dim>-1</dim>
					<dim>-1</dim>
					<dim>768</dim>
				</port>
			</output>
		</layer>
		<layer id="339" name="__module.model.encoder.layer.1.attention.self/prim::ListConstruct_2" type="Const" version="opset1">
			<data element_type="i64" shape="4" offset="24564504" size="32" />
			<rt_info>
				<attribute name="precise" version="0" />
			</rt_info>
			<output>
				<port id="0" precision="I64">
					<dim>4</dim>
				</port>
			</output>
		</layer>
		<layer id="340" name="__module.model.encoder.layer.1.attention.self/aten::view/Reshape_2" type="Reshape" version="opset1">
			<data special_zero="true" />
			<input>
				<port id="0" precision="FP32">
					<dim>-1</dim>
					<dim>-1</dim>
					<dim>768</dim>
				</port>
				<port id="1" precision="I64">
					<dim>4</dim>
				</port>
			</input>
			<output>
				<port id="2" precision="FP32" names="276,x.31">
					<dim>-1</dim>
					<dim>-1</dim>
					<dim>12</dim>
					<dim>64</dim>
				</port>
			</output>
		</layer>
		<layer id="341" name="Constant_11233" type="Const" version="opset1">
			<data element_type="i64" shape="4" offset="24564536" size="32" />
			<output>
				<port id="0" precision="I64" names="277">
					<dim>4</dim>
				</port>
			</output>
		</layer>
		<layer id="342" name="__module.model.encoder.layer.1.attention.self/aten::permute/Transpose_2" type="Transpose" version="opset1">
			<input>
				<port id="0" precision="FP32">
					<dim>-1</dim>
					<dim>-1</dim>
					<dim>12</dim>
					<dim>64</dim>
				</port>
				<port id="1" precision="I64">
					<dim>4</dim>
				</port>
			</input>
			<output>
				<port id="2" precision="FP32" names="278,value_layer.5">
					<dim>-1</dim>
					<dim>12</dim>
					<dim>-1</dim>
					<dim>64</dim>
				</port>
			</output>
		</layer>
		<layer id="343" name="__module.model.encoder.layer.1.attention.self/aten::matmul/MatMul_1" type="MatMul" version="opset1">
			<data transpose_a="false" transpose_b="false" />
			<input>
				<port id="0" precision="FP32">
					<dim>-1</dim>
					<dim>12</dim>
					<dim>-1</dim>
					<dim>-1</dim>
				</port>
				<port id="1" precision="FP32">
					<dim>-1</dim>
					<dim>12</dim>
					<dim>-1</dim>
					<dim>64</dim>
				</port>
			</input>
			<output>
				<port id="2" precision="FP32" names="292,context_layer.9">
					<dim>-1</dim>
					<dim>12</dim>
					<dim>-1</dim>
					<dim>64</dim>
				</port>
			</output>
		</layer>
		<layer id="344" name="Constant_11360" type="Const" version="opset1">
			<data element_type="i64" shape="4" offset="24564536" size="32" />
			<output>
				<port id="0" precision="I64" names="293">
					<dim>4</dim>
				</port>
			</output>
		</layer>
		<layer id="345" name="__module.model.encoder.layer.1.attention.self/aten::permute/Transpose_3" type="Transpose" version="opset1">
			<input>
				<port id="0" precision="FP32">
					<dim>-1</dim>
					<dim>12</dim>
					<dim>-1</dim>
					<dim>64</dim>
				</port>
				<port id="1" precision="I64">
					<dim>4</dim>
				</port>
			</input>
			<output>
				<port id="2" precision="FP32" names="294">
					<dim>-1</dim>
					<dim>-1</dim>
					<dim>12</dim>
					<dim>64</dim>
				</port>
			</output>
		</layer>
		<layer id="346" name="__module.model.encoder.layer.1.attention.self/prim::ListConstruct_3" type="Const" version="opset1">
			<data element_type="i64" shape="3" offset="25753454" size="24" />
			<rt_info>
				<attribute name="precise" version="0" />
			</rt_info>
			<output>
				<port id="0" precision="I64">
					<dim>3</dim>
				</port>
			</output>
		</layer>
		<layer id="347" name="__module.model.encoder.layer.1.attention.self/aten::view/Reshape_3" type="Reshape" version="opset1">
			<data special_zero="true" />
			<input>
				<port id="0" precision="FP32">
					<dim>-1</dim>
					<dim>-1</dim>
					<dim>12</dim>
					<dim>64</dim>
				</port>
				<port id="1" precision="I64">
					<dim>3</dim>
				</port>
			</input>
			<output>
				<port id="2" precision="FP32" names="299,301,input.47">
					<dim>-1</dim>
					<dim>-1</dim>
					<dim>768</dim>
				</port>
			</output>
		</layer>
		<layer id="348" name="__module.model.encoder.layer.1.attention.self/aten::view/Reshape_3_0_0/nncf_smooth_quant/scale" type="Const" version="opset1">
			<data element_type="f32" shape="1, 1, 768" offset="35290594" size="3072" />
			<output>
				<port id="0" precision="FP32">
					<dim>1</dim>
					<dim>1</dim>
					<dim>768</dim>
				</port>
			</output>
		</layer>
		<layer id="349" name="__module.model.encoder.layer.1.attention.self/aten::view/Reshape_3_0_0/nncf_smooth_quant" type="Multiply" version="opset1">
			<data auto_broadcast="numpy" />
			<input>
				<port id="0" precision="FP32">
					<dim>-1</dim>
					<dim>-1</dim>
					<dim>768</dim>
				</port>
				<port id="1" precision="FP32">
					<dim>1</dim>
					<dim>1</dim>
					<dim>768</dim>
				</port>
			</input>
			<output>
				<port id="2" precision="FP32">
					<dim>-1</dim>
					<dim>-1</dim>
					<dim>768</dim>
				</port>
			</output>
		</layer>
		<layer id="350" name="__module.model.encoder.layer.1.attention.self/aten::view/Reshape_3_0_0/nncf_smooth_quant/fq_output_0/input_low" type="Const" version="opset1">
			<data element_type="f32" shape="" offset="35293666" size="4" />
			<output>
				<port id="0" precision="FP32" />
			</output>
		</layer>
		<layer id="351" name="__module.model.encoder.layer.1.attention.self/aten::view/Reshape_3_0_0/nncf_smooth_quant/fq_output_0/input_high" type="Const" version="opset1">
			<data element_type="f32" shape="" offset="35293670" size="4" />
			<output>
				<port id="0" precision="FP32" />
			</output>
		</layer>
		<layer id="352" name="__module.model.encoder.layer.1.attention.self/aten::view/Reshape_3_0_0/nncf_smooth_quant/fq_output_0/output_low" type="Const" version="opset1">
			<data element_type="f32" shape="" offset="35293666" size="4" />
			<output>
				<port id="0" precision="FP32" />
			</output>
		</layer>
		<layer id="353" name="__module.model.encoder.layer.1.attention.self/aten::view/Reshape_3_0_0/nncf_smooth_quant/fq_output_0/output_high" type="Const" version="opset1">
			<data element_type="f32" shape="" offset="35293670" size="4" />
			<output>
				<port id="0" precision="FP32" />
			</output>
		</layer>
		<layer id="354" name="__module.model.encoder.layer.1.attention.self/aten::view/Reshape_3_0_0/nncf_smooth_quant/fq_output_0" type="FakeQuantize" version="opset1">
			<data levels="256" auto_broadcast="numpy" />
			<input>
				<port id="0" precision="FP32">
					<dim>-1</dim>
					<dim>-1</dim>
					<dim>768</dim>
				</port>
				<port id="1" precision="FP32" />
				<port id="2" precision="FP32" />
				<port id="3" precision="FP32" />
				<port id="4" precision="FP32" />
			</input>
			<output>
				<port id="5" precision="FP32">
					<dim>-1</dim>
					<dim>-1</dim>
					<dim>768</dim>
				</port>
			</output>
		</layer>
		<layer id="355" name="Constant_1005269" type="Const" version="opset1">
			<data element_type="i8" shape="768, 768" offset="35293674" size="589824" />
			<output>
				<port id="0" precision="I8">
					<dim>768</dim>
					<dim>768</dim>
				</port>
			</output>
		</layer>
		<layer id="356" name="Convert_1005270" type="Convert" version="opset1">
			<data destination_type="f32" />
			<input>
				<port id="0" precision="I8">
					<dim>768</dim>
					<dim>768</dim>
				</port>
			</input>
			<output>
				<port id="1" precision="FP32">
					<dim>768</dim>
					<dim>768</dim>
				</port>
			</output>
		</layer>
		<layer id="357" name="Constant_1005271" type="Const" version="opset1">
			<data element_type="f32" shape="768, 1" offset="35883498" size="3072" />
			<output>
				<port id="0" precision="FP32">
					<dim>768</dim>
					<dim>1</dim>
				</port>
			</output>
		</layer>
		<layer id="358" name="__module.model.encoder.layer.1.attention.output.dense/aten::linear/MatMul/fq_weights_1" type="Multiply" version="opset1">
			<data auto_broadcast="numpy" />
			<input>
				<port id="0" precision="FP32">
					<dim>768</dim>
					<dim>768</dim>
				</port>
				<port id="1" precision="FP32">
					<dim>768</dim>
					<dim>1</dim>
				</port>
			</input>
			<output>
				<port id="2" precision="FP32">
					<dim>768</dim>
					<dim>768</dim>
				</port>
			</output>
		</layer>
		<layer id="359" name="__module.model.encoder.layer.1.attention.output.dense/aten::linear/MatMul" type="MatMul" version="opset1">
			<data transpose_a="false" transpose_b="true" />
			<input>
				<port id="0" precision="FP32">
					<dim>-1</dim>
					<dim>-1</dim>
					<dim>768</dim>
				</port>
				<port id="1" precision="FP32">
					<dim>768</dim>
					<dim>768</dim>
				</port>
			</input>
			<output>
				<port id="2" precision="FP32">
					<dim>-1</dim>
					<dim>-1</dim>
					<dim>768</dim>
				</port>
			</output>
		</layer>
		<layer id="360" name="Constant_26837_compressed" type="Const" version="opset1">
			<data element_type="f16" shape="1, 1, 768" offset="35886570" size="1536" />
			<output>
				<port id="0" precision="FP16">
					<dim>1</dim>
					<dim>1</dim>
					<dim>768</dim>
				</port>
			</output>
		</layer>
		<layer id="361" name="Constant_26837" type="Convert" version="opset1">
			<data destination_type="f32" />
			<rt_info>
				<attribute name="decompression" version="0" />
			</rt_info>
			<input>
				<port id="0" precision="FP16">
					<dim>1</dim>
					<dim>1</dim>
					<dim>768</dim>
				</port>
			</input>
			<output>
				<port id="1" precision="FP32">
					<dim>1</dim>
					<dim>1</dim>
					<dim>768</dim>
				</port>
			</output>
		</layer>
		<layer id="362" name="__module.model.encoder.layer.1.attention.output.dense/aten::linear/Add" type="Add" version="opset1">
			<data auto_broadcast="numpy" />
			<input>
				<port id="0" precision="FP32">
					<dim>-1</dim>
					<dim>-1</dim>
					<dim>768</dim>
				</port>
				<port id="1" precision="FP32">
					<dim>1</dim>
					<dim>1</dim>
					<dim>768</dim>
				</port>
			</input>
			<output>
				<port id="2" precision="FP32" names="308,input.49">
					<dim>-1</dim>
					<dim>-1</dim>
					<dim>768</dim>
				</port>
			</output>
		</layer>
		<layer id="363" name="__module.model.encoder.layer.1.attention.output/aten::add/Add" type="Add" version="opset1">
			<data auto_broadcast="numpy" />
			<input>
				<port id="0" precision="FP32">
					<dim>-1</dim>
					<dim>-1</dim>
					<dim>768</dim>
				</port>
				<port id="1" precision="FP32">
					<dim>-1</dim>
					<dim>-1</dim>
					<dim>768</dim>
				</port>
			</input>
			<output>
				<port id="2" precision="FP32" names="310,input.51">
					<dim>-1</dim>
					<dim>-1</dim>
					<dim>768</dim>
				</port>
			</output>
		</layer>
		<layer id="364" name="__module.model.encoder.layer.1.attention.output.LayerNorm/aten::layer_norm/Multiply" type="Const" version="opset1">
			<data element_type="i32" shape="1" offset="23963908" size="4" />
			<output>
				<port id="0" precision="I32">
					<dim>1</dim>
				</port>
			</output>
		</layer>
		<layer id="365" name="__module.model.encoder.layer.1.attention.output.LayerNorm/aten::layer_norm/MVN" type="MVN" version="opset6">
…
		<edge from-layer="1979" from-port="0" to-layer="1980" to-port="0" />
		<edge from-layer="1980" from-port="1" to-layer="1982" to-port="0" />
		<edge from-layer="1981" from-port="0" to-layer="1982" to-port="1" />
		<edge from-layer="1982" from-port="2" to-layer="1983" to-port="1" />
		<edge from-layer="1983" from-port="2" to-layer="1986" to-port="0" />
		<edge from-layer="1984" from-port="0" to-layer="1985" to-port="0" />
		<edge from-layer="1985" from-port="1" to-layer="1986" to-port="1" />
		<edge from-layer="1986" from-port="2" to-layer="1987" to-port="0" />
		<edge from-layer="1987" from-port="1" to-layer="1989" to-port="0" />
		<edge from-layer="1988" from-port="0" to-layer="1989" to-port="1" />
		<edge from-layer="1989" from-port="2" to-layer="1994" to-port="0" />
		<edge from-layer="1990" from-port="0" to-layer="1994" to-port="1" />
		<edge from-layer="1991" from-port="0" to-layer="1994" to-port="2" />
		<edge from-layer="1992" from-port="0" to-layer="1994" to-port="3" />
		<edge from-layer="1993" from-port="0" to-layer="1994" to-port="4" />
		<edge from-layer="1994" from-port="5" to-layer="1999" to-port="0" />
		<edge from-layer="1995" from-port="0" to-layer="1996" to-port="0" />
		<edge from-layer="1996" from-port="1" to-layer="1998" to-port="0" />
		<edge from-layer="1997" from-port="0" to-layer="1998" to-port="1" />
		<edge from-layer="1998" from-port="2" to-layer="1999" to-port="1" />
		<edge from-layer="1999" from-port="2" to-layer="2002" to-port="0" />
		<edge from-layer="2000" from-port="0" to-layer="2001" to-port="0" />
		<edge from-layer="2001" from-port="1" to-layer="2002" to-port="1" />
		<edge from-layer="2002" from-port="2" to-layer="2003" to-port="0" />
		<edge from-layer="2003" from-port="2" to-layer="2005" to-port="0" />
		<edge from-layer="2004" from-port="0" to-layer="2005" to-port="1" />
		<edge from-layer="2005" from-port="2" to-layer="2008" to-port="0" />
		<edge from-layer="2006" from-port="0" to-layer="2007" to-port="0" />
		<edge from-layer="2007" from-port="1" to-layer="2008" to-port="1" />
		<edge from-layer="2008" from-port="2" to-layer="2011" to-port="0" />
		<edge from-layer="2009" from-port="0" to-layer="2010" to-port="0" />
		<edge from-layer="2010" from-port="1" to-layer="2011" to-port="1" />
		<edge from-layer="2011" from-port="2" to-layer="2091" to-port="1" />
		<edge from-layer="2011" from-port="2" to-layer="2013" to-port="0" />
		<edge from-layer="2012" from-port="0" to-layer="2013" to-port="1" />
		<edge from-layer="2013" from-port="2" to-layer="2018" to-port="0" />
		<edge from-layer="2014" from-port="0" to-layer="2018" to-port="1" />
		<edge from-layer="2015" from-port="0" to-layer="2018" to-port="2" />
		<edge from-layer="2016" from-port="0" to-layer="2018" to-port="3" />
		<edge from-layer="2017" from-port="0" to-layer="2018" to-port="4" />
		<edge from-layer="2018" from-port="5" to-layer="2063" to-port="0" />
		<edge from-layer="2018" from-port="5" to-layer="2040" to-port="0" />
		<edge from-layer="2018" from-port="5" to-layer="2023" to-port="0" />
		<edge from-layer="2019" from-port="0" to-layer="2020" to-port="0" />
		<edge from-layer="2020" from-port="1" to-layer="2022" to-port="0" />
		<edge from-layer="2021" from-port="0" to-layer="2022" to-port="1" />
		<edge from-layer="2022" from-port="2" to-layer="2023" to-port="1" />
		<edge from-layer="2023" from-port="2" to-layer="2026" to-port="0" />
		<edge from-layer="2024" from-port="0" to-layer="2025" to-port="0" />
		<edge from-layer="2025" from-port="1" to-layer="2026" to-port="1" />
		<edge from-layer="2026" from-port="2" to-layer="2031" to-port="0" />
		<edge from-layer="2027" from-port="0" to-layer="2031" to-port="1" />
		<edge from-layer="2028" from-port="0" to-layer="2031" to-port="2" />
		<edge from-layer="2029" from-port="0" to-layer="2031" to-port="3" />
		<edge from-layer="2030" from-port="0" to-layer="2031" to-port="4" />
		<edge from-layer="2031" from-port="5" to-layer="2033" to-port="0" />
		<edge from-layer="2032" from-port="0" to-layer="2033" to-port="1" />
		<edge from-layer="2033" from-port="2" to-layer="2035" to-port="0" />
		<edge from-layer="2034" from-port="0" to-layer="2035" to-port="1" />
		<edge from-layer="2035" from-port="2" to-layer="2053" to-port="0" />
		<edge from-layer="2036" from-port="0" to-layer="2037" to-port="0" />
		<edge from-layer="2037" from-port="1" to-layer="2039" to-port="0" />
		<edge from-layer="2038" from-port="0" to-layer="2039" to-port="1" />
		<edge from-layer="2039" from-port="2" to-layer="2040" to-port="1" />
		<edge from-layer="2040" from-port="2" to-layer="2043" to-port="0" />
		<edge from-layer="2041" from-port="0" to-layer="2042" to-port="0" />
		<edge from-layer="2042" from-port="1" to-layer="2043" to-port="1" />
		<edge from-layer="2043" from-port="2" to-layer="2048" to-port="0" />
		<edge from-layer="2044" from-port="0" to-layer="2048" to-port="1" />
		<edge from-layer="2045" from-port="0" to-layer="2048" to-port="2" />
		<edge from-layer="2046" from-port="0" to-layer="2048" to-port="3" />
		<edge from-layer="2047" from-port="0" to-layer="2048" to-port="4" />
		<edge from-layer="2048" from-port="5" to-layer="2050" to-port="0" />
		<edge from-layer="2049" from-port="0" to-layer="2050" to-port="1" />
		<edge from-layer="2050" from-port="2" to-layer="2052" to-port="0" />
		<edge from-layer="2051" from-port="0" to-layer="2052" to-port="1" />
		<edge from-layer="2052" from-port="2" to-layer="2053" to-port="1" />
		<edge from-layer="2053" from-port="2" to-layer="2056" to-port="0" />
		<edge from-layer="2054" from-port="0" to-layer="2055" to-port="0" />
		<edge from-layer="2055" from-port="1" to-layer="2056" to-port="1" />
		<edge from-layer="2056" from-port="2" to-layer="2057" to-port="0" />
		<edge from-layer="2057" from-port="2" to-layer="2058" to-port="0" />
		<edge from-layer="2058" from-port="1" to-layer="2071" to-port="0" />
		<edge from-layer="2059" from-port="0" to-layer="2060" to-port="0" />
		<edge from-layer="2060" from-port="1" to-layer="2062" to-port="0" />
		<edge from-layer="2061" from-port="0" to-layer="2062" to-port="1" />
		<edge from-layer="2062" from-port="2" to-layer="2063" to-port="1" />
		<edge from-layer="2063" from-port="2" to-layer="2066" to-port="0" />
		<edge from-layer="2064" from-port="0" to-layer="2065" to-port="0" />
		<edge from-layer="2065" from-port="1" to-layer="2066" to-port="1" />
		<edge from-layer="2066" from-port="2" to-layer="2068" to-port="0" />
		<edge from-layer="2067" from-port="0" to-layer="2068" to-port="1" />
		<edge from-layer="2068" from-port="2" to-layer="2070" to-port="0" />
		<edge from-layer="2069" from-port="0" to-layer="2070" to-port="1" />
		<edge from-layer="2070" from-port="2" to-layer="2071" to-port="1" />
		<edge from-layer="2071" from-port="2" to-layer="2073" to-port="0" />
		<edge from-layer="2072" from-port="0" to-layer="2073" to-port="1" />
		<edge from-layer="2073" from-port="2" to-layer="2075" to-port="0" />
		<edge from-layer="2074" from-port="0" to-layer="2075" to-port="1" />
		<edge from-layer="2075" from-port="2" to-layer="2077" to-port="0" />
		<edge from-layer="2076" from-port="0" to-layer="2077" to-port="1" />
		<edge from-layer="2077" from-port="2" to-layer="2082" to-port="0" />
		<edge from-layer="2078" from-port="0" to-layer="2082" to-port="1" />
		<edge from-layer="2079" from-port="0" to-layer="2082" to-port="2" />
		<edge from-layer="2080" from-port="0" to-layer="2082" to-port="3" />
		<edge from-layer="2081" from-port="0" to-layer="2082" to-port="4" />
		<edge from-layer="2082" from-port="5" to-layer="2087" to-port="0" />
		<edge from-layer="2083" from-port="0" to-layer="2084" to-port="0" />
		<edge from-layer="2084" from-port="1" to-layer="2086" to-port="0" />
		<edge from-layer="2085" from-port="0" to-layer="2086" to-port="1" />
		<edge from-layer="2086" from-port="2" to-layer="2087" to-port="1" />
		<edge from-layer="2087" from-port="2" to-layer="2090" to-port="0" />
		<edge from-layer="2088" from-port="0" to-layer="2089" to-port="0" />
		<edge from-layer="2089" from-port="1" to-layer="2090" to-port="1" />
		<edge from-layer="2090" from-port="2" to-layer="2091" to-port="0" />
		<edge from-layer="2091" from-port="2" to-layer="2093" to-port="0" />
		<edge from-layer="2092" from-port="0" to-layer="2093" to-port="1" />
		<edge from-layer="2093" from-port="2" to-layer="2096" to-port="0" />
		<edge from-layer="2094" from-port="0" to-layer="2095" to-port="0" />
		<edge from-layer="2095" from-port="1" to-layer="2096" to-port="1" />
		<edge from-layer="2096" from-port="2" to-layer="2099" to-port="0" />
		<edge from-layer="2097" from-port="0" to-layer="2098" to-port="0" />
		<edge from-layer="2098" from-port="1" to-layer="2099" to-port="1" />
		<edge from-layer="2099" from-port="2" to-layer="2101" to-port="0" />
		<edge from-layer="2099" from-port="2" to-layer="2179" to-port="1" />
		<edge from-layer="2100" from-port="0" to-layer="2101" to-port="1" />
		<edge from-layer="2101" from-port="2" to-layer="2106" to-port="0" />
		<edge from-layer="2102" from-port="0" to-layer="2106" to-port="1" />
		<edge from-layer="2103" from-port="0" to-layer="2106" to-port="2" />
		<edge from-layer="2104" from-port="0" to-layer="2106" to-port="3" />
		<edge from-layer="2105" from-port="0" to-layer="2106" to-port="4" />
		<edge from-layer="2106" from-port="5" to-layer="2111" to-port="0" />
		<edge from-layer="2107" from-port="0" to-layer="2108" to-port="0" />
		<edge from-layer="2108" from-port="1" to-layer="2110" to-port="0" />
		<edge from-layer="2109" from-port="0" to-layer="2110" to-port="1" />
		<edge from-layer="2110" from-port="2" to-layer="2111" to-port="1" />
		<edge from-layer="2111" from-port="2" to-layer="2114" to-port="0" />
		<edge from-layer="2112" from-port="0" to-layer="2113" to-port="0" />
		<edge from-layer="2113" from-port="1" to-layer="2114" to-port="1" />
		<edge from-layer="2114" from-port="2" to-layer="2119" to-port="0" />
		<edge from-layer="2115" from-port="0" to-layer="2119" to-port="1" />
		<edge from-layer="2116" from-port="0" to-layer="2119" to-port="2" />
		<edge from-layer="2117" from-port="0" to-layer="2119" to-port="3" />
		<edge from-layer="2118" from-port="0" to-layer="2119" to-port="4" />
		<edge from-layer="2119" from-port="5" to-layer="2121" to-port="0" />
		<edge from-layer="2120" from-port="0" to-layer="2121" to-port="1" />
		<edge from-layer="2121" from-port="2" to-layer="2123" to-port="0" />
		<edge from-layer="2122" from-port="0" to-layer="2123" to-port="1" />
		<edge from-layer="2123" from-port="2" to-layer="2141" to-port="0" />
		<edge from-layer="2124" from-port="0" to-layer="2125" to-port="0" />
		<edge from-layer="2125" from-port="1" to-layer="2127" to-port="0" />
		<edge from-layer="2126" from-port="0" to-layer="2127" to-port="1" />
		<edge from-layer="2127" from-port="2" to-layer="2128" to-port="1" />
		<edge from-layer="2128" from-port="2" to-layer="2131" to-port="0" />
		<edge from-layer="2129" from-port="0" to-layer="2130" to-port="0" />
		<edge from-layer="2130" from-port="1" to-layer="2131" to-port="1" />
		<edge from-layer="2131" from-port="2" to-layer="2136" to-port="0" />
		<edge from-layer="2132" from-port="0" to-layer="2136" to-port="1" />
		<edge from-layer="2133" from-port="0" to-layer="2136" to-port="2" />
		<edge from-layer="2134" from-port="0" to-layer="2136" to-port="3" />
		<edge from-layer="2135" from-port="0" to-layer="2136" to-port="4" />
		<edge from-layer="2136" from-port="5" to-layer="2138" to-port="0" />
		<edge from-layer="2137" from-port="0" to-layer="2138" to-port="1" />
		<edge from-layer="2138" from-port="2" to-layer="2140" to-port="0" />
		<edge from-layer="2139" from-port="0" to-layer="2140" to-port="1" />
		<edge from-layer="2140" from-port="2" to-layer="2141" to-port="1" />
		<edge from-layer="2141" from-port="2" to-layer="2144" to-port="0" />
		<edge from-layer="2142" from-port="0" to-layer="2143" to-port="0" />
		<edge from-layer="2143" from-port="1" to-layer="2144" to-port="1" />
		<edge from-layer="2144" from-port="2" to-layer="2145" to-port="0" />
		<edge from-layer="2145" from-port="2" to-layer="2146" to-port="0" />
		<edge from-layer="2146" from-port="1" to-layer="2159" to-port="0" />
		<edge from-layer="2147" from-port="0" to-layer="2148" to-port="0" />
		<edge from-layer="2148" from-port="1" to-layer="2150" to-port="0" />
		<edge from-layer="2149" from-port="0" to-layer="2150" to-port="1" />
		<edge from-layer="2150" from-port="2" to-layer="2151" to-port="1" />
		<edge from-layer="2151" from-port="2" to-layer="2154" to-port="0" />
		<edge from-layer="2152" from-port="0" to-layer="2153" to-port="0" />
		<edge from-layer="2153" from-port="1" to-layer="2154" to-port="1" />
		<edge from-layer="2154" from-port="2" to-layer="2156" to-port="0" />
		<edge from-layer="2155" from-port="0" to-layer="2156" to-port="1" />
		<edge from-layer="2156" from-port="2" to-layer="2158" to-port="0" />
		<edge from-layer="2157" from-port="0" to-layer="2158" to-port="1" />
		<edge from-layer="2158" from-port="2" to-layer="2159" to-port="1" />
		<edge from-layer="2159" from-port="2" to-layer="2161" to-port="0" />
		<edge from-layer="2160" from-port="0" to-layer="2161" to-port="1" />
		<edge from-layer="2161" from-port="2" to-layer="2163" to-port="0" />
		<edge from-layer="2162" from-port="0" to-layer="2163" to-port="1" />
		<edge from-layer="2163" from-port="2" to-layer="2165" to-port="0" />
		<edge from-layer="2164" from-port="0" to-layer="2165" to-port="1" />
		<edge from-layer="2165" from-port="2" to-layer="2170" to-port="0" />
		<edge from-layer="2166" from-port="0" to-layer="2170" to-port="1" />
		<edge from-layer="2167" from-port="0" to-layer="2170" to-port="2" />
		<edge from-layer="2168" from-port="0" to-layer="2170" to-port="3" />
		<edge from-layer="2169" from-port="0" to-layer="2170" to-port="4" />
		<edge from-layer="2170" from-port="5" to-layer="2175" to-port="0" />
		<edge from-layer="2171" from-port="0" to-layer="2172" to-port="0" />
		<edge from-layer="2172" from-port="1" to-layer="2174" to-port="0" />
		<edge from-layer="2173" from-port="0" to-layer="2174" to-port="1" />
		<edge from-layer="2174" from-port="2" to-layer="2175" to-port="1" />
		<edge from-layer="2175" from-port="2" to-layer="2178" to-port="0" />
		<edge from-layer="2176" from-port="0" to-layer="2177" to-port="0" />
		<edge from-layer="2177" from-port="1" to-layer="2178" to-port="1" />
		<edge from-layer="2178" from-port="2" to-layer="2179" to-port="0" />
		<edge from-layer="2179" from-port="2" to-layer="2181" to-port="0" />
		<edge from-layer="2180" from-port="0" to-layer="2181" to-port="1" />
		<edge from-layer="2181" from-port="2" to-layer="2184" to-port="0" />
		<edge from-layer="2182" from-port="0" to-layer="2183" to-port="0" />
		<edge from-layer="2183" from-port="1" to-layer="2184" to-port="1" />
		<edge from-layer="2184" from-port="2" to-layer="2187" to-port="0" />
		<edge from-layer="2185" from-port="0" to-layer="2186" to-port="0" />
		<edge from-layer="2186" from-port="1" to-layer="2187" to-port="1" />
		<edge from-layer="2187" from-port="2" to-layer="2189" to-port="0" />
		<edge from-layer="2187" from-port="2" to-layer="2219" to-port="1" />
		<edge from-layer="2188" from-port="0" to-layer="2189" to-port="1" />
		<edge from-layer="2189" from-port="2" to-layer="2194" to-port="0" />
		<edge from-layer="2190" from-port="0" to-layer="2194" to-port="1" />
		<edge from-layer="2191" from-port="0" to-layer="2194" to-port="2" />
		<edge from-layer="2192" from-port="0" to-layer="2194" to-port="3" />
		<edge from-layer="2193" from-port="0" to-layer="2194" to-port="4" />
		<edge from-layer="2194" from-port="5" to-layer="2199" to-port="0" />
		<edge from-layer="2195" from-port="0" to-layer="2196" to-port="0" />
		<edge from-layer="2196" from-port="1" to-layer="2198" to-port="0" />
		<edge from-layer="2197" from-port="0" to-layer="2198" to-port="1" />
		<edge from-layer="2198" from-port="2" to-layer="2199" to-port="1" />
		<edge from-layer="2199" from-port="2" to-layer="2202" to-port="0" />
		<edge from-layer="2200" from-port="0" to-layer="2201" to-port="0" />
		<edge from-layer="2201" from-port="1" to-layer="2202" to-port="1" />
		<edge from-layer="2202" from-port="2" to-layer="2203" to-port="0" />
		<edge from-layer="2203" from-port="1" to-layer="2205" to-port="0" />
		<edge from-layer="2204" from-port="0" to-layer="2205" to-port="1" />
		<edge from-layer="2205" from-port="2" to-layer="2210" to-port="0" />
		<edge from-layer="2206" from-port="0" to-layer="2210" to-port="1" />
		<edge from-layer="2207" from-port="0" to-layer="2210" to-port="2" />
		<edge from-layer="2208" from-port="0" to-layer="2210" to-port="3" />
		<edge from-layer="2209" from-port="0" to-layer="2210" to-port="4" />
		<edge from-layer="2210" from-port="5" to-layer="2215" to-port="0" />
		<edge from-layer="2211" from-port="0" to-layer="2212" to-port="0" />
		<edge from-layer="2212" from-port="1" to-layer="2214" to-port="0" />
		<edge from-layer="2213" from-port="0" to-layer="2214" to-port="1" />
		<edge from-layer="2214" from-port="2" to-layer="2215" to-port="1" />
		<edge from-layer="2215" from-port="2" to-layer="2218" to-port="0" />
		<edge from-layer="2216" from-port="0" to-layer="2217" to-port="0" />
		<edge from-layer="2217" from-port="1" to-layer="2218" to-port="1" />
		<edge from-layer="2218" from-port="2" to-layer="2219" to-port="0" />
		<edge from-layer="2219" from-port="2" to-layer="2221" to-port="0" />
		<edge from-layer="2220" from-port="0" to-layer="2221" to-port="1" />
		<edge from-layer="2221" from-port="2" to-layer="2224" to-port="0" />
		<edge from-layer="2222" from-port="0" to-layer="2223" to-port="0" />
		<edge from-layer="2223" from-port="1" to-layer="2224" to-port="1" />
		<edge from-layer="2224" from-port="2" to-layer="2227" to-port="0" />
		<edge from-layer="2225" from-port="0" to-layer="2226" to-port="0" />
		<edge from-layer="2226" from-port="1" to-layer="2227" to-port="1" />
		<edge from-layer="2227" from-port="2" to-layer="2307" to-port="1" />
		<edge from-layer="2227" from-port="2" to-layer="2229" to-port="0" />
		<edge from-layer="2228" from-port="0" to-layer="2229" to-port="1" />
		<edge from-layer="2229" from-port="2" to-layer="2234" to-port="0" />
		<edge from-layer="2230" from-port="0" to-layer="2234" to-port="1" />
		<edge from-layer="2231" from-port="0" to-layer="2234" to-port="2" />
		<edge from-layer="2232" from-port="0" to-layer="2234" to-port="3" />
		<edge from-layer="2233" from-port="0" to-layer="2234" to-port="4" />
		<edge from-layer="2234" from-port="5" to-layer="2239" to-port="0" />
		<edge from-layer="2234" from-port="5" to-layer="2279" to-port="0" />
		<edge from-layer="2234" from-port="5" to-layer="2256" to-port="0" />
		<edge from-layer="2235" from-port="0" to-layer="2236" to-port="0" />
		<edge from-layer="2236" from-port="1" to-layer="2238" to-port="0" />
		<edge from-layer="2237" from-port="0" to-layer="2238" to-port="1" />
		<edge from-layer="2238" from-port="2" to-layer="2239" to-port="1" />
		<edge from-layer="2239" from-port="2" to-layer="2242" to-port="0" />
		<edge from-layer="2240" from-port="0" to-layer="2241" to-port="0" />
		<edge from-layer="2241" from-port="1" to-layer="2242" to-port="1" />
		<edge from-layer="2242" from-port="2" to-layer="2247" to-port="0" />
		<edge from-layer="2243" from-port="0" to-layer="2247" to-port="1" />
		<edge from-layer="2244" from-port="0" to-layer="2247" to-port="2" />
		<edge from-layer="2245" from-port="0" to-layer="2247" to-port="3" />
		<edge from-layer="2246" from-port="0" to-layer="2247" to-port="4" />
		<edge from-layer="2247" from-port="5" to-layer="2249" to-port="0" />
		<edge from-layer="2248" from-port="0" to-layer="2249" to-port="1" />
		<edge from-layer="2249" from-port="2" to-layer="2251" to-port="0" />
		<edge from-layer="2250" from-port="0" to-layer="2251" to-port="1" />
		<edge from-layer="2251" from-port="2" to-layer="2269" to-port="0" />
		<edge from-layer="2252" from-port="0" to-layer="2253" to-port="0" />
		<edge from-layer="2253" from-port="1" to-layer="2255" to-port="0" />
		<edge from-layer="2254" from-port="0" to-layer="2255" to-port="1" />
		<edge from-layer="2255" from-port="2" to-layer="2256" to-port="1" />
		<edge from-layer="2256" from-port="2" to-layer="2259" to-port="0" />
		<edge from-layer="2257" from-port="0" to-layer="2258" to-port="0" />
		<edge from-layer="2258" from-port="1" to-layer="2259" to-port="1" />
		<edge from-layer="2259" from-port="2" to-layer="2264" to-port="0" />
		<edge from-layer="2260" from-port="0" to-layer="2264" to-port="1" />
		<edge from-layer="2261" from-port="0" to-layer="2264" to-port="2" />
		<edge from-layer="2262" from-port="0" to-layer="2264" to-port="3" />
		<edge from-layer="2263" from-port="0" to-layer="2264" to-port="4" />
		<edge from-layer="2264" from-port="5" to-layer="2266" to-port="0" />
		<edge from-layer="2265" from-port="0" to-layer="2266" to-port="1" />
		<edge from-layer="2266" from-port="2" to-layer="2268" to-port="0" />
		<edge from-layer="2267" from-port="0" to-layer="2268" to-port="1" />
		<edge from-layer="2268" from-port="2" to-layer="2269" to-port="1" />
		<edge from-layer="2269" from-port="2" to-layer="2272" to-port="0" />
		<edge from-layer="2270" from-port="0" to-layer="2271" to-port="0" />
		<edge from-layer="2271" from-port="1" to-layer="2272" to-port="1" />
		<edge from-layer="2272" from-port="2" to-layer="2273" to-port="0" />
		<edge from-layer="2273" from-port="2" to-layer="2274" to-port="0" />
		<edge from-layer="2274" from-port="1" to-layer="2287" to-port="0" />
		<edge from-layer="2275" from-port="0" to-layer="2276" to-port="0" />
		<edge from-layer="2276" from-port="1" to-layer="2278" to-port="0" />
		<edge from-layer="2277" from-port="0" to-layer="2278" to-port="1" />
		<edge from-layer="2278" from-port="2" to-layer="2279" to-port="1" />
		<edge from-layer="2279" from-port="2" to-layer="2282" to-port="0" />
		<edge from-layer="2280" from-port="0" to-layer="2281" to-port="0" />
		<edge from-layer="2281" from-port="1" to-layer="2282" to-port="1" />
		<edge from-layer="2282" from-port="2" to-layer="2284" to-port="0" />
		<edge from-layer="2283" from-port="0" to-layer="2284" to-port="1" />
		<edge from-layer="2284" from-port="2" to-layer="2286" to-port="0" />
		<edge from-layer="2285" from-port="0" to-layer="2286" to-port="1" />
		<edge from-layer="2286" from-port="2" to-layer="2287" to-port="1" />
		<edge from-layer="2287" from-port="2" to-layer="2289" to-port="0" />
		<edge from-layer="2288" from-port="0" to-layer="2289" to-port="1" />
		<edge from-layer="2289" from-port="2" to-layer="2291" to-port="0" />
		<edge from-layer="2290" from-port="0" to-layer="2291" to-port="1" />
		<edge from-layer="2291" from-port="2" to-layer="2293" to-port="0" />
		<edge from-layer="2292" from-port="0" to-layer="2293" to-port="1" />
		<edge from-layer="2293" from-port="2" to-layer="2298" to-port="0" />
		<edge from-layer="2294" from-port="0" to-layer="2298" to-port="1" />
		<edge from-layer="2295" from-port="0" to-layer="2298" to-port="2" />
		<edge from-layer="2296" from-port="0" to-layer="2298" to-port="3" />
		<edge from-layer="2297" from-port="0" to-layer="2298" to-port="4" />
		<edge from-layer="2298" from-port="5" to-layer="2303" to-port="0" />
		<edge from-layer="2299" from-port="0" to-layer="2300" to-port="0" />
		<edge from-layer="2300" from-port="1" to-layer="2302" to-port="0" />
		<edge from-layer="2301" from-port="0" to-layer="2302" to-port="1" />
		<edge from-layer="2302" from-port="2" to-layer="2303" to-port="1" />
		<edge from-layer="2303" from-port="2" to-layer="2306" to-port="0" />
		<edge from-layer="2304" from-port="0" to-layer="2305" to-port="0" />
		<edge from-layer="2305" from-port="1" to-layer="2306" to-port="1" />
		<edge from-layer="2306" from-port="2" to-layer="2307" to-port="0" />
		<edge from-layer="2307" from-port="2" to-layer="2309" to-port="0" />
		<edge from-layer="2308" from-port="0" to-layer="2309" to-port="1" />
		<edge from-layer="2309" from-port="2" to-layer="2312" to-port="0" />
		<edge from-layer="2310" from-port="0" to-layer="2311" to-port="0" />
		<edge from-layer="2311" from-port="1" to-layer="2312" to-port="1" />
		<edge from-layer="2312" from-port="2" to-layer="2315" to-port="0" />
		<edge from-layer="2313" from-port="0" to-layer="2314" to-port="0" />
		<edge from-layer="2314" from-port="1" to-layer="2315" to-port="1" />
		<edge from-layer="2315" from-port="2" to-layer="2395" to-port="1" />
		<edge from-layer="2315" from-port="2" to-layer="2317" to-port="0" />
		<edge from-layer="2316" from-port="0" to-layer="2317" to-port="1" />
		<edge from-layer="2317" from-port="2" to-layer="2322" to-port="0" />
		<edge from-layer="2318" from-port="0" to-layer="2322" to-port="1" />
		<edge from-layer="2319" from-port="0" to-layer="2322" to-port="2" />
		<edge from-layer="2320" from-port="0" to-layer="2322" to-port="3" />
		<edge from-layer="2321" from-port="0" to-layer="2322" to-port="4" />
		<edge from-layer="2322" from-port="5" to-layer="2327" to-port="0" />
		<edge from-layer="2323" from-port="0" to-layer="2324" to-port="0" />
		<edge from-layer="2324" from-port="1" to-layer="2326" to-port="0" />
		<edge from-layer="2325" from-port="0" to-layer="2326" to-port="1" />
		<edge from-layer="2326" from-port="2" to-layer="2327" to-port="1" />
		<edge from-layer="2327" from-port="2" to-layer="2330" to-port="0" />
		<edge from-layer="2328" from-port="0" to-layer="2329" to-port="0" />
		<edge from-layer="2329" from-port="1" to-layer="2330" to-port="1" />
		<edge from-layer="2330" from-port="2" to-layer="2335" to-port="0" />
		<edge from-layer="2331" from-port="0" to-layer="2335" to-port="1" />
		<edge from-layer="2332" from-port="0" to-layer="2335" to-port="2" />
		<edge from-layer="2333" from-port="0" to-layer="2335" to-port="3" />
		<edge from-layer="2334" from-port="0" to-layer="2335" to-port="4" />
		<edge from-layer="2335" from-port="5" to-layer="2337" to-port="0" />
		<edge from-layer="2336" from-port="0" to-layer="2337" to-port="1" />
		<edge from-layer="2337" from-port="2" to-layer="2339" to-port="0" />
		<edge from-layer="2338" from-port="0" to-layer="2339" to-port="1" />
		<edge from-layer="2339" from-port="2" to-layer="2357" to-port="0" />
		<edge from-layer="2340" from-port="0" to-layer="2341" to-port="0" />
		<edge from-layer="2341" from-port="1" to-layer="2343" to-port="0" />
		<edge from-layer="2342" from-port="0" to-layer="2343" to-port="1" />
		<edge from-layer="2343" from-port="2" to-layer="2344" to-port="1" />
		<edge from-layer="2344" from-port="2" to-layer="2347" to-port="0" />
		<edge from-layer="2345" from-port="0" to-layer="2346" to-port="0" />
		<edge from-layer="2346" from-port="1" to-layer="2347" to-port="1" />
		<edge from-layer="2347" from-port="2" to-layer="2352" to-port="0" />
		<edge from-layer="2348" from-port="0" to-layer="2352" to-port="1" />
		<edge from-layer="2349" from-port="0" to-layer="2352" to-port="2" />
		<edge from-layer="2350" from-port="0" to-layer="2352" to-port="3" />
		<edge from-layer="2351" from-port="0" to-layer="2352" to-port="4" />
		<edge from-layer="2352" from-port="5" to-layer="2354" to-port="0" />
		<edge from-layer="2353" from-port="0" to-layer="2354" to-port="1" />
		<edge from-layer="2354" from-port="2" to-layer="2356" to-port="0" />
		<edge from-layer="2355" from-port="0" to-layer="2356" to-port="1" />
		<edge from-layer="2356" from-port="2" to-layer="2357" to-port="1" />
		<edge from-layer="2357" from-port="2" to-layer="2360" to-port="0" />
		<edge from-layer="2358" from-port="0" to-layer="2359" to-port="0" />
		<edge from-layer="2359" from-port="1" to-layer="2360" to-port="1" />
		<edge from-layer="2360" from-port="2" to-layer="2361" to-port="0" />
		<edge from-layer="2361" from-port="2" to-layer="2362" to-port="0" />
		<edge from-layer="2362" from-port="1" to-layer="2375" to-port="0" />
		<edge from-layer="2363" from-port="0" to-layer="2364" to-port="0" />
		<edge from-layer="2364" from-port="1" to-layer="2366" to-port="0" />
		<edge from-layer="2365" from-port="0" to-layer="2366" to-port="1" />
		<edge from-layer="2366" from-port="2" to-layer="2367" to-port="1" />
		<edge from-layer="2367" from-port="2" to-layer="2370" to-port="0" />
		<edge from-layer="2368" from-port="0" to-layer="2369" to-port="0" />
		<edge from-layer="2369" from-port="1" to-layer="2370" to-port="1" />
		<edge from-layer="2370" from-port="2" to-layer="2372" to-port="0" />
		<edge from-layer="2371" from-port="0" to-layer="2372" to-port="1" />
		<edge from-layer="2372" from-port="2" to-layer="2374" to-port="0" />
		<edge from-layer="2373" from-port="0" to-layer="2374" to-port="1" />
		<edge from-layer="2374" from-port="2" to-layer="2375" to-port="1" />
		<edge from-layer="2375" from-port="2" to-layer="2377" to-port="0" />
		<edge from-layer="2376" from-port="0" to-layer="2377" to-port="1" />
		<edge from-layer="2377" from-port="2" to-layer="2379" to-port="0" />
		<edge from-layer="2378" from-port="0" to-layer="2379" to-port="1" />
		<edge from-layer="2379" from-port="2" to-layer="2381" to-port="0" />
		<edge from-layer="2380" from-port="0" to-layer="2381" to-port="1" />
		<edge from-layer="2381" from-port="2" to-layer="2386" to-port="0" />
		<edge from-layer="2382" from-port="0" to-layer="2386" to-port="1" />
		<edge from-layer="2383" from-port="0" to-layer="2386" to-port="2" />
		<edge from-layer="2384" from-port="0" to-layer="2386" to-port="3" />
		<edge from-layer="2385" from-port="0" to-layer="2386" to-port="4" />
		<edge from-layer="2386" from-port="5" to-layer="2391" to-port="0" />
		<edge from-layer="2387" from-port="0" to-layer="2388" to-port="0" />
		<edge from-layer="2388" from-port="1" to-layer="2390" to-port="0" />
		<edge from-layer="2389" from-port="0" to-layer="2390" to-port="1" />
		<edge from-layer="2390" from-port="2" to-layer="2391" to-port="1" />
		<edge from-layer="2391" from-port="2" to-layer="2394" to-port="0" />
		<edge from-layer="2392" from-port="0" to-layer="2393" to-port="0" />
		<edge from-layer="2393" from-port="1" to-layer="2394" to-port="1" />
		<edge from-layer="2394" from-port="2" to-layer="2395" to-port="0" />
		<edge from-layer="2395" from-port="2" to-layer="2397" to-port="0" />
		<edge from-layer="2396" from-port="0" to-layer="2397" to-port="1" />
		<edge from-layer="2397" from-port="2" to-layer="2400" to-port="0" />
		<edge from-layer="2398" from-port="0" to-layer="2399" to-port="0" />
		<edge from-layer="2399" from-port="1" to-layer="2400" to-port="1" />
		<edge from-layer="2400" from-port="2" to-layer="2403" to-port="0" />
		<edge from-layer="2401" from-port="0" to-layer="2402" to-port="0" />
		<edge from-layer="2402" from-port="1" to-layer="2403" to-port="1" />
		<edge from-layer="2403" from-port="2" to-layer="2435" to-port="1" />
		<edge from-layer="2403" from-port="2" to-layer="2405" to-port="0" />
		<edge from-layer="2404" from-port="0" to-layer="2405" to-port="1" />
		<edge from-layer="2405" from-port="2" to-layer="2410" to-port="0" />
		<edge from-layer="2406" from-port="0" to-layer="2410" to-port="1" />
		<edge from-layer="2407" from-port="0" to-layer="2410" to-port="2" />
		<edge from-layer="2408" from-port="0" to-layer="2410" to-port="3" />
		<edge from-layer="2409" from-port="0" to-layer="2410" to-port="4" />
		<edge from-layer="2410" from-port="5" to-layer="2415" to-port="0" />
		<edge from-layer="2411" from-port="0" to-layer="2412" to-port="0" />
		<edge from-layer="2412" from-port="1" to-layer="2414" to-port="0" />
		<edge from-layer="2413" from-port="0" to-layer="2414" to-port="1" />
		<edge from-layer="2414" from-port="2" to-layer="2415" to-port="1" />
		<edge from-layer="2415" from-port="2" to-layer="2418" to-port="0" />
		<edge from-layer="2416" from-port="0" to-layer="2417" to-port="0" />
		<edge from-layer="2417" from-port="1" to-layer="2418" to-port="1" />
		<edge from-layer="2418" from-port="2" to-layer="2419" to-port="0" />
		<edge from-layer="2419" from-port="1" to-layer="2421" to-port="0" />
		<edge from-layer="2420" from-port="0" to-layer="2421" to-port="1" />
		<edge from-layer="2421" from-port="2" to-layer="2426" to-port="0" />
		<edge from-layer="2422" from-port="0" to-layer="2426" to-port="1" />
		<edge from-layer="2423" from-port="0" to-layer="2426" to-port="2" />
		<edge from-layer="2424" from-port="0" to-layer="2426" to-port="3" />
		<edge from-layer="2425" from-port="0" to-layer="2426" to-port="4" />
		<edge from-layer="2426" from-port="5" to-layer="2431" to-port="0" />
		<edge from-layer="2427" from-port="0" to-layer="2428" to-port="0" />
		<edge from-layer="2428" from-port="1" to-layer="2430" to-port="0" />
		<edge from-layer="2429" from-port="0" to-layer="2430" to-port="1" />
		<edge from-layer="2430" from-port="2" to-layer="2431" to-port="1" />
		<edge from-layer="2431" from-port="2" to-layer="2434" to-port="0" />
		<edge from-layer="2432" from-port="0" to-layer="2433" to-port="0" />
		<edge from-layer="2433" from-port="1" to-layer="2434" to-port="1" />
		<edge from-layer="2434" from-port="2" to-layer="2435" to-port="0" />
		<edge from-layer="2435" from-port="2" to-layer="2437" to-port="0" />
		<edge from-layer="2436" from-port="0" to-layer="2437" to-port="1" />
		<edge from-layer="2437" from-port="2" to-layer="2440" to-port="0" />
		<edge from-layer="2438" from-port="0" to-layer="2439" to-port="0" />
		<edge from-layer="2439" from-port="1" to-layer="2440" to-port="1" />
		<edge from-layer="2440" from-port="2" to-layer="2443" to-port="0" />
		<edge from-layer="2441" from-port="0" to-layer="2442" to-port="0" />
		<edge from-layer="2442" from-port="1" to-layer="2443" to-port="1" />
		<edge from-layer="2443" from-port="2" to-layer="2523" to-port="1" />
		<edge from-layer="2443" from-port="2" to-layer="2445" to-port="0" />
		<edge from-layer="2444" from-port="0" to-layer="2445" to-port="1" />
		<edge from-layer="2445" from-port="2" to-layer="2450" to-port="0" />
		<edge from-layer="2446" from-port="0" to-layer="2450" to-port="1" />
		<edge from-layer="2447" from-port="0" to-layer="2450" to-port="2" />
		<edge from-layer="2448" from-port="0" to-layer="2450" to-port="3" />
		<edge from-layer="2449" from-port="0" to-layer="2450" to-port="4" />
		<edge from-layer="2450" from-port="5" to-layer="2455" to-port="0" />
		<edge from-layer="2450" from-port="5" to-layer="2495" to-port="0" />
		<edge from-layer="2450" from-port="5" to-layer="2472" to-port="0" />
		<edge from-layer="2451" from-port="0" to-layer="2452" to-port="0" />
		<edge from-layer="2452" from-port="1" to-layer="2454" to-port="0" />
		<edge from-layer="2453" from-port="0" to-layer="2454" to-port="1" />
		<edge from-layer="2454" from-port="2" to-layer="2455" to-port="1" />
		<edge from-layer="2455" from-port="2" to-layer="2458" to-port="0" />
		<edge from-layer="2456" from-port="0" to-layer="2457" to-port="0" />
		<edge from-layer="2457" from-port="1" to-layer="2458" to-port="1" />
		<edge from-layer="2458" from-port="2" to-layer="2463" to-port="0" />
		<edge from-layer="2459" from-port="0" to-layer="2463" to-port="1" />
		<edge from-layer="2460" from-port="0" to-layer="2463" to-port="2" />
		<edge from-layer="2461" from-port="0" to-layer="2463" to-port="3" />
		<edge from-layer="2462" from-port="0" to-layer="2463" to-port="4" />
		<edge from-layer="2463" from-port="5" to-layer="2465" to-port="0" />
		<edge from-layer="2464" from-port="0" to-layer="2465" to-port="1" />
		<edge from-layer="2465" from-port="2" to-layer="2467" to-port="0" />
		<edge from-layer="2466" from-port="0" to-layer="2467" to-port="1" />
		<edge from-layer="2467" from-port="2" to-layer="2485" to-port="0" />
		<edge from-layer="2468" from-port="0" to-layer="2469" to-port="0" />
		<edge from-layer="2469" from-port="1" to-layer="2471" to-port="0" />
		<edge from-layer="2470" from-port="0" to-layer="2471" to-port="1" />
		<edge from-layer="2471" from-port="2" to-layer="2472" to-port="1" />
		<edge from-layer="2472" from-port="2" to-layer="2475" to-port="0" />
		<edge from-layer="2473" from-port="0" to-layer="2474" to-port="0" />
		<edge from-layer="2474" from-port="1" to-layer="2475" to-port="1" />
		<edge from-layer="2475" from-port="2" to-layer="2480" to-port="0" />
		<edge from-layer="2476" from-port="0" to-layer="2480" to-port="1" />
		<edge from-layer="2477" from-port="0" to-layer="2480" to-port="2" />
		<edge from-layer="2478" from-port="0" to-layer="2480" to-port="3" />
		<edge from-layer="2479" from-port="0" to-layer="2480" to-port="4" />
		<edge from-layer="2480" from-port="5" to-layer="2482" to-port="0" />
		<edge from-layer="2481" from-port="0" to-layer="2482" to-port="1" />
		<edge from-layer="2482" from-port="2" to-layer="2484" to-port="0" />
		<edge from-layer="2483" from-port="0" to-layer="2484" to-port="1" />
		<edge from-layer="2484" from-port="2" to-layer="2485" to-port="1" />
		<edge from-layer="2485" from-port="2" to-layer="2488" to-port="0" />
		<edge from-layer="2486" from-port="0" to-layer="2487" to-port="0" />
		<edge from-layer="2487" from-port="1" to-layer="2488" to-port="1" />
		<edge from-layer="2488" from-port="2" to-layer="2489" to-port="0" />
		<edge from-layer="2489" from-port="2" to-layer="2490" to-port="0" />
		<edge from-layer="2490" from-port="1" to-layer="2503" to-port="0" />
		<edge from-layer="2491" from-port="0" to-layer="2492" to-port="0" />
		<edge from-layer="2492" from-port="1" to-layer="2494" to-port="0" />
		<edge from-layer="2493" from-port="0" to-layer="2494" to-port="1" />
		<edge from-layer="2494" from-port="2" to-layer="2495" to-port="1" />
		<edge from-layer="2495" from-port="2" to-layer="2498" to-port="0" />
		<edge from-layer="2496" from-port="0" to-layer="2497" to-port="0" />
		<edge from-layer="2497" from-port="1" to-layer="2498" to-port="1" />
		<edge from-layer="2498" from-port="2" to-layer="2500" to-port="0" />
		<edge from-layer="2499" from-port="0" to-layer="2500" to-port="1" />
		<edge from-layer="2500" from-port="2" to-layer="2502" to-port="0" />
		<edge from-layer="2501" from-port="0" to-layer="2502" to-port="1" />
		<edge from-layer="2502" from-port="2" to-layer="2503" to-port="1" />
		<edge from-layer="2503" from-port="2" to-layer="2505" to-port="0" />
		<edge from-layer="2504" from-port="0" to-layer="2505" to-port="1" />
		<edge from-layer="2505" from-port="2" to-layer="2507" to-port="0" />
		<edge from-layer="2506" from-port="0" to-layer="2507" to-port="1" />
		<edge from-layer="2507" from-port="2" to-layer="2509" to-port="0" />
		<edge from-layer="2508" from-port="0" to-layer="2509" to-port="1" />
		<edge from-layer="2509" from-port="2" to-layer="2514" to-port="0" />
		<edge from-layer="2510" from-port="0" to-layer="2514" to-port="1" />
		<edge from-layer="2511" from-port="0" to-layer="2514" to-port="2" />
		<edge from-layer="2512" from-port="0" to-layer="2514" to-port="3" />
		<edge from-layer="2513" from-port="0" to-layer="2514" to-port="4" />
		<edge from-layer="2514" from-port="5" to-layer="2519" to-port="0" />
		<edge from-layer="2515" from-port="0" to-layer="2516" to-port="0" />
		<edge from-layer="2516" from-port="1" to-layer="2518" to-port="0" />
		<edge from-layer="2517" from-port="0" to-layer="2518" to-port="1" />
		<edge from-layer="2518" from-port="2" to-layer="2519" to-port="1" />
		<edge from-layer="2519" from-port="2" to-layer="2522" to-port="0" />
		<edge from-layer="2520" from-port="0" to-layer="2521" to-port="0" />
		<edge from-layer="2521" from-port="1" to-layer="2522" to-port="1" />
		<edge from-layer="2522" from-port="2" to-layer="2523" to-port="0" />
		<edge from-layer="2523" from-port="2" to-layer="2525" to-port="0" />
		<edge from-layer="2524" from-port="0" to-layer="2525" to-port="1" />
		<edge from-layer="2525" from-port="2" to-layer="2528" to-port="0" />
		<edge from-layer="2526" from-port="0" to-layer="2527" to-port="0" />
		<edge from-layer="2527" from-port="1" to-layer="2528" to-port="1" />
		<edge from-layer="2528" from-port="2" to-layer="2531" to-port="0" />
		<edge from-layer="2529" from-port="0" to-layer="2530" to-port="0" />
		<edge from-layer="2530" from-port="1" to-layer="2531" to-port="1" />
		<edge from-layer="2531" from-port="2" to-layer="2533" to-port="0" />
		<edge from-layer="2531" from-port="2" to-layer="2611" to-port="1" />
		<edge from-layer="2532" from-port="0" to-layer="2533" to-port="1" />
		<edge from-layer="2533" from-port="2" to-layer="2538" to-port="0" />
		<edge from-layer="2534" from-port="0" to-layer="2538" to-port="1" />
		<edge from-layer="2535" from-port="0" to-layer="2538" to-port="2" />
		<edge from-layer="2536" from-port="0" to-layer="2538" to-port="3" />
		<edge from-layer="2537" from-port="0" to-layer="2538" to-port="4" />
		<edge from-layer="2538" from-port="5" to-layer="2543" to-port="0" />
		<edge from-layer="2539" from-port="0" to-layer="2540" to-port="0" />
		<edge from-layer="2540" from-port="1" to-layer="2542" to-port="0" />
		<edge from-layer="2541" from-port="0" to-layer="2542" to-port="1" />
		<edge from-layer="2542" from-port="2" to-layer="2543" to-port="1" />
		<edge from-layer="2543" from-port="2" to-layer="2546" to-port="0" />
		<edge from-layer="2544" from-port="0" to-layer="2545" to-port="0" />
		<edge from-layer="2545" from-port="1" to-layer="2546" to-port="1" />
		<edge from-layer="2546" from-port="2" to-layer="2551" to-port="0" />
		<edge from-layer="2547" from-port="0" to-layer="2551" to-port="1" />
		<edge from-layer="2548" from-port="0" to-layer="2551" to-port="2" />
		<edge from-layer="2549" from-port="0" to-layer="2551" to-port="3" />
		<edge from-layer="2550" from-port="0" to-layer="2551" to-port="4" />
		<edge from-layer="2551" from-port="5" to-layer="2553" to-port="0" />
		<edge from-layer="2552" from-port="0" to-layer="2553" to-port="1" />
		<edge from-layer="2553" from-port="2" to-layer="2555" to-port="0" />
		<edge from-layer="2554" from-port="0" to-layer="2555" to-port="1" />
		<edge from-layer="2555" from-port="2" to-layer="2573" to-port="0" />
		<edge from-layer="2556" from-port="0" to-layer="2557" to-port="0" />
		<edge from-layer="2557" from-port="1" to-layer="2559" to-port="0" />
		<edge from-layer="2558" from-port="0" to-layer="2559" to-port="1" />
		<edge from-layer="2559" from-port="2" to-layer="2560" to-port="1" />
		<edge from-layer="2560" from-port="2" to-layer="2563" to-port="0" />
		<edge from-layer="2561" from-port="0" to-layer="2562" to-port="0" />
		<edge from-layer="2562" from-port="1" to-layer="2563" to-port="1" />
		<edge from-layer="2563" from-port="2" to-layer="2568" to-port="0" />
		<edge from-layer="2564" from-port="0" to-layer="2568" to-port="1" />
		<edge from-layer="2565" from-port="0" to-layer="2568" to-port="2" />
		<edge from-layer="2566" from-port="0" to-layer="2568" to-port="3" />
		<edge from-layer="2567" from-port="0" to-layer="2568" to-port="4" />
		<edge from-layer="2568" from-port="5" to-layer="2570" to-port="0" />
		<edge from-layer="2569" from-port="0" to-layer="2570" to-port="1" />
		<edge from-layer="2570" from-port="2" to-layer="2572" to-port="0" />
		<edge from-layer="2571" from-port="0" to-layer="2572" to-port="1" />
		<edge from-layer="2572" from-port="2" to-layer="2573" to-port="1" />
		<edge from-layer="2573" from-port="2" to-layer="2576" to-port="0" />
		<edge from-layer="2574" from-port="0" to-layer="2575" to-port="0" />
		<edge from-layer="2575" from-port="1" to-layer="2576" to-port="1" />
		<edge from-layer="2576" from-port="2" to-layer="2577" to-port="0" />
		<edge from-layer="2577" from-port="2" to-layer="2578" to-port="0" />
		<edge from-layer="2578" from-port="1" to-layer="2591" to-port="0" />
		<edge from-layer="2579" from-port="0" to-layer="2580" to-port="0" />
		<edge from-layer="2580" from-port="1" to-layer="2582" to-port="0" />
		<edge from-layer="2581" from-port="0" to-layer="2582" to-port="1" />
		<edge from-layer="2582" from-port="2" to-layer="2583" to-port="1" />
		<edge from-layer="2583" from-port="2" to-layer="2586" to-port="0" />
		<edge from-layer="2584" from-port="0" to-layer="2585" to-port="0" />
		<edge from-layer="2585" from-port="1" to-layer="2586" to-port="1" />
		<edge from-layer="2586" from-port="2" to-layer="2588" to-port="0" />
		<edge from-layer="2587" from-port="0" to-layer="2588" to-port="1" />
		<edge from-layer="2588" from-port="2" to-layer="2590" to-port="0" />
		<edge from-layer="2589" from-port="0" to-layer="2590" to-port="1" />
		<edge from-layer="2590" from-port="2" to-layer="2591" to-port="1" />
		<edge from-layer="2591" from-port="2" to-layer="2593" to-port="0" />
		<edge from-layer="2592" from-port="0" to-layer="2593" to-port="1" />
		<edge from-layer="2593" from-port="2" to-layer="2595" to-port="0" />
		<edge from-layer="2594" from-port="0" to-layer="2595" to-port="1" />
		<edge from-layer="2595" from-port="2" to-layer="2597" to-port="0" />
		<edge from-layer="2596" from-port="0" to-layer="2597" to-port="1" />
		<edge from-layer="2597" from-port="2" to-layer="2602" to-port="0" />
		<edge from-layer="2598" from-port="0" to-layer="2602" to-port="1" />
		<edge from-layer="2599" from-port="0" to-layer="2602" to-port="2" />
		<edge from-layer="2600" from-port="0" to-layer="2602" to-port="3" />
		<edge from-layer="2601" from-port="0" to-layer="2602" to-port="4" />
		<edge from-layer="2602" from-port="5" to-layer="2607" to-port="0" />
		<edge from-layer="2603" from-port="0" to-layer="2604" to-port="0" />
		<edge from-layer="2604" from-port="1" to-layer="2606" to-port="0" />
		<edge from-layer="2605" from-port="0" to-layer="2606" to-port="1" />
		<edge from-layer="2606" from-port="2" to-layer="2607" to-port="1" />
		<edge from-layer="2607" from-port="2" to-layer="2610" to-port="0" />
		<edge from-layer="2608" from-port="0" to-layer="2609" to-port="0" />
		<edge from-layer="2609" from-port="1" to-layer="2610" to-port="1" />
		<edge from-layer="2610" from-port="2" to-layer="2611" to-port="0" />
		<edge from-layer="2611" from-port="2" to-layer="2613" to-port="0" />
		<edge from-layer="2612" from-port="0" to-layer="2613" to-port="1" />
		<edge from-layer="2613" from-port="2" to-layer="2616" to-port="0" />
		<edge from-layer="2614" from-port="0" to-layer="2615" to-port="0" />
		<edge from-layer="2615" from-port="1" to-layer="2616" to-port="1" />
		<edge from-layer="2616" from-port="2" to-layer="2619" to-port="0" />
		<edge from-layer="2617" from-port="0" to-layer="2618" to-port="0" />
		<edge from-layer="2618" from-port="1" to-layer="2619" to-port="1" />
		<edge from-layer="2619" from-port="2" to-layer="2651" to-port="1" />
		<edge from-layer="2619" from-port="2" to-layer="2621" to-port="0" />
		<edge from-layer="2620" from-port="0" to-layer="2621" to-port="1" />
		<edge from-layer="2621" from-port="2" to-layer="2626" to-port="0" />
		<edge from-layer="2622" from-port="0" to-layer="2626" to-port="1" />
		<edge from-layer="2623" from-port="0" to-layer="2626" to-port="2" />
		<edge from-layer="2624" from-port="0" to-layer="2626" to-port="3" />
		<edge from-layer="2625" from-port="0" to-layer="2626" to-port="4" />
		<edge from-layer="2626" from-port="5" to-layer="2631" to-port="0" />
		<edge from-layer="2627" from-port="0" to-layer="2628" to-port="0" />
		<edge from-layer="2628" from-port="1" to-layer="2630" to-port="0" />
		<edge from-layer="2629" from-port="0" to-layer="2630" to-port="1" />
		<edge from-layer="2630" from-port="2" to-layer="2631" to-port="1" />
		<edge from-layer="2631" from-port="2" to-layer="2634" to-port="0" />
		<edge from-layer="2632" from-port="0" to-layer="2633" to-port="0" />
		<edge from-layer="2633" from-port="1" to-layer="2634" to-port="1" />
		<edge from-layer="2634" from-port="2" to-layer="2635" to-port="0" />
		<edge from-layer="2635" from-port="1" to-layer="2637" to-port="0" />
		<edge from-layer="2636" from-port="0" to-layer="2637" to-port="1" />
		<edge from-layer="2637" from-port="2" to-layer="2642" to-port="0" />
		<edge from-layer="2638" from-port="0" to-layer="2642" to-port="1" />
		<edge from-layer="2639" from-port="0" to-layer="2642" to-port="2" />
		<edge from-layer="2640" from-port="0" to-layer="2642" to-port="3" />
		<edge from-layer="2641" from-port="0" to-layer="2642" to-port="4" />
		<edge from-layer="2642" from-port="5" to-layer="2647" to-port="0" />
		<edge from-layer="2643" from-port="0" to-layer="2644" to-port="0" />
		<edge from-layer="2644" from-port="1" to-layer="2646" to-port="0" />
		<edge from-layer="2645" from-port="0" to-layer="2646" to-port="1" />
		<edge from-layer="2646" from-port="2" to-layer="2647" to-port="1" />
		<edge from-layer="2647" from-port="2" to-layer="2650" to-port="0" />
		<edge from-layer="2648" from-port="0" to-layer="2649" to-port="0" />
		<edge from-layer="2649" from-port="1" to-layer="2650" to-port="1" />
		<edge from-layer="2650" from-port="2" to-layer="2651" to-port="0" />
		<edge from-layer="2651" from-port="2" to-layer="2653" to-port="0" />
		<edge from-layer="2652" from-port="0" to-layer="2653" to-port="1" />
		<edge from-layer="2653" from-port="2" to-layer="2656" to-port="0" />
		<edge from-layer="2654" from-port="0" to-layer="2655" to-port="0" />
		<edge from-layer="2655" from-port="1" to-layer="2656" to-port="1" />
		<edge from-layer="2656" from-port="2" to-layer="2659" to-port="0" />
		<edge from-layer="2657" from-port="0" to-layer="2658" to-port="0" />
		<edge from-layer="2658" from-port="1" to-layer="2659" to-port="1" />
		<edge from-layer="2659" from-port="2" to-layer="2660" to-port="0" />
	</edges>
	<rt_info>
		<Runtime_version value="2025.1.0-18503-6fec06580ab-releases/2025/1" />
		<conversion_parameters>
			<framework value="pytorch" />
			<is_python_object value="True" />
		</conversion_parameters>
		<nncf>
			<friendly_names_were_updated value="True" />
			<quantization>
				<advanced_parameters value="{}" />
				<fast_bias_correction value="True" />
				<ignored_scope value="None" />
				<model_type value="transformer" />
				<preset value="None" />
				<subset_size value="300" />
				<target_device value="ANY" />
			</quantization>
		</nncf>
	</rt_info>
</net>
