<?xml version="1.0"?>
<net name="Model6" version="11">
	<layers>
		<layer id="27" name="input_ids" type="Parameter" version="opset1">
			<data shape="?,?" element_type="i64" />
			<output>
				<port id="0" precision="I64" names="input_ids">
					<dim>-1</dim>
					<dim>-1</dim>
				</port>
			</output>
		</layer>
		<layer id="26" name="attention_mask" type="Parameter" version="opset1">
			<data shape="?,?" element_type="i64" />
			<output>
				<port id="0" precision="I64" names="129,attention_mask">
					<dim>-1</dim>
					<dim>-1</dim>
				</port>
			</output>
		</layer>
		<layer id="25" name="encoder_hidden_states" type="Parameter" version="opset1">
			<data shape="?,?,?" element_type="f32" />
			<output>
				<port id="0" precision="FP32" names="encoder_hidden_states">
					<dim>-1</dim>
					<dim>-1</dim>
					<dim>-1</dim>
				</port>
			</output>
		</layer>
		<layer id="24" name="encoder_attention_mask" type="Parameter" version="opset1">
			<data shape="?,?" element_type="i64" />
			<output>
				<port id="0" precision="I64" names="137,encoder_attention_mask">
					<dim>-1</dim>
					<dim>-1</dim>
				</port>
			</output>
		</layer>
		<layer id="23" name="Parameter_36307" type="Parameter" version="opset1">
			<data shape="?,12,?,64" element_type="f32" />
			<output>
				<port id="0" precision="FP32" names="19">
					<dim>-1</dim>
					<dim>12</dim>
					<dim>-1</dim>
					<dim>64</dim>
				</port>
			</output>
		</layer>
		<layer id="22" name="Parameter_36306" type="Parameter" version="opset1">
			<data shape="?,12,?,64" element_type="f32" />
			<output>
				<port id="0" precision="FP32" names="20">
					<dim>-1</dim>
					<dim>12</dim>
					<dim>-1</dim>
					<dim>64</dim>
				</port>
			</output>
		</layer>
		<layer id="21" name="Parameter_36309" type="Parameter" version="opset1">
			<data shape="?,12,?,64" element_type="f32" />
			<output>
				<port id="0" precision="FP32" names="21">
					<dim>-1</dim>
					<dim>12</dim>
					<dim>-1</dim>
					<dim>64</dim>
				</port>
			</output>
		</layer>
		<layer id="20" name="Parameter_36308" type="Parameter" version="opset1">
			<data shape="?,12,?,64" element_type="f32" />
			<output>
				<port id="0" precision="FP32" names="22">
					<dim>-1</dim>
					<dim>12</dim>
					<dim>-1</dim>
					<dim>64</dim>
				</port>
			</output>
		</layer>
		<layer id="19" name="Parameter_36311" type="Parameter" version="opset1">
			<data shape="?,12,?,64" element_type="f32" />
			<output>
				<port id="0" precision="FP32" names="23">
					<dim>-1</dim>
					<dim>12</dim>
					<dim>-1</dim>
					<dim>64</dim>
				</port>
			</output>
		</layer>
		<layer id="18" name="Parameter_36310" type="Parameter" version="opset1">
			<data shape="?,12,?,64" element_type="f32" />
			<output>
				<port id="0" precision="FP32" names="24">
					<dim>-1</dim>
					<dim>12</dim>
					<dim>-1</dim>
					<dim>64</dim>
				</port>
			</output>
		</layer>
		<layer id="17" name="Parameter_36313" type="Parameter" version="opset1">
			<data shape="?,12,?,64" element_type="f32" />
			<output>
				<port id="0" precision="FP32" names="25">
					<dim>-1</dim>
					<dim>12</dim>
					<dim>-1</dim>
					<dim>64</dim>
				</port>
			</output>
		</layer>
		<layer id="16" name="Parameter_36312" type="Parameter" version="opset1">
			<data shape="?,12,?,64" element_type="f32" />
			<output>
				<port id="0" precision="FP32" names="26">
					<dim>-1</dim>
					<dim>12</dim>
					<dim>-1</dim>
					<dim>64</dim>
				</port>
			</output>
		</layer>
		<layer id="15" name="Parameter_36315" type="Parameter" version="opset1">
			<data shape="?,12,?,64" element_type="f32" />
			<output>
				<port id="0" precision="FP32" names="27">
					<dim>-1</dim>
					<dim>12</dim>
					<dim>-1</dim>
					<dim>64</dim>
				</port>
			</output>
		</layer>
		<layer id="14" name="Parameter_36314" type="Parameter" version="opset1">
			<data shape="?,12,?,64" element_type="f32" />
			<output>
				<port id="0" precision="FP32" names="28">
					<dim>-1</dim>
					<dim>12</dim>
					<dim>-1</dim>
					<dim>64</dim>
				</port>
			</output>
		</layer>
		<layer id="13" name="Parameter_36317" type="Parameter" version="opset1">
			<data shape="?,12,?,64" element_type="f32" />
			<output>
				<port id="0" precision="FP32" names="29">
					<dim>-1</dim>
					<dim>12</dim>
					<dim>-1</dim>
					<dim>64</dim>
				</port>
			</output>
		</layer>
		<layer id="12" name="Parameter_36316" type="Parameter" version="opset1">
			<data shape="?,12,?,64" element_type="f32" />
			<output>
				<port id="0" precision="FP32" names="30">
					<dim>-1</dim>
					<dim>12</dim>
					<dim>-1</dim>
					<dim>64</dim>
				</port>
			</output>
		</layer>
		<layer id="11" name="Parameter_36319" type="Parameter" version="opset1">
			<data shape="?,12,?,64" element_type="f32" />
			<output>
				<port id="0" precision="FP32" names="31">
					<dim>-1</dim>
					<dim>12</dim>
					<dim>-1</dim>
					<dim>64</dim>
				</port>
			</output>
		</layer>
		<layer id="10" name="Parameter_36318" type="Parameter" version="opset1">
			<data shape="?,12,?,64" element_type="f32" />
			<output>
				<port id="0" precision="FP32" names="32">
					<dim>-1</dim>
					<dim>12</dim>
					<dim>-1</dim>
					<dim>64</dim>
				</port>
			</output>
		</layer>
		<layer id="9" name="Parameter_36321" type="Parameter" version="opset1">
			<data shape="?,12,?,64" element_type="f32" />
			<output>
				<port id="0" precision="FP32" names="33">
					<dim>-1</dim>
					<dim>12</dim>
					<dim>-1</dim>
					<dim>64</dim>
				</port>
			</output>
		</layer>
		<layer id="8" name="Parameter_36320" type="Parameter" version="opset1">
			<data shape="?,12,?,64" element_type="f32" />
			<output>
				<port id="0" precision="FP32" names="34">
					<dim>-1</dim>
					<dim>12</dim>
					<dim>-1</dim>
					<dim>64</dim>
				</port>
			</output>
		</layer>
		<layer id="7" name="Parameter_36323" type="Parameter" version="opset1">
			<data shape="?,12,?,64" element_type="f32" />
			<output>
				<port id="0" precision="FP32" names="35">
					<dim>-1</dim>
					<dim>12</dim>
					<dim>-1</dim>
					<dim>64</dim>
				</port>
			</output>
		</layer>
		<layer id="6" name="Parameter_36322" type="Parameter" version="opset1">
			<data shape="?,12,?,64" element_type="f32" />
			<output>
				<port id="0" precision="FP32" names="36">
					<dim>-1</dim>
					<dim>12</dim>
					<dim>-1</dim>
					<dim>64</dim>
				</port>
			</output>
		</layer>
		<layer id="5" name="Parameter_36325" type="Parameter" version="opset1">
			<data shape="?,12,?,64" element_type="f32" />
			<output>
				<port id="0" precision="FP32" names="37">
					<dim>-1</dim>
					<dim>12</dim>
					<dim>-1</dim>
					<dim>64</dim>
				</port>
			</output>
		</layer>
		<layer id="4" name="Parameter_36324" type="Parameter" version="opset1">
			<data shape="?,12,?,64" element_type="f32" />
			<output>
				<port id="0" precision="FP32" names="38">
					<dim>-1</dim>
					<dim>12</dim>
					<dim>-1</dim>
					<dim>64</dim>
				</port>
			</output>
		</layer>
		<layer id="3" name="Parameter_36327" type="Parameter" version="opset1">
			<data shape="?,12,?,64" element_type="f32" />
			<output>
				<port id="0" precision="FP32" names="39">
					<dim>-1</dim>
					<dim>12</dim>
					<dim>-1</dim>
					<dim>64</dim>
				</port>
			</output>
		</layer>
		<layer id="2" name="Parameter_36326" type="Parameter" version="opset1">
			<data shape="?,12,?,64" element_type="f32" />
			<output>
				<port id="0" precision="FP32" names="40">
					<dim>-1</dim>
					<dim>12</dim>
					<dim>-1</dim>
					<dim>64</dim>
				</port>
			</output>
		</layer>
		<layer id="1" name="Parameter_36329" type="Parameter" version="opset1">
			<data shape="?,12,?,64" element_type="f32" />
			<output>
				<port id="0" precision="FP32" names="41">
					<dim>-1</dim>
					<dim>12</dim>
					<dim>-1</dim>
					<dim>64</dim>
				</port>
			</output>
		</layer>
		<layer id="0" name="Parameter_36328" type="Parameter" version="opset1">
			<data shape="?,12,?,64" element_type="f32" />
			<output>
				<port id="0" precision="FP32" names="42">
					<dim>-1</dim>
					<dim>12</dim>
					<dim>-1</dim>
					<dim>64</dim>
				</port>
			</output>
		</layer>
		<layer id="28" name="self.model.bert.embeddings.word_embeddings.weight_compressed" type="Const" version="opset1">
			<data element_type="u8" shape="30524, 768" offset="0" size="23442432" />
			<output>
				<port id="0" precision="U8">
					<dim>30524</dim>
					<dim>768</dim>
				</port>
			</output>
		</layer>
		<layer id="29" name="Convert_1016341" type="Convert" version="opset1">
			<data destination_type="f16" />
			<input>
				<port id="0" precision="U8">
					<dim>30524</dim>
					<dim>768</dim>
				</port>
			</input>
			<output>
				<port id="1" precision="FP16">
					<dim>30524</dim>
					<dim>768</dim>
				</port>
			</output>
		</layer>
		<layer id="30" name="self.model.bert.embeddings.word_embeddings.weight_compressed/zero_point" type="Const" version="opset1">
			<data element_type="u8" shape="30524, 1" offset="23442432" size="30524" />
			<output>
				<port id="0" precision="U8">
					<dim>30524</dim>
					<dim>1</dim>
				</port>
			</output>
		</layer>
		<layer id="31" name="Convert_1016344" type="Convert" version="opset1">
			<data destination_type="f16" />
			<input>
				<port id="0" precision="U8">
					<dim>30524</dim>
					<dim>1</dim>
				</port>
			</input>
			<output>
				<port id="1" precision="FP16">
					<dim>30524</dim>
					<dim>1</dim>
				</port>
			</output>
		</layer>
		<layer id="32" name="self.model.bert.embeddings.word_embeddings.weight_compressed/zero_point/subtract" type="Subtract" version="opset1">
			<data auto_broadcast="numpy" />
			<input>
				<port id="0" precision="FP16">
					<dim>30524</dim>
					<dim>768</dim>
				</port>
				<port id="1" precision="FP16">
					<dim>30524</dim>
					<dim>1</dim>
				</port>
			</input>
			<output>
				<port id="2" precision="FP16">
					<dim>30524</dim>
					<dim>768</dim>
				</port>
			</output>
		</layer>
		<layer id="33" name="self.model.bert.embeddings.word_embeddings.weight_compressed/scale" type="Const" version="opset1">
			<data element_type="f16" shape="30524, 1" offset="23472956" size="61048" />
			<output>
				<port id="0" precision="FP16">
					<dim>30524</dim>
					<dim>1</dim>
				</port>
			</output>
		</layer>
		<layer id="34" name="self.model.bert.embeddings.word_embeddings.weight_compressed/fq_weights_0" type="Multiply" version="opset1">
			<data auto_broadcast="numpy" />
			<input>
				<port id="0" precision="FP16">
					<dim>30524</dim>
					<dim>768</dim>
				</port>
				<port id="1" precision="FP16">
					<dim>30524</dim>
					<dim>1</dim>
				</port>
			</input>
			<output>
				<port id="2" precision="FP16">
					<dim>30524</dim>
					<dim>768</dim>
				</port>
			</output>
		</layer>
		<layer id="35" name="self.model.bert.embeddings.word_embeddings.weight" type="Convert" version="opset1">
			<data destination_type="f32" />
			<rt_info>
				<attribute name="decompression" version="0" />
			</rt_info>
			<input>
				<port id="0" precision="FP16">
					<dim>30524</dim>
					<dim>768</dim>
				</port>
			</input>
			<output>
				<port id="1" precision="FP32">
					<dim>30524</dim>
					<dim>768</dim>
				</port>
			</output>
		</layer>
		<layer id="36" name="__module.model.bert.embeddings.word_embeddings/aten::embedding/Convert" type="Convert" version="opset1">
			<data destination_type="i32" />
			<input>
				<port id="0" precision="I64">
					<dim>-1</dim>
					<dim>-1</dim>
				</port>
			</input>
			<output>
				<port id="1" precision="I32">
					<dim>-1</dim>
					<dim>-1</dim>
				</port>
			</output>
		</layer>
		<layer id="37" name="__module.model.bert.embeddings.word_embeddings/aten::embedding/Constant" type="Const" version="opset1">
			<data element_type="i32" shape="" offset="23534004" size="4" />
			<output>
				<port id="0" precision="I32" />
			</output>
		</layer>
		<layer id="38" name="__module.model.bert.embeddings.word_embeddings/aten::embedding/Gather" type="Gather" version="opset8">
			<data batch_dims="0" />
			<input>
				<port id="0" precision="FP32">
					<dim>30524</dim>
					<dim>768</dim>
				</port>
				<port id="1" precision="I32">
					<dim>-1</dim>
					<dim>-1</dim>
				</port>
				<port id="2" precision="I32" />
			</input>
			<output>
				<port id="3" precision="FP32" names="155_1">
					<dim>-1</dim>
					<dim>-1</dim>
					<dim>768</dim>
				</port>
			</output>
		</layer>
		<layer id="39" name="self.model.bert.embeddings.position_embeddings.weight_compressed" type="Const" version="opset1">
			<data element_type="u8" shape="512, 768" offset="23534008" size="393216" />
			<output>
				<port id="0" precision="U8">
					<dim>512</dim>
					<dim>768</dim>
				</port>
			</output>
		</layer>
		<layer id="40" name="Convert_1538107" type="Convert" version="opset1">
			<data destination_type="f16" />
			<input>
				<port id="0" precision="U8">
					<dim>512</dim>
					<dim>768</dim>
				</port>
			</input>
			<output>
				<port id="1" precision="FP16">
					<dim>512</dim>
					<dim>768</dim>
				</port>
			</output>
		</layer>
		<layer id="41" name="self.model.bert.embeddings.position_embeddings.weight_compressed/zero_point" type="Const" version="opset1">
			<data element_type="u8" shape="512, 1" offset="23927224" size="512" />
			<output>
				<port id="0" precision="U8">
					<dim>512</dim>
					<dim>1</dim>
				</port>
			</output>
		</layer>
		<layer id="42" name="Convert_1538110" type="Convert" version="opset1">
			<data destination_type="f16" />
			<input>
				<port id="0" precision="U8">
					<dim>512</dim>
					<dim>1</dim>
				</port>
			</input>
			<output>
				<port id="1" precision="FP16">
					<dim>512</dim>
					<dim>1</dim>
				</port>
			</output>
		</layer>
		<layer id="43" name="self.model.bert.embeddings.position_embeddings.weight_compressed/zero_point/subtract" type="Subtract" version="opset1">
			<data auto_broadcast="numpy" />
			<input>
				<port id="0" precision="FP16">
					<dim>512</dim>
					<dim>768</dim>
				</port>
				<port id="1" precision="FP16">
					<dim>512</dim>
					<dim>1</dim>
				</port>
			</input>
			<output>
				<port id="2" precision="FP16">
					<dim>512</dim>
					<dim>768</dim>
				</port>
			</output>
		</layer>
		<layer id="44" name="self.model.bert.embeddings.position_embeddings.weight_compressed/scale" type="Const" version="opset1">
			<data element_type="f16" shape="512, 1" offset="23927736" size="1024" />
			<output>
				<port id="0" precision="FP16">
					<dim>512</dim>
					<dim>1</dim>
				</port>
			</output>
		</layer>
		<layer id="45" name="self.model.bert.embeddings.position_embeddings.weight_compressed/fq_weights_0" type="Multiply" version="opset1">
			<data auto_broadcast="numpy" />
			<input>
				<port id="0" precision="FP16">
					<dim>512</dim>
					<dim>768</dim>
				</port>
				<port id="1" precision="FP16">
					<dim>512</dim>
					<dim>1</dim>
				</port>
			</input>
			<output>
				<port id="2" precision="FP16">
					<dim>512</dim>
					<dim>768</dim>
				</port>
			</output>
		</layer>
		<layer id="46" name="self.model.bert.embeddings.position_embeddings.weight" type="Convert" version="opset1">
			<data destination_type="f32" />
			<rt_info>
				<attribute name="decompression" version="0" />
			</rt_info>
			<input>
				<port id="0" precision="FP16">
					<dim>512</dim>
					<dim>768</dim>
				</port>
			</input>
			<output>
				<port id="1" precision="FP32">
					<dim>512</dim>
					<dim>768</dim>
				</port>
			</output>
		</layer>
		<layer id="47" name="__module.model.bert.embeddings/aten::slice/Slice" type="Const" version="opset1">
			<data element_type="i64" shape="1, 512" offset="23928760" size="4096" />
			<output>
				<port id="0" precision="I64" names="152">
					<dim>1</dim>
					<dim>512</dim>
				</port>
			</output>
		</layer>
		<layer id="48" name="ShapeOf_47520" type="ShapeOf" version="opset3">
			<data output_type="i64" />
			<input>
				<port id="0" precision="FP32">
					<dim>-1</dim>
					<dim>12</dim>
					<dim>-1</dim>
					<dim>64</dim>
				</port>
			</input>
			<output>
				<port id="1" precision="I64">
					<dim>4</dim>
				</port>
			</output>
		</layer>
		<layer id="49" name="Constant_47521" type="Const" version="opset1">
			<data element_type="i64" shape="1" offset="23932856" size="8" />
			<output>
				<port id="0" precision="I64">
					<dim>1</dim>
				</port>
			</output>
		</layer>
		<layer id="50" name="Constant_47522" type="Const" version="opset1">
			<data element_type="i64" shape="" offset="23932864" size="8" />
			<output>
				<port id="0" precision="I64" />
			</output>
		</layer>
		<layer id="51" name="Gather_47523" type="Gather" version="opset8">
			<data batch_dims="0" />
			<input>
				<port id="0" precision="I64">
					<dim>4</dim>
				</port>
				<port id="1" precision="I64">
					<dim>1</dim>
				</port>
				<port id="2" precision="I64" />
			</input>
			<output>
				<port id="3" precision="I64" names="112">
					<dim>1</dim>
				</port>
			</output>
		</layer>
		<layer id="52" name="ShapeOf_47526" type="ShapeOf" version="opset3">
			<data output_type="i64" />
			<input>
				<port id="0" precision="I64">
					<dim>-1</dim>
					<dim>-1</dim>
				</port>
			</input>
			<output>
				<port id="1" precision="I64">
					<dim>2</dim>
				</port>
			</output>
		</layer>
		<layer id="53" name="Constant_47527" type="Const" version="opset1">
			<data element_type="i64" shape="" offset="23932872" size="8" />
			<rt_info>
				<attribute name="precise" version="0" />
			</rt_info>
			<output>
				<port id="0" precision="I64" />
			</output>
		</layer>
		<layer id="54" name="Constant_47528" type="Const" version="opset1">
			<data element_type="i64" shape="" offset="23932864" size="8" />
			<rt_info>
				<attribute name="precise" version="0" />
			</rt_info>
			<output>
				<port id="0" precision="I64" />
			</output>
		</layer>
		<layer id="55" name="Gather_47529" type="Gather" version="opset8">
			<data batch_dims="0" />
			<input>
				<port id="0" precision="I64">
					<dim>2</dim>
				</port>
				<port id="1" precision="I64" />
				<port id="2" precision="I64" />
			</input>
			<output>
				<port id="3" precision="I64" names="111,148" />
			</output>
		</layer>
		<layer id="56" name="Constant_47530" type="Const" version="opset1">
			<data element_type="i64" shape="1" offset="23932872" size="8" />
			<rt_info>
				<attribute name="precise" version="0" />
			</rt_info>
			<output>
				<port id="0" precision="I64">
					<dim>1</dim>
				</port>
			</output>
		</layer>
		<layer id="57" name="Reshape_47531" type="Reshape" version="opset1">
			<data special_zero="false" />
			<input>
				<port id="0" precision="I64" />
				<port id="1" precision="I64">
					<dim>1</dim>
				</port>
			</input>
			<output>
				<port id="2" precision="I64">
					<dim>1</dim>
				</port>
			</output>
		</layer>
		<layer id="58" name="__module.model.bert.embeddings/aten::add/Add" type="Add" version="opset1">
			<data auto_broadcast="numpy" />
			<input>
				<port id="0" precision="I64">
					<dim>1</dim>
				</port>
				<port id="1" precision="I64">
					<dim>1</dim>
				</port>
			</input>
			<output>
				<port id="2" precision="I64" names="150,151">
					<dim>1</dim>
				</port>
			</output>
		</layer>
		<layer id="59" name="Constant_29162" type="Const" version="opset1">
			<data element_type="i64" shape="1" offset="23932872" size="8" />
			<output>
				<port id="0" precision="I64">
					<dim>1</dim>
				</port>
			</output>
		</layer>
		<layer id="60" name="Constant_29158" type="Const" version="opset1">
			<data element_type="i64" shape="1" offset="23932872" size="8" />
			<output>
				<port id="0" precision="I64">
					<dim>1</dim>
				</port>
			</output>
		</layer>
		<layer id="61" name="__module.model.bert.embeddings/aten::slice/Slice_1" type="Slice" version="opset8">
			<input>
				<port id="0" precision="I64">
					<dim>1</dim>
					<dim>512</dim>
				</port>
				<port id="1" precision="I64">
					<dim>1</dim>
				</port>
				<port id="2" precision="I64">
					<dim>1</dim>
				</port>
				<port id="3" precision="I64">
					<dim>1</dim>
				</port>
				<port id="4" precision="I64">
					<dim>1</dim>
				</port>
			</input>
			<output>
				<port id="5" precision="I64" names="153,input.1">
					<dim>1</dim>
					<dim>-1</dim>
				</port>
			</output>
		</layer>
		<layer id="62" name="__module.model.bert.embeddings.position_embeddings/aten::embedding/Convert" type="Convert" version="opset1">
			<data destination_type="i32" />
			<input>
				<port id="0" precision="I64">
					<dim>1</dim>
					<dim>-1</dim>
				</port>
			</input>
			<output>
				<port id="1" precision="I32">
					<dim>1</dim>
					<dim>-1</dim>
				</port>
			</output>
		</layer>
		<layer id="63" name="__module.model.bert.embeddings.position_embeddings/aten::embedding/Constant" type="Const" version="opset1">
			<data element_type="i32" shape="" offset="23534004" size="4" />
			<output>
				<port id="0" precision="I32" />
			</output>
		</layer>
		<layer id="64" name="__module.model.bert.embeddings.position_embeddings/aten::embedding/Gather" type="Gather" version="opset8">
			<data batch_dims="0" />
			<input>
				<port id="0" precision="FP32">
					<dim>512</dim>
					<dim>768</dim>
				</port>
				<port id="1" precision="I32">
					<dim>1</dim>
					<dim>-1</dim>
				</port>
				<port id="2" precision="I32" />
			</input>
			<output>
				<port id="3" precision="FP32" names="157,position_embeddings.1">
					<dim>1</dim>
					<dim>-1</dim>
					<dim>768</dim>
				</port>
			</output>
		</layer>
		<layer id="65" name="__module.model.bert.embeddings/aten::add_/Add" type="Add" version="opset1">
			<data auto_broadcast="numpy" />
			<input>
				<port id="0" precision="FP32">
					<dim>-1</dim>
					<dim>-1</dim>
					<dim>768</dim>
				</port>
				<port id="1" precision="FP32">
					<dim>1</dim>
					<dim>-1</dim>
					<dim>768</dim>
				</port>
			</input>
			<output>
				<port id="2" precision="FP32" names="155,inputs_embeds">
					<dim>-1</dim>
					<dim>-1</dim>
					<dim>768</dim>
				</port>
			</output>
		</layer>
		<layer id="66" name="__module.model.bert.embeddings.LayerNorm/aten::layer_norm/Multiply" type="Const" version="opset1">
			<data element_type="i32" shape="1" offset="23932880" size="4" />
			<output>
				<port id="0" precision="I32">
					<dim>1</dim>
				</port>
			</output>
		</layer>
		<layer id="67" name="__module.model.bert.embeddings.LayerNorm/aten::layer_norm/MVN" type="MVN" version="opset6">
			<data eps="9.999999960041972e-13" normalize_variance="true" eps_mode="INSIDE_SQRT" />
			<input>
				<port id="0" precision="FP32">
					<dim>-1</dim>
					<dim>-1</dim>
					<dim>768</dim>
				</port>
				<port id="1" precision="I32">
					<dim>1</dim>
				</port>
			</input>
			<output>
				<port id="2" precision="FP32">
					<dim>-1</dim>
					<dim>-1</dim>
					<dim>768</dim>
				</port>
			</output>
		</layer>
		<layer id="68" name="Constant_47113_compressed" type="Const" version="opset1">
			<data element_type="f16" shape="1, 1, 768" offset="23932884" size="1536" />
			<output>
				<port id="0" precision="FP16">
					<dim>1</dim>
					<dim>1</dim>
					<dim>768</dim>
				</port>
			</output>
		</layer>
		<layer id="69" name="Constant_47113" type="Convert" version="opset1">
			<data destination_type="f32" />
			<rt_info>
				<attribute name="decompression" version="0" />
			</rt_info>
			<input>
				<port id="0" precision="FP16">
					<dim>1</dim>
					<dim>1</dim>
					<dim>768</dim>
				</port>
			</input>
			<output>
				<port id="1" precision="FP32">
					<dim>1</dim>
					<dim>1</dim>
					<dim>768</dim>
				</port>
			</output>
		</layer>
		<layer id="70" name="__module.model.bert.embeddings.LayerNorm/aten::layer_norm/Multiply_1" type="Multiply" version="opset1">
			<data auto_broadcast="numpy" />
			<input>
				<port id="0" precision="FP32">
					<dim>-1</dim>
					<dim>-1</dim>
					<dim>768</dim>
				</port>
				<port id="1" precision="FP32">
					<dim>1</dim>
					<dim>1</dim>
					<dim>768</dim>
				</port>
			</input>
			<output>
				<port id="2" precision="FP32">
					<dim>-1</dim>
					<dim>-1</dim>
					<dim>768</dim>
				</port>
			</output>
		</layer>
		<layer id="71" name="Constant_47114_compressed" type="Const" version="opset1">
			<data element_type="f16" shape="1, 1, 768" offset="23934420" size="1536" />
			<output>
				<port id="0" precision="FP16">
					<dim>1</dim>
					<dim>1</dim>
					<dim>768</dim>
				</port>
			</output>
		</layer>
		<layer id="72" name="Constant_47114" type="Convert" version="opset1">
			<data destination_type="f32" />
			<rt_info>
				<attribute name="decompression" version="0" />
			</rt_info>
			<input>
				<port id="0" precision="FP16">
					<dim>1</dim>
					<dim>1</dim>
					<dim>768</dim>
				</port>
			</input>
			<output>
				<port id="1" precision="FP32">
					<dim>1</dim>
					<dim>1</dim>
					<dim>768</dim>
				</port>
			</output>
		</layer>
		<layer id="73" name="__module.model.bert.embeddings.LayerNorm/aten::layer_norm/Add" type="Add" version="opset1">
			<data auto_broadcast="numpy" />
			<input>
				<port id="0" precision="FP32">
					<dim>-1</dim>
					<dim>-1</dim>
					<dim>768</dim>
				</port>
				<port id="1" precision="FP32">
					<dim>1</dim>
					<dim>1</dim>
					<dim>768</dim>
				</port>
			</input>
			<output>
				<port id="2" precision="FP32" names="162,input.5">
					<dim>-1</dim>
					<dim>-1</dim>
					<dim>768</dim>
				</port>
			</output>
		</layer>
		<layer id="74" name="self.model.bert.encoder.layer.0.attention.self.query.weight_compressed" type="Const" version="opset1">
			<data element_type="u8" shape="768, 768" offset="23935956" size="589824" />
			<output>
				<port id="0" precision="U8">
					<dim>768</dim>
					<dim>768</dim>
				</port>
			</output>
		</layer>
		<layer id="75" name="Convert_1135117" type="Convert" version="opset1">
			<data destination_type="f16" />
			<input>
				<port id="0" precision="U8">
					<dim>768</dim>
					<dim>768</dim>
				</port>
			</input>
			<output>
				<port id="1" precision="FP16">
					<dim>768</dim>
					<dim>768</dim>
				</port>
			</output>
		</layer>
		<layer id="76" name="self.model.bert.encoder.layer.0.attention.self.query.weight_compressed/zero_point" type="Const" version="opset1">
			<data element_type="u8" shape="768, 1" offset="24525780" size="768" />
			<output>
				<port id="0" precision="U8">
					<dim>768</dim>
					<dim>1</dim>
				</port>
			</output>
		</layer>
		<layer id="77" name="Convert_1135120" type="Convert" version="opset1">
			<data destination_type="f16" />
			<input>
				<port id="0" precision="U8">
					<dim>768</dim>
					<dim>1</dim>
				</port>
			</input>
			<output>
				<port id="1" precision="FP16">
					<dim>768</dim>
					<dim>1</dim>
				</port>
			</output>
		</layer>
		<layer id="78" name="self.model.bert.encoder.layer.0.attention.self.query.weight_compressed/zero_point/subtract" type="Subtract" version="opset1">
			<data auto_broadcast="numpy" />
			<input>
				<port id="0" precision="FP16">
					<dim>768</dim>
					<dim>768</dim>
				</port>
				<port id="1" precision="FP16">
					<dim>768</dim>
					<dim>1</dim>
				</port>
			</input>
			<output>
				<port id="2" precision="FP16">
					<dim>768</dim>
					<dim>768</dim>
				</port>
			</output>
		</layer>
		<layer id="79" name="self.model.bert.encoder.layer.0.attention.self.query.weight_compressed/scale" type="Const" version="opset1">
			<data element_type="f16" shape="768, 1" offset="24526548" size="1536" />
			<output>
				<port id="0" precision="FP16">
					<dim>768</dim>
					<dim>1</dim>
				</port>
			</output>
		</layer>
		<layer id="80" name="self.model.bert.encoder.layer.0.attention.self.query.weight_compressed/fq_weights_1" type="Multiply" version="opset1">
			<data auto_broadcast="numpy" />
			<input>
				<port id="0" precision="FP16">
					<dim>768</dim>
					<dim>768</dim>
				</port>
				<port id="1" precision="FP16">
					<dim>768</dim>
					<dim>1</dim>
				</port>
			</input>
			<output>
				<port id="2" precision="FP16">
					<dim>768</dim>
					<dim>768</dim>
				</port>
			</output>
		</layer>
		<layer id="81" name="self.model.bert.encoder.layer.0.attention.self.query.weight" type="Convert" version="opset1">
			<data destination_type="f32" />
			<rt_info>
				<attribute name="decompression" version="0" />
			</rt_info>
			<input>
				<port id="0" precision="FP16">
					<dim>768</dim>
					<dim>768</dim>
				</port>
			</input>
			<output>
				<port id="1" precision="FP32">
					<dim>768</dim>
					<dim>768</dim>
				</port>
			</output>
		</layer>
		<layer id="82" name="__module.model.bert.encoder.layer.0.attention.self.query/aten::linear/MatMul" type="MatMul" version="opset1">
			<data transpose_a="false" transpose_b="true" />
			<input>
				<port id="0" precision="FP32">
					<dim>-1</dim>
					<dim>-1</dim>
					<dim>768</dim>
				</port>
				<port id="1" precision="FP32">
					<dim>768</dim>
					<dim>768</dim>
				</port>
			</input>
			<output>
				<port id="2" precision="FP32">
					<dim>-1</dim>
					<dim>-1</dim>
					<dim>768</dim>
				</port>
			</output>
		</layer>
		<layer id="83" name="Constant_47115_compressed" type="Const" version="opset1">
			<data element_type="f16" shape="1, 1, 768" offset="24528084" size="1536" />
			<output>
				<port id="0" precision="FP16">
					<dim>1</dim>
					<dim>1</dim>
					<dim>768</dim>
				</port>
			</output>
		</layer>
		<layer id="84" name="Constant_47115" type="Convert" version="opset1">
			<data destination_type="f32" />
			<rt_info>
				<attribute name="decompression" version="0" />
			</rt_info>
			<input>
				<port id="0" precision="FP16">
					<dim>1</dim>
					<dim>1</dim>
					<dim>768</dim>
				</port>
			</input>
			<output>
				<port id="1" precision="FP32">
					<dim>1</dim>
					<dim>1</dim>
					<dim>768</dim>
				</port>
			</output>
		</layer>
		<layer id="85" name="__module.model.bert.encoder.layer.0.attention.self.query/aten::linear/Add" type="Add" version="opset1">
			<data auto_broadcast="numpy" />
			<input>
				<port id="0" precision="FP32">
					<dim>-1</dim>
					<dim>-1</dim>
					<dim>768</dim>
				</port>
				<port id="1" precision="FP32">
					<dim>1</dim>
					<dim>1</dim>
					<dim>768</dim>
				</port>
			</input>
			<output>
				<port id="2" precision="FP32" names="199,x.9">
					<dim>-1</dim>
					<dim>-1</dim>
					<dim>768</dim>
				</port>
			</output>
		</layer>
		<layer id="86" name="__module.model.bert.encoder.layer.0.attention.self/prim::ListConstruct" type="Const" version="opset1">
			<data element_type="i64" shape="4" offset="24529620" size="32" />
			<rt_info>
				<attribute name="precise" version="0" />
			</rt_info>
			<output>
				<port id="0" precision="I64">
					<dim>4</dim>
				</port>
			</output>
		</layer>
		<layer id="87" name="__module.model.bert.encoder.layer.0.attention.self/aten::view/Reshape" type="Reshape" version="opset1">
			<data special_zero="true" />
			<input>
				<port id="0" precision="FP32">
					<dim>-1</dim>
					<dim>-1</dim>
					<dim>768</dim>
				</port>
				<port id="1" precision="I64">
					<dim>4</dim>
				</port>
			</input>
			<output>
				<port id="2" precision="FP32" names="225,x.11">
					<dim>-1</dim>
					<dim>-1</dim>
					<dim>12</dim>
					<dim>64</dim>
				</port>
			</output>
		</layer>
		<layer id="88" name="Constant_29335" type="Const" version="opset1">
			<data element_type="i64" shape="4" offset="24529652" size="32" />
			<output>
				<port id="0" precision="I64" names="226">
					<dim>4</dim>
				</port>
			</output>
		</layer>
		<layer id="89" name="__module.model.bert.encoder.layer.0.attention.self/aten::permute/Transpose" type="Transpose" version="opset1">
			<input>
				<port id="0" precision="FP32">
					<dim>-1</dim>
					<dim>-1</dim>
					<dim>12</dim>
					<dim>64</dim>
				</port>
				<port id="1" precision="I64">
					<dim>4</dim>
				</port>
			</input>
			<output>
				<port id="2" precision="FP32" names="227,query_layer.1">
					<dim>-1</dim>
					<dim>12</dim>
					<dim>-1</dim>
					<dim>64</dim>
				</port>
			</output>
		</layer>
		<layer id="90" name="self.model.bert.encoder.layer.0.attention.self.key.weight_compressed" type="Const" version="opset1">
			<data element_type="u8" shape="768, 768" offset="24529684" size="589824" />
			<output>
				<port id="0" precision="U8">
					<dim>768</dim>
					<dim>768</dim>
				</port>
			</output>
		</layer>
		<layer id="91" name="Convert_1130875" type="Convert" version="opset1">
			<data destination_type="f16" />
			<input>
				<port id="0" precision="U8">
					<dim>768</dim>
					<dim>768</dim>
				</port>
			</input>
			<output>
				<port id="1" precision="FP16">
					<dim>768</dim>
					<dim>768</dim>
				</port>
			</output>
		</layer>
		<layer id="92" name="self.model.bert.encoder.layer.0.attention.self.key.weight_compressed/zero_point" type="Const" version="opset1">
			<data element_type="u8" shape="768, 1" offset="25119508" size="768" />
			<output>
				<port id="0" precision="U8">
					<dim>768</dim>
					<dim>1</dim>
				</port>
			</output>
		</layer>
		<layer id="93" name="Convert_1130878" type="Convert" version="opset1">
			<data destination_type="f16" />
			<input>
				<port id="0" precision="U8">
					<dim>768</dim>
					<dim>1</dim>
				</port>
			</input>
			<output>
				<port id="1" precision="FP16">
					<dim>768</dim>
					<dim>1</dim>
				</port>
			</output>
		</layer>
		<layer id="94" name="self.model.bert.encoder.layer.0.attention.self.key.weight_compressed/zero_point/subtract" type="Subtract" version="opset1">
			<data auto_broadcast="numpy" />
			<input>
				<port id="0" precision="FP16">
					<dim>768</dim>
					<dim>768</dim>
				</port>
				<port id="1" precision="FP16">
					<dim>768</dim>
					<dim>1</dim>
				</port>
			</input>
			<output>
				<port id="2" precision="FP16">
					<dim>768</dim>
					<dim>768</dim>
				</port>
			</output>
		</layer>
		<layer id="95" name="self.model.bert.encoder.layer.0.attention.self.key.weight_compressed/scale" type="Const" version="opset1">
			<data element_type="f16" shape="768, 1" offset="25120276" size="1536" />
			<output>
				<port id="0" precision="FP16">
					<dim>768</dim>
					<dim>1</dim>
				</port>
			</output>
		</layer>
		<layer id="96" name="self.model.bert.encoder.layer.0.attention.self.key.weight_compressed/fq_weights_1" type="Multiply" version="opset1">
			<data auto_broadcast="numpy" />
			<input>
				<port id="0" precision="FP16">
					<dim>768</dim>
					<dim>768</dim>
				</port>
				<port id="1" precision="FP16">
					<dim>768</dim>
					<dim>1</dim>
				</port>
			</input>
			<output>
				<port id="2" precision="FP16">
					<dim>768</dim>
					<dim>768</dim>
				</port>
			</output>
		</layer>
		<layer id="97" name="self.model.bert.encoder.layer.0.attention.self.key.weight" type="Convert" version="opset1">
			<data destination_type="f32" />
			<rt_info>
				<attribute name="decompression" version="0" />
			</rt_info>
			<input>
				<port id="0" precision="FP16">
					<dim>768</dim>
					<dim>768</dim>
				</port>
			</input>
			<output>
				<port id="1" precision="FP32">
					<dim>768</dim>
					<dim>768</dim>
				</port>
			</output>
		</layer>
		<layer id="98" name="__module.model.bert.encoder.layer.0.attention.self.key/aten::linear/MatMul" type="MatMul" version="opset1">
			<data transpose_a="false" transpose_b="true" />
			<input>
				<port id="0" precision="FP32">
					<dim>-1</dim>
					<dim>-1</dim>
					<dim>768</dim>
				</port>
				<port id="1" precision="FP32">
					<dim>768</dim>
					<dim>768</dim>
				</port>
			</input>
			<output>
				<port id="2" precision="FP32">
					<dim>-1</dim>
					<dim>-1</dim>
					<dim>768</dim>
				</port>
			</output>
		</layer>
		<layer id="99" name="Constant_47116_compressed" type="Const" version="opset1">
			<data element_type="f16" shape="1, 1, 768" offset="25121812" size="1536" />
			<output>
				<port id="0" precision="FP16">
					<dim>1</dim>
					<dim>1</dim>
					<dim>768</dim>
				</port>
			</output>
		</layer>
		<layer id="100" name="Constant_47116" type="Convert" version="opset1">
			<data destination_type="f32" />
			<rt_info>
				<attribute name="decompression" version="0" />
			</rt_info>
			<input>
				<port id="0" precision="FP16">
					<dim>1</dim>
					<dim>1</dim>
					<dim>768</dim>
				</port>
			</input>
			<output>
				<port id="1" precision="FP32">
					<dim>1</dim>
					<dim>1</dim>
					<dim>768</dim>
				</port>
			</output>
		</layer>
		<layer id="101" name="__module.model.bert.encoder.layer.0.attention.self.key/aten::linear/Add" type="Add" version="opset1">
			<data auto_broadcast="numpy" />
			<input>
				<port id="0" precision="FP32">
					<dim>-1</dim>
					<dim>-1</dim>
					<dim>768</dim>
				</port>
				<port id="1" precision="FP32">
					<dim>1</dim>
					<dim>1</dim>
					<dim>768</dim>
				</port>
			</input>
			<output>
				<port id="2" precision="FP32" names="202,x.1">
					<dim>-1</dim>
					<dim>-1</dim>
					<dim>768</dim>
				</port>
			</output>
		</layer>
		<layer id="102" name="__module.model.bert.encoder.layer.0.attention.self/prim::ListConstruct_1" type="Const" version="opset1">
			<data element_type="i64" shape="4" offset="24529620" size="32" />
			<rt_info>
				<attribute name="precise" version="0" />
			</rt_info>
			<output>
				<port id="0" precision="I64">
					<dim>4</dim>
				</port>
			</output>
		</layer>
		<layer id="103" name="__module.model.bert.encoder.layer.0.attention.self/aten::view/Reshape_1" type="Reshape" version="opset1">
			<data special_zero="true" />
			<input>
				<port id="0" precision="FP32">
					<dim>-1</dim>
					<dim>-1</dim>
					<dim>768</dim>
				</port>
				<port id="1" precision="I64">
					<dim>4</dim>
				</port>
			</input>
			<output>
				<port id="2" precision="FP32" names="206,x.3">
					<dim>-1</dim>
					<dim>-1</dim>
					<dim>12</dim>
					<dim>64</dim>
				</port>
			</output>
		</layer>
		<layer id="104" name="Constant_29265" type="Const" version="opset1">
			<data element_type="i64" shape="4" offset="24529652" size="32" />
			<output>
				<port id="0" precision="I64" names="207">
					<dim>4</dim>
				</port>
			</output>
		</layer>
		<layer id="105" name="__module.model.bert.encoder.layer.0.attention.self/aten::permute/Transpose_1" type="Transpose" version="opset1">
			<input>
				<port id="0" precision="FP32">
					<dim>-1</dim>
					<dim>-1</dim>
					<dim>12</dim>
					<dim>64</dim>
				</port>
				<port id="1" precision="I64">
					<dim>4</dim>
				</port>
			</input>
			<output>
				<port id="2" precision="FP32" names="208,key_layer.1">
					<dim>-1</dim>
					<dim>12</dim>
					<dim>-1</dim>
					<dim>64</dim>
				</port>
			</output>
		</layer>
		<layer id="106" name="__module.model.bert.encoder.layer.0.attention.self/aten::cat/Concat" type="Concat" version="opset1">
			<data axis="2" />
			<input>
				<port id="0" precision="FP32">
					<dim>-1</dim>
					<dim>12</dim>
					<dim>-1</dim>
					<dim>64</dim>
				</port>
				<port id="1" precision="FP32">
					<dim>-1</dim>
					<dim>12</dim>
					<dim>-1</dim>
					<dim>64</dim>
				</port>
			</input>
			<output>
				<port id="2" precision="FP32" names="key_layer.3">
					<dim>-1</dim>
					<dim>12</dim>
					<dim>-1</dim>
					<dim>64</dim>
				</port>
			</output>
		</layer>
		<layer id="107" name="__module.model.bert.encoder.layer.0.attention.self/aten::matmul/MatMul" type="MatMul" version="opset1">
			<data transpose_a="false" transpose_b="true" />
			<input>
				<port id="0" precision="FP32">
					<dim>-1</dim>
					<dim>12</dim>
					<dim>-1</dim>
					<dim>64</dim>
				</port>
				<port id="1" precision="FP32">
					<dim>-1</dim>
					<dim>12</dim>
					<dim>-1</dim>
					<dim>64</dim>
				</port>
			</input>
			<output>
				<port id="2" precision="FP32" names="229,attention_scores.1">
					<dim>-1</dim>
					<dim>12</dim>
					<dim>-1</dim>
					<dim>-1</dim>
				</port>
			</output>
		</layer>
		<layer id="108" name="Constant_47117_compressed" type="Const" version="opset1">
			<data element_type="f16" shape="1, 1, 1, 1" offset="25123348" size="2" />
			<output>
				<port id="0" precision="FP16">
					<dim>1</dim>
					<dim>1</dim>
					<dim>1</dim>
					<dim>1</dim>
				</port>
			</output>
		</layer>
		<layer id="109" name="Constant_47117" type="Convert" version="opset1">
			<data destination_type="f32" />
			<rt_info>
				<attribute name="decompression" version="0" />
			</rt_info>
			<input>
				<port id="0" precision="FP16">
					<dim>1</dim>
					<dim>1</dim>
					<dim>1</dim>
					<dim>1</dim>
				</port>
			</input>
			<output>
				<port id="1" precision="FP32">
					<dim>1</dim>
					<dim>1</dim>
					<dim>1</dim>
					<dim>1</dim>
				</port>
			</output>
		</layer>
		<layer id="110" name="__module.model.bert.encoder.layer.0.attention.self/aten::div/Divide" type="Divide" version="opset1">
			<data auto_broadcast="numpy" m_pythondiv="true" />
			<input>
				<port id="0" precision="FP32">
					<dim>-1</dim>
					<dim>12</dim>
					<dim>-1</dim>
					<dim>-1</dim>
				</port>
				<port id="1" precision="FP32">
					<dim>1</dim>
					<dim>1</dim>
					<dim>1</dim>
					<dim>1</dim>
				</port>
			</input>
			<output>
				<port id="2" precision="FP32" names="230,attention_scores.3">
					<dim>-1</dim>
					<dim>12</dim>
					<dim>-1</dim>
					<dim>-1</dim>
				</port>
			</output>
		</layer>
		<layer id="111" name="Constant_47119_compressed" type="Const" version="opset1">
			<data element_type="f16" shape="1, 1, 1, 1" offset="25123350" size="2" />
			<output>
				<port id="0" precision="FP16">
					<dim>1</dim>
					<dim>1</dim>
					<dim>1</dim>
					<dim>1</dim>
				</port>
			</output>
		</layer>
		<layer id="112" name="Constant_47119" type="Convert" version="opset1">
			<data destination_type="f32" />
			<rt_info>
				<attribute name="decompression" version="0" />
			</rt_info>
			<input>
				<port id="0" precision="FP16">
					<dim>1</dim>
					<dim>1</dim>
					<dim>1</dim>
					<dim>1</dim>
				</port>
			</input>
			<output>
				<port id="1" precision="FP32">
					<dim>1</dim>
					<dim>1</dim>
					<dim>1</dim>
					<dim>1</dim>
				</port>
			</output>
		</layer>
		<layer id="113" name="__module.model.bert/aten::arange/Constant" type="Const" version="opset1">
			<data element_type="i32" shape="" offset="23534004" size="4" />
			<output>
				<port id="0" precision="I32" />
			</output>
		</layer>
		<layer id="114" name="__module.model.bert/aten::arange/Constant_1" type="Const" version="opset1">
			<data element_type="i32" shape="" offset="25123352" size="4" />
			<output>
				<port id="0" precision="I32" />
			</output>
		</layer>
		<layer id="115" name="__module.model.bert/aten::arange/Range" type="Range" version="opset4">
			<data output_type="f32" />
			<input>
				<port id="0" precision="I32" />
				<port id="1" precision="I64" />
				<port id="2" precision="I32" />
			</input>
			<output>
				<port id="3" precision="FP32">
					<dim>-1</dim>
				</port>
			</output>
		</layer>
		<layer id="116" name="__module.model.bert/aten::arange/ConvertLike" type="Convert" version="opset1">
			<data destination_type="i64" />
			<input>
				<port id="0" precision="FP32">
					<dim>-1</dim>
				</port>
			</input>
			<output>
				<port id="1" precision="I64" names="114,seq_ids">
					<dim>-1</dim>
				</port>
			</output>
		</layer>
		<layer id="117" name="83" type="Const" version="opset1">
			<data element_type="i64" shape="" offset="23932864" size="8" />
			<output>
				<port id="0" precision="I64" names="83" />
			</output>
		</layer>
		<layer id="118" name="__module.model.bert/aten::unsqueeze/Unsqueeze" type="Unsqueeze" version="opset1">
			<input>
				<port id="0" precision="I64">
					<dim>-1</dim>
				</port>
				<port id="1" precision="I64" />
			</input>
			<output>
				<port id="2" precision="I64" names="115,120,121">
					<dim>1</dim>
					<dim>-1</dim>
				</port>
			</output>
		</layer>
		<layer id="119" name="84" type="Const" version="opset1">
			<data element_type="i64" shape="" offset="23932872" size="8" />
			<output>
				<port id="0" precision="I64" names="84" />
			</output>
		</layer>
		<layer id="120" name="__module.model.bert/aten::unsqueeze/Unsqueeze_1" type="Unsqueeze" version="opset1">
			<input>
				<port id="0" precision="I64">
					<dim>1</dim>
					<dim>-1</dim>
				</port>
				<port id="1" precision="I64" />
			</input>
			<output>
				<port id="2" precision="I64" names="116,117">
					<dim>1</dim>
					<dim>1</dim>
					<dim>-1</dim>
				</port>
			</output>
		</layer>
		<layer id="121" name="Constant_47533" type="Const" version="opset1">
			<data element_type="i64" shape="1" offset="23932864" size="8" />
			<rt_info>
				<attribute name="precise" version="0" />
			</rt_info>
			<output>
				<port id="0" precision="I64">
					<dim>1</dim>
				</port>
			</output>
		</layer>
		<layer id="122" name="Constant_47534" type="Const" version="opset1">
			<data element_type="i64" shape="" offset="23932864" size="8" />
			<rt_info>
				<attribute name="precise" version="0" />
			</rt_info>
			<output>
				<port id="0" precision="I64" />
			</output>
		</layer>
		<layer id="123" name="Gather_47535" type="Gather" version="opset8">
			<data batch_dims="0" />
			<input>
				<port id="0" precision="I64">
					<dim>4</dim>
				</port>
				<port id="1" precision="I64">
					<dim>1</dim>
				</port>
				<port id="2" precision="I64" />
			</input>
			<output>
				<port id="3" precision="I64" names="110">
					<dim>1</dim>
				</port>
			</output>
		</layer>
		<layer id="124" name="Constant_36646" type="Const" version="opset1">
			<data element_type="i64" shape="1" offset="23932872" size="8" />
			<rt_info>
				<attribute name="precise" version="0" />
			</rt_info>
			<output>
				<port id="0" precision="I64">
					<dim>1</dim>
				</port>
			</output>
		</layer>
		<layer id="125" name="__module.model.bert/prim::ListConstruct/Concat" type="Concat" version="opset1">
			<data axis="0" />
			<input>
				<port id="0" precision="I64">
					<dim>1</dim>
				</port>
				<port id="1" precision="I64">
					<dim>1</dim>
				</port>
				<port id="2" precision="I64">
					<dim>1</dim>
				</port>
			</input>
			<output>
				<port id="3" precision="I64" names="118">
					<dim>3</dim>
				</port>
			</output>
		</layer>
		<layer id="126" name="__module.model.bert/aten::repeat/Tile" type="Tile" version="opset1">
			<input>
				<port id="0" precision="I64">
					<dim>1</dim>
					<dim>1</dim>
					<dim>-1</dim>
				</port>
				<port id="1" precision="I64">
					<dim>3</dim>
				</port>
			</input>
			<output>
				<port id="2" precision="I64" names="119">
					<dim>-1</dim>
					<dim>-1</dim>
					<dim>-1</dim>
				</port>
			</output>
		</layer>
		<layer id="127" name="85" type="Const" version="opset1">
			<data element_type="i64" shape="" offset="23932856" size="8" />
			<output>
				<port id="0" precision="I64" names="85" />
			</output>
		</layer>
		<layer id="128" name="__module.model.bert/aten::unsqueeze/Unsqueeze_3" type="Unsqueeze" version="opset1">
			<input>
				<port id="0" precision="I64">
					<dim>1</dim>
					<dim>-1</dim>
				</port>
				<port id="1" precision="I64" />
			</input>
			<output>
				<port id="2" precision="I64" names="122">
					<dim>1</dim>
					<dim>-1</dim>
					<dim>1</dim>
				</port>
			</output>
		</layer>
		<layer id="129" name="__module.model.bert/aten::le/LessEqual" type="LessEqual" version="opset1">
			<data auto_broadcast="numpy" />
			<input>
				<port id="0" precision="I64">
					<dim>-1</dim>
					<dim>-1</dim>
					<dim>-1</dim>
				</port>
				<port id="1" precision="I64">
					<dim>1</dim>
					<dim>-1</dim>
					<dim>1</dim>
				</port>
			</input>
			<output>
				<port id="2" precision="BOOL" names="123,causal_mask.1">
					<dim>-1</dim>
					<dim>-1</dim>
					<dim>-1</dim>
				</port>
			</output>
		</layer>
		<layer id="130" name="__module.model.bert/aten::to/Convert" type="Convert" version="opset1">
			<data destination_type="i64" />
			<input>
				<port id="0" precision="BOOL">
					<dim>-1</dim>
					<dim>-1</dim>
					<dim>-1</dim>
				</port>
			</input>
			<output>
				<port id="1" precision="I64" names="124,125,causal_mask">
					<dim>-1</dim>
					<dim>-1</dim>
					<dim>-1</dim>
				</port>
			</output>
		</layer>
		<layer id="131" name="__module.model.bert/aten::unsqueeze/Unsqueeze_4" type="Unsqueeze" version="opset1">
			<input>
				<port id="0" precision="I64">
					<dim>-1</dim>
					<dim>-1</dim>
					<dim>-1</dim>
				</port>
				<port id="1" precision="I64" />
			</input>
			<output>
				<port id="2" precision="I64" names="126,127,128">
					<dim>-1</dim>
					<dim>1</dim>
					<dim>-1</dim>
					<dim>-1</dim>
				</port>
			</output>
		</layer>
		<layer id="132" name="__module.model.bert/aten::unsqueeze/Unsqueeze_5" type="Unsqueeze" version="opset1">
			<input>
				<port id="0" precision="I64">
					<dim>-1</dim>
					<dim>-1</dim>
				</port>
				<port id="1" precision="I64" />
			</input>
			<output>
				<port id="2" precision="I64" names="130">
					<dim>-1</dim>
					<dim>1</dim>
					<dim>-1</dim>
				</port>
			</output>
		</layer>
		<layer id="133" name="__module.model.bert/aten::unsqueeze/Unsqueeze_6" type="Unsqueeze" version="opset1">
			<input>
				<port id="0" precision="I64">
					<dim>-1</dim>
					<dim>1</dim>
					<dim>-1</dim>
				</port>
				<port id="1" precision="I64" />
			</input>
			<output>
				<port id="2" precision="I64" names="131,132">
					<dim>-1</dim>
					<dim>1</dim>
					<dim>1</dim>
					<dim>-1</dim>
				</port>
			</output>
		</layer>
		<layer id="134" name="__module.model.bert/aten::mul/Multiply" type="Multiply" version="opset1">
			<data auto_broadcast="numpy" />
			<input>
				<port id="0" precision="I64">
					<dim>-1</dim>
					<dim>1</dim>
					<dim>-1</dim>
					<dim>-1</dim>
				</port>
				<port id="1" precision="I64">
					<dim>-1</dim>
					<dim>1</dim>
					<dim>1</dim>
					<dim>-1</dim>
				</port>
			</input>
			<output>
				<port id="2" precision="I64" names="133,extended_attention_mask">
					<dim>-1</dim>
					<dim>1</dim>
					<dim>-1</dim>
					<dim>-1</dim>
				</port>
			</output>
		</layer>
		<layer id="135" name="__module.model.bert/aten::to/Convert_1" type="Convert" version="opset1">
			<data destination_type="f32" />
			<input>
				<port id="0" precision="I64">
					<dim>-1</dim>
					<dim>1</dim>
					<dim>-1</dim>
					<dim>-1</dim>
				</port>
			</input>
			<output>
				<port id="1" precision="FP32" names="134">
					<dim>-1</dim>
					<dim>1</dim>
					<dim>-1</dim>
					<dim>-1</dim>
				</port>
			</output>
		</layer>
		<layer id="136" name="Constant_47118_compressed" type="Const" version="opset1">
			<data element_type="f16" shape="1, 1, 1, 1" offset="25123350" size="2" />
			<output>
				<port id="0" precision="FP16">
					<dim>1</dim>
					<dim>1</dim>
					<dim>1</dim>
					<dim>1</dim>
				</port>
			</output>
		</layer>
		<layer id="137" name="Constant_47118" type="Convert" version="opset1">
			<data destination_type="f32" />
			<rt_info>
				<attribute name="decompression" version="0" />
			</rt_info>
			<input>
				<port id="0" precision="FP16">
					<dim>1</dim>
					<dim>1</dim>
					<dim>1</dim>
					<dim>1</dim>
				</port>
			</input>
			<output>
				<port id="1" precision="FP32">
					<dim>1</dim>
					<dim>1</dim>
					<dim>1</dim>
					<dim>1</dim>
				</port>
			</output>
		</layer>
		<layer id="138" name="__module.model.bert/aten::rsub/Multiply" type="Multiply" version="opset1">
			<data auto_broadcast="numpy" />
			<input>
				<port id="0" precision="FP32">
					<dim>-1</dim>
					<dim>1</dim>
					<dim>-1</dim>
					<dim>-1</dim>
				</port>
				<port id="1" precision="FP32">
					<dim>1</dim>
					<dim>1</dim>
					<dim>1</dim>
					<dim>1</dim>
				</port>
			</input>
			<output>
				<port id="2" precision="FP32">
					<dim>-1</dim>
					<dim>1</dim>
					<dim>-1</dim>
					<dim>-1</dim>
				</port>
			</output>
		</layer>
		<layer id="139" name="__module.model.bert/aten::rsub/Subtract" type="Subtract" version="opset1">
			<data auto_broadcast="numpy" />
			<input>
				<port id="0" precision="FP32">
					<dim>1</dim>
					<dim>1</dim>
					<dim>1</dim>
					<dim>1</dim>
				</port>
				<port id="1" precision="FP32">
					<dim>-1</dim>
					<dim>1</dim>
					<dim>-1</dim>
					<dim>-1</dim>
				</port>
			</input>
			<output>
				<port id="2" precision="FP32" names="135">
					<dim>-1</dim>
					<dim>1</dim>
					<dim>-1</dim>
					<dim>-1</dim>
				</port>
			</output>
		</layer>
		<layer id="140" name="Constant_47120_compressed" type="Const" version="opset1">
			<data element_type="f16" shape="1, 1, 1, 1" offset="25123356" size="2" />
			<output>
				<port id="0" precision="FP16">
					<dim>1</dim>
					<dim>1</dim>
					<dim>1</dim>
					<dim>1</dim>
				</port>
			</output>
		</layer>
		<layer id="141" name="Constant_47120" type="Convert" version="opset1">
			<data destination_type="f32" />
			<rt_info>
				<attribute name="decompression" version="0" />
			</rt_info>
			<input>
				<port id="0" precision="FP16">
					<dim>1</dim>
					<dim>1</dim>
					<dim>1</dim>
					<dim>1</dim>
				</port>
			</input>
			<output>
				<port id="1" precision="FP32">
					<dim>1</dim>
					<dim>1</dim>
					<dim>1</dim>
					<dim>1</dim>
				</port>
			</output>
		</layer>
		<layer id="142" name="__module.model.bert/aten::mul/Multiply_1" type="Multiply" version="opset1">
			<data auto_broadcast="numpy" />
			<input>
				<port id="0" precision="FP32">
					<dim>-1</dim>
					<dim>1</dim>
					<dim>-1</dim>
					<dim>-1</dim>
				</port>
				<port id="1" precision="FP32">
					<dim>1</dim>
					<dim>1</dim>
					<dim>1</dim>
					<dim>1</dim>
				</port>
			</input>
			<output>
				<port id="2" precision="FP32" names="1041,1055,1071,1156,1203,1217,1233,1318,136,1365,1379,1395,1480,1527,1541,1557,1642,1689,1703,1719,1804,1851,1865,1881,1966,2013,231,245,261,346,393,407,423,508,555,569,585,670,717,731,747,832,879,893,909,994,attention_mask.11,attention_mask.15,attention_mask.19,attention_mask.23,attention_mask.27,attention_mask.3,attention_mask.31,attention_mask.35,attention_mask.39,attention_mask.43,attention_mask.47,attention_mask.5,attention_mask.51">
					<dim>-1</dim>
					<dim>1</dim>
					<dim>-1</dim>
					<dim>-1</dim>
				</port>
			</output>
		</layer>
		<layer id="143" name="__module.model.bert.encoder.layer.0.attention.self/aten::add/Add" type="Add" version="opset1">
			<data auto_broadcast="numpy" />
			<input>
				<port id="0" precision="FP32">
					<dim>-1</dim>
					<dim>12</dim>
					<dim>-1</dim>
					<dim>-1</dim>
				</port>
				<port id="1" precision="FP32">
					<dim>-1</dim>
					<dim>1</dim>
					<dim>-1</dim>
					<dim>-1</dim>
				</port>
			</input>
			<output>
				<port id="2" precision="FP32" names="232,input.9">
					<dim>-1</dim>
					<dim>12</dim>
					<dim>-1</dim>
					<dim>-1</dim>
				</port>
			</output>
		</layer>
		<layer id="144" name="__module.model.bert.encoder.layer.0.attention.self/aten::softmax/Softmax" type="SoftMax" version="opset8">
			<data axis="-1" />
			<input>
				<port id="0" precision="FP32">
					<dim>-1</dim>
					<dim>12</dim>
					<dim>-1</dim>
					<dim>-1</dim>
				</port>
			</input>
			<output>
				<port id="1" precision="FP32" names="233,input.11">
					<dim>-1</dim>
					<dim>12</dim>
					<dim>-1</dim>
					<dim>-1</dim>
				</port>
			</output>
		</layer>
		<layer id="145" name="self.model.bert.encoder.layer.0.attention.self.value.weight_compressed" type="Const" version="opset1">
			<data element_type="u8" shape="768, 768" offset="25123358" size="589824" />
			<output>
				<port id="0" precision="U8">
					<dim>768</dim>
					<dim>768</dim>
				</port>
			</output>
		</layer>
		<layer id="146" name="Convert_1126633" type="Convert" version="opset1">
			<data destination_type="f16" />
			<input>
				<port id="0" precision="U8">
					<dim>768</dim>
					<dim>768</dim>
				</port>
			</input>
			<output>
				<port id="1" precision="FP16">
					<dim>768</dim>
					<dim>768</dim>
				</port>
			</output>
		</layer>
		<layer id="147" name="self.model.bert.encoder.layer.0.attention.self.value.weight_compressed/zero_point" type="Const" version="opset1">
			<data element_type="u8" shape="768, 1" offset="25713182" size="768" />
			<output>
				<port id="0" precision="U8">
					<dim>768</dim>
					<dim>1</dim>
				</port>
			</output>
		</layer>
		<layer id="148" name="Convert_1126636" type="Convert" version="opset1">
			<data destination_type="f16" />
			<input>
				<port id="0" precision="U8">
					<dim>768</dim>
					<dim>1</dim>
				</port>
			</input>
			<output>
				<port id="1" precision="FP16">
					<dim>768</dim>
					<dim>1</dim>
				</port>
			</output>
		</layer>
		<layer id="149" name="self.model.bert.encoder.layer.0.attention.self.value.weight_compressed/zero_point/subtract" type="Subtract" version="opset1">
			<data auto_broadcast="numpy" />
			<input>
				<port id="0" precision="FP16">
					<dim>768</dim>
					<dim>768</dim>
				</port>
				<port id="1" precision="FP16">
					<dim>768</dim>
					<dim>1</dim>
				</port>
			</input>
			<output>
				<port id="2" precision="FP16">
					<dim>768</dim>
					<dim>768</dim>
				</port>
			</output>
		</layer>
		<layer id="150" name="self.model.bert.encoder.layer.0.attention.self.value.weight_compressed/scale" type="Const" version="opset1">
			<data element_type="f16" shape="768, 1" offset="25713950" size="1536" />
			<output>
				<port id="0" precision="FP16">
					<dim>768</dim>
					<dim>1</dim>
				</port>
			</output>
		</layer>
		<layer id="151" name="self.model.bert.encoder.layer.0.attention.self.value.weight_compressed/fq_weights_1" type="Multiply" version="opset1">
			<data auto_broadcast="numpy" />
			<input>
				<port id="0" precision="FP16">
					<dim>768</dim>
					<dim>768</dim>
				</port>
				<port id="1" precision="FP16">
					<dim>768</dim>
					<dim>1</dim>
				</port>
			</input>
			<output>
				<port id="2" precision="FP16">
					<dim>768</dim>
					<dim>768</dim>
				</port>
			</output>
		</layer>
		<layer id="152" name="self.model.bert.encoder.layer.0.attention.self.value.weight" type="Convert" version="opset1">
			<data destination_type="f32" />
			<rt_info>
				<attribute name="decompression" version="0" />
			</rt_info>
			<input>
				<port id="0" precision="FP16">
					<dim>768</dim>
					<dim>768</dim>
				</port>
			</input>
			<output>
				<port id="1" precision="FP32">
					<dim>768</dim>
					<dim>768</dim>
				</port>
			</output>
		</layer>
		<layer id="153" name="__module.model.bert.encoder.layer.0.attention.self.value/aten::linear/MatMul" type="MatMul" version="opset1">
			<data transpose_a="false" transpose_b="true" />
			<input>
				<port id="0" precision="FP32">
					<dim>-1</dim>
					<dim>-1</dim>
					<dim>768</dim>
				</port>
				<port id="1" precision="FP32">
					<dim>768</dim>
					<dim>768</dim>
				</port>
			</input>
			<output>
				<port id="2" precision="FP32">
					<dim>-1</dim>
					<dim>-1</dim>
					<dim>768</dim>
				</port>
			</output>
		</layer>
		<layer id="154" name="Constant_47121_compressed" type="Const" version="opset1">
			<data element_type="f16" shape="1, 1, 768" offset="25715486" size="1536" />
			<output>
				<port id="0" precision="FP16">
					<dim>1</dim>
					<dim>1</dim>
					<dim>768</dim>
				</port>
			</output>
		</layer>
		<layer id="155" name="Constant_47121" type="Convert" version="opset1">
			<data destination_type="f32" />
			<rt_info>
				<attribute name="decompression" version="0" />
			</rt_info>
			<input>
				<port id="0" precision="FP16">
					<dim>1</dim>
					<dim>1</dim>
					<dim>768</dim>
				</port>
			</input>
			<output>
				<port id="1" precision="FP32">
					<dim>1</dim>
					<dim>1</dim>
					<dim>768</dim>
				</port>
			</output>
		</layer>
		<layer id="156" name="__module.model.bert.encoder.layer.0.attention.self.value/aten::linear/Add" type="Add" version="opset1">
			<data auto_broadcast="numpy" />
			<input>
				<port id="0" precision="FP32">
					<dim>-1</dim>
					<dim>-1</dim>
					<dim>768</dim>
				</port>
				<port id="1" precision="FP32">
					<dim>1</dim>
					<dim>1</dim>
					<dim>768</dim>
				</port>
			</input>
			<output>
				<port id="2" precision="FP32" names="211,x.5">
					<dim>-1</dim>
					<dim>-1</dim>
					<dim>768</dim>
				</port>
			</output>
		</layer>
		<layer id="157" name="__module.model.bert.encoder.layer.0.attention.self/prim::ListConstruct_2" type="Const" version="opset1">
			<data element_type="i64" shape="4" offset="24529620" size="32" />
			<rt_info>
				<attribute name="precise" version="0" />
			</rt_info>
			<output>
				<port id="0" precision="I64">
					<dim>4</dim>
				</port>
			</output>
		</layer>
		<layer id="158" name="__module.model.bert.encoder.layer.0.attention.self/aten::view/Reshape_2" type="Reshape" version="opset1">
			<data special_zero="true" />
			<input>
				<port id="0" precision="FP32">
					<dim>-1</dim>
					<dim>-1</dim>
					<dim>768</dim>
				</port>
				<port id="1" precision="I64">
					<dim>4</dim>
				</port>
			</input>
			<output>
				<port id="2" precision="FP32" names="215,x.7">
					<dim>-1</dim>
					<dim>-1</dim>
					<dim>12</dim>
					<dim>64</dim>
				</port>
			</output>
		</layer>
		<layer id="159" name="Constant_29299" type="Const" version="opset1">
			<data element_type="i64" shape="4" offset="24529652" size="32" />
			<output>
				<port id="0" precision="I64" names="216">
					<dim>4</dim>
				</port>
			</output>
		</layer>
		<layer id="160" name="__module.model.bert.encoder.layer.0.attention.self/aten::permute/Transpose_2" type="Transpose" version="opset1">
			<input>
				<port id="0" precision="FP32">
					<dim>-1</dim>
					<dim>-1</dim>
					<dim>12</dim>
					<dim>64</dim>
				</port>
				<port id="1" precision="I64">
					<dim>4</dim>
				</port>
			</input>
			<output>
				<port id="2" precision="FP32" names="217,value_layer.1">
					<dim>-1</dim>
					<dim>12</dim>
					<dim>-1</dim>
					<dim>64</dim>
				</port>
			</output>
		</layer>
		<layer id="161" name="__module.model.bert.encoder.layer.0.attention.self/aten::cat/Concat_1" type="Concat" version="opset1">
			<data axis="2" />
			<input>
				<port id="0" precision="FP32">
					<dim>-1</dim>
					<dim>12</dim>
					<dim>-1</dim>
					<dim>64</dim>
				</port>
				<port id="1" precision="FP32">
					<dim>-1</dim>
					<dim>12</dim>
					<dim>-1</dim>
					<dim>64</dim>
				</port>
			</input>
			<output>
				<port id="2" precision="FP32" names="value_layer.3">
					<dim>-1</dim>
					<dim>12</dim>
					<dim>-1</dim>
					<dim>64</dim>
				</port>
			</output>
		</layer>
		<layer id="162" name="__module.model.bert.encoder.layer.0.attention.self/aten::matmul/MatMul_1" type="MatMul" version="opset1">
			<data transpose_a="false" transpose_b="false" />
			<input>
				<port id="0" precision="FP32">
					<dim>-1</dim>
					<dim>12</dim>
					<dim>-1</dim>
					<dim>-1</dim>
				</port>
				<port id="1" precision="FP32">
					<dim>-1</dim>
					<dim>12</dim>
					<dim>-1</dim>
					<dim>64</dim>
				</port>
			</input>
			<output>
				<port id="2" precision="FP32" names="235,context_layer.1">
					<dim>-1</dim>
					<dim>12</dim>
					<dim>-1</dim>
					<dim>64</dim>
				</port>
			</output>
		</layer>
		<layer id="163" name="Constant_29434" type="Const" version="opset1">
			<data element_type="i64" shape="4" offset="24529652" size="32" />
			<output>
				<port id="0" precision="I64" names="236">
					<dim>4</dim>
				</port>
			</output>
		</layer>
		<layer id="164" name="__module.model.bert.encoder.layer.0.attention.self/aten::permute/Transpose_3" type="Transpose" version="opset1">
			<input>
				<port id="0" precision="FP32">
					<dim>-1</dim>
					<dim>12</dim>
					<dim>-1</dim>
					<dim>64</dim>
				</port>
				<port id="1" precision="I64">
					<dim>4</dim>
				</port>
			</input>
			<output>
				<port id="2" precision="FP32" names="237">
					<dim>-1</dim>
					<dim>-1</dim>
					<dim>12</dim>
					<dim>64</dim>
				</port>
			</output>
		</layer>
		<layer id="165" name="__module.model.bert.encoder.layer.0.attention.self/prim::ListConstruct_3" type="Const" version="opset1">
			<data element_type="i64" shape="3" offset="25717022" size="24" />
			<rt_info>
				<attribute name="precise" version="0" />
			</rt_info>
			<output>
				<port id="0" precision="I64">
					<dim>3</dim>
				</port>
			</output>
		</layer>
		<layer id="166" name="__module.model.bert.encoder.layer.0.attention.self/aten::view/Reshape_3" type="Reshape" version="opset1">
			<data special_zero="true" />
			<input>
				<port id="0" precision="FP32">
					<dim>-1</dim>
					<dim>-1</dim>
					<dim>12</dim>
					<dim>64</dim>
				</port>
				<port id="1" precision="I64">
					<dim>3</dim>
				</port>
			</input>
			<output>
				<port id="2" precision="FP32" names="242,244,input.13">
					<dim>-1</dim>
					<dim>-1</dim>
					<dim>768</dim>
				</port>
			</output>
		</layer>
		<layer id="167" name="self.model.bert.encoder.layer.0.attention.output.dense.weight_compressed" type="Const" version="opset1">
			<data element_type="u8" shape="768, 768" offset="25717046" size="589824" />
			<output>
				<port id="0" precision="U8">
					<dim>768</dim>
					<dim>768</dim>
				</port>
			</output>
		</layer>
		<layer id="168" name="Convert_1139359" type="Convert" version="opset1">
			<data destination_type="f16" />
			<input>
				<port id="0" precision="U8">
					<dim>768</dim>
					<dim>768</dim>
				</port>
			</input>
			<output>
				<port id="1" precision="FP16">
					<dim>768</dim>
					<dim>768</dim>
				</port>
			</output>
		</layer>
		<layer id="169" name="self.model.bert.encoder.layer.0.attention.output.dense.weight_compressed/zero_point" type="Const" version="opset1">
			<data element_type="u8" shape="768, 1" offset="26306870" size="768" />
			<output>
				<port id="0" precision="U8">
					<dim>768</dim>
					<dim>1</dim>
				</port>
			</output>
		</layer>
		<layer id="170" name="Convert_1139362" type="Convert" version="opset1">
			<data destination_type="f16" />
			<input>
				<port id="0" precision="U8">
					<dim>768</dim>
					<dim>1</dim>
				</port>
			</input>
			<output>
				<port id="1" precision="FP16">
					<dim>768</dim>
					<dim>1</dim>
				</port>
			</output>
		</layer>
		<layer id="171" name="self.model.bert.encoder.layer.0.attention.output.dense.weight_compressed/zero_point/subtract" type="Subtract" version="opset1">
			<data auto_broadcast="numpy" />
			<input>
				<port id="0" precision="FP16">
					<dim>768</dim>
					<dim>768</dim>
				</port>
				<port id="1" precision="FP16">
					<dim>768</dim>
					<dim>1</dim>
				</port>
			</input>
			<output>
				<port id="2" precision="FP16">
					<dim>768</dim>
					<dim>768</dim>
				</port>
			</output>
		</layer>
		<layer id="172" name="self.model.bert.encoder.layer.0.attention.output.dense.weight_compressed/scale" type="Const" version="opset1">
			<data element_type="f16" shape="768, 1" offset="26307638" size="1536" />
			<output>
				<port id="0" precision="FP16">
					<dim>768</dim>
					<dim>1</dim>
				</port>
			</output>
		</layer>
		<layer id="173" name="self.model.bert.encoder.layer.0.attention.output.dense.weight_compressed/fq_weights_1" type="Multiply" version="opset1">
			<data auto_broadcast="numpy" />
			<input>
				<port id="0" precision="FP16">
					<dim>768</dim>
					<dim>768</dim>
				</port>
				<port id="1" precision="FP16">
					<dim>768</dim>
					<dim>1</dim>
				</port>
			</input>
			<output>
				<port id="2" precision="FP16">
					<dim>768</dim>
					<dim>768</dim>
				</port>
			</output>
		</layer>
		<layer id="174" name="self.model.bert.encoder.layer.0.attention.output.dense.weight" type="Convert" version="opset1">
			<data destination_type="f32" />
			<rt_info>
				<attribute name="decompression" version="0" />
			</rt_info>
			<input>
				<port id="0" precision="FP16">
					<dim>768</dim>
					<dim>768</dim>
				</port>
			</input>
			<output>
				<port id="1" precision="FP32">
					<dim>768</dim>
					<dim>768</dim>
				</port>
			</output>
		</layer>
		<layer id="175" name="__module.model.bert.encoder.layer.0.attention.output.dense/aten::linear/MatMul" type="MatMul" version="opset1">
			<data transpose_a="false" transpose_b="true" />
			<input>
				<port id="0" precision="FP32">
					<dim>-1</dim>
					<dim>-1</dim>
					<dim>768</dim>
				</port>
				<port id="1" precision="FP32">
					<dim>768</dim>
					<dim>768</dim>
				</port>
			</input>
			<output>
				<port id="2" precision="FP32">
					<dim>-1</dim>
					<dim>-1</dim>
					<dim>768</dim>
				</port>
			</output>
		</layer>
		<layer id="176" name="Constant_47122_compressed" type="Const" version="opset1">
			<data element_type="f16" shape="1, 1, 768" offset="26309174" size="1536" />
			<output>
				<port id="0" precision="FP16">
					<dim>1</dim>
					<dim>1</dim>
					<dim>768</dim>
				</port>
			</output>
		</layer>
		<layer id="177" name="Constant_47122" type="Convert" version="opset1">
			<data destination_type="f32" />
			<rt_info>
				<attribute name="decompression" version="0" />
			</rt_info>
			<input>
				<port id="0" precision="FP16">
					<dim>1</dim>
					<dim>1</dim>
					<dim>768</dim>
				</port>
			</input>
			<output>
				<port id="1" precision="FP32">
					<dim>1</dim>
					<dim>1</dim>
					<dim>768</dim>
				</port>
			</output>
		</layer>
		<layer id="178" name="__module.model.bert.encoder.layer.0.attention.output.dense/aten::linear/Add" type="Add" version="opset1">
			<data auto_broadcast="numpy" />
			<input>
				<port id="0" precision="FP32">
					<dim>-1</dim>
					<dim>-1</dim>
					<dim>768</dim>
				</port>
				<port id="1" precision="FP32">
					<dim>1</dim>
					<dim>1</dim>
					<dim>768</dim>
				</port>
			</input>
			<output>
				<port id="2" precision="FP32" names="252,input.15">
					<dim>-1</dim>
					<dim>-1</dim>
					<dim>768</dim>
				</port>
			</output>
		</layer>
		<layer id="179" name="__module.model.bert.encoder.layer.0.attention.output/aten::add/Add" type="Add" version="opset1">
			<data auto_broadcast="numpy" />
			<input>
				<port id="0" precision="FP32">
					<dim>-1</dim>
					<dim>-1</dim>
					<dim>768</dim>
				</port>
				<port id="1" precision="FP32">
					<dim>-1</dim>
					<dim>-1</dim>
					<dim>768</dim>
				</port>
			</input>
			<output>
				<port id="2" precision="FP32" names="254,input.17">
					<dim>-1</dim>
					<dim>-1</dim>
					<dim>768</dim>
				</port>
			</output>
		</layer>
		<layer id="180" name="__module.model.bert.encoder.layer.0.attention.output.LayerNorm/aten::layer_norm/Multiply" type="Const" version="opset1">
			<data element_type="i32" shape="1" offset="23932880" size="4" />
			<output>
				<port id="0" precision="I32">
					<dim>1</dim>
				</port>
			</output>
		</layer>
		<layer id="181" name="__module.model.bert.encoder.layer.0.attention.output.LayerNorm/aten::layer_norm/MVN" type="MVN" version="opset6">
			<data eps="9.999999960041972e-13" normalize_variance="true" eps_mode="INSIDE_SQRT" />
			<input>
				<port id="0" precision="FP32">
					<dim>-1</dim>
					<dim>-1</dim>
					<dim>768</dim>
				</port>
				<port id="1" precision="I32">
					<dim>1</dim>
				</port>
			</input>
			<output>
				<port id="2" precision="FP32">
					<dim>-1</dim>
					<dim>-1</dim>
					<dim>768</dim>
				</port>
			</output>
		</layer>
		<layer id="182" name="Constant_47123_compressed" type="Const" version="opset1">
			<data element_type="f16" shape="1, 1, 768" offset="26310710" size="1536" />
			<output>
				<port id="0" precision="FP16">
					<dim>1</dim>
					<dim>1</dim>
					<dim>768</dim>
				</port>
			</output>
		</layer>
		<layer id="183" name="Constant_47123" type="Convert" version="opset1">
			<data destination_type="f32" />
			<rt_info>
				<attribute name="decompression" version="0" />
			</rt_info>
			<input>
				<port id="0" precision="FP16">
					<dim>1</dim>
					<dim>1</dim>
					<dim>768</dim>
				</port>
			</input>
			<output>
				<port id="1" precision="FP32">
					<dim>1</dim>
					<dim>1</dim>
					<dim>768</dim>
				</port>
			</output>
		</layer>
		<layer id="184" name="__module.model.bert.encoder.layer.0.attention.output.LayerNorm/aten::layer_norm/Multiply_1" type="Multiply" version="opset1">
			<data auto_broadcast="numpy" />
			<input>
				<port id="0" precision="FP32">
					<dim>-1</dim>
					<dim>-1</dim>
					<dim>768</dim>
				</port>
				<port id="1" precision="FP32">
					<dim>1</dim>
					<dim>1</dim>
					<dim>768</dim>
				</port>
			</input>
			<output>
				<port id="2" precision="FP32">
					<dim>-1</dim>
					<dim>-1</dim>
					<dim>768</dim>
				</port>
			</output>
		</layer>
		<layer id="185" name="Constant_47124_compressed" type="Const" version="opset1">
			<data element_type="f16" shape="1, 1, 768" offset="26312246" size="1536" />
			<output>
				<port id="0" precision="FP16">
					<dim>1</dim>
					<dim>1</dim>
					<dim>768</dim>
				</port>
			</output>
		</layer>
		<layer id="186" name="Constant_47124" type="Convert" version="opset1">
			<data destination_type="f32" />
			<rt_info>
				<attribute name="decompression" version="0" />
			</rt_info>
			<input>
				<port id="0" precision="FP16">
					<dim>1</dim>
					<dim>1</dim>
					<dim>768</dim>
				</port>
			</input>
			<output>
				<port id="1" precision="FP32">
					<dim>1</dim>
					<dim>1</dim>
					<dim>768</dim>
				</port>
			</output>
		</layer>
		<layer id="187" name="__module.model.bert.encoder.layer.0.attention.output.LayerNorm/aten::layer_norm/Add" type="Add" version="opset1">
			<data auto_broadcast="numpy" />
			<input>
				<port id="0" precision="FP32">
					<dim>-1</dim>
					<dim>-1</dim>
					<dim>768</dim>
				</port>
				<port id="1" precision="FP32">
					<dim>1</dim>
					<dim>1</dim>
					<dim>768</dim>
				</port>
			</input>
			<output>
				<port id="2" precision="FP32" names="258,260,input.19">
					<dim>-1</dim>
					<dim>-1</dim>
					<dim>768</dim>
				</port>
			</output>
		</layer>
		<layer id="188" name="self.model.bert.encoder.layer.0.crossattention.self.query.weight_compressed" type="Const" version="opset1">
			<data element_type="u8" shape="768, 768" offset="26313782" size="589824" />
			<output>
				<port id="0" precision="U8">
					<dim>768</dim>
					<dim>768</dim>
				</port>
			</output>
		</layer>
		<layer id="189" name="Convert_1152085" type="Convert" version="opset1">
			<data destination_type="f16" />
			<input>
				<port id="0" precision="U8">
					<dim>768</dim>
					<dim>768</dim>
				</port>
			</input>
			<output>
				<port id="1" precision="FP16">
					<dim>768</dim>
					<dim>768</dim>
				</port>
			</output>
		</layer>
		<layer id="190" name="self.model.bert.encoder.layer.0.crossattention.self.query.weight_compressed/zero_point" type="Const" version="opset1">
			<data element_type="u8" shape="768, 1" offset="26903606" size="768" />
			<output>
				<port id="0" precision="U8">
					<dim>768</dim>
					<dim>1</dim>
				</port>
			</output>
		</layer>
		<layer id="191" name="Convert_1152088" type="Convert" version="opset1">
			<data destination_type="f16" />
			<input>
				<port id="0" precision="U8">
					<dim>768</dim>
					<dim>1</dim>
				</port>
			</input>
			<output>
				<port id="1" precision="FP16">
					<dim>768</dim>
					<dim>1</dim>
				</port>
			</output>
		</layer>
		<layer id="192" name="self.model.bert.encoder.layer.0.crossattention.self.query.weight_compressed/zero_point/subtract" type="Subtract" version="opset1">
			<data auto_broadcast="numpy" />
			<input>
				<port id="0" precision="FP16">
					<dim>768</dim>
					<dim>768</dim>
				</port>
				<port id="1" precision="FP16">
					<dim>768</dim>
					<dim>1</dim>
				</port>
			</input>
			<output>
				<port id="2" precision="FP16">
					<dim>768</dim>
					<dim>768</dim>
				</port>
			</output>
		</layer>
		<layer id="193" name="self.model.bert.encoder.layer.0.crossattention.self.query.weight_compressed/scale" type="Const" version="opset1">
			<data element_type="f16" shape="768, 1" offset="26904374" size="1536" />
			<output>
				<port id="0" precision="FP16">
					<dim>768</dim>
					<dim>1</dim>
				</port>
			</output>
		</layer>
		<layer id="194" name="self.model.bert.encoder.layer.0.crossattention.self.query.weight_compressed/fq_weights_1" type="Multiply" version="opset1">
			<data auto_broadcast="numpy" />
			<input>
				<port id="0" precision="FP16">
					<dim>768</dim>
					<dim>768</dim>
				</port>
				<port id="1" precision="FP16">
					<dim>768</dim>
					<dim>1</dim>
				</port>
			</input>
			<output>
				<port id="2" precision="FP16">
					<dim>768</dim>
					<dim>768</dim>
				</port>
			</output>
		</layer>
		<layer id="195" name="self.model.bert.encoder.layer.0.crossattention.self.query.weight" type="Convert" version="opset1">
			<data destination_type="f32" />
			<rt_info>
				<attribute name="decompression" version="0" />
			</rt_info>
			<input>
				<port id="0" precision="FP16">
					<dim>768</dim>
					<dim>768</dim>
				</port>
			</input>
			<output>
				<port id="1" precision="FP32">
					<dim>768</dim>
					<dim>768</dim>
				</port>
			</output>
		</layer>
		<layer id="196" name="__module.model.bert.encoder.layer.0.crossattention.self.query/aten::linear/MatMul" type="MatMul" version="opset1">
			<data transpose_a="false" transpose_b="true" />
			<input>
				<port id="0" precision="FP32">
					<dim>-1</dim>
					<dim>-1</dim>
					<dim>768</dim>
				</port>
				<port id="1" precision="FP32">
					<dim>768</dim>
					<dim>768</dim>
				</port>
			</input>
			<output>
				<port id="2" precision="FP32">
					<dim>-1</dim>
					<dim>-1</dim>
					<dim>768</dim>
				</port>
			</output>
		</layer>
		<layer id="197" name="Constant_47125_compressed" type="Const" version="opset1">
			<data element_type="f16" shape="1, 1, 768" offset="26905910" size="1536" />
			<output>
				<port id="0" precision="FP16">
					<dim>1</dim>
					<dim>1</dim>
					<dim>768</dim>
				</port>
			</output>
		</layer>
		<layer id="198" name="Constant_47125" type="Convert" version="opset1">
			<data destination_type="f32" />
			<rt_info>
				<attribute name="decompression" version="0" />
			</rt_info>
			<input>
				<port id="0" precision="FP16">
					<dim>1</dim>
					<dim>1</dim>
					<dim>768</dim>
				</port>
			</input>
			<output>
				<port id="1" precision="FP32">
					<dim>1</dim>
					<dim>1</dim>
					<dim>768</dim>
				</port>
			</output>
		</layer>
		<layer id="199" name="__module.model.bert.encoder.layer.0.crossattention.self.query/aten::linear/Add" type="Add" version="opset1">
			<data auto_broadcast="numpy" />
			<input>
				<port id="0" precision="FP32">
					<dim>-1</dim>
					<dim>-1</dim>
					<dim>768</dim>
				</port>
				<port id="1" precision="FP32">
					<dim>1</dim>
					<dim>1</dim>
					<dim>768</dim>
				</port>
			</input>
			<output>
				<port id="2" precision="FP32" names="271,x.21">
					<dim>-1</dim>
					<dim>-1</dim>
					<dim>768</dim>
				</port>
			</output>
		</layer>
		<layer id="200" name="__module.model.bert.encoder.layer.0.crossattention.self/prim::ListConstruct" type="Const" version="opset1">
			<data element_type="i64" shape="4" offset="24529620" size="32" />
			<rt_info>
				<attribute name="precise" version="0" />
			</rt_info>
			<output>
				<port id="0" precision="I64">
					<dim>4</dim>
				</port>
			</output>
		</layer>
		<layer id="201" name="__module.model.bert.encoder.layer.0.crossattention.self/aten::view/Reshape" type="Reshape" version="opset1">
			<data special_zero="true" />
			<input>
				<port id="0" precision="FP32">
					<dim>-1</dim>
					<dim>-1</dim>
					<dim>768</dim>
				</port>
				<port id="1" precision="I64">
					<dim>4</dim>
				</port>
			</input>
			<output>
				<port id="2" precision="FP32" names="293,x.23">
					<dim>-1</dim>
					<dim>-1</dim>
					<dim>12</dim>
					<dim>64</dim>
				</port>
			</output>
		</layer>
		<layer id="202" name="Constant_29594" type="Const" version="opset1">
			<data element_type="i64" shape="4" offset="24529652" size="32" />
			<output>
				<port id="0" precision="I64" names="294">
					<dim>4</dim>
				</port>
			</output>
		</layer>
		<layer id="203" name="__module.model.bert.encoder.layer.0.crossattention.self/aten::permute/Transpose" type="Transpose" version="opset1">
			<input>
				<port id="0" precision="FP32">
					<dim>-1</dim>
					<dim>-1</dim>
					<dim>12</dim>
					<dim>64</dim>
				</port>
				<port id="1" precision="I64">
					<dim>4</dim>
				</port>
			</input>
			<output>
				<port id="2" precision="FP32" names="295,query_layer.3">
					<dim>-1</dim>
					<dim>12</dim>
					<dim>-1</dim>
					<dim>64</dim>
				</port>
			</output>
		</layer>
		<layer id="204" name="self.model.bert.encoder.layer.0.crossattention.self.key.weight_compressed" type="Const" version="opset1">
			<data element_type="u8" shape="768, 768" offset="26907446" size="589824" />
			<output>
				<port id="0" precision="U8">
					<dim>768</dim>
					<dim>768</dim>
				</port>
			</output>
		</layer>
		<layer id="205" name="Convert_1147843" type="Convert" version="opset1">
			<data destination_type="f16" />
			<input>
				<port id="0" precision="U8">
					<dim>768</dim>
					<dim>768</dim>
				</port>
			</input>
			<output>
				<port id="1" precision="FP16">
					<dim>768</dim>
					<dim>768</dim>
				</port>
			</output>
		</layer>
		<layer id="206" name="self.model.bert.encoder.layer.0.crossattention.self.key.weight_compressed/zero_point" type="Const" version="opset1">
			<data element_type="u8" shape="768, 1" offset="27497270" size="768" />
			<output>
				<port id="0" precision="U8">
					<dim>768</dim>
					<dim>1</dim>
				</port>
			</output>
		</layer>
		<layer id="207" name="Convert_1147846" type="Convert" version="opset1">
			<data destination_type="f16" />
			<input>
				<port id="0" precision="U8">
					<dim>768</dim>
					<dim>1</dim>
				</port>
			</input>
			<output>
				<port id="1" precision="FP16">
					<dim>768</dim>
					<dim>1</dim>
				</port>
			</output>
		</layer>
		<layer id="208" name="self.model.bert.encoder.layer.0.crossattention.self.key.weight_compressed/zero_point/subtract" type="Subtract" version="opset1">
			<data auto_broadcast="numpy" />
			<input>
				<port id="0" precision="FP16">
					<dim>768</dim>
					<dim>768</dim>
				</port>
				<port id="1" precision="FP16">
					<dim>768</dim>
					<dim>1</dim>
				</port>
			</input>
			<output>
				<port id="2" precision="FP16">
					<dim>768</dim>
					<dim>768</dim>
				</port>
			</output>
		</layer>
		<layer id="209" name="self.model.bert.encoder.layer.0.crossattention.self.key.weight_compressed/scale" type="Const" version="opset1">
			<data element_type="f16" shape="768, 1" offset="27498038" size="1536" />
			<output>
				<port id="0" precision="FP16">
					<dim>768</dim>
					<dim>1</dim>
				</port>
			</output>
		</layer>
		<layer id="210" name="self.model.bert.encoder.layer.0.crossattention.self.key.weight_compressed/fq_weights_1" type="Multiply" version="opset1">
			<data auto_broadcast="numpy" />
			<input>
				<port id="0" precision="FP16">
					<dim>768</dim>
					<dim>768</dim>
				</port>
				<port id="1" precision="FP16">
					<dim>768</dim>
					<dim>1</dim>
				</port>
			</input>
			<output>
				<port id="2" precision="FP16">
					<dim>768</dim>
					<dim>768</dim>
				</port>
			</output>
		</layer>
		<layer id="211" name="self.model.bert.encoder.layer.0.crossattention.self.key.weight" type="Convert" version="opset1">
			<data destination_type="f32" />
			<rt_info>
				<attribute name="decompression" version="0" />
			</rt_info>
			<input>
				<port id="0" precision="FP16">
					<dim>768</dim>
					<dim>768</dim>
				</port>
			</input>
			<output>
				<port id="1" precision="FP32">
					<dim>768</dim>
					<dim>768</dim>
				</port>
			</output>
		</layer>
		<layer id="212" name="__module.model.bert.encoder.layer.0.crossattention.self.key/aten::linear/MatMul" type="MatMul" version="opset1">
			<data transpose_a="false" transpose_b="true" />
			<input>
				<port id="0" precision="FP32">
					<dim>-1</dim>
					<dim>-1</dim>
					<dim>-1</dim>
				</port>
				<port id="1" precision="FP32">
					<dim>768</dim>
					<dim>768</dim>
				</port>
			</input>
			<output>
				<port id="2" precision="FP32">
					<dim>-1</dim>
					<dim>-1</dim>
					<dim>768</dim>
				</port>
			</output>
		</layer>
		<layer id="213" name="Constant_47126_compressed" type="Const" version="opset1">
			<data element_type="f16" shape="1, 1, 768" offset="27499574" size="1536" />
			<output>
				<port id="0" precision="FP16">
					<dim>1</dim>
					<dim>1</dim>
					<dim>768</dim>
				</port>
			</output>
		</layer>
		<layer id="214" name="Constant_47126" type="Convert" version="opset1">
			<data destination_type="f32" />
			<rt_info>
				<attribute name="decompression" version="0" />
			</rt_info>
			<input>
				<port id="0" precision="FP16">
					<dim>1</dim>
					<dim>1</dim>
					<dim>768</dim>
				</port>
			</input>
			<output>
				<port id="1" precision="FP32">
					<dim>1</dim>
					<dim>1</dim>
					<dim>768</dim>
				</port>
			</output>
		</layer>
		<layer id="215" name="__module.model.bert.encoder.layer.0.crossattention.self.key/aten::linear/Add" type="Add" version="opset1">
			<data auto_broadcast="numpy" />
			<input>
				<port id="0" precision="FP32">
					<dim>-1</dim>
					<dim>-1</dim>
					<dim>768</dim>
				</port>
				<port id="1" precision="FP32">
					<dim>1</dim>
					<dim>1</dim>
					<dim>768</dim>
				</port>
			</input>
			<output>
				<port id="2" precision="FP32" names="274,x.13">
					<dim>-1</dim>
					<dim>-1</dim>
					<dim>768</dim>
				</port>
			</output>
		</layer>
		<layer id="216" name="__module.model.bert.encoder.layer.0.crossattention.self/prim::ListConstruct_1" type="Const" version="opset1">
			<data element_type="i64" shape="4" offset="24529620" size="32" />
			<rt_info>
				<attribute name="precise" version="0" />
			</rt_info>
			<output>
				<port id="0" precision="I64">
					<dim>4</dim>
				</port>
			</output>
		</layer>
		<layer id="217" name="__module.model.bert.encoder.layer.0.crossattention.self/aten::view/Reshape_1" type="Reshape" version="opset1">
			<data special_zero="true" />
			<input>
				<port id="0" precision="FP32">
					<dim>-1</dim>
					<dim>-1</dim>
					<dim>768</dim>
				</port>
				<port id="1" precision="I64">
					<dim>4</dim>
				</port>
			</input>
			<output>
				<port id="2" precision="FP32" names="278,x.15">
					<dim>-1</dim>
					<dim>-1</dim>
					<dim>12</dim>
					<dim>64</dim>
				</port>
			</output>
		</layer>
		<layer id="218" name="Constant_29532" type="Const" version="opset1">
			<data element_type="i64" shape="4" offset="24529652" size="32" />
			<output>
				<port id="0" precision="I64" names="279">
					<dim>4</dim>
				</port>
			</output>
		</layer>
		<layer id="219" name="__module.model.bert.encoder.layer.0.crossattention.self/aten::permute/Transpose_1" type="Transpose" version="opset1">
			<input>
				<port id="0" precision="FP32">
					<dim>-1</dim>
					<dim>-1</dim>
					<dim>12</dim>
					<dim>64</dim>
				</port>
				<port id="1" precision="I64">
					<dim>4</dim>
				</port>
			</input>
			<output>
				<port id="2" precision="FP32" names="280,key_layer.5">
					<dim>-1</dim>
					<dim>12</dim>
					<dim>-1</dim>
					<dim>64</dim>
				</port>
			</output>
		</layer>
		<layer id="220" name="__module.model.bert.encoder.layer.0.crossattention.self/aten::matmul/MatMul" type="MatMul" version="opset1">
			<data transpose_a="false" transpose_b="true" />
			<input>
				<port id="0" precision="FP32">
					<dim>-1</dim>
					<dim>12</dim>
					<dim>-1</dim>
					<dim>64</dim>
				</port>
				<port id="1" precision="FP32">
					<dim>-1</dim>
					<dim>12</dim>
					<dim>-1</dim>
					<dim>64</dim>
				</port>
			</input>
			<output>
				<port id="2" precision="FP32" names="297,attention_scores.5">
					<dim>-1</dim>
					<dim>12</dim>
					<dim>-1</dim>
					<dim>-1</dim>
				</port>
			</output>
		</layer>
		<layer id="221" name="Constant_47127_compressed" type="Const" version="opset1">
			<data element_type="f16" shape="1, 1, 1, 1" offset="25123348" size="2" />
			<output>
				<port id="0" precision="FP16">
					<dim>1</dim>
					<dim>1</dim>
					<dim>1</dim>
					<dim>1</dim>
				</port>
			</output>
		</layer>
		<layer id="222" name="Constant_47127" type="Convert" version="opset1">
			<data destination_type="f32" />
			<rt_info>
				<attribute name="decompression" version="0" />
			</rt_info>
			<input>
				<port id="0" precision="FP16">
					<dim>1</dim>
					<dim>1</dim>
					<dim>1</dim>
					<dim>1</dim>
				</port>
			</input>
			<output>
				<port id="1" precision="FP32">
					<dim>1</dim>
					<dim>1</dim>
					<dim>1</dim>
					<dim>1</dim>
				</port>
			</output>
		</layer>
		<layer id="223" name="__module.model.bert.encoder.layer.0.crossattention.self/aten::div/Divide" type="Divide" version="opset1">
			<data auto_broadcast="numpy" m_pythondiv="true" />
			<input>
				<port id="0" precision="FP32">
					<dim>-1</dim>
					<dim>12</dim>
					<dim>-1</dim>
					<dim>-1</dim>
				</port>
				<port id="1" precision="FP32">
					<dim>1</dim>
					<dim>1</dim>
					<dim>1</dim>
					<dim>1</dim>
				</port>
			</input>
			<output>
				<port id="2" precision="FP32" names="298,attention_scores.7">
					<dim>-1</dim>
					<dim>12</dim>
					<dim>-1</dim>
					<dim>-1</dim>
				</port>
			</output>
		</layer>
		<layer id="224" name="Constant_47129_compressed" type="Const" version="opset1">
			<data element_type="f16" shape="1, 1, 1, 1" offset="25123350" size="2" />
			<output>
				<port id="0" precision="FP16">
					<dim>1</dim>
					<dim>1</dim>
					<dim>1</dim>
					<dim>1</dim>
				</port>
			</output>
		</layer>
		<layer id="225" name="Constant_47129" type="Convert" version="opset1">
			<data destination_type="f32" />
			<rt_info>
				<attribute name="decompression" version="0" />
			</rt_info>
			<input>
				<port id="0" precision="FP16">
					<dim>1</dim>
					<dim>1</dim>
					<dim>1</dim>
					<dim>1</dim>
				</port>
			</input>
			<output>
				<port id="1" precision="FP32">
					<dim>1</dim>
					<dim>1</dim>
					<dim>1</dim>
					<dim>1</dim>
				</port>
			</output>
		</layer>
		<layer id="226" name="__module.model.bert/aten::unsqueeze/Unsqueeze_7" type="Unsqueeze" version="opset1">
			<input>
				<port id="0" precision="I64">
					<dim>-1</dim>
					<dim>-1</dim>
				</port>
				<port id="1" precision="I64" />
			</input>
			<output>
				<port id="2" precision="I64" names="138">
					<dim>-1</dim>
					<dim>1</dim>
					<dim>-1</dim>
				</port>
			</output>
		</layer>
		<layer id="227" name="__module.model.bert/aten::unsqueeze/Unsqueeze_8" type="Unsqueeze" version="opset1">
			<input>
				<port id="0" precision="I64">
					<dim>-1</dim>
					<dim>1</dim>
					<dim>-1</dim>
				</port>
				<port id="1" precision="I64" />
			</input>
			<output>
				<port id="2" precision="I64" names="139,140,encoder_extended_attention_mask">
					<dim>-1</dim>
					<dim>1</dim>
					<dim>1</dim>
					<dim>-1</dim>
				</port>
			</output>
		</layer>
		<layer id="228" name="__module.model.bert/aten::to/Convert_2" type="Convert" version="opset1">
			<data destination_type="f32" />
			<input>
				<port id="0" precision="I64">
					<dim>-1</dim>
					<dim>1</dim>
					<dim>1</dim>
					<dim>-1</dim>
				</port>
			</input>
			<output>
				<port id="1" precision="FP32" names="141">
					<dim>-1</dim>
					<dim>1</dim>
					<dim>1</dim>
					<dim>-1</dim>
				</port>
			</output>
		</layer>
		<layer id="229" name="Constant_47128_compressed" type="Const" version="opset1">
			<data element_type="f16" shape="1, 1, 1, 1" offset="25123350" size="2" />
			<output>
				<port id="0" precision="FP16">
					<dim>1</dim>
					<dim>1</dim>
					<dim>1</dim>
					<dim>1</dim>
				</port>
			</output>
		</layer>
		<layer id="230" name="Constant_47128" type="Convert" version="opset1">
			<data destination_type="f32" />
			<rt_info>
				<attribute name="decompression" version="0" />
			</rt_info>
			<input>
				<port id="0" precision="FP16">
					<dim>1</dim>
					<dim>1</dim>
					<dim>1</dim>
					<dim>1</dim>
				</port>
			</input>
			<output>
				<port id="1" precision="FP32">
					<dim>1</dim>
					<dim>1</dim>
					<dim>1</dim>
					<dim>1</dim>
				</port>
			</output>
		</layer>
		<layer id="231" name="__module.model.bert/aten::rsub/Multiply_1" type="Multiply" version="opset1">
			<data auto_broadcast="numpy" />
			<input>
				<port id="0" precision="FP32">
					<dim>-1</dim>
					<dim>1</dim>
					<dim>1</dim>
					<dim>-1</dim>
				</port>
				<port id="1" precision="FP32">
					<dim>1</dim>
					<dim>1</dim>
					<dim>1</dim>
					<dim>1</dim>
				</port>
			</input>
			<output>
				<port id="2" precision="FP32">
					<dim>-1</dim>
					<dim>1</dim>
					<dim>1</dim>
					<dim>-1</dim>
				</port>
			</output>
		</layer>
		<layer id="232" name="__module.model.bert/aten::rsub/Subtract_1" type="Subtract" version="opset1">
			<data auto_broadcast="numpy" />
			<input>
				<port id="0" precision="FP32">
					<dim>1</dim>
					<dim>1</dim>
					<dim>1</dim>
					<dim>1</dim>
				</port>
				<port id="1" precision="FP32">
					<dim>-1</dim>
					<dim>1</dim>
					<dim>1</dim>
					<dim>-1</dim>
				</port>
			</input>
			<output>
				<port id="2" precision="FP32" names="142">
					<dim>-1</dim>
					<dim>1</dim>
					<dim>1</dim>
					<dim>-1</dim>
				</port>
			</output>
		</layer>
		<layer id="233" name="Constant_47130" type="Const" version="opset1">
			<data element_type="f32" shape="1, 1, 1, 1" offset="27501110" size="4" />
			<output>
				<port id="0" precision="FP32">
					<dim>1</dim>
					<dim>1</dim>
					<dim>1</dim>
					<dim>1</dim>
				</port>
			</output>
		</layer>
		<layer id="234" name="__module.model.bert/aten::mul/Multiply_2" type="Multiply" version="opset1">
			<data auto_broadcast="numpy" />
			<input>
				<port id="0" precision="FP32">
					<dim>-1</dim>
					<dim>1</dim>
					<dim>1</dim>
					<dim>-1</dim>
				</port>
				<port id="1" precision="FP32">
					<dim>1</dim>
					<dim>1</dim>
					<dim>1</dim>
					<dim>1</dim>
				</port>
			</input>
			<output>
				<port id="2" precision="FP32" names="1109,1123,1137,1157,1271,1285,1299,1319,143,1433,1447,1461,1481,1595,1609,1623,1643,1757,1771,1785,1805,1919,1933,1947,1967,2079,299,313,327,347,461,475,489,509,623,637,651,671,785,799,813,833,947,961,975,995,attention_mask.13,attention_mask.17,attention_mask.21,attention_mask.25,attention_mask.29,attention_mask.33,attention_mask.37,attention_mask.41,attention_mask.45,attention_mask.49,attention_mask.7,attention_mask.9,attention_mask_1">
					<dim>-1</dim>
					<dim>1</dim>
					<dim>1</dim>
					<dim>-1</dim>
				</port>
			</output>
		</layer>
		<layer id="235" name="__module.model.bert.encoder.layer.0.crossattention.self/aten::add/Add" type="Add" version="opset1">
			<data auto_broadcast="numpy" />
			<input>
				<port id="0" precision="FP32">
					<dim>-1</dim>
					<dim>12</dim>
					<dim>-1</dim>
					<dim>-1</dim>
				</port>
				<port id="1" precision="FP32">
					<dim>-1</dim>
					<dim>1</dim>
					<dim>1</dim>
					<dim>-1</dim>
				</port>
			</input>
			<output>
				<port id="2" precision="FP32" names="300,input.21">
					<dim>-1</dim>
					<dim>12</dim>
					<dim>-1</dim>
					<dim>-1</dim>
				</port>
			</output>
		</layer>
		<layer id="236" name="__module.model.bert.encoder.layer.0.crossattention.self/aten::softmax/Softmax" type="SoftMax" version="opset8">
			<data axis="-1" />
			<input>
				<port id="0" precision="FP32">
					<dim>-1</dim>
					<dim>12</dim>
					<dim>-1</dim>
					<dim>-1</dim>
				</port>
			</input>
			<output>
				<port id="1" precision="FP32" names="301,input.23">
					<dim>-1</dim>
					<dim>12</dim>
					<dim>-1</dim>
					<dim>-1</dim>
				</port>
			</output>
		</layer>
		<layer id="237" name="self.model.bert.encoder.layer.0.crossattention.self.value.weight_compressed" type="Const" version="opset1">
			<data element_type="u8" shape="768, 768" offset="27501114" size="589824" />
			<output>
				<port id="0" precision="U8">
					<dim>768</dim>
					<dim>768</dim>
				</port>
			</output>
		</layer>
		<layer id="238" name="Convert_1143601" type="Convert" version="opset1">
			<data destination_type="f16" />
			<input>
				<port id="0" precision="U8">
					<dim>768</dim>
					<dim>768</dim>
				</port>
			</input>
			<output>
				<port id="1" precision="FP16">
					<dim>768</dim>
					<dim>768</dim>
				</port>
			</output>
		</layer>
		<layer id="239" name="self.model.bert.encoder.layer.0.crossattention.self.value.weight_compressed/zero_point" type="Const" version="opset1">
			<data element_type="u8" shape="768, 1" offset="28090938" size="768" />
			<output>
				<port id="0" precision="U8">
					<dim>768</dim>
					<dim>1</dim>
				</port>
			</output>
		</layer>
		<layer id="240" name="Convert_1143604" type="Convert" version="opset1">
			<data destination_type="f16" />
			<input>
				<port id="0" precision="U8">
					<dim>768</dim>
					<dim>1</dim>
				</port>
			</input>
			<output>
				<port id="1" precision="FP16">
					<dim>768</dim>
					<dim>1</dim>
				</port>
			</output>
		</layer>
		<layer id="241" name="self.model.bert.encoder.layer.0.crossattention.self.value.weight_compressed/zero_point/subtract" type="Subtract" version="opset1">
			<data auto_broadcast="numpy" />
			<input>
				<port id="0" precision="FP16">
					<dim>768</dim>
					<dim>768</dim>
				</port>
				<port id="1" precision="FP16">
					<dim>768</dim>
					<dim>1</dim>
				</port>
			</input>
			<output>
				<port id="2" precision="FP16">
					<dim>768</dim>
					<dim>768</dim>
				</port>
			</output>
		</layer>
		<layer id="242" name="self.model.bert.encoder.layer.0.crossattention.self.value.weight_compressed/scale" type="Const" version="opset1">
			<data element_type="f16" shape="768, 1" offset="28091706" size="1536" />
			<output>
				<port id="0" precision="FP16">
					<dim>768</dim>
					<dim>1</dim>
				</port>
			</output>
		</layer>
		<layer id="243" name="self.model.bert.encoder.layer.0.crossattention.self.value.weight_compressed/fq_weights_1" type="Multiply" version="opset1">
			<data auto_broadcast="numpy" />
			<input>
				<port id="0" precision="FP16">
					<dim>768</dim>
					<dim>768</dim>
				</port>
				<port id="1" precision="FP16">
					<dim>768</dim>
					<dim>1</dim>
				</port>
			</input>
			<output>
				<port id="2" precision="FP16">
					<dim>768</dim>
					<dim>768</dim>
				</port>
			</output>
		</layer>
		<layer id="244" name="self.model.bert.encoder.layer.0.crossattention.self.value.weight" type="Convert" version="opset1">
			<data destination_type="f32" />
			<rt_info>
				<attribute name="decompression" version="0" />
			</rt_info>
			<input>
				<port id="0" precision="FP16">
					<dim>768</dim>
					<dim>768</dim>
				</port>
			</input>
			<output>
				<port id="1" precision="FP32">
					<dim>768</dim>
					<dim>768</dim>
				</port>
			</output>
		</layer>
		<layer id="245" name="__module.model.bert.encoder.layer.0.crossattention.self.value/aten::linear/MatMul" type="MatMul" version="opset1">
			<data transpose_a="false" transpose_b="true" />
			<input>
				<port id="0" precision="FP32">
					<dim>-1</dim>
					<dim>-1</dim>
					<dim>-1</dim>
				</port>
				<port id="1" precision="FP32">
					<dim>768</dim>
					<dim>768</dim>
				</port>
			</input>
			<output>
				<port id="2" precision="FP32">
					<dim>-1</dim>
					<dim>-1</dim>
					<dim>768</dim>
				</port>
			</output>
		</layer>
		<layer id="246" name="Constant_47131_compressed" type="Const" version="opset1">
			<data element_type="f16" shape="1, 1, 768" offset="28093242" size="1536" />
			<output>
				<port id="0" precision="FP16">
					<dim>1</dim>
					<dim>1</dim>
					<dim>768</dim>
				</port>
			</output>
		</layer>
		<layer id="247" name="Constant_47131" type="Convert" version="opset1">
			<data destination_type="f32" />
			<rt_info>
				<attribute name="decompression" version="0" />
			</rt_info>
			<input>
				<port id="0" precision="FP16">
					<dim>1</dim>
					<dim>1</dim>
					<dim>768</dim>
				</port>
			</input>
			<output>
				<port id="1" precision="FP32">
					<dim>1</dim>
					<dim>1</dim>
					<dim>768</dim>
				</port>
			</output>
		</layer>
		<layer id="248" name="__module.model.bert.encoder.layer.0.crossattention.self.value/aten::linear/Add" type="Add" version="opset1">
			<data auto_broadcast="numpy" />
			<input>
				<port id="0" precision="FP32">
					<dim>-1</dim>
					<dim>-1</dim>
					<dim>768</dim>
				</port>
				<port id="1" precision="FP32">
					<dim>1</dim>
					<dim>1</dim>
					<dim>768</dim>
				</port>
			</input>
			<output>
				<port id="2" precision="FP32" names="283,x.17">
					<dim>-1</dim>
					<dim>-1</dim>
					<dim>768</dim>
				</port>
			</output>
		</layer>
		<layer id="249" name="__module.model.bert.encoder.layer.0.crossattention.self/prim::ListConstruct_2" type="Const" version="opset1">
			<data element_type="i64" shape="4" offset="24529620" size="32" />
			<rt_info>
				<attribute name="precise" version="0" />
			</rt_info>
			<output>
				<port id="0" precision="I64">
					<dim>4</dim>
				</port>
			</output>
		</layer>
		<layer id="250" name="__module.model.bert.encoder.layer.0.crossattention.self/aten::view/Reshape_2" type="Reshape" version="opset1">
			<data special_zero="true" />
			<input>
				<port id="0" precision="FP32">
					<dim>-1</dim>
					<dim>-1</dim>
					<dim>768</dim>
				</port>
				<port id="1" precision="I64">
					<dim>4</dim>
				</port>
			</input>
			<output>
				<port id="2" precision="FP32" names="287,x.19">
					<dim>-1</dim>
					<dim>-1</dim>
					<dim>12</dim>
					<dim>64</dim>
				</port>
			</output>
		</layer>
		<layer id="251" name="Constant_29566" type="Const" version="opset1">
			<data element_type="i64" shape="4" offset="24529652" size="32" />
			<output>
				<port id="0" precision="I64" names="288">
					<dim>4</dim>
				</port>
			</output>
		</layer>
		<layer id="252" name="__module.model.bert.encoder.layer.0.crossattention.self/aten::permute/Transpose_2" type="Transpose" version="opset1">
			<input>
				<port id="0" precision="FP32">
					<dim>-1</dim>
					<dim>-1</dim>
					<dim>12</dim>
					<dim>64</dim>
				</port>
				<port id="1" precision="I64">
					<dim>4</dim>
				</port>
			</input>
			<output>
				<port id="2" precision="FP32" names="289,value_layer.5">
					<dim>-1</dim>
					<dim>12</dim>
					<dim>-1</dim>
					<dim>64</dim>
				</port>
			</output>
		</layer>
		<layer id="253" name="__module.model.bert.encoder.layer.0.crossattention.self/aten::matmul/MatMul_1" type="MatMul" version="opset1">
			<data transpose_a="false" transpose_b="false" />
			<input>
				<port id="0" precision="FP32">
					<dim>-1</dim>
					<dim>12</dim>
					<dim>-1</dim>
					<dim>-1</dim>
				</port>
				<port id="1" precision="FP32">
					<dim>-1</dim>
					<dim>12</dim>
					<dim>-1</dim>
					<dim>64</dim>
				</port>
			</input>
			<output>
				<port id="2" precision="FP32" names="303,context_layer.5">
					<dim>-1</dim>
					<dim>12</dim>
					<dim>-1</dim>
					<dim>64</dim>
				</port>
			</output>
		</layer>
		<layer id="254" name="Constant_29693" type="Const" version="opset1">
			<data element_type="i64" shape="4" offset="24529652" size="32" />
			<output>
				<port id="0" precision="I64" names="304">
					<dim>4</dim>
				</port>
			</output>
		</layer>
		<layer id="255" name="__module.model.bert.encoder.layer.0.crossattention.self/aten::permute/Transpose_3" type="Transpose" version="opset1">
			<input>
				<port id="0" precision="FP32">
					<dim>-1</dim>
					<dim>12</dim>
					<dim>-1</dim>
					<dim>64</dim>
				</port>
				<port id="1" precision="I64">
					<dim>4</dim>
				</port>
			</input>
			<output>
				<port id="2" precision="FP32" names="305">
					<dim>-1</dim>
					<dim>-1</dim>
					<dim>12</dim>
					<dim>64</dim>
				</port>
			</output>
		</layer>
		<layer id="256" name="__module.model.bert.encoder.layer.0.crossattention.self/prim::ListConstruct_3" type="Const" version="opset1">
			<data element_type="i64" shape="3" offset="25717022" size="24" />
			<rt_info>
				<attribute name="precise" version="0" />
			</rt_info>
			<output>
				<port id="0" precision="I64">
					<dim>3</dim>
				</port>
			</output>
		</layer>
		<layer id="257" name="__module.model.bert.encoder.layer.0.crossattention.self/aten::view/Reshape_3" type="Reshape" version="opset1">
			<data special_zero="true" />
			<input>
				<port id="0" precision="FP32">
					<dim>-1</dim>
					<dim>-1</dim>
					<dim>12</dim>
					<dim>64</dim>
				</port>
				<port id="1" precision="I64">
					<dim>3</dim>
				</port>
			</input>
			<output>
				<port id="2" precision="FP32" names="310,312,input.25">
					<dim>-1</dim>
					<dim>-1</dim>
					<dim>768</dim>
				</port>
			</output>
		</layer>
		<layer id="258" name="self.model.bert.encoder.layer.0.crossattention.output.dense.weight_compressed" type="Const" version="opset1">
			<data element_type="u8" shape="768, 768" offset="28094778" size="589824" />
			<output>
				<port id="0" precision="U8">
					<dim>768</dim>
					<dim>768</dim>
				</port>
			</output>
		</layer>
		<layer id="259" name="Convert_1156327" type="Convert" version="opset1">
			<data destination_type="f16" />
			<input>
				<port id="0" precision="U8">
					<dim>768</dim>
					<dim>768</dim>
				</port>
			</input>
			<output>
				<port id="1" precision="FP16">
					<dim>768</dim>
					<dim>768</dim>
				</port>
			</output>
		</layer>
		<layer id="260" name="self.model.bert.encoder.layer.0.crossattention.output.dense.weight_compressed/zero_point" type="Const" version="opset1">
			<data element_type="u8" shape="768, 1" offset="28684602" size="768" />
			<output>
				<port id="0" precision="U8">
					<dim>768</dim>
					<dim>1</dim>
				</port>
			</output>
		</layer>
		<layer id="261" name="Convert_1156330" type="Convert" version="opset1">
			<data destination_type="f16" />
			<input>
				<port id="0" precision="U8">
					<dim>768</dim>
					<dim>1</dim>
				</port>
			</input>
			<output>
				<port id="1" precision="FP16">
					<dim>768</dim>
					<dim>1</dim>
				</port>
			</output>
		</layer>
		<layer id="262" name="self.model.bert.encoder.layer.0.crossattention.output.dense.weight_compressed/zero_point/subtract" type="Subtract" version="opset1">
			<data auto_broadcast="numpy" />
			<input>
				<port id="0" precision="FP16">
					<dim>768</dim>
					<dim>768</dim>
				</port>
				<port id="1" precision="FP16">
					<dim>768</dim>
					<dim>1</dim>
				</port>
			</input>
			<output>
				<port id="2" precision="FP16">
					<dim>768</dim>
					<dim>768</dim>
				</port>
			</output>
		</layer>
		<layer id="263" name="self.model.bert.encoder.layer.0.crossattention.output.dense.weight_compressed/scale" type="Const" version="opset1">
			<data element_type="f16" shape="768, 1" offset="28685370" size="1536" />
			<output>
				<port id="0" precision="FP16">
					<dim>768</dim>
					<dim>1</dim>
				</port>
			</output>
		</layer>
		<layer id="264" name="self.model.bert.encoder.layer.0.crossattention.output.dense.weight_compressed/fq_weights_1" type="Multiply" version="opset1">
			<data auto_broadcast="numpy" />
			<input>
				<port id="0" precision="FP16">
					<dim>768</dim>
					<dim>768</dim>
				</port>
				<port id="1" precision="FP16">
					<dim>768</dim>
					<dim>1</dim>
				</port>
			</input>
			<output>
				<port id="2" precision="FP16">
					<dim>768</dim>
					<dim>768</dim>
				</port>
			</output>
		</layer>
		<layer id="265" name="self.model.bert.encoder.layer.0.crossattention.output.dense.weight" type="Convert" version="opset1">
			<data destination_type="f32" />
			<rt_info>
				<attribute name="decompression" version="0" />
			</rt_info>
			<input>
				<port id="0" precision="FP16">
					<dim>768</dim>
					<dim>768</dim>
				</port>
			</input>
			<output>
				<port id="1" precision="FP32">
					<dim>768</dim>
					<dim>768</dim>
				</port>
			</output>
		</layer>
		<layer id="266" name="__module.model.bert.encoder.layer.0.crossattention.output.dense/aten::linear/MatMul" type="MatMul" version="opset1">
			<data transpose_a="false" transpose_b="true" />
			<input>
				<port id="0" precision="FP32">
					<dim>-1</dim>
					<dim>-1</dim>
					<dim>768</dim>
				</port>
				<port id="1" precision="FP32">
					<dim>768</dim>
					<dim>768</dim>
				</port>
			</input>
			<output>
				<port id="2" precision="FP32">
					<dim>-1</dim>
					<dim>-1</dim>
					<dim>768</dim>
				</port>
			</output>
		</layer>
		<layer id="267" name="Constant_47132_compressed" type="Const" version="opset1">
			<data element_type="f16" shape="1, 1, 768" offset="28686906" size="1536" />
			<output>
				<port id="0" precision="FP16">
					<dim>1</dim>
					<dim>1</dim>
					<dim>768</dim>
				</port>
			</output>
		</layer>
		<layer id="268" name="Constant_47132" type="Convert" version="opset1">
			<data destination_type="f32" />
			<rt_info>
				<attribute name="decompression" version="0" />
			</rt_info>
			<input>
				<port id="0" precision="FP16">
					<dim>1</dim>
					<dim>1</dim>
					<dim>768</dim>
				</port>
			</input>
			<output>
				<port id="1" precision="FP32">
					<dim>1</dim>
					<dim>1</dim>
					<dim>768</dim>
				</port>
			</output>
		</layer>
		<layer id="269" name="__module.model.bert.encoder.layer.0.crossattention.output.dense/aten::linear/Add" type="Add" version="opset1">
			<data auto_broadcast="numpy" />
			<input>
				<port id="0" precision="FP32">
					<dim>-1</dim>
					<dim>-1</dim>
					<dim>768</dim>
				</port>
				<port id="1" precision="FP32">
					<dim>1</dim>
					<dim>1</dim>
					<dim>768</dim>
				</port>
			</input>
			<output>
				<port id="2" precision="FP32" names="318,input.27">
					<dim>-1</dim>
					<dim>-1</dim>
					<dim>768</dim>
				</port>
			</output>
		</layer>
		<layer id="270" name="__module.model.bert.encoder.layer.0.crossattention.output/aten::add/Add" type="Add" version="opset1">
			<data auto_broadcast="numpy" />
			<input>
				<port id="0" precision="FP32">
					<dim>-1</dim>
					<dim>-1</dim>
					<dim>768</dim>
				</port>
				<port id="1" precision="FP32">
					<dim>-1</dim>
					<dim>-1</dim>
					<dim>768</dim>
				</port>
			</input>
			<output>
				<port id="2" precision="FP32" names="320,input.29">
					<dim>-1</dim>
					<dim>-1</dim>
					<dim>768</dim>
				</port>
			</output>
		</layer>
		<layer id="271" name="__module.model.bert.encoder.layer.0.crossattention.output.LayerNorm/aten::layer_norm/Multiply" type="Const" version="opset1">
			<data element_type="i32" shape="1" offset="23932880" size="4" />
			<output>
				<port id="0" precision="I32">
					<dim>1</dim>
				</port>
			</output>
		</layer>
		<layer id="272" name="__module.model.bert.encoder.layer.0.crossattention.output.LayerNorm/aten::layer_norm/MVN" type="MVN" version="opset6">
			<data eps="9.999999960041972e-13" normalize_variance="true" eps_mode="INSIDE_SQRT" />
			<input>
				<port id="0" precision="FP32">
					<dim>-1</dim>
					<dim>-1</dim>
					<dim>768</dim>
				</port>
				<port id="1" precision="I32">
					<dim>1</dim>
				</port>
			</input>
			<output>
				<port id="2" precision="FP32">
					<dim>-1</dim>
					<dim>-1</dim>
					<dim>768</dim>
				</port>
			</output>
		</layer>
		<layer id="273" name="Constant_47133_compressed" type="Const" version="opset1">
			<data element_type="f16" shape="1, 1, 768" offset="28688442" size="1536" />
			<output>
				<port id="0" precision="FP16">
					<dim>1</dim>
					<dim>1</dim>
					<dim>768</dim>
				</port>
			</output>
		</layer>
		<layer id="274" name="Constant_47133" type="Convert" version="opset1">
			<data destination_type="f32" />
			<rt_info>
				<attribute name="decompression" version="0" />
			</rt_info>
			<input>
				<port id="0" precision="FP16">
					<dim>1</dim>
					<dim>1</dim>
					<dim>768</dim>
				</port>
			</input>
			<output>
				<port id="1" precision="FP32">
					<dim>1</dim>
					<dim>1</dim>
					<dim>768</dim>
				</port>
			</output>
		</layer>
		<layer id="275" name="__module.model.bert.encoder.layer.0.crossattention.output.LayerNorm/aten::layer_norm/Multiply_1" type="Multiply" version="opset1">
			<data auto_broadcast="numpy" />
			<input>
				<port id="0" precision="FP32">
					<dim>-1</dim>
					<dim>-1</dim>
					<dim>768</dim>
				</port>
				<port id="1" precision="FP32">
					<dim>1</dim>
					<dim>1</dim>
					<dim>768</dim>
				</port>
			</input>
			<output>
				<port id="2" precision="FP32">
					<dim>-1</dim>
					<dim>-1</dim>
					<dim>768</dim>
				</port>
			</output>
		</layer>
		<layer id="276" name="Constant_47134_compressed" type="Const" version="opset1">
			<data element_type="f16" shape="1, 1, 768" offset="28689978" size="1536" />
			<output>
				<port id="0" precision="FP16">
					<dim>1</dim>
					<dim>1</dim>
					<dim>768</dim>
				</port>
			</output>
		</layer>
		<layer id="277" name="Constant_47134" type="Convert" version="opset1">
			<data destination_type="f32" />
			<rt_info>
				<attribute name="decompression" version="0" />
			</rt_info>
			<input>
				<port id="0" precision="FP16">
					<dim>1</dim>
					<dim>1</dim>
					<dim>768</dim>
				</port>
			</input>
			<output>
				<port id="1" precision="FP32">
					<dim>1</dim>
					<dim>1</dim>
					<dim>768</dim>
				</port>
			</output>
		</layer>
		<layer id="278" name="__module.model.bert.encoder.layer.0.crossattention.output.LayerNorm/aten::layer_norm/Add" type="Add" version="opset1">
			<data auto_broadcast="numpy" />
			<input>
				<port id="0" precision="FP32">
					<dim>-1</dim>
					<dim>-1</dim>
					<dim>768</dim>
				</port>
				<port id="1" precision="FP32">
					<dim>1</dim>
					<dim>1</dim>
					<dim>768</dim>
				</port>
			</input>
			<output>
				<port id="2" precision="FP32" names="324,326,input.31">
					<dim>-1</dim>
					<dim>-1</dim>
					<dim>768</dim>
				</port>
			</output>
		</layer>
		<layer id="279" name="self.model.bert.encoder.layer.0.intermediate.dense.weight_compressed" type="Const" version="opset1">
			<data element_type="u8" shape="3072, 768" offset="28691514" size="2359296" />
			<output>
				<port id="0" precision="U8">
					<dim>3072</dim>
					<dim>768</dim>
				</port>
			</output>
		</layer>
		<layer id="280" name="Convert_1024825" type="Convert" version="opset1">
			<data destination_type="f16" />
			<input>
				<port id="0" precision="U8">
					<dim>3072</dim>
					<dim>768</dim>
				</port>
			</input>
			<output>
				<port id="1" precision="FP16">
					<dim>3072</dim>
					<dim>768</dim>
				</port>
			</output>
		</layer>
		<layer id="281" name="self.model.bert.encoder.layer.0.intermediate.dense.weight_compressed/zero_point" type="Const" version="opset1">
			<data element_type="u8" shape="3072, 1" offset="31050810" size="3072" />
			<output>
				<port id="0" precision="U8">
					<dim>3072</dim>
					<dim>1</dim>
				</port>
			</output>
		</layer>
		<layer id="282" name="Convert_1024828" type="Convert" version="opset1">
			<data destination_type="f16" />
			<input>
				<port id="0" precision="U8">
					<dim>3072</dim>
					<dim>1</dim>
				</port>
			</input>
			<output>
				<port id="1" precision="FP16">
					<dim>3072</dim>
					<dim>1</dim>
				</port>
			</output>
		</layer>
		<layer id="283" name="self.model.bert.encoder.layer.0.intermediate.dense.weight_compressed/zero_point/subtract" type="Subtract" version="opset1">
			<data auto_broadcast="numpy" />
			<input>
				<port id="0" precision="FP16">
					<dim>3072</dim>
					<dim>768</dim>
				</port>
				<port id="1" precision="FP16">
					<dim>3072</dim>
					<dim>1</dim>
				</port>
			</input>
			<output>
				<port id="2" precision="FP16">
					<dim>3072</dim>
					<dim>768</dim>
				</port>
			</output>
		</layer>
		<layer id="284" name="self.model.bert.encoder.layer.0.intermediate.dense.weight_compressed/scale" type="Const" version="opset1">
			<data element_type="f16" shape="3072, 1" offset="31053882" size="6144" />
			<output>
				<port id="0" precision="FP16">
					<dim>3072</dim>
					<dim>1</dim>
				</port>
			</output>
		</layer>
		<layer id="285" name="self.model.bert.encoder.layer.0.intermediate.dense.weight_compressed/fq_weights_1" type="Multiply" version="opset1">
			<data auto_broadcast="numpy" />
			<input>
				<port id="0" precision="FP16">
					<dim>3072</dim>
					<dim>768</dim>
				</port>
				<port id="1" precision="FP16">
					<dim>3072</dim>
					<dim>1</dim>
				</port>
			</input>
			<output>
				<port id="2" precision="FP16">
					<dim>3072</dim>
					<dim>768</dim>
				</port>
			</output>
		</layer>
		<layer id="286" name="self.model.bert.encoder.layer.0.intermediate.dense.weight" type="Convert" version="opset1">
			<data destination_type="f32" />
			<rt_info>
				<attribute name="decompression" version="0" />
			</rt_info>
			<input>
				<port id="0" precision="FP16">
					<dim>3072</dim>
					<dim>768</dim>
				</port>
			</input>
			<output>
				<port id="1" precision="FP32">
					<dim>3072</dim>
					<dim>768</dim>
				</port>
			</output>
		</layer>
		<layer id="287" name="__module.model.bert.encoder.layer.0.intermediate.dense/aten::linear/MatMul" type="MatMul" version="opset1">
			<data transpose_a="false" transpose_b="true" />
			<input>
				<port id="0" precision="FP32">
					<dim>-1</dim>
					<dim>-1</dim>
					<dim>768</dim>
				</port>
				<port id="1" precision="FP32">
					<dim>3072</dim>
					<dim>768</dim>
				</port>
			</input>
			<output>
				<port id="2" precision="FP32">
					<dim>-1</dim>
					<dim>-1</dim>
					<dim>3072</dim>
				</port>
			</output>
		</layer>
		<layer id="288" name="Constant_47135_compressed" type="Const" version="opset1">
			<data element_type="f16" shape="1, 1, 3072" offset="31060026" size="6144" />
			<output>
				<port id="0" precision="FP16">
					<dim>1</dim>
					<dim>1</dim>
					<dim>3072</dim>
				</port>
			</output>
		</layer>
		<layer id="289" name="Constant_47135" type="Convert" version="opset1">
			<data destination_type="f32" />
			<rt_info>
				<attribute name="decompression" version="0" />
			</rt_info>
			<input>
				<port id="0" precision="FP16">
					<dim>1</dim>
					<dim>1</dim>
					<dim>3072</dim>
				</port>
			</input>
			<output>
				<port id="1" precision="FP32">
					<dim>1</dim>
					<dim>1</dim>
					<dim>3072</dim>
				</port>
			</output>
		</layer>
		<layer id="290" name="__module.model.bert.encoder.layer.0.intermediate.dense/aten::linear/Add" type="Add" version="opset1">
			<data auto_broadcast="numpy" />
			<input>
				<port id="0" precision="FP32">
					<dim>-1</dim>
					<dim>-1</dim>
					<dim>3072</dim>
				</port>
				<port id="1" precision="FP32">
					<dim>1</dim>
					<dim>1</dim>
					<dim>3072</dim>
				</port>
			</input>
			<output>
				<port id="2" precision="FP32" names="331,input.33">
					<dim>-1</dim>
					<dim>-1</dim>
					<dim>3072</dim>
				</port>
			</output>
		</layer>
		<layer id="291" name="__module.model.bert.encoder.layer.0.intermediate.intermediate_act_fn/aten::gelu/Gelu" type="Gelu" version="opset7">
			<data approximation_mode="ERF" />
			<input>
				<port id="0" precision="FP32">
					<dim>-1</dim>
					<dim>-1</dim>
					<dim>3072</dim>
				</port>
			</input>
			<output>
				<port id="1" precision="FP32" names="332,input.35">
					<dim>-1</dim>
					<dim>-1</dim>
					<dim>3072</dim>
				</port>
			</output>
		</layer>
		<layer id="292" name="self.model.bert.encoder.layer.0.output.dense.weight_compressed" type="Const" version="opset1">
			<data element_type="u8" shape="768, 3072" offset="31066170" size="2359296" />
			<output>
				<port id="0" precision="U8">
					<dim>768</dim>
					<dim>3072</dim>
				</port>
			</output>
		</layer>
		<layer id="293" name="Convert_1029067" type="Convert" version="opset1">
			<data destination_type="f16" />
			<input>
				<port id="0" precision="U8">
					<dim>768</dim>
					<dim>3072</dim>
				</port>
			</input>
			<output>
				<port id="1" precision="FP16">
					<dim>768</dim>
					<dim>3072</dim>
				</port>
			</output>
		</layer>
		<layer id="294" name="self.model.bert.encoder.layer.0.output.dense.weight_compressed/zero_point" type="Const" version="opset1">
			<data element_type="u8" shape="768, 1" offset="33425466" size="768" />
			<output>
				<port id="0" precision="U8">
					<dim>768</dim>
					<dim>1</dim>
				</port>
			</output>
		</layer>
		<layer id="295" name="Convert_1029070" type="Convert" version="opset1">
			<data destination_type="f16" />
			<input>
				<port id="0" precision="U8">
					<dim>768</dim>
					<dim>1</dim>
				</port>
			</input>
			<output>
				<port id="1" precision="FP16">
					<dim>768</dim>
					<dim>1</dim>
				</port>
			</output>
		</layer>
		<layer id="296" name="self.model.bert.encoder.layer.0.output.dense.weight_compressed/zero_point/subtract" type="Subtract" version="opset1">
			<data auto_broadcast="numpy" />
			<input>
				<port id="0" precision="FP16">
					<dim>768</dim>
					<dim>3072</dim>
				</port>
				<port id="1" precision="FP16">
					<dim>768</dim>
					<dim>1</dim>
				</port>
			</input>
			<output>
				<port id="2" precision="FP16">
					<dim>768</dim>
					<dim>3072</dim>
				</port>
			</output>
		</layer>
		<layer id="297" name="self.model.bert.encoder.layer.0.output.dense.weight_compressed/scale" type="Const" version="opset1">
			<data element_type="f16" shape="768, 1" offset="33426234" size="1536" />
			<output>
				<port id="0" precision="FP16">
					<dim>768</dim>
					<dim>1</dim>
				</port>
			</output>
		</layer>
		<layer id="298" name="self.model.bert.encoder.layer.0.output.dense.weight_compressed/fq_weights_1" type="Multiply" version="opset1">
			<data auto_broadcast="numpy" />
			<input>
				<port id="0" precision="FP16">
					<dim>768</dim>
					<dim>3072</dim>
				</port>
				<port id="1" precision="FP16">
					<dim>768</dim>
					<dim>1</dim>
				</port>
			</input>
			<output>
				<port id="2" precision="FP16">
					<dim>768</dim>
					<dim>3072</dim>
				</port>
			</output>
		</layer>
		<layer id="299" name="self.model.bert.encoder.layer.0.output.dense.weight" type="Convert" version="opset1">
			<data destination_type="f32" />
			<rt_info>
				<attribute name="decompression" version="0" />
			</rt_info>
			<input>
				<port id="0" precision="FP16">
					<dim>768</dim>
					<dim>3072</dim>
				</port>
			</input>
			<output>
				<port id="1" precision="FP32">
					<dim>768</dim>
					<dim>3072</dim>
				</port>
			</output>
		</layer>
		<layer id="300" name="__module.model.bert.encoder.layer.0.output.dense/aten::linear/MatMul" type="MatMul" version="opset1">
			<data transpose_a="false" transpose_b="true" />
			<input>
				<port id="0" precision="FP32">
					<dim>-1</dim>
					<dim>-1</dim>
					<dim>3072</dim>
				</port>
				<port id="1" precision="FP32">
					<dim>768</dim>
					<dim>3072</dim>
				</port>
			</input>
			<output>
				<port id="2" precision="FP32">
					<dim>-1</dim>
					<dim>-1</dim>
					<dim>768</dim>
				</port>
			</output>
		</layer>
		<layer id="301" name="Constant_47136_compressed" type="Const" version="opset1">
			<data element_type="f16" shape="1, 1, 768" offset="33427770" size="1536" />
			<output>
				<port id="0" precision="FP16">
					<dim>1</dim>
					<dim>1</dim>
					<dim>768</dim>
				</port>
			</output>
		</layer>
		<layer id="302" name="Constant_47136" type="Convert" version="opset1">
			<data destination_type="f32" />
			<rt_info>
				<attribute name="decompression" version="0" />
			</rt_info>
			<input>
				<port id="0" precision="FP16">
					<dim>1</dim>
					<dim>1</dim>
					<dim>768</dim>
				</port>
			</input>
			<output>
				<port id="1" precision="FP32">
					<dim>1</dim>
					<dim>1</dim>
					<dim>768</dim>
				</port>
			</output>
		</layer>
		<layer id="303" name="__module.model.bert.encoder.layer.0.output.dense/aten::linear/Add" type="Add" version="opset1">
			<data auto_broadcast="numpy" />
			<input>
				<port id="0" precision="FP32">
					<dim>-1</dim>
					<dim>-1</dim>
					<dim>768</dim>
				</port>
				<port id="1" precision="FP32">
					<dim>1</dim>
					<dim>1</dim>
					<dim>768</dim>
				</port>
			</input>
			<output>
				<port id="2" precision="FP32" names="337,input.37">
					<dim>-1</dim>
					<dim>-1</dim>
					<dim>768</dim>
				</port>
			</output>
		</layer>
		<layer id="304" name="__module.model.bert.encoder.layer.0.output/aten::add/Add" type="Add" version="opset1">
			<data auto_broadcast="numpy" />
			<input>
				<port id="0" precision="FP32">
					<dim>-1</dim>
					<dim>-1</dim>
					<dim>768</dim>
				</port>
				<port id="1" precision="FP32">
					<dim>-1</dim>
					<dim>-1</dim>
					<dim>768</dim>
				</port>
			</input>
			<output>
				<port id="2" precision="FP32" names="339,input.39">
					<dim>-1</dim>
					<dim>-1</dim>
					<dim>768</dim>
				</port>
			</output>
		</layer>
		<layer id="305" name="__module.model.bert.encoder.layer.0.output.LayerNorm/aten::layer_norm/Multiply" type="Const" version="opset1">
			<data element_type="i32" shape="1" offset="23932880" size="4" />
			<output>
				<port id="0" precision="I32">
					<dim>1</dim>
				</port>
			</output>
		</layer>
		<layer id="306" name="__module.model.bert.encoder.layer.0.output.LayerNorm/aten::layer_norm/MVN" type="MVN" version="opset6">
			<data eps="9.999999960041972e-13" normalize_variance="true" eps_mode="INSIDE_SQRT" />
			<input>
				<port id="0" precision="FP32">
					<dim>-1</dim>
					<dim>-1</dim>
					<dim>768</dim>
				</port>
				<port id="1" precision="I32">
					<dim>1</dim>
				</port>
			</input>
			<output>
				<port id="2" precision="FP32">
					<dim>-1</dim>
					<dim>-1</dim>
					<dim>768</dim>
				</port>
			</output>
		</layer>
		<layer id="307" name="Constant_47137_compressed" type="Const" version="opset1">
			<data element_type="f16" shape="1, 1, 768" offset="33429306" size="1536" />
			<output>
				<port id="0" precision="FP16">
					<dim>1</dim>
					<dim>1</dim>
					<dim>768</dim>
				</port>
			</output>
		</layer>
		<layer id="308" name="Constant_47137" type="Convert" version="opset1">
			<data destination_type="f32" />
			<rt_info>
				<attribute name="decompression" version="0" />
			</rt_info>
			<input>
				<port id="0" precision="FP16">
					<dim>1</dim>
					<dim>1</dim>
					<dim>768</dim>
				</port>
			</input>
			<output>
				<port id="1" precision="FP32">
					<dim>1</dim>
					<dim>1</dim>
					<dim>768</dim>
				</port>
			</output>
		</layer>
		<layer id="309" name="__module.model.bert.encoder.layer.0.output.LayerNorm/aten::layer_norm/Multiply_1" type="Multiply" version="opset1">
			<data auto_broadcast="numpy" />
			<input>
				<port id="0" precision="FP32">
					<dim>-1</dim>
					<dim>-1</dim>
					<dim>768</dim>
				</port>
				<port id="1" precision="FP32">
					<dim>1</dim>
					<dim>1</dim>
					<dim>768</dim>
				</port>
			</input>
			<output>
				<port id="2" precision="FP32">
					<dim>-1</dim>
					<dim>-1</dim>
					<dim>768</dim>
				</port>
			</output>
		</layer>
		<layer id="310" name="Constant_47138_compressed" type="Const" version="opset1">
			<data element_type="f16" shape="1, 1, 768" offset="33430842" size="1536" />
			<output>
				<port id="0" precision="FP16">
					<dim>1</dim>
					<dim>1</dim>
					<dim>768</dim>
				</port>
			</output>
		</layer>
		<layer id="311" name="Constant_47138" type="Convert" version="opset1">
			<data destination_type="f32" />
			<rt_info>
				<attribute name="decompression" version="0" />
			</rt_info>
			<input>
				<port id="0" precision="FP16">
					<dim>1</dim>
					<dim>1</dim>
					<dim>768</dim>
				</port>
			</input>
			<output>
				<port id="1" precision="FP32">
					<dim>1</dim>
					<dim>1</dim>
					<dim>768</dim>
				</port>
			</output>
		</layer>
		<layer id="312" name="__module.model.bert.encoder.layer.0.output.LayerNorm/aten::layer_norm/Add" type="Add" version="opset1">
			<data auto_broadcast="numpy" />
			<input>
				<port id="0" precision="FP32">
					<dim>-1</dim>
					<dim>-1</dim>
					<dim>768</dim>
				</port>
				<port id="1" precision="FP32">
					<dim>1</dim>
					<dim>1</dim>
					<dim>768</dim>
				</port>
			</input>
			<output>
				<port id="2" precision="FP32" names="343,345,input.41">
					<dim>-1</dim>
					<dim>-1</dim>
					<dim>768</dim>
				</port>
			</output>
		</layer>
		<layer id="313" name="self.model.bert.encoder.layer.1.attention.self.query.weight_compressed" type="Const" version="opset1">
			<data element_type="u8" shape="768, 768" offset="33432378" size="589824" />
			<output>
				<port id="0" precision="U8">
					<dim>768</dim>
					<dim>768</dim>
				</port>
			</output>
		</layer>
		<layer id="314" name="Convert_1169053" type="Convert" version="opset1">
			<data destination_type="f16" />
			<input>
				<port id="0" precision="U8">
					<dim>768</dim>
					<dim>768</dim>
				</port>
			</input>
			<output>
				<port id="1" precision="FP16">
					<dim>768</dim>
					<dim>768</dim>
				</port>
			</output>
		</layer>
		<layer id="315" name="self.model.bert.encoder.layer.1.attention.self.query.weight_compressed/zero_point" type="Const" version="opset1">
			<data element_type="u8" shape="768, 1" offset="34022202" size="768" />
			<output>
				<port id="0" precision="U8">
					<dim>768</dim>
					<dim>1</dim>
				</port>
			</output>
		</layer>
		<layer id="316" name="Convert_1169056" type="Convert" version="opset1">
			<data destination_type="f16" />
			<input>
				<port id="0" precision="U8">
					<dim>768</dim>
					<dim>1</dim>
				</port>
			</input>
			<output>
				<port id="1" precision="FP16">
					<dim>768</dim>
					<dim>1</dim>
				</port>
			</output>
		</layer>
		<layer id="317" name="self.model.bert.encoder.layer.1.attention.self.query.weight_compressed/zero_point/subtract" type="Subtract" version="opset1">
			<data auto_broadcast="numpy" />
			<input>
				<port id="0" precision="FP16">
					<dim>768</dim>
					<dim>768</dim>
				</port>
				<port id="1" precision="FP16">
					<dim>768</dim>
					<dim>1</dim>
				</port>
			</input>
			<output>
				<port id="2" precision="FP16">
					<dim>768</dim>
					<dim>768</dim>
				</port>
			</output>
		</layer>
		<layer id="318" name="self.model.bert.encoder.layer.1.attention.self.query.weight_compressed/scale" type="Const" version="opset1">
			<data element_type="f16" shape="768, 1" offset="34022970" size="1536" />
			<output>
				<port id="0" precision="FP16">
					<dim>768</dim>
					<dim>1</dim>
				</port>
			</output>
		</layer>
		<layer id="319" name="self.model.bert.encoder.layer.1.attention.self.query.weight_compressed/fq_weights_1" type="Multiply" version="opset1">
			<data auto_broadcast="numpy" />
			<input>
				<port id="0" precision="FP16">
					<dim>768</dim>
					<dim>768</dim>
				</port>
				<port id="1" precision="FP16">
					<dim>768</dim>
					<dim>1</dim>
				</port>
			</input>
			<output>
				<port id="2" precision="FP16">
					<dim>768</dim>
					<dim>768</dim>
				</port>
			</output>
		</layer>
		<layer id="320" name="self.model.bert.encoder.layer.1.attention.self.query.weight" type="Convert" version="opset1">
			<data destination_type="f32" />
			<rt_info>
				<attribute name="decompression" version="0" />
			</rt_info>
			<input>
				<port id="0" precision="FP16">
					<dim>768</dim>
					<dim>768</dim>
				</port>
			</input>
			<output>
				<port id="1" precision="FP32">
					<dim>768</dim>
					<dim>768</dim>
				</port>
			</output>
		</layer>
		<layer id="321" name="__module.model.bert.encoder.layer.1.attention.self.query/aten::linear/MatMul" type="MatMul" version="opset1">
			<data transpose_a="false" transpose_b="true" />
			<input>
				<port id="0" precision="FP32">
					<dim>-1</dim>
					<dim>-1</dim>
					<dim>768</dim>
				</port>
				<port id="1" precision="FP32">
					<dim>768</dim>
					<dim>768</dim>
				</port>
			</input>
			<output>
				<port id="2" precision="FP32">
					<dim>-1</dim>
					<dim>-1</dim>
					<dim>768</dim>
				</port>
			</output>
		</layer>
		<layer id="322" name="Constant_47139_compressed" type="Const" version="opset1">
			<data element_type="f16" shape="1, 1, 768" offset="34024506" size="1536" />
			<output>
				<port id="0" precision="FP16">
					<dim>1</dim>
					<dim>1</dim>
					<dim>768</dim>
				</port>
			</output>
		</layer>
		<layer id="323" name="Constant_47139" type="Convert" version="opset1">
			<data destination_type="f32" />
			<rt_info>
				<attribute name="decompression" version="0" />
			</rt_info>
			<input>
				<port id="0" precision="FP16">
					<dim>1</dim>
					<dim>1</dim>
					<dim>768</dim>
				</port>
			</input>
			<output>
				<port id="1" precision="FP32">
					<dim>1</dim>
					<dim>1</dim>
					<dim>768</dim>
				</port>
			</output>
		</layer>
		<layer id="324" name="__module.model.bert.encoder.layer.1.attention.self.query/aten::linear/Add" type="Add" version="opset1">
			<data auto_broadcast="numpy" />
			<input>
				<port id="0" precision="FP32">
					<dim>-1</dim>
					<dim>-1</dim>
					<dim>768</dim>
				</port>
				<port id="1" precision="FP32">
					<dim>1</dim>
					<dim>1</dim>
					<dim>768</dim>
				</port>
			</input>
			<output>
				<port id="2" precision="FP32" names="361,x.33">
					<dim>-1</dim>
					<dim>-1</dim>
					<dim>768</dim>
				</port>
			</output>
		</layer>
		<layer id="325" name="__module.model.bert.encoder.layer.1.attention.self/prim::ListConstruct" type="Const" version="opset1">
			<data element_type="i64" shape="4" offset="24529620" size="32" />
			<rt_info>
				<attribute name="precise" version="0" />
			</rt_info>
			<output>
				<port id="0" precision="I64">
					<dim>4</dim>
				</port>
			</output>
		</layer>
		<layer id="326" name="__module.model.bert.encoder.layer.1.attention.self/aten::view/Reshape" type="Reshape" version="opset1">
			<data special_zero="true" />
			<input>
				<port id="0" precision="FP32">
					<dim>-1</dim>
					<dim>-1</dim>
					<dim>768</dim>
				</port>
				<port id="1" precision="I64">
					<dim>4</dim>
				</port>
			</input>
			<output>
				<port id="2" precision="FP32" names="387,x.35">
					<dim>-1</dim>
					<dim>-1</dim>
					<dim>12</dim>
					<dim>64</dim>
				</port>
			</output>
		</layer>
		<layer id="327" name="Constant_29909" type="Const" version="opset1">
			<data element_type="i64" shape="4" offset="24529652" size="32" />
			<output>
				<port id="0" precision="I64" names="388">
					<dim>4</dim>
				</port>
			</output>
		</layer>
		<layer id="328" name="__module.model.bert.encoder.layer.1.attention.self/aten::permute/Transpose" type="Transpose" version="opset1">
			<input>
				<port id="0" precision="FP32">
					<dim>-1</dim>
					<dim>-1</dim>
					<dim>12</dim>
					<dim>64</dim>
				</port>
				<port id="1" precision="I64">
					<dim>4</dim>
				</port>
			</input>
			<output>
				<port id="2" precision="FP32" names="389,query_layer.5">
					<dim>-1</dim>
					<dim>12</dim>
					<dim>-1</dim>
					<dim>64</dim>
				</port>
			</output>
		</layer>
		<layer id="329" name="self.model.bert.encoder.layer.1.attention.self.key.weight_compressed" type="Const" version="opset1">
			<data element_type="u8" shape="768, 768" offset="34026042" size="589824" />
			<output>
				<port id="0" precision="U8">
					<dim>768</dim>
					<dim>768</dim>
				</port>
			</output>
		</layer>
		<layer id="330" name="Convert_1164811" type="Convert" version="opset1">
			<data destination_type="f16" />
			<input>
				<port id="0" precision="U8">
					<dim>768</dim>
					<dim>768</dim>
				</port>
			</input>
			<output>
				<port id="1" precision="FP16">
					<dim>768</dim>
					<dim>768</dim>
				</port>
			</output>
		</layer>
		<layer id="331" name="self.model.bert.encoder.layer.1.attention.self.key.weight_compressed/zero_point" type="Const" version="opset1">
			<data element_type="u8" shape="768, 1" offset="34615866" size="768" />
			<output>
				<port id="0" precision="U8">
					<dim>768</dim>
					<dim>1</dim>
				</port>
			</output>
		</layer>
		<layer id="332" name="Convert_1164814" type="Convert" version="opset1">
			<data destination_type="f16" />
			<input>
				<port id="0" precision="U8">
					<dim>768</dim>
					<dim>1</dim>
				</port>
			</input>
			<output>
				<port id="1" precision="FP16">
					<dim>768</dim>
					<dim>1</dim>
				</port>
			</output>
		</layer>
		<layer id="333" name="self.model.bert.encoder.layer.1.attention.self.key.weight_compressed/zero_point/subtract" type="Subtract" version="opset1">
			<data auto_broadcast="numpy" />
			<input>
				<port id="0" precision="FP16">
					<dim>768</dim>
					<dim>768</dim>
				</port>
				<port id="1" precision="FP16">
					<dim>768</dim>
					<dim>1</dim>
				</port>
			</input>
			<output>
				<port id="2" precision="FP16">
					<dim>768</dim>
					<dim>768</dim>
				</port>
			</output>
		</layer>
		<layer id="334" name="self.model.bert.encoder.layer.1.attention.self.key.weight_compressed/scale" type="Const" version="opset1">
			<data element_type="f16" shape="768, 1" offset="34616634" size="1536" />
			<output>
				<port id="0" precision="FP16">
					<dim>768</dim>
					<dim>1</dim>
				</port>
			</output>
		</layer>
		<layer id="335" name="self.model.bert.encoder.layer.1.attention.self.key.weight_compressed/fq_weights_1" type="Multiply" version="opset1">
			<data auto_broadcast="numpy" />
			<input>
				<port id="0" precision="FP16">
					<dim>768</dim>
					<dim>768</dim>
				</port>
				<port id="1" precision="FP16">
					<dim>768</dim>
					<dim>1</dim>
				</port>
			</input>
			<output>
				<port id="2" precision="FP16">
					<dim>768</dim>
					<dim>768</dim>
				</port>
			</output>
		</layer>
		<layer id="336" name="self.model.bert.encoder.layer.1.attention.self.key.weight" type="Convert" version="opset1">
			<data destination_type="f32" />
			<rt_info>
				<attribute name="decompression" version="0" />
			</rt_info>
			<input>
				<port id="0" precision="FP16">
					<dim>768</dim>
					<dim>768</dim>
				</port>
			</input>
			<output>
				<port id="1" precision="FP32">
					<dim>768</dim>
					<dim>768</dim>
				</port>
			</output>
		</layer>
		<layer id="337" name="__module.model.bert.encoder.layer.1.attention.self.key/aten::linear/MatMul" type="MatMul" version="opset1">
			<data transpose_a="false" transpose_b="true" />
			<input>
				<port id="0" precision="FP32">
					<dim>-1</dim>
					<dim>-1</dim>
					<dim>768</dim>
				</port>
				<port id="1" precision="FP32">
					<dim>768</dim>
					<dim>768</dim>
				</port>
			</input>
			<output>
				<port id="2" precision="FP32">
					<dim>-1</dim>
					<dim>-1</dim>
					<dim>768</dim>
				</port>
			</output>
		</layer>
		<layer id="338" name="Constant_47140_compressed" type="Const" version="opset1">
			<data element_type="f16" shape="1, 1, 768" offset="34618170" size="1536" />
			<output>
				<port id="0" precision="FP16">
					<dim>1</dim>
					<dim>1</dim>
					<dim>768</dim>
				</port>
			</output>
		</layer>
		<layer id="339" name="Constant_47140" type="Convert" version="opset1">
			<data destination_type="f32" />
			<rt_info>
				<attribute name="decompression" version="0" />
			</rt_info>
			<input>
				<port id="0" precision="FP16">
					<dim>1</dim>
					<dim>1</dim>
					<dim>768</dim>
				</port>
			</input>
			<output>
				<port id="1" precision="FP32">
					<dim>1</dim>
					<dim>1</dim>
					<dim>768</dim>
				</port>
			</output>
		</layer>
		<layer id="340" name="__module.model.bert.encoder.layer.1.attention.self.key/aten::linear/Add" type="Add" version="opset1">
			<data auto_broadcast="numpy" />
			<input>
				<port id="0" precision="FP32">
					<dim>-1</dim>
					<dim>-1</dim>
					<dim>768</dim>
				</port>
				<port id="1" precision="FP32">
					<dim>1</dim>
					<dim>1</dim>
					<dim>768</dim>
				</port>
			</input>
			<output>
				<port id="2" precision="FP32" names="364,x.25">
					<dim>-1</dim>
					<dim>-1</dim>
					<dim>768</dim>
				</port>
			</output>
		</layer>
		<layer id="341" name="__module.model.bert.encoder.layer.1.attention.self/prim::ListConstruct_1" type="Const" version="opset1">
			<data element_type="i64" shape="4" offset="24529620" size="32" />
			<rt_info>
				<attribute name="precise" version="0" />
			</rt_info>
			<output>
				<port id="0" precision="I64">
					<dim>4</dim>
				</port>
			</output>
		</layer>
		<layer id="342" name="__module.model.bert.encoder.layer.1.attention.self/aten::view/Reshape_1" type="Reshape" version="opset1">
			<data special_zero="true" />
			<input>
				<port id="0" precision="FP32">
					<dim>-1</dim>
					<dim>-1</dim>
					<dim>768</dim>
				</port>
				<port id="1" precision="I64">
					<dim>4</dim>
				</port>
			</input>
			<output>
				<port id="2" precision="FP32" names="368,x.27">
					<dim>-1</dim>
					<dim>-1</dim>
					<dim>12</dim>
					<dim>64</dim>
				</port>
			</output>
		</layer>
		<layer id="343" name="Constant_29839" type="Const" version="opset1">
			<data element_type="i64" shape="4" offset="24529652" size="32" />
			<output>
				<port id="0" precision="I64" names="369">
					<dim>4</dim>
				</port>
			</output>
		</layer>
		<layer id="344" name="__module.model.bert.encoder.layer.1.attention.self/aten::permute/Transpose_1" type="Transpose" version="opset1">
			<input>
				<port id="0" precision="FP32">
					<dim>-1</dim>
					<dim>-1</dim>
					<dim>12</dim>
					<dim>64</dim>
				</port>
				<port id="1" precision="I64">
					<dim>4</dim>
				</port>
			</input>
			<output>
				<port id="2" precision="FP32" names="370,key_layer.7">
					<dim>-1</dim>
					<dim>12</dim>
					<dim>-1</dim>
					<dim>64</dim>
				</port>
			</output>
		</layer>
		<layer id="345" name="__module.model.bert.encoder.layer.1.attention.self/aten::cat/Concat" type="Concat" version="opset1">
			<data axis="2" />
			<input>
				<port id="0" precision="FP32">
					<dim>-1</dim>
					<dim>12</dim>
					<dim>-1</dim>
					<dim>64</dim>
				</port>
				<port id="1" precision="FP32">
					<dim>-1</dim>
					<dim>12</dim>
					<dim>-1</dim>
					<dim>64</dim>
				</port>
			</input>
			<output>
				<port id="2" precision="FP32" names="key_layer.9">
					<dim>-1</dim>
					<dim>12</dim>
					<dim>-1</dim>
					<dim>64</dim>
				</port>
			</output>
		</layer>
		<layer id="346" name="__module.model.bert.encoder.layer.1.attention.self/aten::matmul/MatMul" type="MatMul" version="opset1">
			<data transpose_a="false" transpose_b="true" />
			<input>
				<port id="0" precision="FP32">
					<dim>-1</dim>
					<dim>12</dim>
					<dim>-1</dim>
					<dim>64</dim>
				</port>
				<port id="1" precision="FP32">
					<dim>-1</dim>
					<dim>12</dim>
					<dim>-1</dim>
					<dim>64</dim>
				</port>
			</input>
			<output>
				<port id="2" precision="FP32" names="391,attention_scores.9">
					<dim>-1</dim>
					<dim>12</dim>
					<dim>-1</dim>
					<dim>-1</dim>
				</port>
			</output>
		</layer>
		<layer id="347" name="Constant_47141_compressed" type="Const" version="opset1">
			<data element_type="f16" shape="1, 1, 1, 1" offset="25123348" size="2" />
			<output>
				<port id="0" precision="FP16">
					<dim>1</dim>
					<dim>1</dim>
					<dim>1</dim>
					<dim>1</dim>
				</port>
			</output>
		</layer>
		<layer id="348" name="Constant_47141" type="Convert" version="opset1">
			<data destination_type="f32" />
			<rt_info>
				<attribute name="decompression" version="0" />
			</rt_info>
			<input>
				<port id="0" precision="FP16">
					<dim>1</dim>
					<dim>1</dim>
					<dim>1</dim>
					<dim>1</dim>
				</port>
			</input>
			<output>
				<port id="1" precision="FP32">
					<dim>1</dim>
					<dim>1</dim>
					<dim>1</dim>
					<dim>1</dim>
				</port>
			</output>
		</layer>
		<layer id="349" name="__module.model.bert.encoder.layer.1.attention.self/aten::div/Divide" type="Divide" version="opset1">
			<data auto_broadcast="numpy" m_pythondiv="true" />
			<input>
				<port id="0" precision="FP32">
					<dim>-1</dim>
					<dim>12</dim>
					<dim>-1</dim>
					<dim>-1</dim>
				</port>
				<port id="1" precision="FP32">
					<dim>1</dim>
					<dim>1</dim>
					<dim>1</dim>
					<dim>1</dim>
				</port>
			</input>
			<output>
				<port id="2" precision="FP32" names="392,attention_scores.11">
					<dim>-1</dim>
					<dim>12</dim>
					<dim>-1</dim>
					<dim>-1</dim>
				</port>
			</output>
		</layer>
		<layer id="350" name="__module.model.bert.encoder.layer.1.attention.self/aten::add/Add" type="Add" version="opset1">
			<data auto_broadcast="numpy" />
			<input>
				<port id="0" precision="FP32">
					<dim>-1</dim>
					<dim>12</dim>
					<dim>-1</dim>
					<dim>-1</dim>
				</port>
				<port id="1" precision="FP32">
					<dim>-1</dim>
					<dim>1</dim>
					<dim>-1</dim>
					<dim>-1</dim>
				</port>
			</input>
			<output>
				<port id="2" precision="FP32" names="394,input.43">
					<dim>-1</dim>
					<dim>12</dim>
					<dim>-1</dim>
					<dim>-1</dim>
				</port>
			</output>
		</layer>
		<layer id="351" name="__module.model.bert.encoder.layer.1.attention.self/aten::softmax/Softmax" type="SoftMax" version="opset8">
			<data axis="-1" />
			<input>
				<port id="0" precision="FP32">
					<dim>-1</dim>
					<dim>12</dim>
					<dim>-1</dim>
					<dim>-1</dim>
				</port>
			</input>
			<output>
				<port id="1" precision="FP32" names="395,input.45">
					<dim>-1</dim>
					<dim>12</dim>
					<dim>-1</dim>
					<dim>-1</dim>
				</port>
			</output>
		</layer>
		<layer id="352" name="self.model.bert.encoder.layer.1.attention.self.value.weight_compressed" type="Const" version="opset1">
			<data element_type="u8" shape="768, 768" offset="34619706" size="589824" />
			<output>
				<port id="0" precision="U8">
					<dim>768</dim>
					<dim>768</dim>
				</port>
			</output>
		</layer>
		<layer id="353" name="Convert_1160569" type="Convert" version="opset1">
			<data destination_type="f16" />
			<input>
				<port id="0" precision="U8">
					<dim>768</dim>
					<dim>768</dim>
				</port>
			</input>
			<output>
				<port id="1" precision="FP16">
					<dim>768</dim>
					<dim>768</dim>
				</port>
			</output>
		</layer>
		<layer id="354" name="self.model.bert.encoder.layer.1.attention.self.value.weight_compressed/zero_point" type="Const" version="opset1">
			<data element_type="u8" shape="768, 1" offset="35209530" size="768" />
			<output>
				<port id="0" precision="U8">
					<dim>768</dim>
					<dim>1</dim>
				</port>
			</output>
		</layer>
		<layer id="355" name="Convert_1160572" type="Convert" version="opset1">
			<data destination_type="f16" />
			<input>
				<port id="0" precision="U8">
					<dim>768</dim>
					<dim>1</dim>
				</port>
			</input>
			<output>
				<port id="1" precision="FP16">
					<dim>768</dim>
					<dim>1</dim>
				</port>
			</output>
		</layer>
		<layer id="356" name="self.model.bert.encoder.layer.1.attention.self.value.weight_compressed/zero_point/subtract" type="Subtract" version="opset1">
			<data auto_broadcast="numpy" />
			<input>
				<port id="0" precision="FP16">
					<dim>768</dim>
					<dim>768</dim>
				</port>
				<port id="1" precision="FP16">
					<dim>768</dim>
					<dim>1</dim>
				</port>
			</input>
			<output>
				<port id="2" precision="FP16">
					<dim>768</dim>
					<dim>768</dim>
				</port>
			</output>
		</layer>
		<layer id="357" name="self.model.bert.encoder.layer.1.attention.self.value.weight_compressed/scale" type="Const" version="opset1">
			<data element_type="f16" shape="768, 1" offset="35210298" size="1536" />
			<output>
				<port id="0" precision="FP16">
					<dim>768</dim>
					<dim>1</dim>
				</port>
			</output>
		</layer>
		<layer id="358" name="self.model.bert.encoder.layer.1.attention.self.value.weight_compressed/fq_weights_1" type="Multiply" version="opset1">
			<data auto_broadcast="numpy" />
			<input>
				<port id="0" precision="FP16">
					<dim>768</dim>
					<dim>768</dim>
				</port>
				<port id="1" precision="FP16">
					<dim>768</dim>
					<dim>1</dim>
				</port>
			</input>
			<output>
				<port id="2" precision="FP16">
					<dim>768</dim>
					<dim>768</dim>
				</port>
			</output>
		</layer>
		<layer id="359" name="self.model.bert.encoder.layer.1.attention.self.value.weight" type="Convert" version="opset1">
			<data destination_type="f32" />
			<rt_info>
				<attribute name="decompression" version="0" />
			</rt_info>
			<input>
				<port id="0" precision="FP16">
					<dim>768</dim>
					<dim>768</dim>
				</port>
			</input>
			<output>
				<port id="1" precision="FP32">
					<dim>768</dim>
					<dim>768</dim>
				</port>
			</output>
		</layer>
		<layer id="360" name="__module.model.bert.encoder.layer.1.attention.self.value/aten::linear/MatMul" type="MatMul" version="opset1">
			<data transpose_a="false" transpose_b="true" />
			<input>
				<port id="0" precision="FP32">
					<dim>-1</dim>
					<dim>-1</dim>
					<dim>768</dim>
				</port>
				<port id="1" precision="FP32">
					<dim>768</dim>
					<dim>768</dim>
				</port>
			</input>
			<output>
				<port id="2" precision="FP32">
					<dim>-1</dim>
					<dim>-1</dim>
					<dim>768</dim>
				</port>
			</output>
		</layer>
		<layer id="361" name="Constant_47142_compressed" type="Const" version="opset1">
			<data element_type="f16" shape="1, 1, 768" offset="35211834" size="1536" />
			<output>
				<port id="0" precision="FP16">
					<dim>1</dim>
					<dim>1</dim>
					<dim>768</dim>
				</port>
			</output>
		</layer>
		<layer id="362" name="Constant_47142" type="Convert" version="opset1">
			<data destination_type="f32" />
			<rt_info>
				<attribute name="decompression" version="0" />
			</rt_info>
			<input>
				<port id="0" precision="FP16">
					<dim>1</dim>
					<dim>1</dim>
					<dim>768</dim>
				</port>
			</input>
			<output>
				<port id="1" precision="FP32">
					<dim>1</dim>
					<dim>1</dim>
					<dim>768</dim>
…
		<edge from-layer="1838" from-port="2" to-layer="1840" to-port="0" />
		<edge from-layer="1839" from-port="0" to-layer="1840" to-port="1" />
		<edge from-layer="1840" from-port="2" to-layer="1843" to-port="0" />
		<edge from-layer="1841" from-port="0" to-layer="1842" to-port="0" />
		<edge from-layer="1842" from-port="1" to-layer="1843" to-port="1" />
		<edge from-layer="1843" from-port="2" to-layer="1846" to-port="0" />
		<edge from-layer="1844" from-port="0" to-layer="1845" to-port="0" />
		<edge from-layer="1845" from-port="1" to-layer="1846" to-port="1" />
		<edge from-layer="1846" from-port="2" to-layer="1855" to-port="0" />
		<edge from-layer="1846" from-port="2" to-layer="1872" to-port="1" />
		<edge from-layer="1847" from-port="0" to-layer="1848" to-port="0" />
		<edge from-layer="1848" from-port="1" to-layer="1851" to-port="0" />
		<edge from-layer="1849" from-port="0" to-layer="1850" to-port="0" />
		<edge from-layer="1850" from-port="1" to-layer="1851" to-port="1" />
		<edge from-layer="1851" from-port="2" to-layer="1853" to-port="0" />
		<edge from-layer="1852" from-port="0" to-layer="1853" to-port="1" />
		<edge from-layer="1853" from-port="2" to-layer="1854" to-port="0" />
		<edge from-layer="1854" from-port="1" to-layer="1855" to-port="1" />
		<edge from-layer="1855" from-port="2" to-layer="1858" to-port="0" />
		<edge from-layer="1856" from-port="0" to-layer="1857" to-port="0" />
		<edge from-layer="1857" from-port="1" to-layer="1858" to-port="1" />
		<edge from-layer="1858" from-port="2" to-layer="1859" to-port="0" />
		<edge from-layer="1859" from-port="1" to-layer="1868" to-port="0" />
		<edge from-layer="1860" from-port="0" to-layer="1861" to-port="0" />
		<edge from-layer="1861" from-port="1" to-layer="1864" to-port="0" />
		<edge from-layer="1862" from-port="0" to-layer="1863" to-port="0" />
		<edge from-layer="1863" from-port="1" to-layer="1864" to-port="1" />
		<edge from-layer="1864" from-port="2" to-layer="1866" to-port="0" />
		<edge from-layer="1865" from-port="0" to-layer="1866" to-port="1" />
		<edge from-layer="1866" from-port="2" to-layer="1867" to-port="0" />
		<edge from-layer="1867" from-port="1" to-layer="1868" to-port="1" />
		<edge from-layer="1868" from-port="2" to-layer="1871" to-port="0" />
		<edge from-layer="1869" from-port="0" to-layer="1870" to-port="0" />
		<edge from-layer="1870" from-port="1" to-layer="1871" to-port="1" />
		<edge from-layer="1871" from-port="2" to-layer="1872" to-port="0" />
		<edge from-layer="1872" from-port="2" to-layer="1874" to-port="0" />
		<edge from-layer="1873" from-port="0" to-layer="1874" to-port="1" />
		<edge from-layer="1874" from-port="2" to-layer="1877" to-port="0" />
		<edge from-layer="1875" from-port="0" to-layer="1876" to-port="0" />
		<edge from-layer="1876" from-port="1" to-layer="1877" to-port="1" />
		<edge from-layer="1877" from-port="2" to-layer="1880" to-port="0" />
		<edge from-layer="1878" from-port="0" to-layer="1879" to-port="0" />
		<edge from-layer="1879" from-port="1" to-layer="1880" to-port="1" />
		<edge from-layer="1880" from-port="2" to-layer="1905" to-port="0" />
		<edge from-layer="1880" from-port="2" to-layer="1954" to-port="1" />
		<edge from-layer="1880" from-port="2" to-layer="1928" to-port="0" />
		<edge from-layer="1880" from-port="2" to-layer="1889" to-port="0" />
		<edge from-layer="1881" from-port="0" to-layer="1882" to-port="0" />
		<edge from-layer="1882" from-port="1" to-layer="1885" to-port="0" />
		<edge from-layer="1883" from-port="0" to-layer="1884" to-port="0" />
		<edge from-layer="1884" from-port="1" to-layer="1885" to-port="1" />
		<edge from-layer="1885" from-port="2" to-layer="1887" to-port="0" />
		<edge from-layer="1886" from-port="0" to-layer="1887" to-port="1" />
		<edge from-layer="1887" from-port="2" to-layer="1888" to-port="0" />
		<edge from-layer="1888" from-port="1" to-layer="1889" to-port="1" />
		<edge from-layer="1889" from-port="2" to-layer="1892" to-port="0" />
		<edge from-layer="1890" from-port="0" to-layer="1891" to-port="0" />
		<edge from-layer="1891" from-port="1" to-layer="1892" to-port="1" />
		<edge from-layer="1892" from-port="2" to-layer="1894" to-port="0" />
		<edge from-layer="1893" from-port="0" to-layer="1894" to-port="1" />
		<edge from-layer="1894" from-port="2" to-layer="1896" to-port="0" />
		<edge from-layer="1895" from-port="0" to-layer="1896" to-port="1" />
		<edge from-layer="1896" from-port="2" to-layer="1914" to-port="0" />
		<edge from-layer="1897" from-port="0" to-layer="1898" to-port="0" />
		<edge from-layer="1898" from-port="1" to-layer="1901" to-port="0" />
		<edge from-layer="1899" from-port="0" to-layer="1900" to-port="0" />
		<edge from-layer="1900" from-port="1" to-layer="1901" to-port="1" />
		<edge from-layer="1901" from-port="2" to-layer="1903" to-port="0" />
		<edge from-layer="1902" from-port="0" to-layer="1903" to-port="1" />
		<edge from-layer="1903" from-port="2" to-layer="1904" to-port="0" />
		<edge from-layer="1904" from-port="1" to-layer="1905" to-port="1" />
		<edge from-layer="1905" from-port="2" to-layer="1908" to-port="0" />
		<edge from-layer="1906" from-port="0" to-layer="1907" to-port="0" />
		<edge from-layer="1907" from-port="1" to-layer="1908" to-port="1" />
		<edge from-layer="1908" from-port="2" to-layer="1910" to-port="0" />
		<edge from-layer="1909" from-port="0" to-layer="1910" to-port="1" />
		<edge from-layer="1910" from-port="2" to-layer="1912" to-port="0" />
		<edge from-layer="1911" from-port="0" to-layer="1912" to-port="1" />
		<edge from-layer="1912" from-port="2" to-layer="1913" to-port="1" />
		<edge from-layer="1913" from-port="2" to-layer="1914" to-port="1" />
		<edge from-layer="1913" from-port="2" to-layer="2312" to-port="0" />
		<edge from-layer="1914" from-port="2" to-layer="1917" to-port="0" />
		<edge from-layer="1915" from-port="0" to-layer="1916" to-port="0" />
		<edge from-layer="1916" from-port="1" to-layer="1917" to-port="1" />
		<edge from-layer="1917" from-port="2" to-layer="1918" to-port="0" />
		<edge from-layer="1918" from-port="2" to-layer="1919" to-port="0" />
		<edge from-layer="1919" from-port="1" to-layer="1937" to-port="0" />
		<edge from-layer="1920" from-port="0" to-layer="1921" to-port="0" />
		<edge from-layer="1921" from-port="1" to-layer="1924" to-port="0" />
		<edge from-layer="1922" from-port="0" to-layer="1923" to-port="0" />
		<edge from-layer="1923" from-port="1" to-layer="1924" to-port="1" />
		<edge from-layer="1924" from-port="2" to-layer="1926" to-port="0" />
		<edge from-layer="1925" from-port="0" to-layer="1926" to-port="1" />
		<edge from-layer="1926" from-port="2" to-layer="1927" to-port="0" />
		<edge from-layer="1927" from-port="1" to-layer="1928" to-port="1" />
		<edge from-layer="1928" from-port="2" to-layer="1931" to-port="0" />
		<edge from-layer="1929" from-port="0" to-layer="1930" to-port="0" />
		<edge from-layer="1930" from-port="1" to-layer="1931" to-port="1" />
		<edge from-layer="1931" from-port="2" to-layer="1933" to-port="0" />
		<edge from-layer="1932" from-port="0" to-layer="1933" to-port="1" />
		<edge from-layer="1933" from-port="2" to-layer="1935" to-port="0" />
		<edge from-layer="1934" from-port="0" to-layer="1935" to-port="1" />
		<edge from-layer="1935" from-port="2" to-layer="1936" to-port="1" />
		<edge from-layer="1936" from-port="2" to-layer="1937" to-port="1" />
		<edge from-layer="1936" from-port="2" to-layer="2311" to-port="0" />
		<edge from-layer="1937" from-port="2" to-layer="1939" to-port="0" />
		<edge from-layer="1938" from-port="0" to-layer="1939" to-port="1" />
		<edge from-layer="1939" from-port="2" to-layer="1941" to-port="0" />
		<edge from-layer="1940" from-port="0" to-layer="1941" to-port="1" />
		<edge from-layer="1941" from-port="2" to-layer="1950" to-port="0" />
		<edge from-layer="1942" from-port="0" to-layer="1943" to-port="0" />
		<edge from-layer="1943" from-port="1" to-layer="1946" to-port="0" />
		<edge from-layer="1944" from-port="0" to-layer="1945" to-port="0" />
		<edge from-layer="1945" from-port="1" to-layer="1946" to-port="1" />
		<edge from-layer="1946" from-port="2" to-layer="1948" to-port="0" />
		<edge from-layer="1947" from-port="0" to-layer="1948" to-port="1" />
		<edge from-layer="1948" from-port="2" to-layer="1949" to-port="0" />
		<edge from-layer="1949" from-port="1" to-layer="1950" to-port="1" />
		<edge from-layer="1950" from-port="2" to-layer="1953" to-port="0" />
		<edge from-layer="1951" from-port="0" to-layer="1952" to-port="0" />
		<edge from-layer="1952" from-port="1" to-layer="1953" to-port="1" />
		<edge from-layer="1953" from-port="2" to-layer="1954" to-port="0" />
		<edge from-layer="1954" from-port="2" to-layer="1956" to-port="0" />
		<edge from-layer="1955" from-port="0" to-layer="1956" to-port="1" />
		<edge from-layer="1956" from-port="2" to-layer="1959" to-port="0" />
		<edge from-layer="1957" from-port="0" to-layer="1958" to-port="0" />
		<edge from-layer="1958" from-port="1" to-layer="1959" to-port="1" />
		<edge from-layer="1959" from-port="2" to-layer="1962" to-port="0" />
		<edge from-layer="1960" from-port="0" to-layer="1961" to-port="0" />
		<edge from-layer="1961" from-port="1" to-layer="1962" to-port="1" />
		<edge from-layer="1962" from-port="2" to-layer="2034" to-port="1" />
		<edge from-layer="1962" from-port="2" to-layer="1971" to-port="0" />
		<edge from-layer="1963" from-port="0" to-layer="1964" to-port="0" />
		<edge from-layer="1964" from-port="1" to-layer="1967" to-port="0" />
		<edge from-layer="1965" from-port="0" to-layer="1966" to-port="0" />
		<edge from-layer="1966" from-port="1" to-layer="1967" to-port="1" />
		<edge from-layer="1967" from-port="2" to-layer="1969" to-port="0" />
		<edge from-layer="1968" from-port="0" to-layer="1969" to-port="1" />
		<edge from-layer="1969" from-port="2" to-layer="1970" to-port="0" />
		<edge from-layer="1970" from-port="1" to-layer="1971" to-port="1" />
		<edge from-layer="1971" from-port="2" to-layer="1974" to-port="0" />
		<edge from-layer="1972" from-port="0" to-layer="1973" to-port="0" />
		<edge from-layer="1973" from-port="1" to-layer="1974" to-port="1" />
		<edge from-layer="1974" from-port="2" to-layer="1976" to-port="0" />
		<edge from-layer="1975" from-port="0" to-layer="1976" to-port="1" />
		<edge from-layer="1976" from-port="2" to-layer="1978" to-port="0" />
		<edge from-layer="1977" from-port="0" to-layer="1978" to-port="1" />
		<edge from-layer="1978" from-port="2" to-layer="1995" to-port="0" />
		<edge from-layer="1979" from-port="0" to-layer="1980" to-port="0" />
		<edge from-layer="1980" from-port="1" to-layer="1983" to-port="0" />
		<edge from-layer="1981" from-port="0" to-layer="1982" to-port="0" />
		<edge from-layer="1982" from-port="1" to-layer="1983" to-port="1" />
		<edge from-layer="1983" from-port="2" to-layer="1985" to-port="0" />
		<edge from-layer="1984" from-port="0" to-layer="1985" to-port="1" />
		<edge from-layer="1985" from-port="2" to-layer="1986" to-port="0" />
		<edge from-layer="1986" from-port="1" to-layer="1987" to-port="1" />
		<edge from-layer="1987" from-port="2" to-layer="1990" to-port="0" />
		<edge from-layer="1988" from-port="0" to-layer="1989" to-port="0" />
		<edge from-layer="1989" from-port="1" to-layer="1990" to-port="1" />
		<edge from-layer="1990" from-port="2" to-layer="1992" to-port="0" />
		<edge from-layer="1991" from-port="0" to-layer="1992" to-port="1" />
		<edge from-layer="1992" from-port="2" to-layer="1994" to-port="0" />
		<edge from-layer="1993" from-port="0" to-layer="1994" to-port="1" />
		<edge from-layer="1994" from-port="2" to-layer="1995" to-port="1" />
		<edge from-layer="1995" from-port="2" to-layer="1998" to-port="0" />
		<edge from-layer="1996" from-port="0" to-layer="1997" to-port="0" />
		<edge from-layer="1997" from-port="1" to-layer="1998" to-port="1" />
		<edge from-layer="1998" from-port="2" to-layer="1999" to-port="0" />
		<edge from-layer="1999" from-port="2" to-layer="2000" to-port="0" />
		<edge from-layer="2000" from-port="1" to-layer="2017" to-port="0" />
		<edge from-layer="2001" from-port="0" to-layer="2002" to-port="0" />
		<edge from-layer="2002" from-port="1" to-layer="2005" to-port="0" />
		<edge from-layer="2003" from-port="0" to-layer="2004" to-port="0" />
		<edge from-layer="2004" from-port="1" to-layer="2005" to-port="1" />
		<edge from-layer="2005" from-port="2" to-layer="2007" to-port="0" />
		<edge from-layer="2006" from-port="0" to-layer="2007" to-port="1" />
		<edge from-layer="2007" from-port="2" to-layer="2008" to-port="0" />
		<edge from-layer="2008" from-port="1" to-layer="2009" to-port="1" />
		<edge from-layer="2009" from-port="2" to-layer="2012" to-port="0" />
		<edge from-layer="2010" from-port="0" to-layer="2011" to-port="0" />
		<edge from-layer="2011" from-port="1" to-layer="2012" to-port="1" />
		<edge from-layer="2012" from-port="2" to-layer="2014" to-port="0" />
		<edge from-layer="2013" from-port="0" to-layer="2014" to-port="1" />
		<edge from-layer="2014" from-port="2" to-layer="2016" to-port="0" />
		<edge from-layer="2015" from-port="0" to-layer="2016" to-port="1" />
		<edge from-layer="2016" from-port="2" to-layer="2017" to-port="1" />
		<edge from-layer="2017" from-port="2" to-layer="2019" to-port="0" />
		<edge from-layer="2018" from-port="0" to-layer="2019" to-port="1" />
		<edge from-layer="2019" from-port="2" to-layer="2021" to-port="0" />
		<edge from-layer="2020" from-port="0" to-layer="2021" to-port="1" />
		<edge from-layer="2021" from-port="2" to-layer="2030" to-port="0" />
		<edge from-layer="2022" from-port="0" to-layer="2023" to-port="0" />
		<edge from-layer="2023" from-port="1" to-layer="2026" to-port="0" />
		<edge from-layer="2024" from-port="0" to-layer="2025" to-port="0" />
		<edge from-layer="2025" from-port="1" to-layer="2026" to-port="1" />
		<edge from-layer="2026" from-port="2" to-layer="2028" to-port="0" />
		<edge from-layer="2027" from-port="0" to-layer="2028" to-port="1" />
		<edge from-layer="2028" from-port="2" to-layer="2029" to-port="0" />
		<edge from-layer="2029" from-port="1" to-layer="2030" to-port="1" />
		<edge from-layer="2030" from-port="2" to-layer="2033" to-port="0" />
		<edge from-layer="2031" from-port="0" to-layer="2032" to-port="0" />
		<edge from-layer="2032" from-port="1" to-layer="2033" to-port="1" />
		<edge from-layer="2033" from-port="2" to-layer="2034" to-port="0" />
		<edge from-layer="2034" from-port="2" to-layer="2036" to-port="0" />
		<edge from-layer="2035" from-port="0" to-layer="2036" to-port="1" />
		<edge from-layer="2036" from-port="2" to-layer="2039" to-port="0" />
		<edge from-layer="2037" from-port="0" to-layer="2038" to-port="0" />
		<edge from-layer="2038" from-port="1" to-layer="2039" to-port="1" />
		<edge from-layer="2039" from-port="2" to-layer="2042" to-port="0" />
		<edge from-layer="2040" from-port="0" to-layer="2041" to-port="0" />
		<edge from-layer="2041" from-port="1" to-layer="2042" to-port="1" />
		<edge from-layer="2042" from-port="2" to-layer="2051" to-port="0" />
		<edge from-layer="2042" from-port="2" to-layer="2068" to-port="1" />
		<edge from-layer="2043" from-port="0" to-layer="2044" to-port="0" />
		<edge from-layer="2044" from-port="1" to-layer="2047" to-port="0" />
		<edge from-layer="2045" from-port="0" to-layer="2046" to-port="0" />
		<edge from-layer="2046" from-port="1" to-layer="2047" to-port="1" />
		<edge from-layer="2047" from-port="2" to-layer="2049" to-port="0" />
		<edge from-layer="2048" from-port="0" to-layer="2049" to-port="1" />
		<edge from-layer="2049" from-port="2" to-layer="2050" to-port="0" />
		<edge from-layer="2050" from-port="1" to-layer="2051" to-port="1" />
		<edge from-layer="2051" from-port="2" to-layer="2054" to-port="0" />
		<edge from-layer="2052" from-port="0" to-layer="2053" to-port="0" />
		<edge from-layer="2053" from-port="1" to-layer="2054" to-port="1" />
		<edge from-layer="2054" from-port="2" to-layer="2055" to-port="0" />
		<edge from-layer="2055" from-port="1" to-layer="2064" to-port="0" />
		<edge from-layer="2056" from-port="0" to-layer="2057" to-port="0" />
		<edge from-layer="2057" from-port="1" to-layer="2060" to-port="0" />
		<edge from-layer="2058" from-port="0" to-layer="2059" to-port="0" />
		<edge from-layer="2059" from-port="1" to-layer="2060" to-port="1" />
		<edge from-layer="2060" from-port="2" to-layer="2062" to-port="0" />
		<edge from-layer="2061" from-port="0" to-layer="2062" to-port="1" />
		<edge from-layer="2062" from-port="2" to-layer="2063" to-port="0" />
		<edge from-layer="2063" from-port="1" to-layer="2064" to-port="1" />
		<edge from-layer="2064" from-port="2" to-layer="2067" to-port="0" />
		<edge from-layer="2065" from-port="0" to-layer="2066" to-port="0" />
		<edge from-layer="2066" from-port="1" to-layer="2067" to-port="1" />
		<edge from-layer="2067" from-port="2" to-layer="2068" to-port="0" />
		<edge from-layer="2068" from-port="2" to-layer="2070" to-port="0" />
		<edge from-layer="2069" from-port="0" to-layer="2070" to-port="1" />
		<edge from-layer="2070" from-port="2" to-layer="2073" to-port="0" />
		<edge from-layer="2071" from-port="0" to-layer="2072" to-port="0" />
		<edge from-layer="2072" from-port="1" to-layer="2073" to-port="1" />
		<edge from-layer="2073" from-port="2" to-layer="2076" to-port="0" />
		<edge from-layer="2074" from-port="0" to-layer="2075" to-port="0" />
		<edge from-layer="2075" from-port="1" to-layer="2076" to-port="1" />
		<edge from-layer="2076" from-port="2" to-layer="2101" to-port="0" />
		<edge from-layer="2076" from-port="2" to-layer="2150" to-port="1" />
		<edge from-layer="2076" from-port="2" to-layer="2124" to-port="0" />
		<edge from-layer="2076" from-port="2" to-layer="2085" to-port="0" />
		<edge from-layer="2077" from-port="0" to-layer="2078" to-port="0" />
		<edge from-layer="2078" from-port="1" to-layer="2081" to-port="0" />
		<edge from-layer="2079" from-port="0" to-layer="2080" to-port="0" />
		<edge from-layer="2080" from-port="1" to-layer="2081" to-port="1" />
		<edge from-layer="2081" from-port="2" to-layer="2083" to-port="0" />
		<edge from-layer="2082" from-port="0" to-layer="2083" to-port="1" />
		<edge from-layer="2083" from-port="2" to-layer="2084" to-port="0" />
		<edge from-layer="2084" from-port="1" to-layer="2085" to-port="1" />
		<edge from-layer="2085" from-port="2" to-layer="2088" to-port="0" />
		<edge from-layer="2086" from-port="0" to-layer="2087" to-port="0" />
		<edge from-layer="2087" from-port="1" to-layer="2088" to-port="1" />
		<edge from-layer="2088" from-port="2" to-layer="2090" to-port="0" />
		<edge from-layer="2089" from-port="0" to-layer="2090" to-port="1" />
		<edge from-layer="2090" from-port="2" to-layer="2092" to-port="0" />
		<edge from-layer="2091" from-port="0" to-layer="2092" to-port="1" />
		<edge from-layer="2092" from-port="2" to-layer="2110" to-port="0" />
		<edge from-layer="2093" from-port="0" to-layer="2094" to-port="0" />
		<edge from-layer="2094" from-port="1" to-layer="2097" to-port="0" />
		<edge from-layer="2095" from-port="0" to-layer="2096" to-port="0" />
		<edge from-layer="2096" from-port="1" to-layer="2097" to-port="1" />
		<edge from-layer="2097" from-port="2" to-layer="2099" to-port="0" />
		<edge from-layer="2098" from-port="0" to-layer="2099" to-port="1" />
		<edge from-layer="2099" from-port="2" to-layer="2100" to-port="0" />
		<edge from-layer="2100" from-port="1" to-layer="2101" to-port="1" />
		<edge from-layer="2101" from-port="2" to-layer="2104" to-port="0" />
		<edge from-layer="2102" from-port="0" to-layer="2103" to-port="0" />
		<edge from-layer="2103" from-port="1" to-layer="2104" to-port="1" />
		<edge from-layer="2104" from-port="2" to-layer="2106" to-port="0" />
		<edge from-layer="2105" from-port="0" to-layer="2106" to-port="1" />
		<edge from-layer="2106" from-port="2" to-layer="2108" to-port="0" />
		<edge from-layer="2107" from-port="0" to-layer="2108" to-port="1" />
		<edge from-layer="2108" from-port="2" to-layer="2109" to-port="1" />
		<edge from-layer="2109" from-port="2" to-layer="2310" to-port="0" />
		<edge from-layer="2109" from-port="2" to-layer="2110" to-port="1" />
		<edge from-layer="2110" from-port="2" to-layer="2113" to-port="0" />
		<edge from-layer="2111" from-port="0" to-layer="2112" to-port="0" />
		<edge from-layer="2112" from-port="1" to-layer="2113" to-port="1" />
		<edge from-layer="2113" from-port="2" to-layer="2114" to-port="0" />
		<edge from-layer="2114" from-port="2" to-layer="2115" to-port="0" />
		<edge from-layer="2115" from-port="1" to-layer="2133" to-port="0" />
		<edge from-layer="2116" from-port="0" to-layer="2117" to-port="0" />
		<edge from-layer="2117" from-port="1" to-layer="2120" to-port="0" />
		<edge from-layer="2118" from-port="0" to-layer="2119" to-port="0" />
		<edge from-layer="2119" from-port="1" to-layer="2120" to-port="1" />
		<edge from-layer="2120" from-port="2" to-layer="2122" to-port="0" />
		<edge from-layer="2121" from-port="0" to-layer="2122" to-port="1" />
		<edge from-layer="2122" from-port="2" to-layer="2123" to-port="0" />
		<edge from-layer="2123" from-port="1" to-layer="2124" to-port="1" />
		<edge from-layer="2124" from-port="2" to-layer="2127" to-port="0" />
		<edge from-layer="2125" from-port="0" to-layer="2126" to-port="0" />
		<edge from-layer="2126" from-port="1" to-layer="2127" to-port="1" />
		<edge from-layer="2127" from-port="2" to-layer="2129" to-port="0" />
		<edge from-layer="2128" from-port="0" to-layer="2129" to-port="1" />
		<edge from-layer="2129" from-port="2" to-layer="2131" to-port="0" />
		<edge from-layer="2130" from-port="0" to-layer="2131" to-port="1" />
		<edge from-layer="2131" from-port="2" to-layer="2132" to-port="1" />
		<edge from-layer="2132" from-port="2" to-layer="2309" to-port="0" />
		<edge from-layer="2132" from-port="2" to-layer="2133" to-port="1" />
		<edge from-layer="2133" from-port="2" to-layer="2135" to-port="0" />
		<edge from-layer="2134" from-port="0" to-layer="2135" to-port="1" />
		<edge from-layer="2135" from-port="2" to-layer="2137" to-port="0" />
		<edge from-layer="2136" from-port="0" to-layer="2137" to-port="1" />
		<edge from-layer="2137" from-port="2" to-layer="2146" to-port="0" />
		<edge from-layer="2138" from-port="0" to-layer="2139" to-port="0" />
		<edge from-layer="2139" from-port="1" to-layer="2142" to-port="0" />
		<edge from-layer="2140" from-port="0" to-layer="2141" to-port="0" />
		<edge from-layer="2141" from-port="1" to-layer="2142" to-port="1" />
		<edge from-layer="2142" from-port="2" to-layer="2144" to-port="0" />
		<edge from-layer="2143" from-port="0" to-layer="2144" to-port="1" />
		<edge from-layer="2144" from-port="2" to-layer="2145" to-port="0" />
		<edge from-layer="2145" from-port="1" to-layer="2146" to-port="1" />
		<edge from-layer="2146" from-port="2" to-layer="2149" to-port="0" />
		<edge from-layer="2147" from-port="0" to-layer="2148" to-port="0" />
		<edge from-layer="2148" from-port="1" to-layer="2149" to-port="1" />
		<edge from-layer="2149" from-port="2" to-layer="2150" to-port="0" />
		<edge from-layer="2150" from-port="2" to-layer="2152" to-port="0" />
		<edge from-layer="2151" from-port="0" to-layer="2152" to-port="1" />
		<edge from-layer="2152" from-port="2" to-layer="2155" to-port="0" />
		<edge from-layer="2153" from-port="0" to-layer="2154" to-port="0" />
		<edge from-layer="2154" from-port="1" to-layer="2155" to-port="1" />
		<edge from-layer="2155" from-port="2" to-layer="2158" to-port="0" />
		<edge from-layer="2156" from-port="0" to-layer="2157" to-port="0" />
		<edge from-layer="2157" from-port="1" to-layer="2158" to-port="1" />
		<edge from-layer="2158" from-port="2" to-layer="2230" to-port="1" />
		<edge from-layer="2158" from-port="2" to-layer="2167" to-port="0" />
		<edge from-layer="2159" from-port="0" to-layer="2160" to-port="0" />
		<edge from-layer="2160" from-port="1" to-layer="2163" to-port="0" />
		<edge from-layer="2161" from-port="0" to-layer="2162" to-port="0" />
		<edge from-layer="2162" from-port="1" to-layer="2163" to-port="1" />
		<edge from-layer="2163" from-port="2" to-layer="2165" to-port="0" />
		<edge from-layer="2164" from-port="0" to-layer="2165" to-port="1" />
		<edge from-layer="2165" from-port="2" to-layer="2166" to-port="0" />
		<edge from-layer="2166" from-port="1" to-layer="2167" to-port="1" />
		<edge from-layer="2167" from-port="2" to-layer="2170" to-port="0" />
		<edge from-layer="2168" from-port="0" to-layer="2169" to-port="0" />
		<edge from-layer="2169" from-port="1" to-layer="2170" to-port="1" />
		<edge from-layer="2170" from-port="2" to-layer="2172" to-port="0" />
		<edge from-layer="2171" from-port="0" to-layer="2172" to-port="1" />
		<edge from-layer="2172" from-port="2" to-layer="2174" to-port="0" />
		<edge from-layer="2173" from-port="0" to-layer="2174" to-port="1" />
		<edge from-layer="2174" from-port="2" to-layer="2191" to-port="0" />
		<edge from-layer="2175" from-port="0" to-layer="2176" to-port="0" />
		<edge from-layer="2176" from-port="1" to-layer="2179" to-port="0" />
		<edge from-layer="2177" from-port="0" to-layer="2178" to-port="0" />
		<edge from-layer="2178" from-port="1" to-layer="2179" to-port="1" />
		<edge from-layer="2179" from-port="2" to-layer="2181" to-port="0" />
		<edge from-layer="2180" from-port="0" to-layer="2181" to-port="1" />
		<edge from-layer="2181" from-port="2" to-layer="2182" to-port="0" />
		<edge from-layer="2182" from-port="1" to-layer="2183" to-port="1" />
		<edge from-layer="2183" from-port="2" to-layer="2186" to-port="0" />
		<edge from-layer="2184" from-port="0" to-layer="2185" to-port="0" />
		<edge from-layer="2185" from-port="1" to-layer="2186" to-port="1" />
		<edge from-layer="2186" from-port="2" to-layer="2188" to-port="0" />
		<edge from-layer="2187" from-port="0" to-layer="2188" to-port="1" />
		<edge from-layer="2188" from-port="2" to-layer="2190" to-port="0" />
		<edge from-layer="2189" from-port="0" to-layer="2190" to-port="1" />
		<edge from-layer="2190" from-port="2" to-layer="2191" to-port="1" />
		<edge from-layer="2191" from-port="2" to-layer="2194" to-port="0" />
		<edge from-layer="2192" from-port="0" to-layer="2193" to-port="0" />
		<edge from-layer="2193" from-port="1" to-layer="2194" to-port="1" />
		<edge from-layer="2194" from-port="2" to-layer="2195" to-port="0" />
		<edge from-layer="2195" from-port="2" to-layer="2196" to-port="0" />
		<edge from-layer="2196" from-port="1" to-layer="2213" to-port="0" />
		<edge from-layer="2197" from-port="0" to-layer="2198" to-port="0" />
		<edge from-layer="2198" from-port="1" to-layer="2201" to-port="0" />
		<edge from-layer="2199" from-port="0" to-layer="2200" to-port="0" />
		<edge from-layer="2200" from-port="1" to-layer="2201" to-port="1" />
		<edge from-layer="2201" from-port="2" to-layer="2203" to-port="0" />
		<edge from-layer="2202" from-port="0" to-layer="2203" to-port="1" />
		<edge from-layer="2203" from-port="2" to-layer="2204" to-port="0" />
		<edge from-layer="2204" from-port="1" to-layer="2205" to-port="1" />
		<edge from-layer="2205" from-port="2" to-layer="2208" to-port="0" />
		<edge from-layer="2206" from-port="0" to-layer="2207" to-port="0" />
		<edge from-layer="2207" from-port="1" to-layer="2208" to-port="1" />
		<edge from-layer="2208" from-port="2" to-layer="2210" to-port="0" />
		<edge from-layer="2209" from-port="0" to-layer="2210" to-port="1" />
		<edge from-layer="2210" from-port="2" to-layer="2212" to-port="0" />
		<edge from-layer="2211" from-port="0" to-layer="2212" to-port="1" />
		<edge from-layer="2212" from-port="2" to-layer="2213" to-port="1" />
		<edge from-layer="2213" from-port="2" to-layer="2215" to-port="0" />
		<edge from-layer="2214" from-port="0" to-layer="2215" to-port="1" />
		<edge from-layer="2215" from-port="2" to-layer="2217" to-port="0" />
		<edge from-layer="2216" from-port="0" to-layer="2217" to-port="1" />
		<edge from-layer="2217" from-port="2" to-layer="2226" to-port="0" />
		<edge from-layer="2218" from-port="0" to-layer="2219" to-port="0" />
		<edge from-layer="2219" from-port="1" to-layer="2222" to-port="0" />
		<edge from-layer="2220" from-port="0" to-layer="2221" to-port="0" />
		<edge from-layer="2221" from-port="1" to-layer="2222" to-port="1" />
		<edge from-layer="2222" from-port="2" to-layer="2224" to-port="0" />
		<edge from-layer="2223" from-port="0" to-layer="2224" to-port="1" />
		<edge from-layer="2224" from-port="2" to-layer="2225" to-port="0" />
		<edge from-layer="2225" from-port="1" to-layer="2226" to-port="1" />
		<edge from-layer="2226" from-port="2" to-layer="2229" to-port="0" />
		<edge from-layer="2227" from-port="0" to-layer="2228" to-port="0" />
		<edge from-layer="2228" from-port="1" to-layer="2229" to-port="1" />
		<edge from-layer="2229" from-port="2" to-layer="2230" to-port="0" />
		<edge from-layer="2230" from-port="2" to-layer="2232" to-port="0" />
		<edge from-layer="2231" from-port="0" to-layer="2232" to-port="1" />
		<edge from-layer="2232" from-port="2" to-layer="2235" to-port="0" />
		<edge from-layer="2233" from-port="0" to-layer="2234" to-port="0" />
		<edge from-layer="2234" from-port="1" to-layer="2235" to-port="1" />
		<edge from-layer="2235" from-port="2" to-layer="2238" to-port="0" />
		<edge from-layer="2236" from-port="0" to-layer="2237" to-port="0" />
		<edge from-layer="2237" from-port="1" to-layer="2238" to-port="1" />
		<edge from-layer="2238" from-port="2" to-layer="2247" to-port="0" />
		<edge from-layer="2238" from-port="2" to-layer="2264" to-port="1" />
		<edge from-layer="2239" from-port="0" to-layer="2240" to-port="0" />
		<edge from-layer="2240" from-port="1" to-layer="2243" to-port="0" />
		<edge from-layer="2241" from-port="0" to-layer="2242" to-port="0" />
		<edge from-layer="2242" from-port="1" to-layer="2243" to-port="1" />
		<edge from-layer="2243" from-port="2" to-layer="2245" to-port="0" />
		<edge from-layer="2244" from-port="0" to-layer="2245" to-port="1" />
		<edge from-layer="2245" from-port="2" to-layer="2246" to-port="0" />
		<edge from-layer="2246" from-port="1" to-layer="2247" to-port="1" />
		<edge from-layer="2247" from-port="2" to-layer="2250" to-port="0" />
		<edge from-layer="2248" from-port="0" to-layer="2249" to-port="0" />
		<edge from-layer="2249" from-port="1" to-layer="2250" to-port="1" />
		<edge from-layer="2250" from-port="2" to-layer="2251" to-port="0" />
		<edge from-layer="2251" from-port="1" to-layer="2260" to-port="0" />
		<edge from-layer="2252" from-port="0" to-layer="2253" to-port="0" />
		<edge from-layer="2253" from-port="1" to-layer="2256" to-port="0" />
		<edge from-layer="2254" from-port="0" to-layer="2255" to-port="0" />
		<edge from-layer="2255" from-port="1" to-layer="2256" to-port="1" />
		<edge from-layer="2256" from-port="2" to-layer="2258" to-port="0" />
		<edge from-layer="2257" from-port="0" to-layer="2258" to-port="1" />
		<edge from-layer="2258" from-port="2" to-layer="2259" to-port="0" />
		<edge from-layer="2259" from-port="1" to-layer="2260" to-port="1" />
		<edge from-layer="2260" from-port="2" to-layer="2263" to-port="0" />
		<edge from-layer="2261" from-port="0" to-layer="2262" to-port="0" />
		<edge from-layer="2262" from-port="1" to-layer="2263" to-port="1" />
		<edge from-layer="2263" from-port="2" to-layer="2264" to-port="0" />
		<edge from-layer="2264" from-port="2" to-layer="2266" to-port="0" />
		<edge from-layer="2265" from-port="0" to-layer="2266" to-port="1" />
		<edge from-layer="2266" from-port="2" to-layer="2269" to-port="0" />
		<edge from-layer="2267" from-port="0" to-layer="2268" to-port="0" />
		<edge from-layer="2268" from-port="1" to-layer="2269" to-port="1" />
		<edge from-layer="2269" from-port="2" to-layer="2272" to-port="0" />
		<edge from-layer="2270" from-port="0" to-layer="2271" to-port="0" />
		<edge from-layer="2271" from-port="1" to-layer="2272" to-port="1" />
		<edge from-layer="2272" from-port="2" to-layer="2370" to-port="1" />
		<edge from-layer="2272" from-port="2" to-layer="2339" to-port="0" />
		<edge from-layer="2272" from-port="2" to-layer="2281" to-port="0" />
		<edge from-layer="2272" from-port="2" to-layer="2299" to-port="0" />
		<edge from-layer="2273" from-port="0" to-layer="2274" to-port="0" />
		<edge from-layer="2274" from-port="1" to-layer="2277" to-port="0" />
		<edge from-layer="2275" from-port="0" to-layer="2276" to-port="0" />
		<edge from-layer="2276" from-port="1" to-layer="2277" to-port="1" />
		<edge from-layer="2277" from-port="2" to-layer="2279" to-port="0" />
		<edge from-layer="2278" from-port="0" to-layer="2279" to-port="1" />
		<edge from-layer="2279" from-port="2" to-layer="2280" to-port="0" />
		<edge from-layer="2280" from-port="1" to-layer="2281" to-port="1" />
		<edge from-layer="2281" from-port="2" to-layer="2284" to-port="0" />
		<edge from-layer="2282" from-port="0" to-layer="2283" to-port="0" />
		<edge from-layer="2283" from-port="1" to-layer="2284" to-port="1" />
		<edge from-layer="2284" from-port="2" to-layer="2286" to-port="0" />
		<edge from-layer="2285" from-port="0" to-layer="2286" to-port="1" />
		<edge from-layer="2286" from-port="2" to-layer="2288" to-port="0" />
		<edge from-layer="2287" from-port="0" to-layer="2288" to-port="1" />
		<edge from-layer="2288" from-port="2" to-layer="2289" to-port="1" />
		<edge from-layer="2289" from-port="2" to-layer="2353" to-port="1" />
		<edge from-layer="2289" from-port="2" to-layer="2290" to-port="0" />
		<edge from-layer="2291" from-port="0" to-layer="2292" to-port="0" />
		<edge from-layer="2292" from-port="1" to-layer="2295" to-port="0" />
		<edge from-layer="2293" from-port="0" to-layer="2294" to-port="0" />
		<edge from-layer="2294" from-port="1" to-layer="2295" to-port="1" />
		<edge from-layer="2295" from-port="2" to-layer="2297" to-port="0" />
		<edge from-layer="2296" from-port="0" to-layer="2297" to-port="1" />
		<edge from-layer="2297" from-port="2" to-layer="2298" to-port="0" />
		<edge from-layer="2298" from-port="1" to-layer="2299" to-port="1" />
		<edge from-layer="2299" from-port="2" to-layer="2302" to-port="0" />
		<edge from-layer="2300" from-port="0" to-layer="2301" to-port="0" />
		<edge from-layer="2301" from-port="1" to-layer="2302" to-port="1" />
		<edge from-layer="2302" from-port="2" to-layer="2304" to-port="0" />
		<edge from-layer="2303" from-port="0" to-layer="2304" to-port="1" />
		<edge from-layer="2304" from-port="2" to-layer="2306" to-port="0" />
		<edge from-layer="2305" from-port="0" to-layer="2306" to-port="1" />
		<edge from-layer="2306" from-port="2" to-layer="2307" to-port="1" />
		<edge from-layer="2307" from-port="2" to-layer="2308" to-port="0" />
		<edge from-layer="2307" from-port="2" to-layer="2347" to-port="1" />
		<edge from-layer="2331" from-port="0" to-layer="2332" to-port="0" />
		<edge from-layer="2332" from-port="1" to-layer="2335" to-port="0" />
		<edge from-layer="2333" from-port="0" to-layer="2334" to-port="0" />
		<edge from-layer="2334" from-port="1" to-layer="2335" to-port="1" />
		<edge from-layer="2335" from-port="2" to-layer="2337" to-port="0" />
		<edge from-layer="2336" from-port="0" to-layer="2337" to-port="1" />
		<edge from-layer="2337" from-port="2" to-layer="2338" to-port="0" />
		<edge from-layer="2338" from-port="1" to-layer="2339" to-port="1" />
		<edge from-layer="2339" from-port="2" to-layer="2342" to-port="0" />
		<edge from-layer="2340" from-port="0" to-layer="2341" to-port="0" />
		<edge from-layer="2341" from-port="1" to-layer="2342" to-port="1" />
		<edge from-layer="2342" from-port="2" to-layer="2344" to-port="0" />
		<edge from-layer="2343" from-port="0" to-layer="2344" to-port="1" />
		<edge from-layer="2344" from-port="2" to-layer="2346" to-port="0" />
		<edge from-layer="2345" from-port="0" to-layer="2346" to-port="1" />
		<edge from-layer="2346" from-port="2" to-layer="2347" to-port="0" />
		<edge from-layer="2347" from-port="2" to-layer="2350" to-port="0" />
		<edge from-layer="2348" from-port="0" to-layer="2349" to-port="0" />
		<edge from-layer="2349" from-port="1" to-layer="2350" to-port="1" />
		<edge from-layer="2350" from-port="2" to-layer="2351" to-port="0" />
		<edge from-layer="2351" from-port="2" to-layer="2352" to-port="0" />
		<edge from-layer="2352" from-port="1" to-layer="2353" to-port="0" />
		<edge from-layer="2353" from-port="2" to-layer="2355" to-port="0" />
		<edge from-layer="2354" from-port="0" to-layer="2355" to-port="1" />
		<edge from-layer="2355" from-port="2" to-layer="2357" to-port="0" />
		<edge from-layer="2356" from-port="0" to-layer="2357" to-port="1" />
		<edge from-layer="2357" from-port="2" to-layer="2366" to-port="0" />
		<edge from-layer="2358" from-port="0" to-layer="2359" to-port="0" />
		<edge from-layer="2359" from-port="1" to-layer="2362" to-port="0" />
		<edge from-layer="2360" from-port="0" to-layer="2361" to-port="0" />
		<edge from-layer="2361" from-port="1" to-layer="2362" to-port="1" />
		<edge from-layer="2362" from-port="2" to-layer="2364" to-port="0" />
		<edge from-layer="2363" from-port="0" to-layer="2364" to-port="1" />
		<edge from-layer="2364" from-port="2" to-layer="2365" to-port="0" />
		<edge from-layer="2365" from-port="1" to-layer="2366" to-port="1" />
		<edge from-layer="2366" from-port="2" to-layer="2369" to-port="0" />
		<edge from-layer="2367" from-port="0" to-layer="2368" to-port="0" />
		<edge from-layer="2368" from-port="1" to-layer="2369" to-port="1" />
		<edge from-layer="2369" from-port="2" to-layer="2370" to-port="0" />
		<edge from-layer="2370" from-port="2" to-layer="2372" to-port="0" />
		<edge from-layer="2371" from-port="0" to-layer="2372" to-port="1" />
		<edge from-layer="2372" from-port="2" to-layer="2375" to-port="0" />
		<edge from-layer="2373" from-port="0" to-layer="2374" to-port="0" />
		<edge from-layer="2374" from-port="1" to-layer="2375" to-port="1" />
		<edge from-layer="2375" from-port="2" to-layer="2378" to-port="0" />
		<edge from-layer="2376" from-port="0" to-layer="2377" to-port="0" />
		<edge from-layer="2377" from-port="1" to-layer="2378" to-port="1" />
		<edge from-layer="2378" from-port="2" to-layer="2450" to-port="1" />
		<edge from-layer="2378" from-port="2" to-layer="2387" to-port="0" />
		<edge from-layer="2379" from-port="0" to-layer="2380" to-port="0" />
		<edge from-layer="2380" from-port="1" to-layer="2383" to-port="0" />
		<edge from-layer="2381" from-port="0" to-layer="2382" to-port="0" />
		<edge from-layer="2382" from-port="1" to-layer="2383" to-port="1" />
		<edge from-layer="2383" from-port="2" to-layer="2385" to-port="0" />
		<edge from-layer="2384" from-port="0" to-layer="2385" to-port="1" />
		<edge from-layer="2385" from-port="2" to-layer="2386" to-port="0" />
		<edge from-layer="2386" from-port="1" to-layer="2387" to-port="1" />
		<edge from-layer="2387" from-port="2" to-layer="2390" to-port="0" />
		<edge from-layer="2388" from-port="0" to-layer="2389" to-port="0" />
		<edge from-layer="2389" from-port="1" to-layer="2390" to-port="1" />
		<edge from-layer="2390" from-port="2" to-layer="2392" to-port="0" />
		<edge from-layer="2391" from-port="0" to-layer="2392" to-port="1" />
		<edge from-layer="2392" from-port="2" to-layer="2394" to-port="0" />
		<edge from-layer="2393" from-port="0" to-layer="2394" to-port="1" />
		<edge from-layer="2394" from-port="2" to-layer="2411" to-port="0" />
		<edge from-layer="2395" from-port="0" to-layer="2396" to-port="0" />
		<edge from-layer="2396" from-port="1" to-layer="2399" to-port="0" />
		<edge from-layer="2397" from-port="0" to-layer="2398" to-port="0" />
		<edge from-layer="2398" from-port="1" to-layer="2399" to-port="1" />
		<edge from-layer="2399" from-port="2" to-layer="2401" to-port="0" />
		<edge from-layer="2400" from-port="0" to-layer="2401" to-port="1" />
		<edge from-layer="2401" from-port="2" to-layer="2402" to-port="0" />
		<edge from-layer="2402" from-port="1" to-layer="2403" to-port="1" />
		<edge from-layer="2403" from-port="2" to-layer="2406" to-port="0" />
		<edge from-layer="2404" from-port="0" to-layer="2405" to-port="0" />
		<edge from-layer="2405" from-port="1" to-layer="2406" to-port="1" />
		<edge from-layer="2406" from-port="2" to-layer="2408" to-port="0" />
		<edge from-layer="2407" from-port="0" to-layer="2408" to-port="1" />
		<edge from-layer="2408" from-port="2" to-layer="2410" to-port="0" />
		<edge from-layer="2409" from-port="0" to-layer="2410" to-port="1" />
		<edge from-layer="2410" from-port="2" to-layer="2411" to-port="1" />
		<edge from-layer="2411" from-port="2" to-layer="2414" to-port="0" />
		<edge from-layer="2412" from-port="0" to-layer="2413" to-port="0" />
		<edge from-layer="2413" from-port="1" to-layer="2414" to-port="1" />
		<edge from-layer="2414" from-port="2" to-layer="2415" to-port="0" />
		<edge from-layer="2415" from-port="2" to-layer="2416" to-port="0" />
		<edge from-layer="2416" from-port="1" to-layer="2433" to-port="0" />
		<edge from-layer="2417" from-port="0" to-layer="2418" to-port="0" />
		<edge from-layer="2418" from-port="1" to-layer="2421" to-port="0" />
		<edge from-layer="2419" from-port="0" to-layer="2420" to-port="0" />
		<edge from-layer="2420" from-port="1" to-layer="2421" to-port="1" />
		<edge from-layer="2421" from-port="2" to-layer="2423" to-port="0" />
		<edge from-layer="2422" from-port="0" to-layer="2423" to-port="1" />
		<edge from-layer="2423" from-port="2" to-layer="2424" to-port="0" />
		<edge from-layer="2424" from-port="1" to-layer="2425" to-port="1" />
		<edge from-layer="2425" from-port="2" to-layer="2428" to-port="0" />
		<edge from-layer="2426" from-port="0" to-layer="2427" to-port="0" />
		<edge from-layer="2427" from-port="1" to-layer="2428" to-port="1" />
		<edge from-layer="2428" from-port="2" to-layer="2430" to-port="0" />
		<edge from-layer="2429" from-port="0" to-layer="2430" to-port="1" />
		<edge from-layer="2430" from-port="2" to-layer="2432" to-port="0" />
		<edge from-layer="2431" from-port="0" to-layer="2432" to-port="1" />
		<edge from-layer="2432" from-port="2" to-layer="2433" to-port="1" />
		<edge from-layer="2433" from-port="2" to-layer="2435" to-port="0" />
		<edge from-layer="2434" from-port="0" to-layer="2435" to-port="1" />
		<edge from-layer="2435" from-port="2" to-layer="2437" to-port="0" />
		<edge from-layer="2436" from-port="0" to-layer="2437" to-port="1" />
		<edge from-layer="2437" from-port="2" to-layer="2446" to-port="0" />
		<edge from-layer="2438" from-port="0" to-layer="2439" to-port="0" />
		<edge from-layer="2439" from-port="1" to-layer="2442" to-port="0" />
		<edge from-layer="2440" from-port="0" to-layer="2441" to-port="0" />
		<edge from-layer="2441" from-port="1" to-layer="2442" to-port="1" />
		<edge from-layer="2442" from-port="2" to-layer="2444" to-port="0" />
		<edge from-layer="2443" from-port="0" to-layer="2444" to-port="1" />
		<edge from-layer="2444" from-port="2" to-layer="2445" to-port="0" />
		<edge from-layer="2445" from-port="1" to-layer="2446" to-port="1" />
		<edge from-layer="2446" from-port="2" to-layer="2449" to-port="0" />
		<edge from-layer="2447" from-port="0" to-layer="2448" to-port="0" />
		<edge from-layer="2448" from-port="1" to-layer="2449" to-port="1" />
		<edge from-layer="2449" from-port="2" to-layer="2450" to-port="0" />
		<edge from-layer="2450" from-port="2" to-layer="2452" to-port="0" />
		<edge from-layer="2451" from-port="0" to-layer="2452" to-port="1" />
		<edge from-layer="2452" from-port="2" to-layer="2455" to-port="0" />
		<edge from-layer="2453" from-port="0" to-layer="2454" to-port="0" />
		<edge from-layer="2454" from-port="1" to-layer="2455" to-port="1" />
		<edge from-layer="2455" from-port="2" to-layer="2458" to-port="0" />
		<edge from-layer="2456" from-port="0" to-layer="2457" to-port="0" />
		<edge from-layer="2457" from-port="1" to-layer="2458" to-port="1" />
		<edge from-layer="2458" from-port="2" to-layer="2484" to-port="1" />
		<edge from-layer="2458" from-port="2" to-layer="2467" to-port="0" />
		<edge from-layer="2459" from-port="0" to-layer="2460" to-port="0" />
		<edge from-layer="2460" from-port="1" to-layer="2463" to-port="0" />
		<edge from-layer="2461" from-port="0" to-layer="2462" to-port="0" />
		<edge from-layer="2462" from-port="1" to-layer="2463" to-port="1" />
		<edge from-layer="2463" from-port="2" to-layer="2465" to-port="0" />
		<edge from-layer="2464" from-port="0" to-layer="2465" to-port="1" />
		<edge from-layer="2465" from-port="2" to-layer="2466" to-port="0" />
		<edge from-layer="2466" from-port="1" to-layer="2467" to-port="1" />
		<edge from-layer="2467" from-port="2" to-layer="2470" to-port="0" />
		<edge from-layer="2468" from-port="0" to-layer="2469" to-port="0" />
		<edge from-layer="2469" from-port="1" to-layer="2470" to-port="1" />
		<edge from-layer="2470" from-port="2" to-layer="2471" to-port="0" />
		<edge from-layer="2471" from-port="1" to-layer="2480" to-port="0" />
		<edge from-layer="2472" from-port="0" to-layer="2473" to-port="0" />
		<edge from-layer="2473" from-port="1" to-layer="2476" to-port="0" />
		<edge from-layer="2474" from-port="0" to-layer="2475" to-port="0" />
		<edge from-layer="2475" from-port="1" to-layer="2476" to-port="1" />
		<edge from-layer="2476" from-port="2" to-layer="2478" to-port="0" />
		<edge from-layer="2477" from-port="0" to-layer="2478" to-port="1" />
		<edge from-layer="2478" from-port="2" to-layer="2479" to-port="0" />
		<edge from-layer="2479" from-port="1" to-layer="2480" to-port="1" />
		<edge from-layer="2480" from-port="2" to-layer="2483" to-port="0" />
		<edge from-layer="2481" from-port="0" to-layer="2482" to-port="0" />
		<edge from-layer="2482" from-port="1" to-layer="2483" to-port="1" />
		<edge from-layer="2483" from-port="2" to-layer="2484" to-port="0" />
		<edge from-layer="2484" from-port="2" to-layer="2486" to-port="0" />
		<edge from-layer="2485" from-port="0" to-layer="2486" to-port="1" />
		<edge from-layer="2486" from-port="2" to-layer="2489" to-port="0" />
		<edge from-layer="2487" from-port="0" to-layer="2488" to-port="0" />
		<edge from-layer="2488" from-port="1" to-layer="2489" to-port="1" />
		<edge from-layer="2489" from-port="2" to-layer="2492" to-port="0" />
		<edge from-layer="2490" from-port="0" to-layer="2491" to-port="0" />
		<edge from-layer="2491" from-port="1" to-layer="2492" to-port="1" />
		<edge from-layer="2492" from-port="2" to-layer="2501" to-port="0" />
		<edge from-layer="2493" from-port="0" to-layer="2494" to-port="0" />
		<edge from-layer="2494" from-port="1" to-layer="2497" to-port="0" />
		<edge from-layer="2495" from-port="0" to-layer="2496" to-port="0" />
		<edge from-layer="2496" from-port="1" to-layer="2497" to-port="1" />
		<edge from-layer="2497" from-port="2" to-layer="2499" to-port="0" />
		<edge from-layer="2498" from-port="0" to-layer="2499" to-port="1" />
		<edge from-layer="2499" from-port="2" to-layer="2500" to-port="0" />
		<edge from-layer="2500" from-port="1" to-layer="2501" to-port="1" />
		<edge from-layer="2501" from-port="2" to-layer="2504" to-port="0" />
		<edge from-layer="2502" from-port="0" to-layer="2503" to-port="0" />
		<edge from-layer="2503" from-port="1" to-layer="2504" to-port="1" />
		<edge from-layer="2504" from-port="2" to-layer="2505" to-port="0" />
		<edge from-layer="2505" from-port="1" to-layer="2507" to-port="0" />
		<edge from-layer="2506" from-port="0" to-layer="2507" to-port="1" />
		<edge from-layer="2507" from-port="2" to-layer="2510" to-port="0" />
		<edge from-layer="2508" from-port="0" to-layer="2509" to-port="0" />
		<edge from-layer="2509" from-port="1" to-layer="2510" to-port="1" />
		<edge from-layer="2510" from-port="2" to-layer="2513" to-port="0" />
		<edge from-layer="2511" from-port="0" to-layer="2512" to-port="0" />
		<edge from-layer="2512" from-port="1" to-layer="2513" to-port="1" />
		<edge from-layer="2513" from-port="2" to-layer="2522" to-port="0" />
		<edge from-layer="2514" from-port="0" to-layer="2515" to-port="0" />
		<edge from-layer="2515" from-port="1" to-layer="2518" to-port="0" />
		<edge from-layer="2516" from-port="0" to-layer="2517" to-port="0" />
		<edge from-layer="2517" from-port="1" to-layer="2518" to-port="1" />
		<edge from-layer="2518" from-port="2" to-layer="2520" to-port="0" />
		<edge from-layer="2519" from-port="0" to-layer="2520" to-port="1" />
		<edge from-layer="2520" from-port="2" to-layer="2521" to-port="0" />
		<edge from-layer="2521" from-port="1" to-layer="2522" to-port="1" />
		<edge from-layer="2522" from-port="2" to-layer="2525" to-port="0" />
		<edge from-layer="2523" from-port="0" to-layer="2524" to-port="0" />
		<edge from-layer="2524" from-port="1" to-layer="2525" to-port="1" />
		<edge from-layer="2525" from-port="2" to-layer="2526" to-port="0" />
	</edges>
	<rt_info>
		<Runtime_version value="2025.1.0-18503-6fec06580ab-releases/2025/1" />
		<conversion_parameters>
			<framework value="pytorch" />
			<is_python_object value="True" />
		</conversion_parameters>
		<nncf>
			<friendly_names_were_updated value="True" />
			<weight_compression>
				<advanced_parameters value="{'statistics_path': None, 'awq_params': {'subset_size': 32, 'percent_to_apply': 0.002, 'alpha_min': 0.0, 'alpha_max': 1.0, 'steps': 100}, 'scale_estimation_params': {'subset_size': 64, 'initial_steps': 5, 'scale_steps': 5, 'weight_penalty': -1.0}, 'gptq_params': {'damp_percent': 0.1, 'block_size': 128, 'subset_size': 128}, 'lora_correction_params': {'adapter_rank': 8, 'num_iterations': 3, 'apply_regularization': True, 'subset_size': 128, 'use_int8_adapters': True}, 'lora_adapter_rank': 256}" />
				<all_layers value="False" />
				<awq value="False" />
				<backup_mode value="int8_asym" />
				<compression_format value="dequantize" />
				<gptq value="False" />
				<group_size value="-1" />
				<ignored_scope value="[]" />
				<lora_correction value="False" />
				<mode value="int8_asym" />
				<ratio value="1" />
				<scale_estimation value="False" />
				<sensitivity_metric value="weight_quantization_error" />
			</weight_compression>
		</nncf>
	</rt_info>
</net>
